best_model_0.pth (torch, 140113 bytes, 6 tensors)

fc.1.weight f4 [128, 200]
00000000: 20f1 0e3c e893 ffbc b0ed 2cbc f27d 34bd
00000010: 1656 763d 0098 c8bb b4b5 313d 43aa 8fbd
00000020: 4c36 b43c b8f9 0a3d c57e 1dbd 6570 c1bb
00000030: 58e3 14be 70a4 89bd 154a abbc ba10 27bd
00000040: b645 d6bd f15a 25bd 7221 283d a842 4abd
00000050: d83a c1bc 1101 d1bd 3a0e 1dbe 5892 55be
00000060: aa6a 29be 51b8 b4be 6018 8dbe ad29 843e
00000070: 1935 8f3e e8ea cfbc e884 0bbd 0947 d03d
00000080: 9b16 283e f4a1 b13c 22d5 93bd 4012 13be
00000090: e15e 3b3e c6d7 253e aa29 fb3d 985e 073e
000000a0: 3b9f 99bd 319c dc3d 28af 09be de4a 883d
000000b0: 3ed2 89bc cdc7 71be 2378 213e f02c 253d
000000c0: 45e7 3a3c e264 063d 94d9 6dbd 4471 233e
000000d0: 103c f63d 0a42 89bd 7858 223e 4a28 a1ba
000000e0: 8f01 4b3d fa70 093e e660 99bc 0e76 203e
000000f0: aff3 92bd dfcf 1ebe 4eb0 84be a56e 10be
00000100: 9034 a53d 63e2 893d e7f3 81be 6aad c6bb
00000110: 5175 f2bd 1493 16bd ea69 97be 5ace 34be
00000120: ce68 e1bd 0255 343d f868 0b3e f3b4 bd3d
00000130: 11ca 383e e1a4 09be 66df 34bd 1cca 0bbe
00000140: 5a37 43be 69c5 60bc 0196 27bd 6242 fdbc
00000150: f1a4 ac3d 9e93 ee3c 3593 8bbc f78b 81bd
00000160: b060 ce3c 99ff 58bd 8628 b3bd e7f3 05be
00000170: 41c2 d6bd 0507 19be a767 44be 138d eebc
00000180: 5774 693e 7571 b0bd c4b7 d9bc 1d54 363d
00000190: 34fe 49bf 8a12 1e3e 0a15 02be daeb 9ebe
000001a0: 0b86 86be f897 55bd e610 e0bd 9749 343c
000001b0: 2c3d 5ebe c8a6 96be bef2 cb3e 5a84 523e
000001c0: 2370 b0bc 9200 babe 287b 2f3d 4767 b7be
000001d0: 4cc8 303d 887d a23d 9f2e f7bb 4530 43bd
000001e0: 03bb b23e cd17 fabe aa06 00bd 8ea2 98bc
000001f0: 7a86 ca3d e268 253e f0a6 d3bc ef8e 1f3c
00000200: ba8a 18bd ea00 83bd 00eb 0c3d 1c66 323e
00000210: 2256 6c3e 640a 833e 71b2 97be 30aa 3dbd
00000220: e6c0 e93d 4f43 e43d b3d4 bd3c da10 073e
00000230: dcff 25bd 699f 4d3e 53fa 3a3e f6af 99be
00000240: 07f4 913b f021 643b 717d 453d 635c 883d
00000250: efce 60be 4407 d33c a269 eebd d7be 473d
00000260: 3ede 073e 3f97 283e 8dd9 c1bc e730 91bd
00000270: a8ba d33d f116 02bd bfd6 a4bd 682b bcbe
00000280: 6d9f 6bbd ead4 f8bd 4355 cabe e897 a83d
00000290: 801a 64bd 7cd6 f1bb ea31 1ebc f601 1c3c
000002a0: cc26 89bb a098 20be c38c d5bc 661c 14be
000002b0: a245 c7bd ca6d aebd 940b b4bd 6939 edbd
000002c0: 97a0 38be 2902 c23d 9d85 113e a4d1 a4ba
000002d0: 47f7 ac3b ceda 84bc 3b3e fcbd 0b06 26bd
000002e0: b458 6bbd 18f9 e3bd 9218 7dbd bc79 1dbd
000002f0: ec3c b0be 51e0 4dbe 599a 0ebe 459d 2cbd
00000300: e48b 32be 26f7 12bd 5036 cebe 222e 9fbe
00000310: cf29 153d d139 8fbe 4a53 4ebe 7c26 c1be
00000320: 50a1 363c 0a47 383d dc3c d3bc 3cc3 3e3d
00000330: 5c0d b83c ca2f 6d3d 3e67 2fbd b09e 2abc
00000340: f65f 3a3d 2c45 65bd 88b9 1d3c d76d bbbd
00000350: 6a91 88be 9859 b1bc 1a74 fdbd 4f62 f6bc
00000360: ff49 5ebe a540 46be 8e06 84bd 702f eabb
00000370: e57a 433e 5fa7 8fbe 353f 56be 329a cebe
00000380: 677e bebe 1f1c 01bf ca4d 0ebf e176 c2be
00000390: 389e 03be 9231 60be 5d79 153c 1fe5 28be
000003a0: e871 2d3e de53 85be 3922 c0be ff9a 8dbe
000003b0: 9e79 64be 3a76 17be 6e90 21be 8318 c9bd
000003c0: 7c98 04be 93ce 39be 995e 4abe b05a f5be
000003d0: fc9c dbbe 7deb 5c3d ed64 7abc d733 86bd
000003e0: b44e a6bd ff7d 2a3e 1eea 253d c5cf 613b
000003f0: 3d28 18be 59b7 eebe 247f 0dbe c55e 453e
0.008724481 -0.031198457 -0.010554716 -0.044065423 0.06014069 -0.0061216354 0.043386176 -0.07014897
0.021998547 0.033929557 -0.038450975 -0.005903291 -0.1453985 -0.06720817 -0.020909349 -0.040787436
-0.10462515 -0.04036993 0.04104752 -0.049379975 -0.02358763 -0.102052815 -0.15337458 -0.20856607
-0.16544595 -0.35296872 -0.2755766 0.25813046 0.27970198 -0.025380567 -0.034062296 0.10169799
0.16414873 0.02168367 -0.07218386 -0.1436243 0.18297912 0.16195592 0.12263806 0.13219678
-0.07501074 0.10771979 -0.13445723 0.06654905 -0.016823884 -0.23611374 0.15768485 0.04032606
0.011407678 0.032811053 -0.058068827 0.15961176 0.12023175 -0.06702049 0.1585406 -0.0012295332
0.049562033 0.13422003 -0.018722963 0.15670034 -0.07175385 -0.15508984 -0.2591576 -0.14104708
0.08066666 0.06732633 -0.25381395 -0.006063153 -0.118387826 -0.03676136 -0.29572994 -0.17656842
-0.11006318 0.044026382 0.13614261 0.09263029 0.18045832 -0.13441803 -0.04415836 -0.13651317
-0.19064084 -0.013718941 -0.04091454 -0.030915443 0.084298976 0.029123124 -0.017037967 -0.06325524
0.025192589 -0.052978132 -0.087479636 -0.13081323 -0.1048627 -0.14944084 -0.19180165 -0.029120004
0.22798286 -0.0861539 -0.026576884 0.04451381 -0.7890351 0.1543676 -0.12703338 -0.31039315
-0.26274142 -0.05214688 -0.10940723 0.011003873 -0.21703023 -0.2942412 0.39833635 0.205583
-0.021537846 -0.3632856 0.04284206 -0.35820982 0.043159768 0.079340994 -0.0075433995 -0.047653455
0.34908304 -0.48846284 -0.031256355 -0.0186322 0.098889306 0.16153291 -0.025836438 0.009738668
-0.037241675 -0.06396659 0.0344038 0.17421764 0.23079732 0.25593865 -0.29628327 -0.04630488
0.114137456 0.111456506 0.023172712 0.13190022 -0.04052721 0.20080341 0.18259554 -0.3001706
0.004454139 0.0034810267 0.048215333 0.06658246 -0.21953939 0.0257603 -0.116412416 0.048765983
0.13268372 0.16463946 -0.023663307 -0.070894055 0.10338336 -0.03176016 -0.08048772 -0.36751866
-0.057525087 -0.12149985 -0.39518175 0.08232099 -0.055689335 -0.007380305 -0.009655455 0.009521952
-0.004185533 -0.15683222 -0.026068097 -0.14463958 -0.09730078 -0.08517034 -0.08791271 -0.11583216
-0.1803001 0.09473068 0.14211126 -0.0012574685 0.005278501 -0.016217615 -0.12316557 -0.040533107
-0.05745764 -0.11131495 -0.06179101 -0.038446173 -0.3442148 -0.20105101 -0.13926066 -0.04214217
-0.17436177 -0.03588023 -0.40275812 -0.31089884 0.036416825 -0.27973798 -0.2014896 -0.37724674
0.011146858 0.044989623 -0.025785856 0.04657291 0.022467308 0.057906903 -0.04282307 -0.010413811
0.04550167 -0.05597417 0.009626754 -0.0915181 -0.26673442 -0.021649167 -0.1237566 -0.030076174
-0.21707915 -0.19360597 -0.06446563 -0.0071467683 0.1908985 -0.28057382 -0.20922549 -0.40352017
-0.37205812 -0.50433534 -0.55587447 -0.37981322 -0.12853324 -0.2189391 0.009123174 -0.16493653
0.16937983 -0.26040548 -0.3752611 -0.27657315 -0.22312018 -0.14791194 -0.15777752 -0.09819128
-0.12948793 -0.18145208 -0.19762649 -0.47920752 -0.42893207 0.053935517 -0.015282852 -0.065528564
-0.0812048 0.16649626 0.040506475 0.0034456116 -0.148591 -0.46624258 -0.13818032 0.19274433

fc.1.bias f4 [128]
00000000: eb56 b7bd 6c2a 4ebc aa5e e5bd 865c 0c3e
00000010: 1fc0 99bd 4050 03be 3489 83bd fc51 95bd
00000020: 248c c0bd 662a e5bd 0663 4f3b 0897 41bb
00000030: bc50 95bd 28d1 cebd 6365 62bd 9cfb d1bd
00000040: bdfd cabc b9c1 9bbd 3d7e 98bc 7fba fbbb
00000050: 6c19 50be 21fb a3bd 246e 7b3d aee4 39bd
00000060: e34c 75bc da0f b43c 4779 80bd 3a07 e7bd
00000070: 1833 9fbd 77af 0bbe c2c0 a4bd d6d1 3fbe
00000080: 181d 133e 7f39 64bd 1520 a8bd e688 7abd
00000090: 70d8 10be b376 cfbd 6a8c e1bc 64b8 c6bd
000000a0: 824d a0bd c9e0 693d ac39 7bbd 8bca 8bbd
000000b0: 3a86 05bd d5fe b6bd 3367 12be 311e dbbd
000000c0: 8fbc bdbd 0efe efbd c8df 31bc b0a0 f7bd
000000d0: 0714 2ebc 2bdf f2bd 0e3c d0bd 4238 debd
000000e0: 1279 11be 67da 06be 289b cabd 796d c2bd
000000f0: 6173 debd 4d65 99bd 4b2a 8e3d 3c81 24bd
00000100: e894 f8bd 0bad 02be f9f5 2abe a85b c6bc
00000110: 2b49 c3bd b9cc c73c 0c4b 70bc 8890 e9bd
00000120: 8436 c6bd 68b4 70bd 4447 ddbd 66bc e7bd
00000130: fe32 cebd 0cc9 99bd 9c2c 42be 114c 0cbc
00000140: 79cd 1cbe b3fa a8bd 1ea1 debd f970 8ebd
00000150: e101 54bd fa0b c2bd c124 a6bd cf41 e93d
00000160: fabc b4bd c781 bfbd b7a6 b53d 4441 f1bd
00000170: 27d3 57be cbfe 9bbd 5503 c2bd 0761 a5be
00000180: 13a6 ab3d 25bd 92bd 65b6 c2bc 6de6 b3bd
00000190: b591 17be efb6 9cbd a85c 9abd 7ce3 29be
000001a0: bb57 85bd 8170 febd 1198 58be 508e 24be
000001b0: f481 37bc fc2c 29be 6b8a 0ebe 9ff6 1abe
000001c0: 35ff 64bc f22b 39be 287b 49bd f975 00be
000001d0: 5896 1cbd d146 ccbd 8501 823c 4fbd 9abd
000001e0: bc47 49bc 8717 02bb c337 1dbe ea91 c8bd
000001f0: aab7 6cbe f2dc a3bd dea4 b0bd c281 3ebd
-0.08952125 -0.012583356 -0.11199696 0.1370717 -0.07507347 -0.12823582 -0.06422654 -0.07291028
-0.0940173 -0.111897275 0.0031644716 -0.0029539485 -0.072907895 -0.10098487 -0.05527247 -0.10253069
-0.024779195 -0.07605309 -0.018614883 -0.007682144 -0.20322198 -0.080068834 0.061384335 -0.0453841
-0.0149719445 0.021980215 -0.06273132 -0.11280675 -0.07773417 -0.13641153 -0.08044578 -0.1873239
0.14366567 -0.055718895 -0.08209244 -0.061165713 -0.14145064 -0.10130062 -0.027532775 -0.097031385
-0.078272834 0.057099137 -0.061334297 -0.068257414 -0.03259871 -0.08935324 -0.1429718 -0.10699118
-0.0926448 -0.11718379 -0.010856576 -0.120911956 -0.010624892 -0.11858972 -0.101677045 -0.10850574
-0.14206341 -0.13169251 -0.09892875 -0.094935365 -0.108618505 -0.07490025 0.069416605 -0.04016231
-0.121377766 -0.12761323 -0.16695394 -0.024213627 -0.0953544 0.024389612 -0.01466633 -0.1140452
-0.09678367 -0.0587658 -0.108046085 -0.11315231 -0.1006832 -0.0750905 -0.1896233 -0.0085630575
-0.15312757 -0.08250942 -0.108705744 -0.069551416 -0.051759604 -0.094749406 -0.08112479 0.11389505
-0.08825107 -0.09350925 0.08869689 -0.117800266 -0.21076642 -0.07616957 -0.09473292 -0.32300588
0.083812855 -0.07164983 -0.023768613 -0.087841846 -0.14801677 -0.07652079 -0.07537204 -0.16590685
-0.06510874 -0.12423802 -0.21151759 -0.16069913 -0.011200417 -0.16521066 -0.1391999 -0.15133141
-0.013976862 -0.1808317 -0.049189717 -0.12545003 -0.038229316 -0.09974445 0.015869865 -0.07555639
-0.012285169 -0.001985045 -0.15353303 -0.09793456 -0.23116937 -0.08001126 -0.08625196 -0.046510465

fc.3.weight f4 [64, 128]
00000000: d805 24be c72f 5a3d 902e d1bc 12f8 8c3c
00000010: a2e4 eabc ed02 0abd 2fc6 103a 0275 7c3e
00000020: a38c 333c 50c2 a63d 6d6c 8e3d 4635 c83c
00000030: 0007 fe3c badf 30bd 2c5c 973b 588d c8bb
00000040: de3c a1bd 562b d43d d2c4 9a3d 3dbd 483d
00000050: 6b06 5dbd 752c 66bc f7b0 51bd de05 a5bd
00000060: 3a68 7dbc fda4 5abd 3e8c f33d b055 25be
00000070: 339e 343c e1cc c93d 2f76 aa3d 083f 013e
00000080: 013c 4d3d a60d 21bc 2517 a1bc ea56 703d
00000090: 0ac0 dc3d f063 613a 43a8 733d 9a0f 5b3d
000000a0: ad7a 5b3e bd60 aa3c c68f 403d d071 8a3d
000000b0: 5516 eebc bc09 8d3d 68cd 84bd 5c6e 97bd
000000c0: fc28 8f3d 352e d8bc 0037 603d 76ab a4bc
000000d0: 65d6 693c fd64 80ba 7cad 223d 834d 25bc
000000e0: 56c5 c23d 0fd9 473d 08be 653d 542e b4ba
000000f0: fa87 163e 8648 443d 4860 b7bd 97ad c73c
00000100: 59a6 2f3c 394a f3bc 5e42 b03c 2f2a eb3d
00000110: d11b cf3c 2329 b3bd a63a ff3b 8764 8e3d
00000120: a935 35bd 16ce 323d 4f04 d23b b415 bd3d
00000130: 0e98 53bd d3c9 26bd 867e 1ebe 0bb1 3dbd
00000140: cbb8 23bd 9907 6cbd 23c6 d93d c9f1 bf3d
00000150: f1c8 d7bd d7d7 a2bd eee5 0bbc c1e7 ac3d
00000160: 2a3f aebd 711b 9f3d e607 863d c115 74bd
00000170: 8636 98bd 167f 053e 1b25 023d 3a41 fcbd
00000180: 0797 e83d 9691 763d 375c 673c 478d b33d
00000190: 4eda 643d 5e7a 863d cd49 dfbd 93df 47bd
000001a0: f726 2dbd ec03 333b 8895 c3bd a8e2 a2bd
000001b0: a286 e2bd e9df e23d 3698 7d3d c1d3 893c
000001c0: 54bc c13c 3db8 cabd 045d 56bd 3224 823d
000001d0: 5a8b f93c a7e6 2abd ef2b 7e3d 8714 4b3b
000001e0: 2f7c 253d c759 55ba c11a 3dbd 9bc2 e93b
000001f0: 102b df3d 8e86 cdbc aae6 43bb eeb9 2e3c
00000200: 6875 393d f625 42bd 6b88 1abd 970f 18bd
00000210: ddd2 c9bd 65ca 28bd 97df 12be 7245 e63b
00000220: 6c41 94bc 69cd d0bd 8de1 97bd 02d4 aabc
00000230: 6f92 f23c 5f44 18bb 921c 88bc 3672 633d
00000240: cf99 b3bd e604 b4bd 81ba 09be 143e adbd
00000250: 6b00 a9bd 3464 90bb 9efa 96bd fafe 26bd
00000260: d4ae 473d ed7e bdbd e06d 183e ecec 14be
00000270: fad0 cebc 4c7f debc 7462 113e e6fb 2abe
00000280: 547d c4bb f3ba 02bd 5e60 80bd d507 1a3e
00000290: 54eb 4b3d 78e4 e5bb cc10 503d d730 683d
000002a0: 3f46 fe3d d119 83be 3860 c93d c800 31ba
000002b0: b05a 8dbe 5343 ca3c 5cbb 67bd 1bd0 303d
000002c0: 3f77 2bbd 7bfc b0be 58dd 2cbe adc1 1dbd
000002d0: 27d1 20bc 249d 6d3d 6eb8 a8bc d4cc 983b
000002e0: deae ef3b 8994 9b3d 2795 3e3d f872 aebd
000002f0: 50ca 193d 4d71 a4bc 86c5 853c bcd4 6a3c
00000300: 3712 84bd 8501 5dbd 1f02 243e aa66 d5bd
00000310: 4866 97bd ee1a 843b 536b b43b 5bc9 063c
00000320: a80b 943d 1db0 543c 53b3 0f3c 5c12 203e
00000330: f7df 5f3d 31f3 733d 1324 10bd 1c7f 1dbd
00000340: b83a cabc 28e8 17bd 39d6 543d 5a6a a73c
00000350: 616c 683d 9d2c 803d be4e 4f3d ec35 aebd
00000360: 3368 41be 67ec ddbd 7bc6 eabd 784e 023e
00000370: 2d7e cebd 79d2 2dbd c7a7 3e3d 5139 a0bd
00000380: 573c babb 32e0 0bbd 7b79 2dbd 49d9 a3bd
00000390: 15c0 e7bc 9c23 15bd 43ea 803c 0e34 31be
000003a0: eb07 68be 6a51 d73d 8207 20be 47de 0dbe
000003b0: 05a4 c5bc b534 cbbd d917 48bd 4c81 953d
000003c0: 1c51 3d3c 1e99 71bc 1854 44bd d4c6 11bd
000003d0: ec55 fb3d ac80 2e3d d19b 11be b7e1 82bd
000003e0: 9017 54be 0c34 00bd cb77 0a3d a255 1c3d
000003f0: b3e7 8cbd 8e47 a9bd 870d 353c c866 0f3d
-0.16017854 0.05326822 -0.025534898 0.017208133 -0.028673474 -0.033694196 0.0005522696 0.2465401
0.010958823 0.08142531 0.06954274 0.024439465 0.031009197 -0.043182112 0.004619142 -0.006120365
-0.078729376 0.10359828 0.07557072 0.049008597 -0.0539612 -0.014048685 -0.051194157 -0.0805776
-0.015466744 -0.05338 0.118919834 -0.16145968 0.011024046 0.09853531 0.08323323 0.12621701
0.050106052 -0.009829914 -0.019664356 0.058676638 0.10778816 0.00085979607 0.05948664 0.053481676
0.21433516 0.020798082 0.047012113 0.06759989 -0.029063383 0.06886622 -0.06484491 -0.07394096
0.06990239 -0.02638922 0.054739952 -0.02010129 0.014272307 -0.0009795722 0.03971623 -0.010089281
0.09510295 0.048790988 0.05608943 -0.0013746717 0.14700308 0.047920726 -0.08953911 0.024374766
0.010720813 -0.029698478 0.021516021 0.11482655 0.025281819 -0.087480806 0.007788974 0.06952768
-0.044240627 0.04365357 0.006409205 0.09232655 -0.051658683 -0.04071982 -0.15477952 -0.04631142
-0.039971154 -0.057624433 0.10633495 0.09372289 -0.105363734 -0.079513244 -0.008538706 0.08442641
-0.08508141 0.07768906 0.06544475 -0.05959106 -0.074322745 0.1303676 0.031773668 -0.123171285
0.11356931 0.060197435 0.014121107 0.08767181 0.055872254 0.065663084 -0.10902748 -0.0487972
-0.042273488 0.002731557 -0.09550005 -0.079533875 -0.110608354 0.11077864 0.061912738 0.016824605
0.023649372 -0.09898422 -0.0523348 0.0635456 0.030461956 -0.041723873 0.062053617 0.0030987577
0.040401634 -0.0008138683 -0.046168093 0.0071337945 0.108968854 -0.025088575 -0.0029892125 0.010664446
0.045277983 -0.047399484 -0.037727755 -0.037124243 -0.09854672 -0.041208643 -0.14343105 0.0070273215
-0.018097602 -0.10195429 -0.07416067 -0.020853046 0.02961084 -0.0023234112 -0.016615186 0.055528842
-0.08769571 -0.08789997 -0.13450052 -0.08459106 -0.08252033 -0.0044064764 -0.0737202 -0.04077051
0.048750713 -0.09252725 0.14885664 -0.14543504 -0.025246132 -0.02716031 0.14197713 -0.16697654
-0.0059963856 -0.03191657 -0.062683806 0.1504205 0.049784973 -0.007015761 0.05079727 0.056687202
0.12415742 -0.25605634 0.098328054 -0.00067521306 -0.27608252 0.024690306 -0.056575164 0.043167215
-0.04186177 -0.34567627 -0.16881311 -0.03851478 -0.009815491 0.05801119 -0.020595755 0.0046630893
0.007314547 0.0759669 0.04652896 -0.08518022 0.037546456 -0.020073557 0.016329538 0.014332946
-0.06448787 -0.053956527 0.16016434 -0.10419972 -0.073925555 0.0040315306 0.005505958 0.008226718
0.07228786 0.012981442 0.008770782 0.15632004 0.05465695 0.059558097 -0.035190653 -0.0384513
-0.024686202 -0.037086636 0.05196211 0.020436455 0.056743983 0.06258509 0.050612204 -0.085063785
-0.18887405 -0.10836106 -0.114636384 0.12725246 -0.1008266 -0.04243705 0.046546724 -0.07823432
-0.0056834626 -0.034149356 -0.04235218 -0.08000428 -0.028289834 -0.036410913 0.015736705 -0.17305014
-0.2265927 0.105135754 -0.15627864 -0.13854323 -0.024126062 -0.099221624 -0.048850868 0.07300052
0.0115549825 -0.014745979 -0.04793176 -0.035590008 0.12272248 0.04260318 -0.14219595 -0.06390708
-0.20712113 -0.031299636 0.03380565 0.038167603 -0.068801306 -0.08265601 0.011050588 0.03501013

fc.3.bias f4 [64]
00000000: 7449 053e 9487 3bbe 05c8 42be 01c7 32bb
00000010: 0c5e 223e f83d febd 7ebd 063e b39e 26be
00000020: 248f ec3c 7bb1 59bd bada 033e 93ff e7bd
00000030: b66a 3dbe 71b7 efbd 08df 26bd bae8 d3bd
00000040: 3a93 a73d dae7 61be 2cd8 3bbe 21d3 95bd
00000050: aba3 5fbe 0905 c7bd 69ca f23d caaa 44be
00000060: 74be 573c de42 5fbe a3d0 08be c653 debd
00000070: 4e1f b1bd 1bbb 39be 684f 2cbe 89bd 23be
00000080: 6a68 f6bd cfc0 e3bd 3db4 07be a721 8abd
00000090: 82cd 56be 0ed6 38be bf84 a8bd f6f4 5bbd
000000a0: 191d 9b3c 5302 3abe bd07 91be 0137 7bbe
000000b0: e801 30be 30d0 babd 1ca4 05be 7305 013d
000000c0: 7b7c 10be 99f7 09be 5674 643e 4606 07be
000000d0: 3cbd 81be 1180 88bd 1c84 f5bd e244 28be
000000e0: bbac fbbd 5991 aa3b c169 36be 34a4 54be
000000f0: 6570 fabb 4bcc 2ebe 893a 59be 63a5 11be
0.13016301 -0.18313438 -0.19021614 -0.002727926 0.15856189 -0.12414163 0.13158223 -0.16271476
0.028876849 -0.053147774 0.12876406 -0.11328044 -0.18497738 -0.117049105 -0.040740043 -0.103471234
0.08182378 -0.220611 -0.18344182 -0.0731566 -0.21839778 -0.09717757 0.11855013 -0.19205776
0.013167966 -0.21802852 -0.13360839 -0.10855822 -0.08648549 -0.18137781 -0.16827166 -0.1599027
-0.12031634 -0.1112076 -0.13252349 -0.067447 -0.20976833 -0.18050405 -0.08228444 -0.05370041
0.018934773 -0.18164949 -0.28326216 -0.24532701 -0.17188227 -0.0912174 -0.13050884 0.031499337
-0.14109986 -0.13473357 0.22310004 -0.13185987 -0.25339687 -0.06665052 -0.119880885 -0.16432527
-0.12288805 0.005205315 -0.1781378 -0.20765764 -0.007642793 -0.17070119 -0.21213736 -0.14223246

fc.5.weight f4 [4, 64]
00000000: c8ac 333d a0d9 20bc cba2 cbbc ce89 23bd
00000010: 3bf1 24bd a1e1 c7bc 3d25 7ebe 5404 28bb
00000020: 724d 3ebd d6fc 74bd 672c 8b3d 9d34 0dbd
00000030: 9a70 c0bd b5e5 70bb 969b bc3d 58af 333d
00000040: 1893 29bd a9c6 40bc 13c0 3fbd 27fd 26be
00000050: f649 6bbd 3f97 df3d 107d 3dbe 3def b53d
00000060: 39cf 243d 731c 4abe 975a 043e edd8 e93b
00000070: 9909 95be 42ed e53c 09f8 8c3d 5e9e cabd
00000080: 0108 e53c 3abe b83c 4f1e 88bc ba1a 503e
00000090: 124f cbbd 9bee 20bd 32b5 79bd 848e be3c
000000a0: fed0 d83c 1712 e1bc 62db 283d fe1f 4e3c
000000b0: f46f f93c d4d1 b43c b78c 943c a701 36bd
000000c0: ecc3 883b 0ff6 2a3d b274 47be 6dac 41be
000000d0: 66ad 253c 5aa7 1fbe 45b5 63bd 3b39 863d
000000e0: c0a7 57bc 26ef 243e 0d7e 263b 8d8f ecbc
000000f0: 9f87 c8bd ebfe 48bd c650 e8bd 0942 403d
00000100: 728d 5a3d 04a3 073d 41a7 a13d c753 a63d
00000110: 013e d0be 39f0 ffbd dc1e 5dbe 9404 003d
00000120: 3e77 a7bd be52 84bd a061 8d3d 48da 213d
00000130: 9a77 82bc 336f 813c c016 c7bd 19b5 a83c
00000140: a361 8c3d 7c2f 523d 0e28 403c a97e a8bb
00000150: ef6f 8fbd 9fd7 f93d 9ce6 23be f0c1 12bc
00000160: c419 b23c 4b5f 2abd aa33 98bd b3b4 0e3d
00000170: 8859 cabb 6035 843c 03c3 9c3d 7fa7 42bd
00000180: 4966 f8bc 3058 513d 32a9 a4bd 5be6 7a3d
00000190: db30 8cbd fcc0 a13b f42d 77bc 49ff e0bd
000001a0: 5698 833c 6ae2 393c c0a5 09bc a32f 83bc
000001b0: 03ea 02bc 386b 64bd ecaf 373d cd44 8b3d
000001c0: 5edf 16bd b12a 523d cea2 35be 578a 19bd
000001d0: 66cf 63bc 667b 03be 91e6 b5bc 3e72 2dbe
000001e0: 8033 103e e28d ba3d c82a 013e 5685 9cbd
000001f0: 2b2f 0fbe b45c a9bd 9102 3abd ab3b 223c
00000200: b278 25bc f227 b03d 6087 57bd f5fd 81bd
00000210: f0db 733e 8454 7ebd dd7e e1bc d22a 17bc
00000220: 13d4 5abd aee4 f23c 8a20 e73d 6ce7 8cbd
00000230: c820 5a3b f96d bbbc 57cd 9c3d a798 07be
00000240: 2a8a 36be acd7 21bd 470b 06bd a603 9a3c
00000250: 198a 3cbd 7c9c f13d c30d 01be 39ae 733d
00000260: 6a41 8f3c c48b 71bd 32f2 193d 32b6 4e3b
00000270: 713a 27bc ddcd abbc 2291 f7bc df3c 8abd
00000280: e68e 283d 0321 70bd 0753 58bc e978 333e
00000290: 32e2 a23c 3680 cabd 0998 2b3d 3165 44be
000002a0: 2db2 083c d468 c2bd 04a9 5c3c 3722 253d
000002b0: 59e6 86bd 2a70 7d3d f437 9f3c ebe7 b5bd
000002c0: ac8a 423d 20c6 633d dfe4 f7bd 380b b03d
000002d0: 33cf 88bc 5394 a8bc d042 febc 52c9 453d
000002e0: 9e27 d93d 921a c83d 1e8b dbbc deae cbbc
000002f0: 805a 00bc d6f9 57bd d11e 363e 3f7d 373c
00000300: 242d 7a3d d340 6cbc a91d c43d 9ba3 5db9
00000310: dbe8 78bd 1757 91bc ff7d fcbd 9a3e 75bd
00000320: c23f 8dbd 0600 e0bd 8474 783d d2d6 073b
00000330: 4c00 75bc facf bbbc d885 dabd f7f5 b03b
00000340: 8eef dfbd 43f7 01be ed81 eebc 1a24 b8bb
00000350: 1561 9abd 4fa5 003e f937 4b3d a13f ac3d
00000360: 86fe c63c 37c7 9dbd 1c7f fdbc cfa7 3abc
00000370: bcf7 c9bc 0f7f dbbc 515b a63d 424d ddbb
00000380: 4ab4 453d cbda fe3c af50 053e cb03 bf3c
00000390: 0ace ff3d 87a4 f23b d6de 67bd bdb4 213b
000003a0: b729 473c f80b f33c 294a a73d 15fa 973d
000003b0: 5135 7c3d 7f38 1bbd e8db 383c d4db febd
000003c0: c78e 5cbe 6105 873d 45a5 0dbe 74b0 95bc
000003d0: 4c66 d73a 9066 333d 286b cfbd c737 72bc
000003e0: 26c9 ca3d 15c8 373e c478 ef3d 1822 acbd
000003f0: fa4f 7ebc e1e0 61bd c8b5 29bc 95d1 c9bc
0.04386595 -0.009817511 -0.0248579 -0.039926343 -0.040269118 -0.02439958 -0.24818893 -0.0025637345
-0.046460576 -0.059811436 0.067955784 -0.034474004 -0.09396477 -0.003675801 0.09209363 0.043868393
-0.041400045 -0.011766114 -0.046814036 -0.16307507 -0.05744358 0.1091752 -0.18504739 0.08883522
0.040236685 -0.19737415 0.12925182 0.0071364553 -0.29108885 0.028067235 0.068832465 -0.098934874
0.027957918 0.022551645 -0.016616015 0.20322695 -0.09927191 -0.039290052 -0.060963817 0.023261316
0.026466843 -0.027474446 0.041224845 0.01258087 0.030448891 0.02207271 0.018133504 -0.04443517
0.0041737463 0.041738566 -0.1947811 -0.18913431 0.010112142 -0.15591183 -0.055592794 0.065538846
-0.013162553 0.16106853 0.0025404722 -0.028877044 -0.09791493 -0.049071234 -0.11343531 0.046937976
0.05335755 0.03311445 0.07893229 0.08121448 -0.40672305 -0.12496991 -0.21593803 0.031254366
-0.081770405 -0.06461094 0.06903386 0.03951481 -0.015926171 0.015800094 -0.09721136 0.020594167
0.0685456 0.051314816 0.0117283 -0.005142052 -0.070037715 0.121993296 -0.16005939 -0.008957371
0.021740802 -0.041594785 -0.07431729 0.034840297 -0.0061752237 0.016138732 0.07654383 -0.047523018
-0.03032221 0.051109493 -0.08040084 0.06125484 -0.06845256 0.0049363356 -0.01508664 -0.10986192
0.01606385 0.011345485 -0.008401334 -0.016013926 -0.007990363 -0.055766314 0.044845507 0.06800232
-0.036834113 0.051310245 -0.17737886 -0.037485447 -0.013904428 -0.12840042 -0.02220467 -0.16938111
0.14082146 0.09109093 0.12613976 -0.07642619 -0.13982837 -0.08269635 -0.045412604 0.009901921
-0.010099577 0.08601369 -0.052619338 -0.063472666 0.23814368 -0.06209232 -0.027526313 -0.009226518
-0.053424906 0.029650059 0.11285503 -0.06880078 0.00332837 -0.022879587 0.07656353 -0.13241826
-0.17826143 -0.03951232 -0.0327256 0.018800568 -0.046030138 0.11797425 -0.12602906 0.059492324
0.017487247 -0.05897118 0.03758449 0.0031541702 -0.010206805 -0.020972187 -0.030220572 -0.067498915
0.041151904 -0.058625232 -0.013203389 0.17526592 0.019883249 -0.098877355 0.04189304 -0.19179226
0.008343262 -0.09492651 0.013468031 0.040315833 -0.06586904 0.061874546 0.01943586 -0.088821255
0.04749553 0.05560887 -0.121042006 0.0859589 -0.016700363 -0.020578539 -0.031037718 0.048287697
0.106032595 0.09770693 -0.026799735 -0.024863657 -0.007834077 -0.052728496 0.17785193 0.011199295
0.061078206 -0.014419752 0.0957597 -0.0002113715 -0.060768943 -0.017741723 -0.12328719 -0.059874155
-0.068969265 -0.109375045 0.060657993 0.0020727408 -0.014953684 -0.02292632 -0.1067006 0.005400415
-0.10934363 -0.12691979 -0.029114688 -0.005619538 -0.07538048 0.1256306 0.049613927 0.08410574
0.024291288 -0.07704013 -0.0309444 -0.011392548 -0.024654262 -0.026793985 0.08122886 -0.0067535946
0.04826764 0.031110188 0.1301906 0.023317238 0.12490471 0.007404867 -0.056608997 0.0024674379
0.012155942 0.029668793 0.08168442 0.07420746 0.061574284 -0.037895676 0.0112828985 -0.12444273
-0.2153884 0.06592823 -0.13832577 -0.018272616 0.0016433685 0.043798983 -0.1012786 -0.014783806
0.09901647 0.17947419 0.11692956 -0.0840494 -0.015521998 -0.0551461 -0.010358281 -0.02463607

fc.5.bias f4 [4]
00000000: fbc7 f63d 9455 f33d 724c fc3d 125a f53d
0.12049862 0.11881557 0.12319268 0.1198007
