best_model.pth (torch, 140089 bytes, 6 tensors)

fc.1.weight f4 [128, 200]
0	0xbce8d89c	-0.0284236
1	0x3cbc98d0	0.023022085
2	0x3d8d6113	0.06903281
3	0x3c6c9a70	0.014441118
4	0xbd4557b4	-0.048179343
5	0xbc903450	-0.01760307
6	0xbb4955e0	-0.0030721352
7	0x3d027524	0.031849995
8	0xbd6c4e79	-0.057692025
9	0xbd5ae44e	-0.053440385
10	0xbd74564e	-0.05965262
11	0xbcff0ebc	-0.031134956
12	0xbd716899	-0.058937643
13	0x3d15eb78	0.036601514
14	0xbd70bc7a	-0.058773495
15	0x3d2a0bd4	0.041515186
16	0xbcd3f20a	-0.02587225
17	0xbd859ac2	-0.06523658
18	0xbd4c4efe	-0.04988002
19	0xbd656002	-0.055999763
20	0xbc7d008c	-0.015442025
21	0xbccc6ebe	-0.02495515
22	0x3d2defbe	0.042464964
23	0xbc6bbf88	-0.014388926
24	0x3ca19ff0	0.019729584
25	0x3d8175ef	0.06321322
26	0x3a7c2480	0.0009618476
27	0xbb172080	-0.0023060143
28	0x3c81ec20	0.015859663
29	0x3d7384ce	0.059452824
30	0x3d7d6d76	0.06187197
31	0xbcd18a14	-0.025578536
32	0xbd48edce	-0.049054913
33	0x3d4b4456	0.049625717
34	0xbd3a95d1	-0.045553032
35	0xbd8221de	-0.06354116
36	0x3d8dd075	0.06924526
37	0xb810c000	-3.451109e-05
38	0xbcbf9a24	-0.02338893
39	0xbd1a2e31	-0.037641708
40	0x3d6bf286	0.057604335
41	0xbca51dfa	-0.020155896
42	0xbd54926b	-0.051897448
43	0xbd810807	-0.06300359
44	0xbbdc1db0	-0.006717406
45	0x3c6b1738	0.0143487975
46	0xbd489f1f	-0.048979875
47	0xbcb97dde	-0.022643026
48	0x3c2bb428	0.010479964
49	0xbd8d7d35	-0.06908647
50	0x3d149ea2	0.036284097
51	0x3cb73364	0.022363372
52	0x3ca0ea04	0.019642837
53	0x3d1ed1fa	0.038774468
54	0xbd6ca5f6	-0.05777546
55	0xbd905b20	-0.07048631
56	0xbd6eb228	-0.05827537
57	0xbd8e5852	-0.069504395
58	0x3cbdea64	0.023183055
59	0xbd87b536	-0.0662636
60	0x3d7a5882	0.061119564
61	0xbc68b5ec	-0.01420353
62	0x3c8fbd44	0.017546304
63	0xbd161ce3	-0.036648642
64	0x3bff5d00	0.007793069
65	0x3bd0e120	0.0063744932
66	0xbd83c19c	-0.064334124
67	0x3c26e0a8	0.010185398
68	0x3d0ffde0	0.035154223
69	0xbd1de1dd	-0.038545478
70	0x3d4af10a	0.04954628
71	0xbcf9915e	-0.030464824
72	0x3c373c18	0.011183761
73	0xbd4d0836	-0.05005666
74	0xbcab2696	-0.020892423
75	0x3d2763ea	0.04086677
76	0x3b36cba0	0.0027892366
77	0xbd280f50	-0.04103023
78	0x3ca5259c	0.020159535
79	0xbd8bd236	-0.06827204
80	0xbce520f4	-0.027969815
81	0x3d8ff645	0.07029394
82	0xbd6fcdd0	-0.058545887
83	0xbc82a75a	-0.01594894
84	0x3c9ea064	0.01936359
85	0xbd53a710	-0.051672995
86	0xbd9c2f03	-0.07626154
87	0xbd786360	-0.060641646
88	0x3d8a4e21	0.06753183
89	0x3cc173a8	0.02361472
90	0xbd37d356	-0.04487928
91	0x3d8e6181	0.06952191
92	0xbc55ddf8	-0.01305341
93	0x3cb56104	0.022140987
94	0xbcbd354e	-0.023096707
95	0xbd78049f	-0.060551282
96	0xbd421cf1	-0.047390882
97	0x3bbcf920	0.0057670027
98	0x3cce07f8	0.025150284
99	0xbd1fa813	-0.038978647
100	0x3d1044ce	0.035221867
101	0xbd358568	-0.04431668
102	0xbd379e8b	-0.044828933
103	0xbd759f5e	-0.059966438
104	0x3d6d09ed	0.057870794
105	0xbda8b8f6	-0.082384035
106	0xbc9bdfdc	-0.019027643
107	0x3c0c86e0	0.008577079
108	0x3ade7040	0.0016970709
109	0x3d396f3c	0.045272097
110	0xbd8bd6a8	-0.06828052
111	0x3d755e86	0.059904598
112	0xbc957ed4	-0.018248953
113	0xbb82a230	-0.0039866194
114	0x3cf0eeba	0.029410709
115	0xbca85ffa	-0.020553578
116	0x3ce702dc	0.028199606
117	0x3d166b92	0.03672368
118	0xbd07d07a	-0.033157803
119	0xbb363b60	-0.0027806386
120	0xbd4c9ec6	-0.049956106
121	0x3d38c670	0.04511112
122	0x3ca954f0	0.020670384
123	0xbd8a29e9	-0.06746275
124	0x3ce7d0b9	0.028297769
125	0x3d19dc4e	0.037563615
126	0x3d620a02	0.055185325
127	0xbd24f2ed	-0.040270735
128	0xbce03fb0	-0.027374119
129	0x3c7c5bb0	0.015402719
130	0x3d36689a	0.04453335
131	0xbcd2304c	-0.025657795
132	0x3b8b60e5	0.004253494
133	0xbd6847e2	-0.056709178
134	0x3c0f7b51	0.008757428
135	0x3d36537a	0.044513203
136	0x3d23e84b	0.040016454
137	0x3c117840	0.0088787675
138	0x3d2cbec4	0.042174116
139	0xbd4dd4ac	-0.050251648
140	0x3c2ff594	0.010739703
141	0xbd88386b	-0.06651386
142	0xbd722d70	-0.059125364
143	0xbc38ebc1	-0.011286677
144	0xbcf976eb	-0.030452212
145	0x3c534aed	0.012896282
146	0xbd848fc1	-0.064727314
147	0xbd8acf0e	-0.06777774
148	0x3d0359a4	0.03206791
149	0xbb897f20	-0.0041960627
150	0xbd84f4d7	-0.06492012
151	0xbcedeb6a	-0.029042918
152	0xbce7fa70	-0.02831766
153	0xbda3a3b7	-0.079902105
154	0xbd1c5381	-0.038165573
155	0xbd9e9ecf	-0.07745134
156	0xbc6c4360	-0.01442036
157	0x3d39a4ab	0.045323055
158	0xbc6b783b	-0.014371927
159	0xbc87f1c4	-0.016594775
160	0x3d2f7e22	0.0428449
161	0x3b8458fd	0.0040389285
162	0xbd637baa	-0.055537857
163	0xbdba349c	-0.09092066
164	0xbce8fe76	-0.028441649
165	0xbc1e0ef4	-0.00964712
166	0x3b6a5c76	0.0035760677
167	0x3baa2cc0	0.005193323
168	0xbd7e780b	-0.0621262
169	0xbcc08025	-0.023498604
170	0xbd9f7726	-0.07786398
171	0xbd114b4c	-0.0354722
172	0xbdbeba3c	-0.09312865
173	0xbd7f0ec2	-0.062269934
174	0x3d432674	0.047644094
175	0xbd2407b2	-0.0400464
176	0x3c906276	0.017625075
177	0x3d863a6d	0.065541126
178	0xbcc838f2	-0.024441216
179	0xbd8d0191	-0.068850644
180	0xbb93dd8f	-0.004512496
181	0xbcede699	-0.029040622
182	0xbd1ceb9e	-0.03831064
183	0xbd5cff6d	-0.05395453
184	0x3b72ffaa	0.0037078657
185	0xbc7547be	-0.014970718
186	0xbd84d870	-0.06486595
187	0x3c34f435	0.011044552
188	0xbd58eb24	-0.052958623
189	0xbbfb58e3	-0.007670508
190	0xbd868075	-0.0656747
191	0x3c972b15	0.01845316
192	0xbd9d5f92	-0.07684244
193	0xbcbc5530	-0.02298984
194	0xbd25c5e4	-0.040471926
195	0xbd2f3799	-0.04277763
196	0x3aadc400	0.0013257265
197	0x3cd72977	0.02626489
198	0xbd231e37	-0.039823737
199	0xbd421b0d	-0.04738908
200	0x3d888bcf	0.066672914
201	0xbd4af0c6	-0.049546026
202	0xbcc9e678	-0.024646029
203	0x3d300fd4	0.042983845
204	0xbcc10cd8	-0.023565695
205	0xbc6a8d1c	-0.01431587
206	0x3b9d7380	0.0048050284
207	0xbd8ec1cd	-0.06970558
208	0x3c51bff8	0.012802117
209	0xbd06403a	-0.032776095
210	0xbccc14cc	-0.02491226
211	0x3bea4af0	0.0071500465
212	0xbd8dd4ff	-0.069253914
213	0xbd2e3805	-0.042533893
214	0xbce227bc	-0.027606837
215	0x3ba4d910	0.0050307587
216	0xbcb6915c	-0.02228611
217	0xbcac439a	-0.021028329
218	0x3cd23318	0.025659129
219	0xbd8313ae	-0.06400238
220	0x3d0ea3c4	0.034824148
221	0xbd34543a	-0.044025637
222	0xbd1c2373	-0.038119745
223	0xbd276a66	-0.040872954
224	0xbd158b03	-0.036509525
225	0x3bc359a0	0.005961612
226	0x3d8546c7	0.0650764
227	0x3cd9a524	0.026568003
228	0xbd64dc5a	-0.055874206
229	0xbd5119f5	-0.051050145
230	0x3d4bf986	0.04979851
231	0xbc1a1a20	-0.009405643
232	0xbd76e6dd	-0.060278762
233	0xbc64bc94	-0.013960976
234	0x3b28ce6a	0.0025757798
235	0x3b78b54b	0.0037949856
236	0xbd1d15cc	-0.038350865
237	0x3b8a3740	0.004218012
238	0x3d2d2490	0.042271197
239	0x3c578580	0.0131543875
240	0x3d2da3a6	0.042392395
241	0x3d2de759	0.04245696
242	0xbd32f48d	-0.043690253
243	0x3d6e2f8a	0.058150806
244	0xbd49dc66	-0.049282454
245	0xbd61965c	-0.055075034
246	0x3c8145e7	0.015780402
247	0xbd8a006e	-0.06738363
248	0xbd182c1b	-0.037151437
249	0xbd336964	-0.04380168
250	0x3d69028f	0.056887206
251	0x3d6990e5	0.057022948
252	0xbae62938	-0.0017559892
253	0x3d50d1ee	0.050981455
254	0xbca4c104	-0.020111568
255	0xbc65d7bc	-0.014028486

fc.1.bias f4 [128]
0	0xbd8f3f3e	-0.06994484
1	0xbc22fb89	-0.009947666
2	0xbdad2d66	-0.08455925
3	0xbb8ed034	-0.004358316
4	0xbd856e37	-0.065151624
5	0xbdf6c8a5	-0.12049989
6	0xbdf496ab	-0.119428
7	0xbc4b0aa7	-0.012392676
8	0xbd18161b	-0.037130456
9	0xbd8f7efb	-0.070066415
10	0xbdd9e30b	-0.10639008
11	0xbdcb2eaa	-0.0992101
12	0xbd843401	-0.064552315
13	0xbde600a4	-0.11230591
14	0xbde24e6d	-0.11050115
15	0xbd204899	-0.039131735
16	0xbd90a881	-0.070633896
17	0xbe024de7	-0.1272503
18	0x3d831ca4	0.06401947
19	0xbd9a074f	-0.07520925
20	0x3dccbf25	0.099973954
21	0xbdbfda66	-0.09367828
22	0xbd0b37e4	-0.03398885
23	0xbe003a8b	-0.12522332
24	0xbd9b82f4	-0.07593337
25	0xbdc76e63	-0.097378515
26	0xbcb0a964	-0.021565147
27	0xbc31d084	-0.010852937
28	0x3b95b0a1	0.004568175
29	0x3c814bdc	0.015783243
30	0xbd6cb88c	-0.057793185
31	0x3d749abb	0.059717875
32	0xbbaa1ba5	-0.0051912838
33	0xbd7763f5	-0.06039806
34	0xbc36cd2a	-0.011157313
35	0xbd1bf4fe	-0.03807544
36	0x3e07052a	0.13185564
37	0xbe139c36	-0.14415058
38	0xbc9dca42	-0.019261483
39	0xbd355040	-0.044265985
40	0xbd5d6f85	-0.05406143
41	0xbc98fd0a	-0.018675346
42	0xbdbcaafa	-0.09212299
43	0xbd96ee41	-0.07369662
44	0xbd208fdf	-0.039199706
45	0xbca765e4	-0.020434327
46	0x3e02b3df	0.12763928
47	0xbd954f04	-0.07290462
48	0x3d3c707a	0.046005704
49	0xbd93834c	-0.07202777
50	0xbd1163b1	-0.035495464
51	0xbdb534d4	-0.08847967
52	0xbda0725e	-0.07834314
53	0xbdc4f84c	-0.09617671
54	0xbaed1117	-0.0018086758
55	0xbd680f7d	-0.056655396
56	0xbc019773	-0.007909643
57	0xbde28978	-0.11061376
58	0xbdb4aa8d	-0.088215925
59	0xbd552166	-0.052033804
60	0xbdc758f0	-0.0973376
61	0xbd0d2e29	-0.03446785
62	0xbc3bdabf	-0.011465727
63	0x3d9cec60	0.076622725
64	0xbd38d562	-0.045125373
65	0xbe048d90	-0.12944627
66	0x3dd48beb	0.1037825
67	0xbe19598c	-0.14975566
68	0xbc9eac87	-0.019369377
69	0xbd6a6b92	-0.057231493
70	0xbdc2291f	-0.094804995
71	0xbd8530ee	-0.06503473
72	0x3ca6b9d1	0.020352276
73	0x3de2b640	0.11069918
74	0xbdb77539	-0.08957905
75	0x3d886c10	0.06661236
76	0xbdd63001	-0.10458375
77	0xbe58bf86	-0.2116681
78	0xbc062f48	-0.008189984
79	0xbde50d5f	-0.11184191
80	0xbd9e329a	-0.07724495
81	0xbd8bf3b4	-0.06833592
82	0x3dab9428	0.08377868
83	0xbdac5056	-0.0841376
84	0xbdb6b5c2	-0.08921386
85	0xbe037672	-0.12838152
86	0xbd4b8581	-0.049687866
87	0x3e099198	0.13434446
88	0xbd9b2605	-0.07575611
89	0xbd60b73d	-0.05486225
90	0xbdd47213	-0.103733204
91	0xbd4908ea	-0.049080767
92	0xbdd75950	-0.10515082
93	0xbc914b7d	-0.01773619
94	0xbdc0f62e	-0.09421955
95	0x3dc1be3b	0.09460112
96	0x3d806850	0.06269896
97	0xbd91b94d	-0.071154214
98	0xbdffbc1c	-0.12487051
99	0x3db35cba	0.087579206
100	0xbd50c6e9	-0.050970946
101	0xbe12f9e9	-0.14353146
102	0xbcfb0ee2	-0.030646745
103	0xbe026e61	-0.12737419
104	0xbdf201e6	-0.11816768
105	0xbcd01dad	-0.025404776
106	0xbc5c8589	-0.013459572
107	0xbdf44acf	-0.11928331
108	0xbdcd656c	-0.1002911
109	0xbd071296	-0.03297671
110	0x3d2ab011	0.041671816
111	0xbda557b4	-0.08073369
112	0xbd241e97	-0.040068235
113	0xbd22fb74	-0.039790586
114	0xbaa6da5d	-0.0012729872
115	0x3deee8ff	0.11665534
116	0xbe1f9b6e	-0.15586635
117	0xbda3ba6c	-0.079945415
118	0xbbdfd701	-0.0068310504
119	0xbdc00ef5	-0.09377853
120	0xbd92a864	-0.07161024
121	0xbdb10512	-0.08643545
122	0xbd83faa1	-0.06444288
123	0x3dde6968	0.108599484
124	0xbc6cd99b	-0.014456178
125	0xbb64c978	-0.0034910124
126	0xbddf9e47	-0.10918861
127	0xbd199637	-0.03749677

fc.3.weight f4 [64, 128]
0	0x3c773558	0.015088402
1	0xbbdeffe5	-0.0068054073
2	0xbed2259b	-0.41044316
3	0xbd6dedd3	-0.058088135
4	0x3cf175e7	0.029475166
5	0x3a7b8a8d	0.0009595536
6	0xbd1f8d84	-0.03895332
7	0xbe035c9c	-0.12828296
8	0xbd4f4d46	-0.050610803
9	0x3c8e8aa5	0.017400095
10	0xbd924360	-0.07141757
11	0xbd090fca	-0.033462323
12	0x3dacdd75	0.08440677
13	0x3d9c6e93	0.07638278
14	0xbbe61b6a	-0.007022311
15	0x3de85304	0.11343959
16	0x3b92f055	0.004484216
17	0xbcbefa37	-0.023312671
18	0xbd5edf01	-0.05441189
19	0xbb40c631	-0.0029415006
20	0xbe29dc51	-0.1658795
21	0x3d87095b	0.06593581
22	0xbdb76e45	-0.08956579
23	0xbdd3f423	-0.103493
24	0x3d12e6a6	0.035864495
25	0xbd87ba6b	-0.06627353
26	0x3d534a1a	0.05158434
27	0xbcb99fb0	-0.022659153
28	0xbdef3fb6	-0.11682074
29	0x3c1a5182	0.009418847
30	0x3d13880e	0.036018424
31	0xbe1ef02c	-0.15521306
32	0xbd6441c4	-0.05572678
33	0xbd3060f4	-0.04306121
34	0xbcd7a2d1	-0.026322754
35	0x3c00efcb	0.007869671
36	0xbe106e56	-0.1410459
37	0xba745edf	-0.0009321998
38	0x3cdbba96	0.02682237
39	0xbe1d2de8	-0.15349543
40	0x3d498103	0.0491953
41	0xbd859d65	-0.06524161
42	0xbe099b7c	-0.13438219
43	0x3a04d40d	0.00050669984
44	0x3e4cc00e	0.19995138
45	0x3dbe3735	0.09287874
46	0xbe3b89f7	-0.18314348
47	0x3c8f8251	0.017518194
48	0xbe8bc842	-0.27301222
49	0x3ba0a918	0.00490297
50	0xbda4acaa	-0.080407456
51	0xbdfc7c84	-0.12328437
52	0x3d648ab0	0.055796325
53	0xbd84d7b0	-0.064864516
54	0xbdad6e5f	-0.08468317
55	0xbd97f672	-0.074200526
56	0xbcc7dfed	-0.024398768
57	0xbd9e00e1	-0.077150114
58	0xbce715b2	-0.028208587
59	0xbc089ce6	-0.008338189
60	0xbc9bcfa0	-0.019019902
61	0xbd30db84	-0.043178096
62	0x3e267b1d	0.16257901
63	0xbe511d42	-0.20421317
64	0x3dba81cb	0.09106787
65	0x3cd57007	0.026054395
66	0xbdcff8cf	-0.10154878
67	0x3cdba619	0.0268126
68	0x3d7a8b84	0.06116821
69	0xbdb89f67	-0.090147786
70	0x3d8603cf	0.06543695
71	0xbd98313f	-0.07431268
72	0x3ccc0a16	0.024907153
73	0x3d808278	0.06274885
74	0xbdf7a28f	-0.120915525
75	0xbef6de90	-0.48216677
76	0x3c170438	0.009217314
77	0xbe6667f6	-0.22500595
78	0x3e292f40	0.1652193
79	0x3d11b3ae	0.035571747
80	0x3d8ca542	0.06867458
81	0x3cf87473	0.030328965
82	0x3c15eee0	0.0091511905
83	0xbe981df3	-0.2971035
84	0x3d2a8c4a	0.041637696
85	0x3cf2131a	0.029550124
86	0xbe52254e	-0.20522043
87	0xbe09eb1f	-0.13468598
88	0xbdd1687a	-0.102250054
89	0xbdaaa274	-0.08331767
90	0x3d59bd5d	0.053159107
91	0x3da8cfb1	0.08242739
92	0x3d0826d4	0.033240154
93	0xbe9a45a0	-0.30131245
94	0xbdb7848e	-0.0896083
95	0xbe229d07	-0.15880214
96	0xbdee2da2	-0.116297975
97	0x3dc911ba	0.09817834
98	0xbdaa4a76	-0.083149835
99	0xbe0807a7	-0.13284169
100	0xbe7dbb6c	-0.24778527
101	0x3d0905da	0.033452846
102	0x3dd215f6	0.10258095
103	0xbd8c823b	-0.06860777
104	0xbc7d2ae0	-0.015452117
105	0xbe15a9e4	-0.1461559
106	0xbd96ab48	-0.07356888
107	0x3d28ccb7	0.041210856
108	0xbdcf7ab2	-0.10130824
109	0xbce1de6d	-0.027571881
110	0xbe356ae5	-0.17716558
111	0x3d262656	0.040563904
112	0x3d150e3e	0.036390536
113	0xbd70d76b	-0.05879919
114	0xbe50b598	-0.20381773
115	0xbe079a33	-0.13242416
116	0x3d43c49f	0.047794934
117	0xbdd20aa3	-0.10255935
118	0xbcaf77f7	-0.021419508
119	0x3d8b7e58	0.068112075
120	0xbd4496b8	-0.0479953
121	0x3bbc5d47	0.005748424
122	0xbc83a7f1	-0.016071292
123	0xbe5459e5	-0.20737417
124	0xbee594af	-0.4484
125	0x3d0f087d	0.034920204
126	0xbd61f2ca	-0.055163182
127	0x3d9faaef	0.07796275
128	0xbd054af0	-0.03254217
129	0xbc816477	-0.015794976
130	0xbe4b3be7	-0.1984707
131	0x3d053747	0.03252342
132	0x3c99a049	0.018753188
133	0xbd87fb9d	-0.06639788
134	0x3d244711	0.040106837
135	0xbcdea5da	-0.027178694
136	0x3cd09c42	0.025465135
137	0x3cc1cf36	0.023658376
138	0x3d21a7aa	0.039466538
139	0xbd2c8a68	-0.042124182
140	0xbdabe748	-0.08393723
141	0xbdddcd01	-0.10830117
142	0xbd111089	-0.03541616
143	0xbb96fad4	-0.0046075378
144	0xbda2c4f7	-0.07947724
145	0xbb8b36aa	-0.00424846
146	0x3d5fcb0d	0.054637004
147	0x3cecb3d2	0.028894339
148	0xbe3e2c99	-0.185717
149	0x3cf36c2a	0.029714663
150	0xbc83447c	-0.016023867
151	0xbcdeca33	-0.027196025
152	0x3d0aaf70	0.033858716
153	0x3b2caff5	0.0026349996
154	0xbd3b582e	-0.04573839
155	0x3d6a7281	0.057238106
156	0xbbfe5181	-0.007761181
157	0xbd88b49e	-0.06675075
158	0xbe006d56	-0.12541708
159	0xbe2c0eb8	-0.1680249
160	0x3d681e82	0.05666972
161	0x3e032c63	0.12809901
162	0xbc18dbed	-0.009329778
163	0x3d00a541	0.0314076
164	0x3d380e6a	0.04493562
165	0x3d9e243b	0.07721754
166	0xbdf9fa90	-0.12205994
167	0xbd7ecfc2	-0.062209852
168	0x3c8615fe	0.016367909
169	0xbc4c9eb5	-0.012489011
170	0xbccb5af3	-0.024823641
171	0x3c4d91e8	0.012546994
172	0xbca5a1f4	-0.020218827
173	0xbe6c73f6	-0.2309111
174	0xbd2aa84c	-0.041664407
175	0xbd198cdf	-0.03748786
176	0xbd2e02c3	-0.042483103
177	0xbda5b315	-0.08090798
178	0xbd94f188	-0.07272631
179	0x3c914fb5	0.017738203
180	0x3d44492f	0.047921356
181	0x3d3c6b8f	0.046001013
182	0x3d330af3	0.043711614
183	0x3d4cfe7f	0.050047394
184	0xbd079101	-0.03309727
185	0xbdc8fe46	-0.09814124
186	0x3c7242b0	0.014786407
187	0x3ccbd0fc	0.024879925
188	0x3d05ae72	0.032637067
189	0xbd815dca	-0.06316717
190	0xbdbfa978	-0.093584955
191	0xbdabc684	-0.08387473
192	0xbe96f3fc	-0.2948302
193	0x3d97a899	0.07405204
194	0xbe49c5b0	-0.19704318
195	0xbdebf59f	-0.11521458
196	0x3d24feaf	0.040281948
197	0xbbf3f29a	-0.007444692
198	0xbd507fe2	-0.05090321
199	0xbd0d605e	-0.03451573
200	0x3d339298	0.043840975
201	0xbdce53b7	-0.10074561
202	0xbe42b5dc	-0.19014686
203	0x3daf77d8	0.0856778
204	0xbd93ff6d	-0.07226453
205	0xbe3e8b9b	-0.18607943
206	0x3dc54e9f	0.096341364
207	0x3dc0dbff	0.09416961
208	0x3d8b4aff	0.06801414
209	0x3cb3daa5	0.021954844
210	0x3a9d137b	0.0011983955
211	0x3dbe0ffa	0.09280391
212	0xbcc52d72	-0.024069522
213	0x3dc8d6e4	0.09806612
214	0xbd6f3240	-0.05839753
215	0xbd7f45e3	-0.06232251
216	0xbd7b4666	-0.061346434
217	0x3c51f381	0.0128144035
218	0x39bb0c04	0.00035676372
219	0x3cc58f67	0.024116231
220	0x3b2ece70	0.002667334
221	0xbe20b761	-0.15694954
222	0xbd2108f7	-0.03931519
223	0xbcb8191e	-0.022472914
224	0xbde069b4	-0.10957661
225	0x3e55b09e	0.20868155
226	0xbdedd37b	-0.11612602
227	0xbe34238d	-0.17591687
228	0xbd259398	-0.04042396
229	0xbd53d618	-0.051717848
230	0x3d11c2dd	0.035586227
231	0xbca44ea7	-0.020057036
232	0x3d179d9f	0.037015554
233	0x3d3c7439	0.046009276
234	0x3d4c7be3	0.049922835
235	0xbd12999e	-0.035791032
236	0xbe8da0b3	-0.27661666
237	0xbc54295b	-0.012949313
238	0xbd0b0300	-0.033938408
239	0x3c38d261	0.011280627
240	0xbd00665c	-0.031347618
241	0x3d8d4dce	0.06899606
242	0xbda3b902	-0.07994272
243	0xbd0a65ed	-0.03378861
244	0xbd455538	-0.048176974
245	0x3daa53dc	0.08316776
246	0x3cbbdfce	0.022933867
247	0x3cbcda5e	0.023053344
248	0xbdbf4814	-0.0933992
249	0xbb8b0f8f	-0.004243798
250	0x3da471ee	0.08029543
251	0xbe3c2924	-0.18375069
252	0x3c6086c7	0.013704008
253	0x3d0f1983	0.03493644
254	0xbd340c43	-0.043957006
255	0xbcda99d9	-0.026684688

fc.3.bias f4 [64]
0	0x3dafce82	0.0858431
1	0x3d620841	0.055183653
2	0xbe05075c	-0.12991089
3	0xbdd63148	-0.104586184
4	0xbc92efcf	-0.017936615
5	0xbe299b6b	-0.16563194
6	0xbdff4a27	-0.12465315
7	0x3e1b0bc3	0.15141205
8	0xbd441dcc	-0.04787998
9	0xbe55b107	-0.20868312
10	0x3d83aa2f	0.06428944
11	0x3dbafcef	0.091302745
12	0xbc95e497	-0.018297477
13	0xbd9bdf8a	-0.07610996
14	0xbe6e79b4	-0.23288614
15	0xbdb60063	-0.088867925
16	0xbd536a7a	-0.051615216
17	0x3d96ce78	0.073635995
18	0x3e21737a	0.15766707
19	0xbe0ec7f5	-0.13943465
20	0xbdfd4a95	-0.12367741
21	0x3d3ae320	0.04562676
22	0xbded2dd8	-0.115810096
23	0xbe275b67	-0.16343461
24	0x3d0a5702	0.033774383
25	0xbe143681	-0.14473917
26	0xbd1761e2	-0.036958583
27	0xbdc726ac	-0.09724173
28	0xbdeb8e49	-0.11501748
29	0xbdd86131	-0.10565413
30	0xbddf40c5	-0.10901026
31	0xbe060029	-0.13085999
32	0x3db7a2fa	0.08966632
33	0x3d46265b	0.048376422
34	0xbda8ff3a	-0.082518056
35	0xbe0027e0	-0.12515211
36	0xbe524672	-0.20534685
37	0x3c6bc420	0.014390022
38	0xbe217b41	-0.15769674
39	0xbdce8e97	-0.100857906
40	0x3d1dc1e5	0.03851499
41	0xbdda9771	-0.106734164
42	0xbe78972d	-0.24276419
43	0x3c359b56	0.011084398
44	0xbe304d54	-0.17216998
45	0x3cfbc2f8	0.030732617
46	0x3d255820	0.040367246
47	0xbe4ecb67	-0.2019478
48	0xbde1c034	-0.11022988
49	0xbe28c0be	-0.16479775
50	0x3cd1f862	0.025631133
51	0xbdaa17e0	-0.08305335
52	0xbe24664e	-0.16054651
53	0xbdf1e4ea	-0.1181124
54	0xbe4f8bad	-0.20268126
55	0x3d7d0331	0.06177062
56	0xbdd78963	-0.10524251
57	0xbe01e181	-0.12683679
58	0xbda50dd8	-0.08059281
59	0x3da8c83a	0.08241315
60	0xbe2db849	-0.1696483
61	0x3dccb235	0.09994928
62	0xbe2c984d	-0.16854973
63	0xbe200c9d	-0.15629812

fc.5.weight f4 [4, 64]
0	0xbd935191	-0.07193292
1	0x3c917c29	0.0177594
2	0xbcf0a74f	-0.029376654
3	0x3a91d9aa	0.0011127491
4	0x3d3ffb19	0.046870325
5	0xbb105161	-0.0022021162
6	0x3dd570cd	0.10421906
7	0xbda9c806	-0.082901046
8	0xbc5e80d0	-0.013580516
9	0xbd78f695	-0.060782034
10	0xbd558d0b	-0.052136462
11	0xbcec6786	-0.028857958
12	0xbddfda4f	-0.10930311
13	0x3d82baec	0.06383309
14	0xbbe3b977	-0.0069495994
15	0x3cb2284f	0.021747736
16	0xba637e72	-0.00086782046
17	0xbddd1323	-0.10794666
18	0xbd7717a4	-0.06032528
19	0x3d866446	0.065620944
20	0x3c190d31	0.009341524
21	0xbd4d4424	-0.050113812
22	0xbc3c0c8e	-0.011477603
23	0xbe0a1406	-0.13484201
24	0xbd80a26a	-0.06280978
25	0x3c69344d	0.014233661
26	0x3e2bd2f3	0.1677969
27	0xbccd9e75	-0.025099972
28	0x3b3167de	0.0027069966
29	0x3c86744c	0.016412877
30	0x3d9e4568	0.07728082
31	0xbda4fc80	-0.08055973
32	0xbd5a11cb	-0.053239625
33	0xbd245293	-0.04011781
34	0x3e610423	0.21974234
35	0xbd9d3bac	-0.07677397
36	0x3c736ccc	0.014857482
37	0xbda4cff9	-0.0804748
38	0x3d5c0725	0.05371775
39	0xbd2020d9	-0.039093826
40	0xbd827652	-0.06370224
41	0x3daffb99	0.0859291
42	0xbde842ce	-0.11340867
43	0x3e0cef81	0.13763238
44	0x3d319630	0.04335612
45	0x3cace581	0.02110553
46	0xbd01b337	-0.031665053
47	0x3daa23fe	0.08307646
48	0x3d10907a	0.035294034
49	0x3c23fe26	0.010009324
50	0x3dc235bf	0.094829075
51	0xbcbe250d	-0.023211027
52	0xbdc163bc	-0.09442851
53	0xbba5e407	-0.0050625834
54	0xbd60491e	-0.05475723
55	0xbdd8013e	-0.10547112
56	0xbc36bcda	-0.011153424
57	0xbd29b74b	-0.041434567
58	0x3e9bccf8	0.30429816
59	0xbd40be41	-0.04705644
60	0x3cbfa8cf	0.023395924
61	0x3dac6699	0.084180064
62	0x3ad3ccfe	0.0016159115
63	0xbd00d499	-0.03145275
64	0xbd72e4cc	-0.05930023
65	0x3d4ed4f4	0.050496057
66	0xbc5a7387	-0.013333208
67	0xbd300de3	-0.042981993
68	0x3be93203	0.0071165576
69	0x3c48e437	0.012261442
70	0x3d4c1c30	0.04983157
71	0xbe096a6e	-0.13419506
72	0x3cd4b959	0.025967287
73	0xbc0b1ea0	-0.008491188
74	0xbd84f7b1	-0.06492556
75	0xbccbc1e8	-0.024872735
76	0xbdc481c6	-0.09595065
77	0xbd4bbbc7	-0.049739625
78	0x3d6030b0	0.054733932
79	0xbc812c88	-0.015768304
80	0xbbb4d2b8	-0.0055182837
81	0xbe8666e0	-0.26250362
82	0xbd7c12bd	-0.061541308
83	0x3dc6f714	0.09715095
84	0x3994c601	0.00028376284
85	0xbd61b0d1	-0.055100266
86	0x3d3a54ad	0.04549091
87	0x3ad4d32c	0.001623725
88	0xbd7ce141	-0.061738256
89	0x3cd80235	0.02636824
90	0xbd14c3a3	-0.036319386
91	0xbd4e5bb8	-0.05038044
92	0xbc254ac9	-0.010088631
93	0xbdd5d33a	-0.10440679
94	0xbc3b1267	-0.011417962
95	0x3c33e777	0.0109804785
96	0x3bb9f985	0.005675497
97	0xbd1755b9	-0.036946986
98	0xbd1aa6b7	-0.037756648
99	0x3d7318cd	0.059349824
100	0x3c84b095	0.016197482
101	0xbdf1e0b4	-0.11810437
102	0x3d7988dd	0.06092154
103	0x3cb7e80f	0.022449521
104	0xbd814360	-0.06311679
105	0x3deed2e1	0.11661316
106	0xbd8236a6	-0.063580796
107	0x3db9925d	0.0906112
108	0xbc89152b	-0.016733726
109	0x3da44358	0.08020657
110	0xbd24e701	-0.040259365
111	0x3d96bb96	0.07359998
112	0xbc9e9f1c	-0.019362979
113	0x39519d41	0.00019990375
114	0x39dc492c	0.00042016187
115	0xbe12e5e0	-0.14345503
116	0xbbe6ebde	-0.0070471605
117	0xbd0fa561	-0.035069827
118	0x3c5054b2	0.012715505
119	0xbdc00a9e	-0.09377025
120	0xbcdd6644	-0.027026303
121	0xbd1116ea	-0.035422243
122	0x3c9ecb3b	0.019384017
123	0xbcc9500f	-0.024574308
124	0x3bd6861f	0.00654675
125	0x3de98ff0	0.11404407
126	0x3c27c5d1	0.010240034
127	0xbcac8f76	-0.021064501
128	0xbd8a20df	-0.06744551
129	0x3d37d7c9	0.044883523
130	0xbd6b709f	-0.05748045
131	0x3d1d7211	0.03843886
132	0x3d51f233	0.05125637
133	0xbcb925ef	-0.022601096
134	0x3e14b02e	0.14520332
135	0xbdbf5617	-0.09342592
136	0xbbe083a8	-0.006851632
137	0x3ca79251	0.020455511
138	0xbd8f985e	-0.070114836
139	0xbcec89b7	-0.028874261
140	0xbdfe179e	-0.12406848
141	0xbd26c9ec	-0.04071991
142	0x3c9bf6ce	0.019038584
143	0x3bdd36e3	0.006750928
144	0xbd85ba9f	-0.06529736
145	0xbe6d5448	-0.23176682
146	0xbd7de001	-0.061981205
147	0x3db4f0dc	0.08835003
148	0x3e0456a5	0.12923677
149	0xbd70ef75	-0.058822114
150	0x3bd7d15a	0.006586236
151	0xbc1a2dc5	-0.009410326
152	0xbd8d9413	-0.069130085
153	0x3d8f1bbe	0.06987713
154	0x3e6bb737	0.2301911
155	0x3d104bb1	0.035228435
156	0x3c4e9ff9	0.012611383
157	0xbdbd7134	-0.092501074
158	0xbbdf58bf	-0.0068159993
159	0x3cb52d09	0.022116201
160	0xbcfb855e	-0.030703243
161	0xbd5d4846	-0.054024003
162	0xbd0bd378	-0.03413722
163	0x3b989b13	0.004657158
164	0x3bf1ed05	0.0073829913
165	0xbd3e49c9	-0.046457086
166	0x3d6e6d03	0.05820943
167	0xbd9d8fe4	-0.076934606
168	0xbd7d0161	-0.061768893
169	0x3e035554	0.12825519
170	0x3d4df24d	0.050279904
171	0x3dbc6ec0	0.092008114
172	0x3d4babea	0.049724497
173	0x3db3c5fd	0.08777998
174	0xbd0716e7	-0.032980826
175	0x3df03d72	0.1173047
176	0xbaa6ba9a	-0.0012720407
177	0x3cbced51	0.02306238
178	0x3d9943a4	0.074836046
179	0xbcc21e2b	-0.023696026
180	0xbe0b8064	-0.13623196
181	0x3ce1859e	0.027529534
182	0xbe06c115	-0.13159592
183	0xbd3760e3	-0.044770133
184	0xbd3bc6b7	-0.045843806
185	0xbd256384	-0.04037811
186	0xbd8a420e	-0.0675088
187	0xbd0db7f6	-0.034599267
188	0xbd39e8b8	-0.045387954
189	0x3da598c7	0.080857806
190	0x3d1981f2	0.03747744
191	0xbd577e60	-0.052610755
192	0xbd87a8e0	-0.06624007
193	0xbc5ff5cf	-0.013669445
194	0xbc99163c	-0.01868736
195	0xbdeb0a3b	-0.11476561
196	0x3d603820	0.054741025
197	0xbd31dd66	-0.043424033
198	0x3debe66e	0.1151856
199	0xbd90d963	-0.07072713
200	0xbc865bc4	-0.01640118
201	0x3d984138	0.074343145
202	0xbd92c592	-0.0716659
203	0xbcf34348	-0.029695168
204	0xbe052cb4	-0.13005334
205	0xbd0e18a0	-0.034691453
206	0x3dda1b5e	0.10649751
207	0xbc33589b	-0.010946418
208	0xbd36b816	-0.04460915
209	0xbe314728	-0.173123
210	0xbd8d3a57	-0.06895893
211	0x3da99b65	0.08281592
212	0x3cfd8cd2	0.030950937
213	0xbd0c675f	-0.03427827
214	0x3c79c767	0.015245295
215	0x3b87a97f	0.0041400786
216	0xbd463016	-0.048385702
217	0x3c57f1b1	0.013180182
218	0x3e62cb9e	0.22147986
219	0x3b4e5e11	0.0031489173
220	0x3d0bdf26	0.034148358
221	0x3b16eb32	0.002302837
222	0xbd6ee099	-0.05831966
223	0x3d396c86	0.04526951
224	0xbc43d3fa	-0.011952395
225	0xbd0fbe87	-0.03509381
226	0x3bbac47e	0.005699693
227	0x3cab224c	0.020890377
228	0x3c1b1fae	0.009468002
229	0xbcf627bc	-0.030048244
230	0x3d1ff154	0.039048508
231	0x3e10524f	0.14093898
232	0xbd8335bb	-0.06406733
233	0x3e046c11	0.12931849
234	0x3daa6480	0.0831995
235	0x3dfdf75d	0.124006964
236	0xbdb0df6d	-0.08636365
237	0xbd6c1063	-0.057632815
238	0xbd1755fe	-0.036947243
239	0x3dac7767	0.08421212
240	0xbdbae581	-0.09125806
241	0xbcb659d3	-0.022259628
242	0xbe448e08	-0.19194806
243	0xbdd6766a	-0.104718044
244	0xbd8b2f97	-0.067961864
245	0x3d6a007f	0.05712938
246	0x3d43960f	0.04775053
247	0x3e05bd24	0.13060433
248	0xbc3e2314	-0.011605043
249	0xbd21c5d0	-0.03949529
250	0x3d58706d	0.052841593
251	0xbdc69aaa	-0.096974686
252	0x3c3cd7a0	0.011526018
253	0x3da3c9b1	0.07997454
254	0x3c2248a9	0.009905019
255	0x3cb1b95a	0.021694828

fc.5.bias f4 [4]
0	0x3d01abd1	0.031657998
1	0x3d00d265	0.031450648
2	0x3d03af01	0.03214932
3	0x3d066751	0.032813374
