best_model.pth (torch, 140089 bytes, 6 tensors)

fc.1.weight f4 [128, 200]
000000 9c d8 e8 bc d0 98 bc 3c 13 61 8d 3d 70 9a 6c 3c
       -0.0284236 0.023022085 0.06903281 0.014441118
000010 b4 57 45 bd 50 34 90 bc e0 55 49 bb 24 75 02 3d
       -0.048179343 -0.01760307 -0.0030721352 0.031849995
000020 79 4e 6c bd 4e e4 5a bd 4e 56 74 bd bc 0e ff bc
       -0.057692025 -0.053440385 -0.05965262 -0.031134956
000030 99 68 71 bd 78 eb 15 3d 7a bc 70 bd d4 0b 2a 3d
       -0.058937643 0.036601514 -0.058773495 0.041515186
000040 0a f2 d3 bc c2 9a 85 bd fe 4e 4c bd 02 60 65 bd
       -0.02587225 -0.06523658 -0.04988002 -0.055999763
000050 8c 00 7d bc be 6e cc bc be ef 2d 3d 88 bf 6b bc
       -0.015442025 -0.02495515 0.042464964 -0.014388926
000060 f0 9f a1 3c ef 75 81 3d 80 24 7c 3a 80 20 17 bb
       0.019729584 0.06321322 0.0009618476 -0.0023060143
000070 20 ec 81 3c ce 84 73 3d 76 6d 7d 3d 14 8a d1 bc
       0.015859663 0.059452824 0.06187197 -0.025578536
000080 ce ed 48 bd 56 44 4b 3d d1 95 3a bd de 21 82 bd
       -0.049054913 0.049625717 -0.045553032 -0.06354116
000090 75 d0 8d 3d 00 c0 10 b8 24 9a bf bc 31 2e 1a bd
       0.06924526 -3.451109e-05 -0.02338893 -0.037641708
0000a0 86 f2 6b 3d fa 1d a5 bc 6b 92 54 bd 07 08 81 bd
       0.057604335 -0.020155896 -0.051897448 -0.06300359
0000b0 b0 1d dc bb 38 17 6b 3c 1f 9f 48 bd de 7d b9 bc
       -0.006717406 0.0143487975 -0.048979875 -0.022643026
0000c0 28 b4 2b 3c 35 7d 8d bd a2 9e 14 3d 64 33 b7 3c
       0.010479964 -0.06908647 0.036284097 0.022363372
0000d0 04 ea a0 3c fa d1 1e 3d f6 a5 6c bd 20 5b 90 bd
       0.019642837 0.038774468 -0.05777546 -0.07048631
0000e0 28 b2 6e bd 52 58 8e bd 64 ea bd 3c 36 b5 87 bd
       -0.05827537 -0.069504395 0.023183055 -0.0662636
0000f0 82 58 7a 3d ec b5 68 bc 44 bd 8f 3c e3 1c 16 bd
       0.061119564 -0.01420353 0.017546304 -0.036648642
000100 00 5d ff 3b 20 e1 d0 3b 9c c1 83 bd a8 e0 26 3c
       0.007793069 0.0063744932 -0.064334124 0.010185398
000110 e0 fd 0f 3d dd e1 1d bd 0a f1 4a 3d 5e 91 f9 bc
       0.035154223 -0.038545478 0.04954628 -0.030464824
000120 18 3c 37 3c 36 08 4d bd 96 26 ab bc ea 63 27 3d
       0.011183761 -0.05005666 -0.020892423 0.04086677
000130 a0 cb 36 3b 50 0f 28 bd 9c 25 a5 3c 36 d2 8b bd
       0.0027892366 -0.04103023 0.020159535 -0.06827204
000140 f4 20 e5 bc 45 f6 8f 3d d0 cd 6f bd 5a a7 82 bc
       -0.027969815 0.07029394 -0.058545887 -0.01594894
000150 64 a0 9e 3c 10 a7 53 bd 03 2f 9c bd 60 63 78 bd
       0.01936359 -0.051672995 -0.07626154 -0.060641646
000160 21 4e 8a 3d a8 73 c1 3c 56 d3 37 bd 81 61 8e 3d
       0.06753183 0.02361472 -0.04487928 0.06952191
000170 f8 dd 55 bc 04 61 b5 3c 4e 35 bd bc 9f 04 78 bd
       -0.01305341 0.022140987 -0.023096707 -0.060551282
000180 f1 1c 42 bd 20 f9 bc 3b f8 07 ce 3c 13 a8 1f bd
       -0.047390882 0.0057670027 0.025150284 -0.038978647
000190 ce 44 10 3d 68 85 35 bd 8b 9e 37 bd 5e 9f 75 bd
       0.035221867 -0.04431668 -0.044828933 -0.059966438
0001a0 ed 09 6d 3d f6 b8 a8 bd dc df 9b bc e0 86 0c 3c
       0.057870794 -0.082384035 -0.019027643 0.008577079
0001b0 40 70 de 3a 3c 6f 39 3d a8 d6 8b bd 86 5e 75 3d
       0.0016970709 0.045272097 -0.06828052 0.059904598
0001c0 d4 7e 95 bc 30 a2 82 bb ba ee f0 3c fa 5f a8 bc
       -0.018248953 -0.0039866194 0.029410709 -0.020553578
0001d0 dc 02 e7 3c 92 6b 16 3d 7a d0 07 bd 60 3b 36 bb
       0.028199606 0.03672368 -0.033157803 -0.0027806386
0001e0 c6 9e 4c bd 70 c6 38 3d f0 54 a9 3c e9 29 8a bd
       -0.049956106 0.04511112 0.020670384 -0.06746275
0001f0 b9 d0 e7 3c 4e dc 19 3d 02 0a 62 3d ed f2 24 bd
       0.028297769 0.037563615 0.055185325 -0.040270735
000200 b0 3f e0 bc b0 5b 7c 3c 9a 68 36 3d 4c 30 d2 bc
       -0.027374119 0.015402719 0.04453335 -0.025657795
000210 e5 60 8b 3b e2 47 68 bd 51 7b 0f 3c 59 ea 27 3a
       0.004253494 -0.056709178 0.008757428 0.0006405465
000220 5e b8 7c bb 36 ce 9b bc 7f a1 de ba ac d4 4d bd
       -0.003856204 -0.019019227 -0.0016985385 -0.050251648
000230 94 f5 2f 3c 6b 38 88 bd 70 2d 72 bd c1 eb 38 bc
       0.010739703 -0.06651386 -0.059125364 -0.011286677
000240 eb 76 f9 bc 9e be 49 bb 10 47 a5 bd 5d 86 ab bd
       -0.030452212 -0.0030783783 -0.08070195 -0.08375237
000250 ab 68 41 bc 13 75 03 bd d7 f4 84 bd 6a eb ed bc
       -0.01180474 -0.032094073 -0.06492012 -0.029042918
000260 70 fa e7 bc b7 a3 a3 bd 81 53 1c bd cf 9e 9e bd
       -0.02831766 -0.079902105 -0.038165573 -0.07745134
000270 f6 fe f8 bc 94 1b be 3a 3e 23 2d bd c4 f1 87 bc
       -0.030395012 0.0014504069 -0.042269938 -0.016594775
000280 22 7e 2f 3d fd 58 84 3b aa 7b 63 bd 9c 34 ba bd
       0.0428449 0.0040389285 -0.055537857 -0.09092066
000290 76 fe e8 bc f4 0e 1e bc 78 23 4b bc 3e 6e 1e bd
       -0.028441649 -0.00964712 -0.012398593 -0.038679354
0002a0 0b 78 7e bd 25 80 c0 bc 26 77 9f bd 4c 4b 11 bd
       -0.0621262 -0.023498604 -0.07786398 -0.0354722
0002b0 3c ba be bd c2 0e 7f bd 74 26 43 3d b2 07 24 bd
       -0.09312865 -0.062269934 0.047644094 -0.0400464
0002c0 76 62 90 3c 1e 82 b1 3c f2 38 c8 bc 91 01 8d bd
       0.017625075 0.02166849 -0.024441216 -0.068850644
0002d0 8f dd 93 bb 99 e6 ed bc 9e eb 1c bd 6d ff 5c bd
       -0.004512496 -0.029040622 -0.03831064 -0.05395453
0002e0 aa ff 72 3b be 47 75 bc 70 d8 84 bd c5 76 06 bd
       0.0037078657 -0.014970718 -0.06486595 -0.03282811
0002f0 24 eb 58 bd e3 58 fb bb 75 80 86 bd 15 2b 97 3c
       -0.052958623 -0.007670508 -0.0656747 0.01845316
000300 92 5f 9d bd 30 55 bc bc e4 c5 25 bd 99 37 2f bd
       -0.07684244 -0.02298984 -0.040471926 -0.04277763
000310 00 c4 ad 3a 2a 3e 90 bc d7 8c 64 bd d9 c4 81 bd
       0.0013257265 -0.017607767 -0.055798378 -0.06336374
000320 cf 8b 88 3d c6 f0 4a bd cd a4 a1 bd d4 0f 30 3d
       0.066672914 -0.049546026 -0.078927614 0.042983845
000330 d8 0c c1 bc 1c 8d 6a bc 80 73 9d 3b cd c1 8e bd
       -0.023565695 -0.01431587 0.0048050284 -0.06970558
000340 f8 bf 51 3c 3a 40 06 bd cc 14 cc bc f4 8c a0 bd
       0.012802117 -0.032776095 -0.02491226 -0.07839385
000350 bf f8 1c be 04 44 c3 be ae 85 a0 3e e0 04 9f 3e
       -0.15329264 -0.3813783 0.3135199 0.31058407
000360 1c 65 9e 3e 0e 11 b6 3e 65 f8 cd 3e ae 13 83 bd
       0.30936515 0.35559887 0.40228572 -0.06400238
000370 29 f5 c5 3e c3 34 8b 3b 0a 23 3d 3f 9e 8f f5 3e
       0.38663605 0.004248233 0.7388159 0.47961134
000380 4d f5 36 3e 3e 0a 04 3e 37 88 0b bf 86 0c ad 3e
       0.17867012 0.12894532 -0.5450472 0.33798617
000390 34 a7 dd 3d 0d e7 d9 be b7 a9 0b be 5a 4a b0 3e
       0.10822907 -0.4255909 -0.1363896 0.34431726
0003a0 2f b0 92 3e 8f 44 3a 3f da 62 77 3e ec 47 75 bf
       0.28650042 0.7276086 0.24158803 -0.9581287
0003b0 05 aa a5 3d 42 9a ea 3e d6 6e 93 be 49 71 3a 3d
       0.08089069 0.45820814 -0.287955 0.045518193
0003c0 fc f0 94 3e 03 0e d3 3e ca a1 f7 3e 4c 4f 9a 3e
       0.29090106 0.41221628 0.48365623 0.30138624
0003d0 3a 15 fa 3e 8d 9c b9 be 0a f0 fc be 92 05 3c be
       0.4884432 -0.3625225 -0.49401885 -0.183615
0003e0 53 eb 2b 3e 49 36 d4 3e b2 a5 33 be 6e 1d 86 3d
       0.16788988 0.41447666 -0.17543676 0.06548582
0003f0 bf b6 80 be 13 64 64 3d fe c8 95 3e 29 ee e8 be
       -0.25139424 0.0557595 0.29254907 -0.45494202

fc.1.bias f4 [128]
000000 1a 19 e9 bd d3 07 58 3f 51 2f 9d be 15 7e 7f bc
       -0.11381741 0.8438694 -0.30700162 -0.015594025
000010 37 6e 85 bd a5 c8 f6 bd ab 96 f4 bd 2f 2f 25 bf
       -0.065151624 -0.12049989 -0.119428 -0.6452512
000020 a1 8c 88 bd 7d 23 a5 bd 06 5e 09 be aa 2e cb bd
       -0.06667448 -0.080634095 -0.13414773 -0.0992101
000030 5d e3 bc bd 29 c0 80 be 6d 4e e2 bd 26 5e 70 bd
       -0.092230536 -0.25146607 -0.11050115 -0.058683537
000040 14 f9 7e 3f e7 4d 02 be d0 3c 4d be 1a c8 ad bd
       0.99598813 -0.1272503 -0.2004273 -0.08485432
000050 5f a3 1e be 5f c6 6a bd 90 38 e8 be f1 78 20 be
       -0.15492009 -0.057318088 -0.45355654 -0.15671135
000060 e9 3d a1 be cd 4a 92 be b5 cc 4c bd e6 a7 54 be
       -0.31492546 -0.28572693 -0.04999991 -0.20767173
000070 e5 6a eb bd 81 03 bf bc 4a 35 30 bf ac 77 91 bf
       -0.11494998 -0.0233171 -0.6883131 -1.1364646
000080 65 1a e0 bc f5 63 77 bd 76 4b 22 bf b7 76 a0 3d
       -0.027356336 -0.06039806 -0.63396394 0.07835143
000090 22 a5 2e bd dd 6b 49 be 21 c4 1d be 09 68 02 bf
       -0.04263795 -0.19670053 -0.15406848 -0.50939995
0000a0 77 e1 db bd 57 f6 d7 bd 6d 72 f5 bd 41 ee 96 bd
       -0.107363634 -0.105450325 -0.119847156 -0.07369662
0000b0 12 f0 35 bf 1d d5 1c bf d3 63 1f bf cf 6f bc be
       -0.71069443 -0.61262685 -0.62261695 -0.36804053
0000c0 f7 97 c3 3e 56 a5 d2 bd 3d 13 62 bd 1d 07 33 be
       0.38201877 -0.102854416 -0.05519413 -0.17483182
0000d0 2e cd dc bd 39 76 07 be 35 79 b7 be d5 ed 2a be
       -0.107813224 -0.13228692 -0.3583466 -0.16692288
0000e0 fb 1c 4a bf fb 68 41 be 33 76 d0 be ea 8f 51 3e
       -0.7895047 -0.18887703 -0.4071518 0.20465055
0000f0 3a c2 03 be a0 8e 98 be 30 9b 15 bf 70 e0 2f bf
       -0.1286706 -0.29796314 -0.5843992 -0.6870184
000100 7d 5d 16 be 90 8d 04 be db 4f ca be 4d 02 e0 be
       -0.146841 -0.12944627 -0.3951405 -0.43751755
000110 ee 7d 44 be 92 6b 6a bd a7 3a 2a bf 14 82 bb bd
       -0.19188663 -0.057231493 -0.66495746 -0.0915567
000120 c8 79 2a 3f 08 93 39 bf c8 b3 86 be d5 ee 71 bb
       0.66592073 -0.72489977 -0.26309037 -0.0036916037
000130 01 30 d6 bd ee 2c fd be 48 2f 06 bc 14 c2 df be
       -0.10458375 -0.4944834 -0.008189984 -0.43702757
000140 29 08 10 bf 21 35 bd bd 79 45 45 be 11 2d c2 be
       -0.5626245 -0.09238649 -0.19264783 -0.37925008
000150 c2 b5 b6 bd 72 76 03 be f9 b7 85 be dc ec b8 3e
       -0.08921386 -0.12838152 -0.26116922 0.3611821
000160 e0 fc f4 bd 3d b7 60 bd 13 72 d4 bd 8a c8 ab be
       -0.119622946 -0.05486225 -0.103733204 -0.33551437
000170 50 59 d7 bd 9d 61 1b bf 2e f6 c0 bd 7b db a0 bc
       -0.10515082 -0.6069582 -0.09421955 -0.019635906
000180 10 1e ae 3e 33 9b 8f be 1c bc ff bd fb c8 23 be
       0.3400731 -0.28048095 -0.12487051 -0.15994637
000190 40 55 99 3e e9 f9 12 be a5 d4 0f bf 61 6e 02 be
       0.29947853 -0.14353146 -0.56183845 -0.12737419
0001a0 87 d9 f6 3c ff 26 90 be 89 85 5c bc 14 57 0f be
       0.030133022 -0.28154752 -0.013459572 -0.13998061
0001b0 19 4b 3a bf ab 02 0a bd d6 29 3c 3e 12 43 bf bd
       -0.7277084 -0.03369395 0.18375334 -0.093389645
0001c0 0b 33 08 bf 55 0a 69 bd 0e 82 82 be e9 3e 85 3f
       -0.53202885 -0.05689462 -0.2548985 1.0409824
0001d0 6e 9b 1f be 85 18 cc bd 30 0c fb bd f5 0e c0 bd
       -0.15586635 -0.09965614 -0.12258184 -0.09377853
0001e0 ae d5 ff be c8 38 18 3e a1 fa 83 bd 24 9a 4c bf
       -0.49967712 0.1486541 -0.06444288 -0.799227
0001f0 b2 f4 a5 be 78 c9 64 bb a7 0a 27 be ca bd 1c be
       -0.3241325 -0.0034910124 -0.16312657 -0.15306774

fc.3.weight f4 [64, 128]
000000 58 35 77 3c 7f e7 8c be 61 70 9e 3e d3 ed 6d bd
       0.015088402 -0.27520368 0.30945113 -0.058088135
000010 e7 75 f1 3c 8d 8a 7b 3a 84 8d 1f bd 89 3d 2d bd
       0.029475166 0.0009595536 -0.03895332 -0.042295013
000020 46 4d 4f bd a5 8a 8e 3c 60 43 92 bd ca 0f 09 bd
       -0.050610803 0.017400095 -0.07141757 -0.033462323
000030 75 dd ac 3d 07 ab 3b be 6a 1b e6 bb 04 53 e8 3d
       0.08440677 -0.1832696 -0.007022311 0.11343959
000040 04 ec 18 bf 37 fa be bc 91 9a b6 be 31 c6 40 bb
       -0.5973513 -0.023312671 -0.356648 -0.0029415006
000050 22 b5 1c bd 5b 09 87 3d a1 89 0a be 38 e6 a1 bd
       -0.03825868 0.06593581 -0.13529064 -0.07905239
000060 a6 e6 12 3d aa e6 56 3d 1a 4a 53 3d 1e 04 d7 bb
       0.035864495 0.052466072 0.05158434 -0.00656177
000070 29 e0 68 bd f6 a2 31 be 79 ff 94 be ce 09 a8 be
       -0.0568544 -0.17347321 -0.2910116 -0.3281998
000080 6e cc 16 bd f4 60 30 bd 1a 9a c2 bd c2 23 00 bf
       -0.036816053 -0.04306121 -0.09502049 -0.5005456
000090 f1 ba 73 bd df 5e 74 ba 3e 15 0c bf d4 0c 38 be
       -0.059504453 -0.0009321998 -0.54719913 -0.17973644
0000a0 50 4e b1 be bd e9 ba bd 7c 9b 09 be 0d d4 04 3a
       -0.3463006 -0.09126613 -0.13438219 0.00050669984
0000b0 7f 71 ae be 2b 29 8c be 58 12 40 3e 47 4c 01 bf
       -0.34070966 -0.2737516 0.18756998 -0.50507015
0000c0 56 70 cf be 18 a9 a0 3b aa ac a4 bd 81 67 3d be
       -0.40515393 0.00490297 -0.080407456 -0.18496515
0000d0 b0 8a 64 3d b0 d7 84 bd c2 2e 98 bd 72 f6 97 bd
       0.055796325 -0.064864516 -0.07430793 -0.074200526
0000e0 7f 7d 28 3d cf 00 88 bd 12 93 85 bc fd ba 59 be
       0.041135307 -0.06640779 -0.01630548 -0.21262737
0000f0 b6 e8 72 bc 87 52 af bd b2 52 08 bf 65 6b c2 be
       -0.01482599 -0.08560663 -0.53251183 -0.3797256
000100 85 51 5b ba 07 70 d5 3c 9e 64 62 ba e0 ab 46 be
       -0.00083663344 0.026054395 -0.0008636209 -0.19401503
000110 aa b5 46 bd 67 9f b8 bd 77 23 a6 be 3f 31 98 bd
       -0.048513092 -0.090147786 -0.32448933 -0.07431268
000120 cb 5c 07 bf cf a4 8d be 94 1e ba bd 17 86 86 be
       -0.52875966 -0.276648 -0.090878636 -0.26274177
000130 38 04 17 3c 2b c9 d4 bc 40 2f 29 3e d2 5a 67 3d
       0.009217314 -0.02597483 0.1652193 0.056483097
000140 44 c3 72 bf d9 11 b3 3c f2 5b 8e 3e a5 c1 87 be
       -0.948292 0.021859096 0.27804524 -0.26514927
000150 4a 8c 2a 3d 1a 13 f2 3c 60 b2 cb be be a3 cd be
       0.041637696 0.029550124 -0.39784527 -0.40163988
000160 d9 62 b8 bd 74 a2 aa bd 5d bd 59 3d c2 3e 86 bd
       -0.09003229 -0.08331767 0.053159107 -0.06554939
000170 d4 26 08 3d 64 ed 65 3e 8e 84 b7 bd a6 0f b9 3d
       0.033240154 0.22453839 -0.0896083 0.09036188
000180 14 38 27 3e 76 51 43 be 76 4a aa bd a5 dc e4 bd
       0.16329986 -0.19074044 -0.083149835 -0.11174897
000190 66 1f ae be da 05 09 3d b9 6b 40 3d 3b 82 8c bd
       -0.3400833 0.033452846 0.046977732 -0.06860777
0001a0 31 a7 56 be 24 3f a3 bd 48 ab 96 bd b7 cc 28 3d
       -0.20962216 -0.079710275 -0.07356888 0.041210856
0001b0 ae 3d 71 be 59 3c 65 bc fd 1b ef be 56 26 26 3d
       -0.23558685 -0.013991439 -0.4670104 0.040563904
0001c0 38 4d a6 be 6b d7 70 bd aa b4 07 bf 7f da ff bd
       -0.32480788 -0.05879919 -0.53010046 -0.12492847
0001d0 9f c4 43 3d a3 0a d2 bd 46 cb 88 bd 58 7e 8b 3d
       0.047794934 -0.10255935 -0.06679396 0.068112075
0001e0 fb cb 8f 3d 3c 83 bb be f1 a7 83 bc 16 fa 74 be
       0.07021328 -0.3662356 -0.016071292 -0.23923525
0001f0 4b b6 6f 3e 7d 08 0f 3d ca f2 61 bd aa 05 50 3d
       0.23409383 0.034920204 -0.055163182 0.05078665
000200 f0 4a 05 bd 8c 47 9c bd e6 1f b6 be 47 37 05 3d
       -0.03254217 -0.07630834 -0.35571212 0.03252342
000210 49 a0 99 3c 9d fb 87 bd 11 47 24 3d d4 c0 3e bd
       0.018753188 -0.06639788 0.040106837 -0.046570614
000220 42 9c d0 3c 36 cf c1 3c aa a7 21 3d 68 8a 2c bd
       0.025465135 0.023658376 0.039466538 -0.042124182
000230 48 e7 ab bd a4 ef a5 bd 89 10 11 bd d4 fa 96 bb
       -0.08393723 -0.081023484 -0.03541616 -0.0046075378
000240 af 5e 19 be aa 36 8b bb 39 79 f4 3c d2 b3 ec 3c
       -0.14977525 -0.00424846 0.02984296 0.028894339
000250 99 2c 3e be 2a 6c f3 3c f4 34 27 be 33 ca de bc
       -0.185717 0.029714663 -0.16328794 -0.027196025
000260 70 af 0a 3d a6 d9 01 bd 2e 58 3b bd fd f6 b2 3d
       0.033858716 -0.031701706 -0.04573839 0.087385155
000270 18 4e 19 bd a2 79 0a be 12 78 a4 bd 5c 94 94 be
       -0.03742799 -0.13522962 -0.08030714 -0.2901944
000280 82 1e 68 3d 63 2c 03 3e ed db 18 bc 7e 6b ed bd
       0.05666972 0.12809901 -0.009329778 -0.11592768
000290 84 88 28 3e 45 5d f2 b9 90 fa f9 bd f5 4c 63 be
       0.16458327 -0.00046227328 -0.12205994 -0.22197326
0002a0 07 61 8a bd b5 9e 4c bc f3 5a cb bc e8 91 4d 3c
       -0.06756788 -0.012489011 -0.024823641 0.012546994
0002b0 b6 b0 f6 be c9 d4 ee be de 56 c5 bd 0a 68 1b bd
       -0.48181695 -0.46646717 -0.09635709 -0.037941016
0002c0 69 29 8e be 15 b3 a5 bd 88 f1 94 bd a4 bb 71 be
       -0.27765968 -0.08090798 -0.07272631 -0.23606735
0002d0 2f 49 44 3d 8f 6b 3c 3d 3d 79 03 bd 7f fe 4c 3d
       0.047921356 0.046001013 -0.032098044 0.050047394
0002e0 01 91 07 bd 46 fe c8 bd b0 42 72 3c 37 53 6c be
       -0.03309727 -0.09814124 0.014786407 -0.23078619
0002f0 08 82 88 3a a6 ad a1 be 92 42 ce be 3f 97 2c 3d
       0.0010414729 -0.31577796 -0.40285164 0.042136427
000300 b9 f7 59 b8 99 a8 97 3d df 23 bd be 9f f5 eb bd
       -5.196754e-05 0.07405204 -0.3694143 -0.11521458
000310 80 f7 41 3c 9a f2 f3 bb 91 5e d8 bd 5e 60 0d bd
       0.011838794 -0.007444692 -0.10564912 -0.03451573
000320 e1 87 75 be 7d 1e 38 be dc b5 42 be 1e c0 40 be
       -0.23977615 -0.1798038 -0.19014686 -0.18823287
000330 6d ff 93 bd c7 71 14 bf 9f 4e c5 3d ff eb 6b bd
       -0.07226453 -0.5798611 0.096341364 -0.05759811
000340 b8 38 7f bd a5 da b3 3c 1a 00 51 3d 34 07 26 be
       -0.06230995 0.021954844 0.051025487 -0.16213685
000350 72 2d c5 bc e4 d6 c8 3d 5d 05 df be c0 64 9c bd
       -0.024069522 0.09806612 -0.4355878 -0.07636404
000360 66 46 7b bd 81 f3 51 3c 04 0c bb 39 58 21 8f bd
       -0.061346434 0.0128144035 0.00035676372 -0.06988782
000370 70 ce 2e 3b 68 e6 d8 be f7 08 21 bd 1e 19 b8 bc
       0.002667334 -0.42363286 -0.03931519 -0.022472914
000380 ad e3 18 bd 85 72 af 3e 7b d3 ed bd 42 ec 61 be
       -0.037326504 0.3426706 -0.11612602 -0.22062781
000390 68 1e 0f be 18 d6 53 bd f1 ea 4d bd a7 4e a4 bc
       -0.13976443 -0.051717848 -0.050272886 -0.020057036
0003a0 1c 5a 12 be da ba 09 3d e3 7b 4c 3d 9e 99 12 bd
       -0.14292186 0.03362546 0.049922835 -0.035791032
0003b0 4f ad 80 be 5b 29 54 bc 37 55 1e 3d 61 d2 38 3c
       -0.25132224 -0.012949313 0.038655486 0.011280627
0003c0 79 d5 8e be ce 4d 8d 3d 02 b9 a3 bd 20 16 81 be
       -0.27897242 0.06899606 -0.07994272 -0.25212193
0003d0 38 55 45 bd dc 53 aa 3d ce df bb 3c 5e da bc 3c
       -0.048176974 0.08316776 0.022933867 0.023053344
0003e0 3e 74 0d bf dd f0 1f be ee 71 a4 3d f5 d9 ba 3c
       -0.55255497 -0.15619226 0.08029543 0.022809008
0003f0 f3 0c ff 3d 83 19 0f 3d 5a cf 0b bd 45 47 b0 bc
       0.12453642 0.03493644 -0.034133293 -0.021518359

fc.3.bias f4 [64]
000000 42 39 f1 bb 13 c0 a0 be 20 4a 68 be 09 bf 83 be
       -0.007361562 -0.3139654 -0.22684526 -0.25731686
000010 8b 0d 27 bd 76 67 94 be 06 68 a8 be ec 09 5c bd
       -0.0407844 -0.28985184 -0.32891864 -0.0537204
000020 e4 63 11 bf 61 61 bd be 4a 8b 5e be 4b b7 96 be
       -0.56793046 -0.36988357 -0.21732822 -0.29436716
000030 13 bd 22 be 10 14 3b be 75 29 b5 be ba 73 2d be
       -0.15892439 -0.18269372 -0.35383192 -0.16938677
000040 5c da 4a be 45 90 c5 bd bb b2 d1 3e 44 ea 9f be
       -0.1980986 -0.09646658 0.40956673 -0.31233418
000050 55 c2 54 be ac ce 87 be ad 7f ed be ad d9 7d be
       -0.20777257 -0.26524866 -0.4638647 -0.24790068
000060 98 aa 38 be a0 1d 85 be 5e ef 1b be 93 49 70 bb
       -0.18033826 -0.25999165 -0.1522803 -0.0036664947
000070 0e 6f 50 be 28 a7 69 be 9e 85 47 be 7c 40 b3 be
       -0.20354864 -0.22817671 -0.19484565 -0.35010135
000080 e8 c7 f9 bc 69 88 8a be 36 cb 80 3e 92 44 55 be
       -0.03049083 -0.27057198 0.25155038 -0.20826939
000090 57 9c 92 be 3b 13 86 be bc c5 98 be 48 5a 84 be
       -0.28634903 -0.26186547 -0.2983836 -0.2585013
0000a0 ff 29 b6 be b9 5a b4 be 60 40 0c bf 11 02 8d be
       -0.35578915 -0.35225466 -0.5478573 -0.2754064
0000b0 ec 89 72 be 7d 2a 3c be 6f d2 f5 be e8 ac af be
       -0.23685426 -0.18375583 -0.4801211 -0.34311604
0000c0 9d 1e 4c be f7 05 92 be 59 5f 04 be 98 0c 2e be
       -0.19933553 -0.28520176 -0.12926997 -0.16996992
0000d0 2d a1 83 be ff 0d 7a be 4f 9d 99 be 44 1f 95 bd
       -0.25708905 -0.24419402 -0.3000283 -0.07281354
0000e0 9b a6 2c bf 5c ed ec bd cb 7b 30 be 7c f4 f1 be
       -0.6744172 -0.1156871 -0.17234723 -0.4725684
0000f0 e3 c8 97 bd 11 36 38 be 8c 21 76 be 90 8c 8e be
       -0.07411363 -0.17989375 -0.24036235 -0.27841616

fc.5.weight f4 [4, 64]
000000 dc ae a0 3d 62 7e f9 bc d2 38 2d bb 2c 9f 0b bb
       0.07845852 -0.030455772 -0.0026431573 -0.002130459
000010 c9 03 8e bd 61 51 10 bb 67 8e 68 3d 01 45 a2 3d
       -0.06934316 -0.0022021162 0.05677643 0.07923318
000020 fd 42 11 bc 1c 88 f9 3a de bb 29 3d c4 0e d9 3c
       -0.008866069 0.0019037756 0.04143893 0.026496299
000030 0c 8c b6 bd 2e 67 43 3e 5e e9 06 3d 4d 52 a8 3b
       -0.089134306 0.19082329 0.0329374 0.005136764
000040 7e 0c b7 3d 45 d5 70 be 68 5f 9e bd ab a5 9d 3d
       0.089379296 -0.23518856 -0.07733041 0.07697614
000050 da 56 b5 bb 18 43 b9 bd 95 ec 88 3d 79 83 08 bd
       -0.005534035 -0.09046 0.066857494 -0.033328507
000060 e1 f5 13 be 0e fa b2 3a fc 81 cb 3d 36 ba 4a bd
       -0.14449264 0.0013654844 0.09936902 -0.04949399
000070 8d 4f e2 3c 4c 74 86 3c 1b 6a 17 3d f9 64 5d bc
       0.027625823 0.016412877 0.036966424 -0.013512843
000080 ee b4 b2 bb 46 17 db 3c ce 90 f6 3d 67 05 46 bd
       -0.0054536974 0.026744496 0.12039338 -0.048344996
000090 cc 6c 73 3c 5b 21 02 be 8f 88 4a bb 89 44 a0 3c
       0.014857482 -0.12708037 -0.003090415 0.01956393
0000a0 45 85 b8 bb a7 83 4d 3d 07 2a b7 39 ef f5 2b 3d
       -0.0056311213 0.05017438 0.00034935793 0.041982587
0000b0 d5 b5 92 bc 2c 45 5c 3c 68 91 eb 3d 15 5a 1b 3d
       -0.01790897 0.013444226 0.115023434 0.037927706
0000c0 ba b0 c2 bc 99 cd b2 39 51 d3 be 3d 2c 17 31 bc
       -0.02376591 0.00034103988 0.09317649 -0.010808747
0000d0 55 a1 1d bd 4c f4 48 3c a5 d0 e4 3c 99 b6 36 bc
       -0.038483936 0.012265276 0.02793152 -0.011151933
0000e0 1c 90 7e 3d de f2 89 bd 4a ef 82 3e cc d4 62 bd
       0.062149152 -0.06735776 0.25573188 -0.05537872
0000f0 23 6c f5 3d d1 30 91 3c c9 2b 64 bd 2b f6 20 bc
       0.11983516 0.017723473 -0.05570582 -0.009824316
000100 64 03 6d bc 48 3f b9 3c 28 3f 16 3d c0 8c 2a bd
       -0.01446614 0.022613183 0.036681324 -0.041638136
000110 a7 9e 42 bb 11 b4 ab 3b c9 1f c4 bb 0b 5f 9a 3d
       -0.0029696615 0.0052399714 -0.0059852344 0.07537659
000120 c6 94 00 bd f2 ac 91 bb 80 c6 ff bd 6d bf 34 3b
       -0.03139188 -0.0044456655 -0.12489033 0.002757992
000130 96 2c cb bc e7 a6 2a bc 8c 68 8d bd 88 2c 81 bc
       -0.024801534 -0.010415769 -0.06904706 -0.015768304
000140 0f 3b ef 3c 6a 7a 11 3c 94 bf 96 bd c0 89 05 bc
       0.029202966 0.008879283 -0.073607594 -0.008150518
000150 60 53 cd bc cc a2 8d bd 64 f7 83 3c 05 90 1d bc
       -0.02506417 -0.06915817 0.016109176 -0.009616856
000160 e8 12 17 be 3e 37 5b 3d 05 38 4e 3d 73 f1 3f bd
       -0.14753306 0.05351948 0.050346393 -0.046861123
000170 13 1b 2f bd 13 d8 b4 bd ed 46 a3 bc bf b3 06 3c
       -0.04275043 -0.088302754 -0.019931281 0.008221566
000180 b2 76 a9 3d 2c 57 b9 bc 78 10 29 be 0c e2 aa 3c
       0.082745925 -0.022624575 -0.16510189 0.02085974
000190 95 b0 84 3c 71 c1 c4 bd 29 ec 42 bd 34 ab a0 3c
       0.016197482 -0.096072085 -0.0475885 0.019612886
0001a0 77 42 25 bd aa 3e 3b 3d 86 4d c0 3d b9 08 69 bd
       -0.04034659 0.045714058 0.093897864 -0.056893084
0001b0 85 51 8b bd bc 69 ea bd 77 a8 04 3e 0e 3a 52 3d
       -0.06802658 -0.114459485 0.12954889 0.051324897
0001c0 e7 5a 83 bc 6d e2 de bc b3 be 90 ba 25 aa 5f bd
       -0.016034557 -0.027207578 -0.0011043161 -0.05460562
0001d0 bc 83 b1 3d 1a 7b 68 bb 89 de a9 bc bc cc 13 3d
       0.086677045 -0.0035473765 -0.020735996 0.03608392
0001e0 22 24 a9 3d 85 8e 2c be 0b 81 90 3b ac fa 5f bd
       0.08258845 -0.16851242 0.0044099144 -0.05468242
0001f0 3e d2 22 3d de b0 b6 bc 4b 05 93 bc a9 68 08 bd
       0.039751284 -0.022301134 -0.01794686 -0.033302937
000200 12 f2 94 3d e6 b0 b6 bd 4d 15 f8 bc 20 73 06 3d
       0.07272734 -0.089204594 -0.030283595 0.032824636
000210 8f 94 03 bd 1d c5 b6 3b c7 f2 53 3d 7f d3 d2 bd
       -0.0321241 0.005577697 0.051745202 -0.10294246
000220 8d 11 ad 3c 7c c6 0c 3b b0 07 b8 bc 00 37 8c 3d
       0.021126533 0.002148061 -0.022464603 0.06846428
000230 ff 34 5c bd 19 58 4d bd 07 39 f3 bb e3 36 dd 3b
       -0.05376148 -0.050132845 -0.0074225697 0.006750928
000240 de ec bd bd 0e e6 5d bd d3 b8 93 bd 42 c6 26 bc
       -0.092736945 -0.054174475 -0.07212987 -0.010179104
000250 a5 56 04 3e 43 d9 87 3d a9 e0 72 3d 8d 0c 98 bc
       0.12923677 0.06633236 0.059296284 -0.018560672
000260 63 5f b8 3c 15 11 f6 3c b6 a0 10 3e fc 44 6d bd
       0.022506421 0.030037442 0.14123806 -0.057927117
000270 75 79 1c bc f9 7a 0b bd 32 5e fe bc 2c 99 e9 3c
       -0.009550442 -0.034052823 -0.031050775 0.02851542
000280 b7 3d c4 be 86 71 e0 bc c8 a8 1a 3d 58 02 e6 3c
       -0.38328335 -0.027397882 0.03775862 0.02807729
000290 cb 63 68 bc bd d4 15 be 10 af ee 3c 35 17 a7 bc
       -0.014183949 -0.14631934 0.02913621 -0.020396808
0002a0 6f 73 8b bc 9a 34 42 3c 62 fd 89 3d 21 7e d6 bd
       -0.017022816 0.0118533615 0.06737782 -0.10473276
0002b0 a8 ab 93 3d 98 fe a3 3c e4 36 85 3c 05 7c 1e 3c
       0.07210475 0.02001886 0.016261525 0.009673123
0002c0 6a 5c 83 bc 63 69 99 bc f2 73 a3 3d fd bf 86 bd
       -0.016035277 -0.01872701 0.07981099 -0.065795876
0002d0 42 85 9b 3d 4c 3f d0 3c de 98 8f bd 1f 48 0f 3e
       0.07593776 0.025420807 -0.07011579 0.13992356
0002e0 65 07 5d 3d 43 5e d4 bd 42 13 88 bd 61 21 89 3d
       0.05396213 -0.103695415 -0.06644298 0.0669582
0002f0 a8 4a 5c 3d a8 c4 ab 3c 34 93 f6 3b fb 24 d5 3c
       0.053782135 0.020967796 0.007524872 0.02601861
000300 01 bc 4e 3e 56 4b f8 3c 1f 19 ab 3c e5 ec 5b bc
       0.20188905 0.03030936 0.020886002 -0.013423179
000310 65 cd 3d bd 30 87 7b bc ca 30 46 3d 55 b5 f3 3d
       -0.046338458 -0.015352055 0.048386373 0.11899821
000320 30 de 07 3d 6b 77 88 3c 47 df 0a bd 65 16 85 bd
       0.03317088 0.016658505 -0.03390434 -0.06498412
000330 60 31 8e bc 5e b0 62 3d 2a 25 0c 3d 9b 58 33 bc
       -0.017357528 0.055343978 0.03421513 -0.010946418
000340 b9 db ee b9 1a f7 7b bd 82 1f 95 bd e5 54 61 39
       -0.00045558604 -0.06151495 -0.072814 0.00021489298
000350 90 30 02 3d 8b 76 bb 3c 61 94 c4 39 a4 8b 9d bc
       0.031784594 0.022883674 0.00037494584 -0.019231625
000360 14 4d e7 bc 62 6d f9 bc db c9 2f 3e db 5a 2e bd
       -0.028234996 -0.030447666 0.17166846 -0.042567115
000370 2f e8 df 3b 6c 2c 38 bb f3 bd 9a bd b3 16 09 3d
       0.0068330984 -0.002810265 -0.07555761 0.033468913
000380 90 75 1b 3c 54 48 e7 bb e9 9d f3 bd 93 dd 07 3c
       0.009488478 -0.0070581827 -0.11895353 0.0082925735
000390 36 d5 be 3c 8a bd c4 bc 8e 75 2a be 55 58 ab 3d
       0.023295026 -0.02401616 -0.16646406 0.083664574
0003a0 60 cd 58 3c 16 f8 3f 3d c1 04 2f 3d c9 6c 1c bd
       0.013232559 0.046867453 0.042729143 -0.038189683
0003b0 c5 36 6c bd 13 9f ad bd 53 a5 6a 3d 43 8c 65 3c
       -0.05766942 -0.084776066 0.05728657 0.014010492
0003c0 dd da 8d bd 1f 54 b7 b9 82 c7 87 3c ba ab 97 bd
       -0.069265105 -0.00034967155 0.016574625 -0.07405801
0003d0 1c 4e 26 3e c5 6a fe ba 11 eb b8 3c 1f e2 23 3e
       0.16240734 -0.0019410482 0.022573026 0.16004227
0003e0 32 81 67 3d 67 ab 69 3c 1f eb 62 3d c3 da 76 3d
       0.056519695 0.014262057 0.05540001 0.06026722
0003f0 92 be 71 3d 89 c3 86 3c 7b 4f 81 bd d9 70 35 3d
       0.059019633 0.01645066 -0.06313988 0.044297073

fc.5.bias f4 [4]
000000 00 81 d0 3d 91 c1 c6 3d 86 1f c1 3d 11 43 c3 3d
       0.10180855 0.097048886 0.09429841 0.09534276
