best_model.pth (torch, 140089 bytes, 6 tensors)

fc.1.weight f4 [128, 200]
-0.0284236 0.023022085 0.06903281 0.014441118 -0.048179343 -0.01760307 -0.0030721352 0.031849995
-0.057692025 -0.053440385 -0.05965262 -0.031134956 -0.058937643 0.036601514 -0.058773495 0.041515186
-0.02587225 -0.06523658 -0.04988002 -0.055999763 -0.015442025 -0.02495515 0.042464964 -0.014388926
0.019729584 0.06321322 0.0009618476 -0.0023060143 0.015859663 0.059452824 0.06187197 -0.025578536
-0.049054913 0.049625717 -0.045553032 -0.06354116 0.06924526 -3.451109e-05 -0.02338893 -0.037641708
0.057604335 -0.020155896 -0.051897448 -0.06300359 -0.006717406 0.0143487975 -0.048979875 -0.022643026
0.010479964 -0.06908647 0.036284097 0.022363372 0.019642837 0.038774468 -0.05777546 -0.07048631
-0.05827537 -0.069504395 0.023183055 -0.0662636 0.061119564 -0.01420353 0.017546304 -0.036648642
0.007793069 0.0063744932 -0.064334124 0.010185398 0.035154223 -0.038545478 0.04954628 -0.030464824
0.011183761 -0.05005666 -0.020892423 0.04086677 0.0027892366 -0.04103023 0.020159535 -0.06827204
-0.027969815 0.07029394 -0.058545887 -0.01594894 0.01936359 -0.051672995 -0.07626154 -0.060641646
0.06753183 0.02361472 -0.04487928 0.06952191 -0.01305341 0.022140987 -0.023096707 -0.060551282
-0.047390882 0.0057670027 0.025150284 -0.038978647 0.035221867 -0.04431668 -0.044828933 -0.059966438
0.057870794 -0.082384035 -0.019027643 0.008577079 0.0016970709 0.045272097 -0.06828052 0.059904598
-0.018248953 -0.0039866194 0.029410709 -0.020553578 0.028199606 0.03672368 -0.033157803 -0.0027806386
-0.049956106 0.04511112 0.020670384 -0.06746275 0.028297769 0.037563615 0.055185325 -0.040270735
-0.027374119 0.015402719 0.04453335 -0.025657795 0.004253494 -0.056709178 0.008757428 0.028538547
0.024041796 0.0088787675 0.026199462 -0.050251648 0.010739703 -0.06651386 -0.059125364 -0.011286677
-0.030452212 -0.0030783783 -0.08070195 -0.08375237 0.016093258 -0.0041960627 -0.06492012 -0.029042918
-0.02831766 -0.079902105 -0.038165573 -0.07745134 -0.030395012 0.029348405 -0.014371927 -0.016594775
0.0428449 0.0040389285 -0.055537857 -0.09092066 -0.028441649 -0.00964712 -0.012398593 -0.01078134
-0.0621262 -0.023498604 -0.07786398 -0.0354722 -0.09312865 -0.062269934 0.047644094 -0.0400464
0.017625075 0.049566485 -0.024441216 -0.068850644 -0.004512496 -0.029040622 -0.03831064 -0.05395453
0.0037078657 -0.014970718 -0.06486595 -0.004930104 -0.052958623 -0.007670508 -0.0656747 0.01845316
-0.07684244 -0.02298984 -0.040471926 -0.04277763 0.0013257265 0.01029023 -0.055798378 -0.06336374
0.066672914 -0.049546026 -0.024646029 0.042983845 -0.023565695 -0.01431587 0.0048050284 -0.06970558
0.012802117 -0.032776095 -0.02491226 0.0071500465 -0.069253914 -0.042533893 -0.027606837 0.0050307587
-0.02228611 -0.021028329 0.025659129 -0.06400238 0.034824148 -0.044025637 -0.038119745 -0.040872954
-0.036509525 0.005961612 0.0650764 0.026568003 -0.055874206 -0.051050145 0.04979851 -0.009405643
-0.060278762 -0.013960976 0.0025757798 0.0037949856 -0.038350865 0.004218012 0.042271197 0.0131543875
0.042392395 0.04245696 -0.043690253 0.058150806 -0.049282454 -0.055075034 0.015780402 -0.06738363
-0.037151437 -0.04380168 0.056887206 0.057022948 -0.0017559892 0.050981455 -0.020111568 -0.014028486
00000000: 9cd8 e8bc d098 bc3c 1361 8d3d 709a 6c3c
00000010: b457 45bd 5034 90bc e055 49bb 2475 023d
00000020: 794e 6cbd 4ee4 5abd 4e56 74bd bc0e ffbc
00000030: 9968 71bd 78eb 153d 7abc 70bd d40b 2a3d
00000040: 0af2 d3bc c29a 85bd fe4e 4cbd 0260 65bd
00000050: 8c00 7dbc be6e ccbc beef 2d3d 88bf 6bbc
00000060: f09f a13c ef75 813d 8024 7c3a 8020 17bb
00000070: 20ec 813c ce84 733d 766d 7d3d 148a d1bc
00000080: ceed 48bd 5644 4b3d d195 3abd de21 82bd
00000090: 75d0 8d3d 00c0 10b8 249a bfbc 312e 1abd
000000a0: 86f2 6b3d fa1d a5bc 6b92 54bd 0708 81bd
000000b0: b01d dcbb 3817 6b3c 1f9f 48bd de7d b9bc
000000c0: 28b4 2b3c 357d 8dbd a29e 143d 6433 b73c
000000d0: 04ea a03c fad1 1e3d f6a5 6cbd 205b 90bd
000000e0: 28b2 6ebd 5258 8ebd 64ea bd3c 36b5 87bd
000000f0: 8258 7a3d ecb5 68bc 44bd 8f3c e31c 16bd
00000100: 005d ff3b 20e1 d03b 9cc1 83bd a8e0 263c
00000110: e0fd 0f3d dde1 1dbd 0af1 4a3d 5e91 f9bc
00000120: 183c 373c 3608 4dbd 9626 abbc ea63 273d
00000130: a0cb 363b 500f 28bd 9c25 a53c 36d2 8bbd
00000140: f420 e5bc 45f6 8f3d d0cd 6fbd 5aa7 82bc
00000150: 64a0 9e3c 10a7 53bd 032f 9cbd 6063 78bd
00000160: 214e 8a3d a873 c13c 56d3 37bd 8161 8e3d
00000170: f8dd 55bc 0461 b53c 4e35 bdbc 9f04 78bd
00000180: f11c 42bd 20f9 bc3b f807 ce3c 13a8 1fbd
00000190: ce44 103d 6885 35bd 8b9e 37bd 5e9f 75bd
000001a0: ed09 6d3d f6b8 a8bd dcdf 9bbc e086 0c3c
000001b0: 4070 de3a 3c6f 393d a8d6 8bbd 865e 753d
000001c0: d47e 95bc 30a2 82bb baee f03c fa5f a8bc
000001d0: dc02 e73c 926b 163d 7ad0 07bd 603b 36bb
000001e0: c69e 4cbd 70c6 383d f054 a93c e929 8abd
000001f0: b9d0 e73c 4edc 193d 020a 623d edf2 24bd
00000200: b03f e0bc b05b 7c3c 9a68 363d 4c30 d2bc
00000210: e560 8b3b e247 68bd 517b 0f3c acc9 e93c
00000220: 4df3 c43c 4078 113c 41a0 d63c acd4 4dbd
00000230: 94f5 2f3c 6b38 88bd 702d 72bd c1eb 38bc
00000240: eb76 f9bc 9ebe 49bb 1047 a5bd 5d86 abbd
00000250: 02d6 833c 207f 89bb d7f4 84bd 6aeb edbc
00000260: 70fa e7bc b7a3 a3bd 8153 1cbd cf9e 9ebd
00000270: f6fe f8bc 116c f03c 3b78 6bbc c4f1 87bc
00000280: 227e 2f3d fd58 843b aa7b 63bd 9c34 babd
00000290: 76fe e8bc f40e 1ebc 7823 4bbc 38a4 30bc
000002a0: 0b78 7ebd 2580 c0bc 2677 9fbd 4c4b 11bd
000002b0: 3cba bebd c20e 7fbd 7426 433d b207 24bd
000002c0: 7662 903c 3a06 4b3d f238 c8bc 9101 8dbd
000002d0: 8fdd 93bb 99e6 edbc 9eeb 1cbd 6dff 5cbd
000002e0: aaff 723b be47 75bc 70d8 84bd b68c a1bb
000002f0: 24eb 58bd e358 fbbb 7580 86bd 152b 973c
00000300: 925f 9dbd 3055 bcbc e4c5 25bd 9937 2fbd
00000310: 00c4 ad3a 5a98 283c d78c 64bd d9c4 81bd
00000320: cf8b 883d c6f0 4abd 78e6 c9bc d40f 303d
00000330: d80c c1bc 1c8d 6abc 8073 9d3b cdc1 8ebd
00000340: f8bf 513c 3a40 06bd cc14 ccbc f04a ea3b
00000350: ffd4 8dbd 0538 2ebd bc27 e2bc 10d9 a43b
00000360: 5c91 b6bc 9a43 acbc 1833 d23c ae13 83bd
00000370: c4a3 0e3d 3a54 34bd 7323 1cbd 666a 27bd
00000380: 038b 15bd a059 c33b c746 853d 24a5 d93c
00000390: 5adc 64bd f519 51bd 86f9 4b3d 201a 1abc
000003a0: dde6 76bd 94bc 64bc 6ace 283b 4bb5 783b
000003b0: cc15 1dbd 4037 8a3b 9024 2d3d 8085 573c
000003c0: a6a3 2d3d 59e7 2d3d 8df4 32bd 8a2f 6e3d
000003d0: 66dc 49bd 5c96 61bd e745 813c 6e00 8abd
000003e0: 1b2c 18bd 6469 33bd 8f02 693d e590 693d
000003f0: 3829 e6ba eed1 503d 04c1 a4bc bcd7 65bc

fc.1.bias f4 [128]
-0.08591947 -0.009947666 -0.06973332 -0.015594025 -0.065151624 -0.12049989 -0.119428 -0.08096442
-0.05816052 -0.070066415 -0.13414773 -0.0992101 -0.064552315 -0.11079751 -0.11050115 -0.039131735
0.04135366 -0.1272503 0.06437005 -0.07520925 0.043211475 -0.12522435 -0.08896313 -0.15671135
-0.07593337 -0.21480277 -0.04999991 -0.02710485 0.016441299 -0.084997386 -0.069716126 -0.05337993
-0.0013738922 -0.06039806 -0.011157313 -0.042345427 0.1682451 -0.14415058 -0.046254754 -0.097946554
-0.069731064 -0.044099294 -0.09212299 -0.07369662 -0.013261185 -0.08760183 0.12946822 -0.10225892
0.051461842 -0.07202777 -0.035495464 -0.07730064 -0.10405554 -0.09617671 -0.032641396 -0.09308892
-0.08786484 -0.11061376 -0.2010684 -0.052661147 -0.1286706 0.05016923 0.008845025 0.060137752
-0.099282056 -0.12944627 0.069466345 -0.14975566 -0.019369377 -0.057231493 -0.08291191 -0.06503473
0.02453942 0.09322412 -0.06768863 -0.00485676 -0.10458375 -0.2214079 -0.008189984 -0.12256246
-0.06851426 -0.06833592 0.06307917 -0.059600286 -0.08921386 -0.12838152 -0.08564514 0.16623417
-0.07161672 -0.05486225 -0.103733204 -0.07617612 -0.10515082 -0.060455825 -0.09421955 0.12026657
0.07958469 -0.15424888 -0.12487051 0.038721602 -0.09991083 -0.14353146 -0.045926303 -0.12737419
-0.10845591 -0.06748007 -0.013459572 -0.11928331 -0.14670095 -0.03297671 0.050399523 -0.08073369
-0.07312565 -0.039790586 -0.02080005 0.14594883 -0.15586635 -0.079945415 -0.02426788 -0.09377853
-0.13909255 -0.075198464 -0.06444288 0.17977747 -0.077304184 -0.0034910124 -0.10918861 -0.029341422
00000000: 8cf6 afbd 89fb 22bc 58d0 8ebd 157e 7fbc
00000010: 376e 85bd a5c8 f6bd ab96 f4bd add0 a5bd
00000020: ba39 6ebd fb7e 8fbd 065e 09be aa2e cbbd
00000030: 0134 84bd cee9 e2bd 6d4e e2bd 9948 20bd
00000040: 7562 293d e74d 02be 72d4 833d 4f07 9abd
00000050: 84fe 303d d03a 00be 4d32 b6bd f178 20be
00000060: f482 9bbd 42f5 5bbe b5cc 4cbd fe0a debc
00000070: e7af 863c 1c13 aebd 54c7 8ebd eaa4 5abd
00000080: 2c14 b4ba f563 77bd 2acd 36bc 6672 2dbd
00000090: 7248 2c3e 369c 13be a075 3dbd 3498 c8bd
000000a0: 29cf 8ebd 76a1 34bd faaa bcbd 41ee 96bd
000000b0: 7145 59bc 9768 b3bd 5193 043e 206d d1bd
000000c0: a7c9 523d 4c83 93bd b163 11bd cc4f 9ebd
000000d0: 121b d5bd 4cf8 c4bd fcb2 05bd 67a5 bebd
000000e0: 7bf2 b3bd 7889 e2bd e0e4 4dbe 37b3 57bd
000000f0: 3ac2 03be 407e 4d3d b9ea 103c 0153 763d
00000100: 6454 cbbd 908d 04be 5f44 8e3d 8c59 19be
00000110: 87ac 9ebc 926b 6abd b8cd a9bd ee30 85bd
00000120: e506 c93c 4aec be3d 56a0 8abd 7525 9fbb
00000130: 0130 d6bd c1b8 62be 482f 06bc 0702 fbbd
00000140: 3451 8cbd b4f3 8bbd a72f 813d 6e1f 74bd
00000150: c2b5 b6bd 7276 03be b866 afbd 4a39 2a3e
00000160: c9ab 92bd 3db7 60bd 1372 d4bd 3a02 9cbd
00000170: 5059 d7bd 87a0 77bd 2ef6 c0bd 524e f63d
00000180: 4cfd a23d 6bf3 1dbe 1cbc ffbd 8b9a 1e3d
00000190: 0d9e ccbd e9f9 12be 381d 3cbd 616e 02be
000001a0: 221e debd fe32 8abd 8985 5cbc cf4a f4bd
000001b0: c638 16be 9612 07bd bb6f 4e3d b457 a5bd
000001c0: e7c2 95bd 74fb 22bd de64 aabc 9c73 153e
000001d0: 6e9b 1fbe 6cba a3bd 6fcd c6bc f50e c0bd
000001e0: 476e 0ebe a701 9abd a1fa 83bd 9617 383e
000001f0: a851 9ebd 78c9 64bb 479e dfbd 6c5d f0bc

fc.3.weight f4 [64, 128]
0.015088402 -0.0068054073 -0.062658295 -0.058088135 0.029475166 0.0009595536 -0.03895332 -0.30337128
-0.050610803 0.017400095 -0.07141757 -0.033462323 0.08440677 0.07638278 -0.007022311 0.11343959
-0.10554383 -0.023312671 0.017373448 -0.0029415006 -0.1658795 0.06593581 -0.138323 -0.07905239
0.035864495 0.038431454 0.05158434 0.011871442 -0.10082426 -0.039358616 0.032985747 -0.43042582
-0.036816053 -0.04306121 -0.026322754 0.007869671 -0.04446654 -0.0009321998 0.0053702383 -0.15244584
-0.27306098 -0.06524161 -0.13438219 0.00050669984 0.22778758 0.18104815 -0.09363169 -0.36667603
-0.36411753 0.00490297 -0.080407456 -0.14263302 0.055796325 -0.064864516 -0.01722673 -0.074200526
-0.024398768 -0.077150114 -0.041360036 0.07571224 -0.01482599 -0.12516232 0.14456479 -0.2820875
0.10921884 0.026054395 -0.09728673 0.0268126 0.06116821 -0.090147786 -0.21341999 -0.07431268
0.16059779 0.18455148 -0.22806299 -0.490437 0.009217314 -0.107419565 0.1652193 0.035571747
-0.21965708 0.030328965 0.008566215 -0.15592359 0.041637696 0.029550124 -0.18675694 -0.28832024
-0.1277857 -0.08331767 0.053159107 -0.058527514 0.033240154 -0.30626687 -0.0896083 -0.07780846
0.022617863 -0.16746598 -0.083149835 -0.19526523 -0.23009224 0.033452846 0.0020753136 -0.06860777
-0.004898124 -0.051588856 -0.07356888 0.041210856 -0.19723997 -0.027571881 0.079401374 0.040563904
-0.10155651 -0.05879919 -0.27948508 -0.16049866 0.047794934 -0.10255935 -0.021419508 0.068112075
-0.042457737 0.07665322 -0.016071292 -0.0887333 -0.17605153 0.034920204 -0.055163182 0.04311915
-0.03254217 -0.015794976 -0.34193996 0.03252342 0.018753188 -0.06639788 0.040106837 -0.0390031
0.025465135 0.023658376 0.039466538 -0.042124182 -0.08393723 -0.10830117 -0.03541616 -0.0046075378
-0.09069562 -0.00424846 -0.1264362 0.028894339 -0.185717 0.029714663 -0.015930349 -0.027196025
0.033858716 -0.031701706 -0.04573839 0.087385155 0.17475538 -0.13522962 -0.16104738 -0.01569897
0.05666972 0.12809901 -0.009329778 0.0314076 0.044562146 0.07721754 -0.12205994 -0.12684184
-0.054297756 -0.012489011 -0.024823641 0.012546994 -0.13116172 -0.6701583 -0.1878515 -0.0078230435
-0.30244073 -0.08090798 -0.07272631 -0.1016194 0.047921356 0.046001013 -0.032098044 0.050047394
-0.03309727 -0.09814124 0.014786407 -0.018234879 0.0010414729 -0.12778956 -0.13598092 -0.050587703
-0.13734668 0.07405204 -0.26023984 -0.11521458 0.040281948 -0.007444692 -0.04617129 -0.03451573
0.0010168817 -0.020467306 -0.19014686 -0.25244373 -0.07226453 -0.36428627 0.096341364 0.09416961
-0.07085179 0.021954844 -0.04178763 -0.06517507 -0.024069522 0.09806612 -0.18027277 -0.043603737
-0.061346434 0.0128144035 0.00035676372 -0.06988782 0.002667334 -0.2860698 -0.03931519 -0.022472914
-0.2573341 0.3497683 -0.11612602 -0.19501276 -0.07169395 -0.051717848 -0.01889033 -0.020057036
-0.1129011 0.1873293 0.049922835 -0.035791032 -0.22665513 -0.012949313 -0.05915995 0.011280627
-0.008347261 0.06899606 -0.07994272 -0.05939136 -0.048176974 0.08316776 0.022933867 0.023053344
-0.5202116 -0.004243798 0.08029543 -0.010334383 0.036023047 0.03493644 -0.043957006 -0.02674879
00000000: 5835 773c e5ff debb fe52 80bd d3ed 6dbd
00000010: e775 f13c 8d8a 7b3a 848d 1fbd 7b53 9bbe
00000020: 464d 4fbd a58a 8e3c 6043 92bd ca0f 09bd
00000030: 75dd ac3d 936e 9c3d 6a1b e6bb 0453 e83d
00000040: 5d27 d8bd 37fa bebc c352 8e3c 31c6 40bb
00000050: 51dc 29be 5b09 873d 8ba4 0dbe 38e6 a1bd
00000060: a6e6 123d 4d6a 1d3d 1a4a 533d 7080 423c
00000070: f37c cebd 8036 21bd 101c 073d c660 dcbe
00000080: 6ecc 16bd f460 30bd d1a2 d7bc cbef 003c
00000090: 8c22 36bd df5e 74ba d3f8 af3b c31a 1cbe
000000a0: a6ce 8bbe 659d 85bd 7c9b 09be 0dd4 043a
000000b0: 2641 693e b064 393e f9c1 bfbd f6bc bbbe
000000c0: 9d6d babe 18a9 a03b aaac a4bd 640e 12be
000000d0: b08a 643d b0d7 84bd 121f 8dbc 72f6 97bd
000000e0: eddf c7bc e100 9ebd 2469 29bd 050f 9b3d
000000f0: b6e8 72bc 8d2a 00be cb08 143e c66d 90be
00000100: 21ae df3d 0770 d53c 443e c7bd 19a6 db3c
00000110: 848b 7a3d 679f b8bd c58a 5abe 3f31 98bd
00000120: bf73 243e 10fb 3c3e 5889 69be 8f1a fbbe
00000130: 3804 173c cafe dbbd 402f 293e aeb3 113d
00000140: c9ed 60be 7374 f83c 4f59 0c3c 6faa 1fbe
00000150: 4a8c 2a3d 1a13 f23c 363d 3fbe b69e 93be
00000160: 41da 02be 74a2 aabd 5dbd 593d 8cba 6fbd
00000170: d426 083d 03cf 9cbe 8e84 b7bd 0b5a 9fbd
00000180: 1949 b93c 347c 2bbe 764a aabd 9cf3 47be
00000190: 4d9d 6bbe da05 093d fc01 083b 3b82 8cbd
000001a0: 7180 a0bb d64e 53bd 48ab 96bd b7cc 283d
000001b0: 46f9 49be 6dde e1bc 309d a23d 5626 263d
000001c0: dcfc cfbd 6bd7 70bd ab18 8fbe c359 24be
000001d0: 9fc4 433d a30a d2bd f777 afbc 587e 8b3d
000001e0: 2ae8 2dbd 5dfc 9c3d f1a7 83bc ceb9 b5bd
000001f0: da46 34be 7d08 0f3d caf2 61bd b59d 303d
00000200: f04a 05bd 7764 81bc c112 afbe 4737 053d
00000210: 49a0 993c 9dfb 87bd 1147 243d b7c1 1fbd
00000220: 429c d03c 36cf c13c aaa7 213d 688a 2cbd
00000230: 48e7 abbd 01cd ddbd 8910 11bd d4fa 96bb
00000240: a0be b9bd aa36 8bbb 7e78 01be d2b3 ec3c
00000250: 992c 3ebe 2a6c f33c 5d80 82bc 33ca debc
00000260: 70af 0a3d a6d9 01bd 2e58 3bbd fdf6 b23d
00000270: 13f3 323e a279 0abe 9be9 24be 209b 80bc
00000280: 821e 683d 632c 033e eddb 18bc 41a5 003d
00000290: cc86 363d 3b24 9e3d 90fa f9bd d4e2 01be
000002a0: 5367 5ebd b59e 4cbc f35a cbbc e891 4d3c
000002b0: 424f 06be 7f8f 2bbf 255c 40be 392c 00bc
000002c0: 83d9 9abe 15b3 a5bd 88f1 94bd d51d d0bd
000002d0: 2f49 443d 8f6b 3c3d 3d79 03bd 7ffe 4c3d
000002e0: 0191 07bd 46fe c8bd b042 723c 5061 95bc
000002f0: 0882 883a 44db 02be 953e 0bbe 0d35 4fbd
00000300: 9ca4 0cbe 99a8 973d 283e 85be 9ff5 ebbd
00000310: affe 243d 9af2 f3bb 1b1e 3dbd 5e60 0dbd
00000320: e348 853a 0dab a7bc dcb5 42be 4e40 81be
00000330: 6dff 93bd bb83 babe 9f4e c53d ffdb c03d
00000340: be1a 91bd a5da b33c 8229 2bbd 827a 85bd
00000350: 722d c5bc e4d6 c83d 6d99 38be d599 32bd
00000360: 6646 7bbd 81f3 513c 040c bb39 5821 8fbd
00000370: 70ce 2e3b be77 92be f708 21bd 1e19 b8bc
00000380: 4cc1 83be d514 b33e 7bd3 edbd 6db1 47be
00000390: 47d4 92bd 18d6 53bd e5bf 9abc a74e a4bc
000003a0: b138 e7bd 41d3 3f3e e37b 4c3d 9e99 12bd
000003b0: 4818 68be 5b29 54bc b451 72bd 61d2 383c
000003c0: f3c2 08bc ce4d 8d3d 02b9 a3bd 5b44 73bd
000003d0: 3855 45bd dc53 aa3d cedf bb3c 5eda bc3c
000003e0: 962c 05bf 8f0f 8bbb ee71 a43d 8b51 29bc
000003f0: e78c 133d 8319 0f3d 430c 34bd 4720 dbbc

fc.3.bias f4 [64]
0.025553288 -0.011502349 -0.1573906 -0.15290982 -0.041161317 -0.22677228 -0.2350278 0.17568314
-0.21642564 -0.28227106 0.09939827 0.032902837 0.0061797276 -0.10750359 -0.18797825 -0.14038327
-0.14810422 0.017408736 0.30471003 -0.15469907 -0.12367741 0.14549106 -0.20695706 -0.19474229
0.08552546 -0.14473917 -0.08343154 -0.11484687 -0.12303315 -0.13706012 0.07339998 -0.22056681
0.15236539 -0.010796083 -0.1305238 -0.16823816 -0.20534685 -0.09232736 -0.18265966 -0.15495133
0.007883749 -0.15167429 -0.24793322 0.10901828 -0.19966337 -0.04017918 -0.054002587 -0.29415214
-0.11022988 -0.23263344 0.04437703 -0.22025332 -0.1825776 -0.1181124 -0.2534243 0.033083044
-0.13237417 -0.10609274 -0.17234723 0.09197754 -0.16531374 0.039421536 -0.22135031 -0.21821365
00000000: 2155 d13c 5974 3cbc 002b 21be 6494 1cbe
00000010: c598 28bd fe36 68be 21ab 70be 48e6 333e
00000020: af9e 5dbe d585 90be 5291 cb3d 20c5 063d
00000030: 507f ca3b d82a dcbd 5f7d 40be a2c0 0fbe
00000040: a2a8 17be c49c 8e3c f402 9c3e 6f69 1ebe
00000050: 954a fdbd 9cfb 143e 8dec 53be 866a 47be
00000060: f927 af3d 8136 14be 28de aabd d634 ebbd
00000070: cef8 fbbd 7d59 0cbe bb52 963d 44dc 61be
00000080: ac05 1c3e 0ee2 30bc 08a8 05be a046 2cbe
00000090: 7246 52be 2016 bdbd 220b 3bbe 90ab 1ebe
000000a0: d72a 013c 8150 1bbe 35e2 7dbe fa44 df3d
000000b0: 8e74 4cbe ed92 24bd d131 5dbd 1c9b 96be
000000c0: 34c0 e1bd 7637 6ebe b0c4 353d 168a 61be
000000d0: 9ff5 3abe eae4 f1bd d4c0 81be 1682 073d
000000e0: 188d 07be 2747 d9bd cb7b 30be b85e bc3d
000000f0: 0148 29be 7a78 213d a8a9 62be 6673 5fbe

fc.5.weight f4 [4, 64]
-0.04906001 -0.041707702 -0.029376654 0.028002923 0.08688547 -0.0022021162 0.07057386 -0.07960622
0.003687022 -0.02459661 0.0595128 -0.11887616 -0.0724949 0.06383309 0.07113737 -0.016077058
0.007481162 -0.23518856 -0.07666379 0.13026462 0.009341524 -0.04513328 0.040437803 -0.13484201
-0.05327728 0.014233661 0.1322951 -0.025099972 0.0067301383 0.016412877 0.13323885 0.014010673
-0.08398508 0.1478185 0.1445218 -0.03670697 0.014857482 -0.015408895 0.009797869 -0.0077900807
-0.040219486 0.04344272 0.103926025 0.17231268 0.04335612 0.081815615 0.051187575 0.068102114
0.035294034 -0.00091450184 -0.094631605 0.01440668 -0.09442851 -0.0050625834 0.00767487 -0.011151933
-0.011153424 -0.049824923 0.25573188 -0.1363187 0.038187563 0.06603954 -0.05570582 -0.03145275
-0.04539615 0.023042446 0.00903348 -0.042981993 0.093171395 0.012261442 0.015301325 -0.12725765
0.026852785 0.030095365 -0.040314093 0.014630911 -0.06274347 -0.049739625 0.030530203 -0.015768304
0.098859586 -0.029176243 -0.07108775 -0.006355019 0.00028376284 -0.046086334 -0.0037847944 0.001623725
-0.057507947 0.02636824 0.06327119 -0.018864201 -0.055441193 -0.08902241 -0.068540305 0.036959935
-0.069359146 -0.03965019 0.009623636 0.014433133 0.016197482 -0.09167989 -0.0049270582 0.00040029714
-0.036731966 0.13719285 0.018370183 0.08162828 -0.016733726 -0.080087215 0.05061627 0.051324897
-0.019362979 0.031873915 0.1317447 -0.11534661 0.019169014 -0.035069827 -0.020735996 0.03608392
-0.0089905085 -0.050323226 0.0044099144 6.802774e-05 0.038283706 0.07349265 -0.01794686 -0.021064501
-0.04147384 0.080943644 -0.05748045 0.0125781065 0.060640354 0.008130691 0.12014494 -0.14240214
-0.0009353919 0.018654536 -0.01847509 -0.017628416 -0.09900557 -0.034724075 -0.0106749935 0.006750928
-0.11990932 -0.10016345 -0.07493529 0.019566251 0.12923677 -0.04547806 0.014205562 0.015035059
-0.058122795 0.06987713 0.14123806 0.05534014 -0.022222882 -0.092501074 -0.031197263 -0.0042905984
-0.09597932 -0.055943176 -0.07233847 -0.009631526 0.0073829913 -0.0026730967 0.029047834 -0.076934606
-0.05152248 0.094652206 -0.012909939 0.1504381 0.04595102 -0.038680267 0.040853485 0.018211238
-0.0012720407 0.00027581974 -0.066473626 0.013579177 -0.13623196 0.027529534 -0.11412901 0.17284524
-0.045843806 -0.051333316 -0.06644298 -0.09237249 -0.07706259 0.06532572 -0.0163531 -0.012304708
-0.0466872 0.0021471682 -0.01868736 -0.08343289 0.072817385 -0.015352055 0.077464476 -0.06893229
-0.0029609967 0.051316928 -0.008211301 0.00021996225 -0.056725528 -0.034691453 0.019286731 -0.010946418
0.017197045 -0.090205304 -0.07053777 0.06436542 0.030950937 -0.047789406 0.030572347 0.012908822
-0.0669696 0.013180182 0.1698073 0.0031489173 0.017881075 -0.002810265 -0.05620326 0.049166065
-0.1637696 -0.03613521 -0.026064185 0.047516905 0.009468002 -0.023567785 0.0012982689 0.109676115
-0.042465836 0.1055941 0.04686328 0.15457433 -0.08636365 -0.0753589 0.055774912 0.063485995
-0.09125806 -0.05400475 -0.0069362237 -0.047747 -0.067961864 0.05712938 0.04622601 0.2167542
-0.011605043 -0.043691073 0.05540001 -0.05595765 -0.020236274 0.07951805 -0.06313988 0.021694828
00000000: 26f3 48bd b2d5 2abd 4fa7 f0bc 6366 e53c
00000010: 02f1 b13d 6151 10bb 0789 903d 9608 a3bd
00000020: f7a1 713b d47e c9bc b2c3 733d 5875 f3bd
00000030: 3578 94bd ecba 823d 78b0 913d 09b4 83bc
00000040: 8924 f53b 45d5 70be e801 9dbd 1764 053e
00000050: 310d 193c addd 38bd 1ca2 253d 0614 0abe
00000060: 4739 5abd 4d34 693c 5e78 073e 759e cdbc
00000070: 7e88 dc3b 4c74 863c c46f 083e 068d 653c
00000080: 5f00 acbd bc5d 173e 86fd 133e 0c5a 16bd
00000090: cc6c 733c 9775 7cbc 3e87 203c ef43 ffbb
000000a0: 30bd 24bd fef0 313d 2bd7 d43d bc72 303e
000000b0: 3096 313d f28e a73d 10aa 513d 1f79 8b3d
000000c0: 7a90 103d 2ebb 6fba 37ce c1bd ff09 6c3c
000000d0: bc63 c1bd 07e4 a5bb 7a7d fb3b 99b6 36bc
000000e0: dabc 36bc 3815 4cbd 4aef 823e 2197 0bbe
000000f0: 906a 1c3d bd3f 873d c92b 64bd 99d4 00bd
00000100: 50f1 39bd 83c3 bc3c 2901 143c e30d 30bd
00000110: a5d0 be3d 37e4 483c 69b2 7a3c d44f 02be
00000120: 5ffa db3c 8e8a f63c 6420 25bd 7db6 6f3c
00000130: a67f 80bd c7bb 4bbd 7a1a fa3c 882c 81bc
00000140: e576 ca3d 0403 efbc 7496 91bd c33d d0bb
00000150: 01c6 9439 06c5 3cbd 500a 78bb 2cd3 d43a
00000160: 748d 6bbd 3502 d83c 5394 813d 1989 9abc
00000170: 4e16 63bd 6251 b6bd dc5e 8cbd 4d63 173d
00000180: 2b0c 8ebd 3d68 22bd 74ac 1d3c f378 6c3c
00000190: 95b0 843c abc2 bbbd 2973 a1bb f9de d139
000001a0: 4274 16bd 487c 0c3e 117d 963c ba2c a73d
000001b0: 2b15 89bc c404 a4bd 0253 4f3d 0e3a 523d
000001c0: 1c9f 9ebc 398e 023d 15e8 063e d83a ecbd
000001d0: 5608 9d3c 61a5 0fbd 89de a9bc bccc 133d
000001e0: ed4c 13bc ba1f 4ebd 0b81 903b 1daa 8e38
000001f0: 60cf 1c3d 5183 963d 4b05 93bc 768f acbc
00000200: 79e0 29bd c8c5 a53d 9f70 6bbd 6714 4e3c
00000210: 0562 783d 9736 053c 8d0e f63d ded1 11be
00000220: 1635 75ba 66d1 983c 1259 97bc 7869 90bc
00000230: 6fc3 cabd d53a 0ebd 2be6 2ebc e336 dd3b
00000240: 0493 f5bd 7f22 cdbd ac77 99bd 6749 a03c
00000250: a556 043e 3447 3abd 72be 683c 9c55 763c
00000260: 2b12 6ebd be1b 8f3d b6a0 103e 58ac 623d
00000270: c30c b6bc 3471 bdbd 6791 ffbc 2698 8cbb
00000280: ce90 c4bd ac24 65bd 3126 94bd 8ccd 1dbc
00000290: 05ed f13b 1f2f 2fbb b9f5 ed3c e48f 9dbd
000002a0: 3c09 53bd 04d9 c13d 3584 53bc 720c 1a3e
000002b0: 2337 3c3d 336f 1ebd fc55 273d bc2f 953c
000002c0: 9aba a6ba e69b 9039 5323 88bd 327b 5e3c
000002d0: 6480 0bbe 9e85 e13c 78bc e9bd 58fe 303e
000002e0: b7c6 3bbd e242 52bd 4213 88bd ca2d bdbd
000002f0: fed2 9dbd 7ec9 853d f0f6 85bc b099 49bc
00000300: 143b 3fbd 81b7 0c3b 3c16 99bc ddde aabd
00000310: 4821 953d 3087 7bbc b2a5 9e3d 5f2c 8dbd
00000320: 480d 42bb b331 523d b188 06bc aba5 6639
00000330: 0759 68bd a018 0ebd 35ff 9d3c 9b58 33bc
00000340: d1e0 8c3c 8fbd b8bd 1b76 90bd 04d2 833d
00000350: d28c fd3c d3be 43bd dc72 fa3c 867f 533c
00000360: 5c27 89bd b1f1 573c f7e1 2d3e 115e 4e3b
00000370: 557b 923c 6c2c 38bb 6435 66bd 5b62 493d
00000380: 38b3 27be 8402 14bd 8f84 d5bc 16a1 423d
00000390: ae1f 1b3c 3a11 c1bc ad2a aa3a df9d e03d
000003a0: a8f0 2dbd b841 d83d b6f3 3f3d bc48 1e3e
000003b0: 6ddf b0bd c455 9abd 3c74 643d f204 823d
000003c0: 81e5 babd 1634 5dbd 4349 e3bb 5c92 43bd
000003d0: 972f 8bbd 7f00 6a3d 7c57 3d3d d0f4 5d3e
000003e0: 1423 3ebc 69f5 32bd 1feb 623d d933 65bd
000003f0: 8bc6 a5bc 5cda a23d 7b4f 81bd 5ab9 b13c

fc.5.bias f4 [4]
0.046598252 0.045985933 0.047425378 0.04619953
00000000: cfdd 3e3d bf5b 3c3d 1d41 423d b83b 3d3d
