best_model.pth (torch, 140089 bytes, 6 tensors)

fc.1.weight f4 [128, 200]
000000 9c d8 e8 bc d0 98 bc 3c 13 61 8d 3d 70 9a 6c 3c
       -0.0284236 0.023022085 0.06903281 0.014441118
000010 b4 57 45 bd 50 34 90 bc e0 55 49 bb 24 75 02 3d
       -0.048179343 -0.01760307 -0.0030721352 0.031849995
000020 79 4e 6c bd 4e e4 5a bd 4e 56 74 bd bc 0e ff bc
       -0.057692025 -0.053440385 -0.05965262 -0.031134956
000030 99 68 71 bd 78 eb 15 3d 7a bc 70 bd d4 0b 2a 3d
       -0.058937643 0.036601514 -0.058773495 0.041515186
000040 0a f2 d3 bc c2 9a 85 bd fe 4e 4c bd 02 60 65 bd
       -0.02587225 -0.06523658 -0.04988002 -0.055999763
000050 8c 00 7d bc be 6e cc bc be ef 2d 3d 88 bf 6b bc
       -0.015442025 -0.02495515 0.042464964 -0.014388926
000060 f0 9f a1 3c ef 75 81 3d 80 24 7c 3a 80 20 17 bb
       0.019729584 0.06321322 0.0009618476 -0.0023060143
000070 20 ec 81 3c ce 84 73 3d 76 6d 7d 3d 14 8a d1 bc
       0.015859663 0.059452824 0.06187197 -0.025578536
000080 ce ed 48 bd 56 44 4b 3d d1 95 3a bd de 21 82 bd
       -0.049054913 0.049625717 -0.045553032 -0.06354116
000090 75 d0 8d 3d 00 c0 10 b8 24 9a bf bc 31 2e 1a bd
       0.06924526 -3.451109e-05 -0.02338893 -0.037641708
0000a0 86 f2 6b 3d fa 1d a5 bc 6b 92 54 bd 07 08 81 bd
       0.057604335 -0.020155896 -0.051897448 -0.06300359
0000b0 b0 1d dc bb 38 17 6b 3c 1f 9f 48 bd de 7d b9 bc
       -0.006717406 0.0143487975 -0.048979875 -0.022643026
0000c0 28 b4 2b 3c 35 7d 8d bd a2 9e 14 3d 64 33 b7 3c
       0.010479964 -0.06908647 0.036284097 0.022363372
0000d0 04 ea a0 3c fa d1 1e 3d f6 a5 6c bd 20 5b 90 bd
       0.019642837 0.038774468 -0.05777546 -0.07048631
0000e0 28 b2 6e bd 52 58 8e bd 64 ea bd 3c 36 b5 87 bd
       -0.05827537 -0.069504395 0.023183055 -0.0662636
0000f0 82 58 7a 3d ec b5 68 bc 44 bd 8f 3c e3 1c 16 bd
       0.061119564 -0.01420353 0.017546304 -0.036648642
000100 00 5d ff 3b 20 e1 d0 3b 9c c1 83 bd a8 e0 26 3c
       0.007793069 0.0063744932 -0.064334124 0.010185398
000110 e0 fd 0f 3d dd e1 1d bd 0a f1 4a 3d 5e 91 f9 bc
       0.035154223 -0.038545478 0.04954628 -0.030464824
000120 18 3c 37 3c 36 08 4d bd 96 26 ab bc ea 63 27 3d
       0.011183761 -0.05005666 -0.020892423 0.04086677
000130 a0 cb 36 3b 50 0f 28 bd 9c 25 a5 3c 36 d2 8b bd
       0.0027892366 -0.04103023 0.020159535 -0.06827204
000140 f4 20 e5 bc 45 f6 8f 3d d0 cd 6f bd 5a a7 82 bc
       -0.027969815 0.07029394 -0.058545887 -0.01594894
000150 64 a0 9e 3c 10 a7 53 bd 03 2f 9c bd 60 63 78 bd
       0.01936359 -0.051672995 -0.07626154 -0.060641646
000160 21 4e 8a 3d a8 73 c1 3c 56 d3 37 bd 81 61 8e 3d
       0.06753183 0.02361472 -0.04487928 0.06952191
000170 f8 dd 55 bc 04 61 b5 3c 4e 35 bd bc 9f 04 78 bd
       -0.01305341 0.022140987 -0.023096707 -0.060551282
000180 f1 1c 42 bd 20 f9 bc 3b f8 07 ce 3c 13 a8 1f bd
       -0.047390882 0.0057670027 0.025150284 -0.038978647
000190 ce 44 10 3d 68 85 35 bd 8b 9e 37 bd 5e 9f 75 bd
       0.035221867 -0.04431668 -0.044828933 -0.059966438
0001a0 ed 09 6d 3d f6 b8 a8 bd dc df 9b bc e0 86 0c 3c
       0.057870794 -0.082384035 -0.019027643 0.008577079
0001b0 40 70 de 3a 3c 6f 39 3d a8 d6 8b bd 86 5e 75 3d
       0.0016970709 0.045272097 -0.06828052 0.059904598
0001c0 d4 7e 95 bc 30 a2 82 bb ba ee f0 3c fa 5f a8 bc
       -0.018248953 -0.0039866194 0.029410709 -0.020553578
0001d0 dc 02 e7 3c 92 6b 16 3d 7a d0 07 bd 60 3b 36 bb
       0.028199606 0.03672368 -0.033157803 -0.0027806386
0001e0 c6 9e 4c bd 70 c6 38 3d f0 54 a9 3c e9 29 8a bd
       -0.049956106 0.04511112 0.020670384 -0.06746275
0001f0 b9 d0 e7 3c 4e dc 19 3d 02 0a 62 3d ed f2 24 bd
       0.028297769 0.037563615 0.055185325 -0.040270735
000200 b0 3f e0 bc b0 5b 7c 3c 9a 68 36 3d 4c 30 d2 bc
       -0.027374119 0.015402719 0.04453335 -0.025657795
000210 e5 60 8b 3b e2 47 68 bd 51 7b 0f 3c 7a 53 36 3d
       0.004253494 -0.056709178 0.008757428 0.044513203
000220 4b e8 23 3d 40 78 11 3c c4 be 2c 3d ac d4 4d bd
       0.040016454 0.0088787675 0.042174116 -0.050251648
000230 94 f5 2f 3c 6b 38 88 bd 70 2d 72 bd c1 eb 38 bc
       0.010739703 -0.06651386 -0.059125364 -0.011286677
000240 eb 76 f9 bc ed 4a 53 3c c1 8f 84 bd 0e cf 8a bd
       -0.030452212 0.012896282 -0.064727314 -0.06777774
000250 a4 59 03 3d 20 7f 89 bb d7 f4 84 bd 6a eb ed bc
       0.03206791 -0.0041960627 -0.06492012 -0.029042918
000260 70 fa e7 bc b7 a3 a3 bd 81 53 1c bd cf 9e 9e bd
       -0.02831766 -0.079902105 -0.038165573 -0.07745134
000270 60 43 6c bc ab a4 39 3d 3b 78 6b bc c4 f1 87 bc
       -0.01442036 0.045323055 -0.014371927 -0.016594775
000280 22 7e 2f 3d fd 58 84 3b aa 7b 63 bd 9c 34 ba bd
       0.0428449 0.0040389285 -0.055537857 -0.09092066
000290 76 fe e8 bc f4 0e 1e bc 76 5c 6a 3b c0 2c aa 3b
       -0.028441649 -0.00964712 0.0035760677 0.005193323
0002a0 0b 78 7e bd 25 80 c0 bc 26 77 9f bd 4c 4b 11 bd
       -0.0621262 -0.023498604 -0.07786398 -0.0354722
0002b0 3c ba be bd c2 0e 7f bd 74 26 43 3d b2 07 24 bd
       -0.09312865 -0.062269934 0.047644094 -0.0400464
0002c0 76 62 90 3c 6d 3a 86 3d f2 38 c8 bc 91 01 8d bd
       0.017625075 0.065541126 -0.024441216 -0.068850644
0002d0 8f dd 93 bb 99 e6 ed bc 9e eb 1c bd ff 05 d2 bc
       -0.004512496 -0.029040622 -0.03831064 -0.025637625
0002e0 6d 2c 03 3d be 47 75 bc 76 b4 15 bd 7f 39 21 3d
       0.03202479 -0.014970718 -0.036549054 0.039361473
0002f0 24 eb 58 bd e3 58 fb bb 75 80 86 bd 15 2b 97 3c
       -0.052958623 -0.007670508 -0.0656747 0.01845316
000300 92 5f 9d bd b7 8e ae 3b db 25 47 bc 99 37 2f bd
       -0.07684244 0.0053270715 -0.012155022 -0.04277763
000310 3b d2 f2 3c b9 8f 5f 3d 37 1e 23 bd 0d 1b 42 bd
       0.029641261 0.054580424 -0.039823737 -0.04738908
000320 cf 8b 88 3d c6 f0 4a bd 78 e6 c9 bc d4 0f 30 3d
       0.066672914 -0.049546026 -0.024646029 0.042983845
000330 d8 0c c1 bc 1c 8d 6a bc 80 73 9d 3b cd c1 8e bd
       -0.023565695 -0.01431587 0.0048050284 -0.06970558
000340 f8 bf 51 3c 3a 40 06 bd cc 14 cc bc f0 4a ea 3b
       0.012802117 -0.032776095 -0.02491226 0.0071500465
000350 ff d4 8d bd 05 38 2e bd bc 27 e2 bc 10 d9 a4 3b
       -0.069253914 -0.042533893 -0.027606837 0.0050307587
000360 5c 91 b6 bc 9a 43 ac bc 18 33 d2 3c ae 13 83 bd
       -0.02228611 -0.021028329 0.025659129 -0.06400238
000370 c4 a3 0e 3d 3a 54 34 bd 73 23 1c bd 66 6a 27 bd
       0.034824148 -0.044025637 -0.038119745 -0.040872954
000380 03 8b 15 bd a0 59 c3 3b c7 46 85 3d 24 a5 d9 3c
       -0.036509525 0.005961612 0.0650764 0.026568003
000390 5a dc 64 bd f5 19 51 bd 86 f9 4b 3d 20 1a 1a bc
       -0.055874206 -0.051050145 0.04979851 -0.009405643
0003a0 dd e6 76 bd 94 bc 64 bc 6a ce 28 3b 4b b5 78 3b
       -0.060278762 -0.013960976 0.0025757798 0.0037949856
0003b0 cc 15 1d bd 40 37 8a 3b 90 24 2d 3d 80 85 57 3c
       -0.038350865 0.004218012 0.042271197 0.0131543875
0003c0 a6 a3 2d 3d 59 e7 2d 3d 8d f4 32 bd 8a 2f 6e 3d
       0.042392395 0.04245696 -0.043690253 0.058150806
0003d0 66 dc 49 bd 5c 96 61 bd e7 45 81 3c 6e 00 8a bd
       -0.049282454 -0.055075034 0.015780402 -0.06738363
0003e0 1b 2c 18 bd 64 69 33 bd 8f 02 69 3d e5 90 69 3d
       -0.037151437 -0.04380168 0.056887206 0.057022948
0003f0 38 29 e6 ba ee d1 50 3d 04 c1 a4 bc bc d7 65 bc
       -0.0017559892 0.050981455 -0.020111568 -0.014028486

fc.1.bias f4 [128]
000000 7f 83 2a bd 7c 3d f1 3b 02 e4 79 bd 2b f3 01 3c
       -0.04162931 0.007362066 -0.06100846 0.007931511
000010 bb a2 e7 bc f6 46 c0 bd 8f 97 d8 bd 60 22 2f ba
       -0.028275838 -0.09388535 -0.105757825 -0.00066808425
000020 1b 16 18 bd 22 c3 3c bd db 5c 85 bd 04 65 0a bd
       -0.037130456 -0.04608453 -0.065118514 -0.033787742
000030 01 34 84 bd ea 6a 8c bd 6d 4e e2 bd 38 92 17 bc
       -0.064552315 -0.0685633 -0.11050115 -0.00925117
000040 4e 01 3e bd 85 4e d8 bd 62 46 98 3b ff c8 53 bd
       -0.046387963 -0.105618514 0.004647062 -0.051705357
000050 17 c1 66 3d 63 09 38 bd db 67 14 3d 8b 3a 00 be
       0.05633649 -0.044930827 0.036231857 -0.12522332
000060 fc 05 7f bd 63 6e c7 bd a1 65 c3 3b 69 62 15 3d
       -0.062261567 -0.097378515 0.005963043 0.036470804
000070 a9 1b 0f bd 47 72 59 3c a3 64 71 bd 01 0b fe 3c
       -0.03493849 0.013271875 -0.058933865 0.031011106
000080 a5 1b aa bb 50 13 d6 3c 3e ba cc ba 14 4d db bb
       -0.0051912838 0.026132256 -0.0015619469 -0.006692538
000090 95 b0 2e 3d 5d 68 f6 bd 7c c6 9b bc 1c 6e 64 bc
       0.04264887 -0.120316245 -0.019015543 -0.013942268
0000a0 71 3f d4 bb ac 47 57 bb 85 11 81 bd 23 d8 02 bb
       -0.0064772894 -0.0032849116 -0.0630217 -0.0019965253
0000b0 77 0b 26 bd 20 91 a9 bc af 25 b1 ba 04 4f 95 bd
       -0.040538277 -0.020699084 -0.0013515259 -0.07290462
0000c0 f6 2d 3f 3d 4c 83 93 bd 65 bc 45 bc 65 09 92 bd
       0.04667469 -0.07202777 -0.012068843 -0.07130698
0000d0 8e 92 7b bd 4c f8 c4 bd b4 89 42 3d d3 d2 f6 bc
       -0.061419062 -0.09617671 0.047494605 -0.030129826
0000e0 56 cd 95 3c aa 55 a8 bd 4b a2 0f 3d 18 03 24 bd
       0.018286388 -0.08219464 0.035066884 -0.040042013
0000f0 f0 58 c7 bd 97 e3 c1 bb 42 9d dc 3c 17 8e 0f 3d
       -0.0973376 -0.0059170234 0.026930455 0.035047617
000100 05 db 4b 3d 3a c2 cb bd a8 73 14 3d 8c 59 19 be
       0.04976942 -0.09949155 0.03624311 -0.14975566
000110 c5 96 0f 3d e4 fc b3 bb af 50 57 bd fe 5e 0e bd
       0.035055894 -0.0054927934 -0.05256718 -0.03475856
000120 91 02 70 bb b3 a2 8d 3d 88 a0 bf 3c a0 fc 4c 3d
       -0.0036622623 0.06915798 0.023391977 0.05004561
000130 01 30 d6 bd 17 c7 1e bd 0a 7c 09 3d 5f 0d e5 bd
       -0.10458375 -0.038764086 0.03356556 -0.11184191
000140 29 50 38 bb 9c 6b 0e bd 35 a4 4a 3d b1 ce 25 bd
       -0.002812395 -0.034770593 0.049473006 -0.04048032
000150 c2 b5 b6 bd d1 00 a6 bd 68 79 33 bd ce ba 9c 3d
       -0.08921386 -0.081056245 -0.043816954 0.07652818
000160 f0 b0 93 bd 52 04 98 bc 8b f8 8c bd 01 3f ec 3c
       -0.072114825 -0.018556748 -0.06883343 0.028838636
000170 9e 41 a8 bd 04 67 86 3d 5f 85 8c bd 01 60 53 3d
       -0.082156405 0.065626174 -0.06861376 0.05160523
000180 5c 5b 45 3d 20 14 20 39 54 74 c2 bd c9 d8 2c bc
       0.04818283 0.00015266286 -0.09494844 -0.0105497325
000190 62 9c a5 bd cd af fa bd 5b 89 42 3c d6 9b c8 bd
       -0.08086468 -0.122405626 0.011873568 -0.09795348
0001a0 2b ec bc bd bc 46 32 3d 59 dc 14 3c cf 4a f4 bd
       -0.09224733 0.04352449 0.009085738 -0.11928331
0001b0 0a 42 f5 ba 96 12 07 bd aa 3d 05 3d 98 c6 46 bd
       -0.0018711698 -0.03297671 0.03252951 -0.048529238
0001c0 97 1e 24 bd d5 7d f9 bb 95 d4 c7 3c 71 ff 2a 3d
       -0.040068235 -0.0076138773 0.02439336 0.041747514
0001d0 ec bf fe bd c7 10 91 bd ff 48 8b 3c bb e0 7a bd
       -0.1243895 -0.07083278 0.01700258 -0.061249476
0001e0 42 97 8d bd 12 05 b1 bd a1 fa 83 bd c8 9f a6 3d
       -0.06913616 -0.08643545 -0.06444288 0.081359446
0001f0 83 63 d9 ba 84 1a 21 3c 47 9e df bd 6d 59 1a bc
       -0.0016585443 0.009832982 -0.10918861 -0.009420735

fc.3.weight f4 [64, 128]
000000 58 35 77 3c 66 71 b4 ba 19 5a 72 bd d3 ed 6d bd
       0.015088402 -0.0013766706 -0.059167955 -0.058088135
000010 a4 5a 00 3d 8d 8a 7b 3a ec a0 2e bc 44 3c b5 bb
       0.03133644 0.0009595536 -0.010658484 -0.005530866
000020 46 4d 4f bd a5 8a 8e 3c af c5 5a bd bc 27 20 bc
       -0.050610803 0.017400095 -0.053411182 -0.009775098
000030 75 dd ac 3d 93 6e 9c 3d 6a 1b e6 bb 3e 36 15 3d
       0.08440677 0.07638278 -0.007022311 0.036428683
000040 5b c5 5a 3c 37 fa be bc 5d 76 5e bd 31 c6 40 bb
       0.013352717 -0.023312671 -0.0543121 -0.0029415006
000050 c0 a8 f1 bd 99 84 82 3d a8 07 a0 bd 23 f4 d3 bd
       -0.11799765 0.06372947 -0.0781396 -0.103493
000060 a6 e6 12 3d 6b ba 87 bd 1a 4a 53 3d b0 9f b9 bc
       0.035864495 -0.06627353 0.05158434 -0.022659153
000070 e7 d6 92 3c 9d c6 9d bd 19 42 13 bd d3 b0 6f bd
       0.017924739 -0.07703898 -0.035951708 -0.058518242
000080 c4 41 64 bd ac 92 ed bc d1 a2 d7 bc cb ef 00 3c
       -0.05572678 -0.029000603 -0.026322754 0.007869671
000090 71 ed c9 bd df 5e 74 ba 96 ba db 3c e8 2d 1d be
       -0.098597415 -0.0009321998 0.02682237 -0.15349543
0000a0 e9 f5 9e bc 65 9d 85 bd 7c 9b 09 be f1 6f 7f 3d
       -0.019404368 -0.06524161 -0.13438219 0.062362615
0000b0 f9 fd 2a 3e 45 ab 22 3d 91 04 e0 bd 51 82 8f 3c
       0.16698445 0.039714117 -0.10938371 0.017518194
0000c0 3c 79 ea bd 18 a9 a0 3b aa ac a4 bd 5e 13 1e be
       -0.11448905 0.00490297 -0.080407456 -0.15437075
0000d0 b0 8a 64 3d b0 d7 84 bd 1c 24 73 bd cc f5 58 bd
       0.055796325 -0.064864516 -0.05936061 -0.052968785
0000e0 64 2a e4 3b e1 00 9e bd b2 15 e7 bc 5c 96 c7 3d
       0.006963061 -0.077150114 -0.028208587 0.09745476
0000f0 a0 cf 9b bc 9c 09 3c 3b d1 a6 00 3e 22 d5 79 be
       -0.019019902 0.002869225 0.12563635 -0.2439771
000100 0d 81 dc bc 07 70 d5 3c 94 d9 e7 bc 19 a6 db 3c
       -0.026917005 0.026054395 -0.028301992 0.0268126
000110 2d 3a 79 3d 19 25 33 bd f5 2d 91 3d 31 f2 83 bd
       0.060846496 -0.04373655 0.07088844 -0.06442679
000120 3f a3 05 3d e3 d5 ab 3c bb 8b 28 be 74 d4 e1 bd
       0.032626387 0.020976013 -0.16459553 -0.1102685
000130 38 04 17 3c c4 ce 20 be 40 2f 29 3e ae b3 11 3d
       0.009217314 -0.15703875 0.1652193 0.035571747
000140 6e 30 9d 3c 73 74 f8 3c 7a 8c 07 3d 51 58 9b 3d
       0.019188132 0.030328965 0.033092953 0.075852044
000150 4a 8c 2a 3d 70 9c 0b 3d 95 70 53 bd e8 de 3e bd
       0.041637696 0.034084737 -0.05162104 -0.0465993
000160 7a 68 d1 bd 74 a2 aa bd b6 79 52 3d 62 d8 fe 3c
       -0.102250054 -0.08331767 0.051385604 0.031109039
000170 57 b5 8e 3d f9 c7 a4 bd 8e 84 b7 bd ee 50 6a bc
       0.069681816 -0.08045954 -0.0896083 -0.014301522
000180 d5 10 4e 3c 36 00 40 3d f8 33 55 bd 17 b7 d7 bd
       0.012577255 0.0468752 -0.052051514 -0.105329685
000190 bf e8 a1 bd d5 50 8c 3d bd 1c b5 3d 3b 82 8c bd
       -0.07905721 0.06851355 0.08843372 -0.06860777
0001a0 e0 2a 7d bc 9f 32 c7 bd 48 ab 96 bd b7 cc 28 3d
       -0.015452117 -0.09726452 -0.07356888 0.041210856
0001b0 71 bd 45 be 6d de e1 bc a2 50 ae 3c 56 26 26 3d
       -0.19310547 -0.027571881 0.021278683 0.040563904
0001c0 3e 0e 15 3d 6b d7 70 bd cf 41 d7 bd 8c dd 7e bd
       0.036390536 -0.05879919 -0.10510599 -0.062223002
0001d0 9f c4 43 3d a3 0a d2 bd 64 e9 cf bc 58 7e 8b 3d
       0.047794934 -0.10255935 -0.025379844 0.068112075
0001e0 1d 26 82 bd 47 5d bc 3b f1 a7 83 bc ba 7f 86 be
       -0.06354926 0.005748424 -0.016071292 -0.26269323
0001f0 11 07 e8 bc ec 19 46 3d ca f2 61 bd 8c 34 d5 bb
       -0.028323682 0.048364565 -0.055163182 -0.006506508
000200 b9 8e 18 bc 52 26 2d bd 13 25 04 be 90 a7 26 3d
       -0.0093113715 -0.042272873 -0.12904768 0.040687144
000210 2f d6 09 bc 9d fb 87 bd ad 13 c4 3b b2 92 3c 3d
       -0.008412882 -0.06639788 0.005983791 0.046038337
000220 42 9c d0 3c 8d fc 8e bb 6b 8f 43 ba 8c 77 8d bc
       0.025465135 -0.0043636025 -0.00074600306 -0.017268918
000230 48 e7 ab bd 5b 8c 0f bd 89 10 11 bd 47 f7 ce 3c
       -0.08393723 -0.035045963 -0.03541616 0.025264395
000240 51 ad bb bc aa 36 8b bb 36 cc 80 3d 03 30 4c 3c
       -0.022909792 -0.00424846 0.0628895 0.012462619
000250 c0 b1 25 bd b1 7a 46 bd 40 98 35 3d 33 ca de bc
       -0.04045272 -0.04845685 0.04433465 -0.027196025
000260 48 5a 57 3d f5 af 2c 3b e9 10 ad bd 51 50 60 3d
       0.052576333 0.0026349996 -0.08450491 0.054764096
000270 be 79 ab 3b cc 4e ad bc 10 96 34 be 35 8d 2b 3d
       0.0052330187 -0.021155737 -0.1763537 0.041882712
000280 82 1e 68 3d ea 0f ef 3d cc ab 7e bb 75 83 43 3d
       0.05666972 0.11672957 -0.0038859723 0.04773279
000290 56 f7 e3 3c 06 a3 72 3d 0c c2 59 3c 91 c6 20 bb
       0.0278279 0.059237503 0.013290893 -0.0024532417
0002a0 a2 46 b5 3d d5 5f 07 bc 90 fa 86 bb d6 a9 a6 bc
       0.08851363 -0.008262594 -0.004119225 -0.020344656
0002b0 23 d5 69 bd f2 ab b8 bc a4 3e d0 bb df 8c 19 bd
       -0.05708803 -0.022542927 -0.0063551236 -0.03748786
0002c0 3c 82 65 3b 15 b3 a5 bd 54 c2 af bd 57 98 be 3c
       0.0035020253 -0.08090798 -0.08581987 0.023266
0002d0 15 1a 59 3d 8f 6b 3c 3d b9 ac 8d bd 00 09 85 3c
       0.05300339 0.046001013 -0.0691771 0.016239643
0002e0 17 d4 54 bd d2 03 cf bd a1 80 4e bd 69 c2 59 bd
       -0.051960077 -0.101081505 -0.05041564 -0.05316392
0002f0 72 ae 05 3d 25 b1 2f 3d 2a 93 91 bc b1 bb 4a bc
       0.032637067 0.042893548 -0.017770369 -0.012373851
000300 37 ce 0e bd b6 37 99 3d 77 2a 08 bd 9f f5 eb bd
       -0.03486463 0.07481329 -0.033243623 -0.11521458
000310 8d 4a 24 3d a4 ff bd 3c 2e 9b 3d 3c 52 66 fc bc
       0.04011016 0.023193188 0.011572642 -0.030810509
000320 4a 1a 85 3d 9a c0 f1 3c 19 51 35 3d 7e 12 1a 3d
       0.06499155 0.029510785 0.044266794 0.03761529
000330 6d ff 93 bd e5 51 41 bc 38 0c a7 3d ff db c0 3d
       -0.07226453 -0.01179931 0.081566274 0.09416961
000340 c9 de 22 bd 0c 1f 1f bc 17 69 35 bd 02 37 f8 3d
       -0.039763246 -0.009711992 -0.044289675 0.12119867
000350 72 2d c5 bc f0 3e fa 3c b7 46 9c 3d c3 35 9c bc
       -0.024069522 0.030547589 0.07630675 -0.019068604
000360 05 77 b7 bd 6c 85 91 3c 65 92 ad bc ca 2d 55 3c
       -0.08958248 0.017763816 -0.02118797 0.013011405
000370 18 e4 55 bc 29 70 5e 3a f7 08 21 bd 46 ff f4 bc
       -0.01305487 0.0008485341 -0.03931519 -0.02990688
000380 43 c1 04 3d 8e 8a 7c 3c f8 e2 ae bd 09 b8 92 3d
       0.03241087 0.015413893 -0.085393846 0.07164008
000390 c4 db 73 bb 0b a5 2f bd 86 ce 3c bc 96 c0 38 bd
       -0.0037209848 -0.042882007 -0.011523848 -0.04510554
0003a0 f0 6a 9e 3c 02 78 be 3d a3 cb 9b 3d 9e 99 12 bd
       0.019338101 0.093002334 0.076072 -0.035791032
0003b0 39 a1 ac bd 5b 29 54 bc a5 e6 1f 3d d7 b9 ba 3b
       -0.08429188 -0.012949313 0.03903832 0.0056984234
0003c0 5c 66 00 bd 95 67 52 3d 9c 6e 0c bb ce 9a 68 bd
       -0.031347618 0.051368315 -0.0021428233 -0.05678826
0003d0 a4 71 85 bd 08 81 49 3d fb ef 70 3c 10 e7 57 3d
       -0.06515816 0.04919532 0.014705653 0.052710593
0003e0 4a 81 96 bd 8f 0f 8b bb ee 71 a4 3d f1 4b 5d bd
       -0.07348879 -0.004243798 0.08029543 -0.0540275
0003f0 b9 a1 38 3d 48 eb 00 3d 43 0c 34 bd 56 5a 55 3b
       0.045076106 0.03147438 -0.043957006 0.0032555065

fc.3.bias f4 [64]
000000 33 4c 3b 3d d1 6a bf 3d d9 c6 c8 bd ea 6f 95 bd
       0.045726966 0.093465455 -0.09803552 -0.072967365
000010 c2 b9 90 3d 57 03 a3 bd 26 6a 98 bd 59 ed 4b 3d
       0.070666805 -0.079596214 -0.07442121 0.0497869
000020 6c 8d a9 3d 6c 63 0b be 4e fb 85 3d 8b 76 68 3d
       0.08278927 -0.13612145 0.06542073 0.056753676
000030 b2 53 5c bc 63 46 6d bd 0a e1 62 bd 7e 48 6c bd
       -0.013447689 -0.057928454 -0.055390395 -0.05768632
000040 12 6e f4 3c 57 df 5e 3d 80 81 ca 3d 5e 32 51 bd
       0.029837642 0.054412212 0.098879814 -0.051073425
000050 8b 10 50 bd 15 11 61 3d ea fd c4 bd 4f d7 43 bd
       -0.050797027 0.05494793 -0.09618743 -0.047812756
000060 7f 44 ea 3c 12 15 c2 bd 37 2a 9b 3b bd b6 1d bd
       0.028597115 -0.09476675 0.004735257 -0.03850435
000070 5e ea 8b bd a5 6e ad bd 88 88 c8 bd be e4 aa bd
       -0.06831811 -0.084683694 -0.09791666 -0.0834441
000080 cc aa 9a 3d 7c 28 bc 3d c9 e6 e9 bd c7 80 7c bd
       0.07552108 0.09187409 -0.11420972 -0.06164625
000090 64 18 06 be 0d 0a 7a 3d bd 70 6d bd b2 ad 8d bd
       -0.13095242 0.06104474 -0.057968844 -0.069178954
0000a0 f1 88 b9 3c db 83 48 bd a4 2d 52 bd 30 76 d9 3a
       0.022648307 -0.048953872 -0.051313058 0.0016591009
0000b0 3a 01 d8 bd fe f4 21 3c dc 17 aa 3d 5c e0 b1 bd
       -0.10547109 0.009885071 0.08305332 -0.08685371
0000c0 da 96 54 bd ac b3 81 bd a1 ec d8 3c 43 91 c4 bd
       -0.051901676 -0.06333098 0.026480021 -0.09598019
0000d0 d8 c1 02 be f0 65 b3 bd 3c 1f cf bd a0 38 bb 3c
       -0.12769258 -0.087596774 -0.10113379 0.02285415
0000e0 07 1d cd bd e0 17 e8 3c a7 5f 63 bd 28 52 5d 3d
       -0.10015302 0.028331697 -0.055511143 0.05403343
0000f0 29 62 ea bd 00 b0 88 3d 9d 2b d1 bd 52 66 e0 bd
       -0.11444504 0.06674194 -0.10213397 -0.10957016

fc.5.weight f4 [4, 64]
000000 63 d3 86 3c 2a 66 63 bd e5 12 e0 3b 4e 8b 8f bc
       0.016458219 -0.055517353 0.00683819 -0.01752248
000010 10 cd d3 3c 1e bc 29 bc 4a 74 7b 3d 66 68 e5 3c
       0.025854617 -0.010359792 0.0613902 0.028003883
000020 32 6e 9d bd 95 f6 78 bd 85 71 9c bd 7b 33 a5 bc
       -0.07687034 -0.060782034 -0.0763884 -0.02016615
000030 f0 1d f0 bd ec ba 82 3d 80 ba ab bc 7a cf 42 bc
       -0.1172446 0.06383309 -0.020962954 -0.011890287
000040 99 e5 c5 3c f0 83 2f be 9e ab f5 bd 56 e4 f6 bc
       0.024157332 -0.17140174 -0.11995624 -0.030138176
000050 46 3b 01 bd dc db 87 3c 8e 0c 3c bc 49 29 cc bd
       -0.03155067 0.01658433 -0.011477603 -0.09968812
000060 de d7 9c bd c2 a6 cb bc 4e 45 5d 3d 9f 88 79 bc
       -0.07658361 -0.02485979 0.054021172 -0.015230327
000070 de 67 31 3b 4c 74 86 3c 81 d6 95 bc 95 d5 6f bc
       0.0027069966 0.016412877 -0.01829076 -0.014638324
000080 57 0a e3 bd 8d 20 52 bd 4e 66 64 bb ac 3b 9d bd
       -0.110859565 -0.051300574 -0.0034851017 -0.07677397
000090 b7 a6 80 bc 7f 52 a1 bc 36 f3 39 bd 24 01 22 bd
       -0.015704496 -0.019692658 -0.04539796 -0.03955187
0000a0 d0 f5 6c bd ab b4 82 3d 02 9b 06 bd 5f 34 ab 3d
       -0.057851613 0.06382116 -0.03286267 0.08359598
0000b0 0b 1f c0 3d d7 6c 43 3d 1c c4 02 be ce 71 c0 3d
       0.09380921 0.04771122 -0.12770122 0.093967065
0000c0 db 78 67 3d 31 58 92 3c bf ae 3c 3a e8 40 0d ba
       0.05651174 0.017864319 0.000719767 -0.0005388395
0000d0 a0 e4 be 3b 7d f5 59 3c d4 8a 30 bd 00 2d cf bd
       0.005825594 0.013303158 -0.043101147 -0.10116005
0000e0 14 ca b8 bb 4f 88 0d bd c8 2b 0c 3e 61 a5 ed bb
       -0.005639324 -0.034553822 0.13688576 -0.0072523807
0000f0 c4 b2 4e 3d 51 3e 5e bc d9 c5 3f 3d bc 65 9e 3c
       0.050463453 -0.013564662 0.04681954 0.01933562
000100 cd 14 1e bd 95 d9 2d 3d 87 73 5a bc 27 48 84 bd
       -0.038594056 0.04244383 -0.013333208 -0.064590745
000110 8f 93 24 bc b5 79 ae 3c 68 38 65 3d a5 6a 96 3b
       -0.010044946 0.021298269 0.055961996 0.0045903497
000120 d1 63 b5 3c f2 2d 0a bd 05 4a c1 bd dc 9d 73 bd
       0.022142323 -0.033735223 -0.09437946 -0.05947672
000130 9f b6 25 3d 90 be 52 bd fc 5d ae 3d 88 2c 81 bc
       0.040457364 -0.051451266 0.0851402 -0.015768304
000140 d3 73 33 bd 26 fe 06 be 38 3f a6 bd 33 e7 0f 3e
       -0.04381163 -0.13182887 -0.08117527 0.14053039
000150 72 99 3b 3c e2 06 fc bc ad 54 3a 3d e8 46 90 bd
       0.011450158 -0.030765 0.04549091 -0.07044774
000160 b5 20 44 bd 10 a3 c7 3d 80 37 80 bd cd a4 84 bd
       -0.047882754 0.097478986 -0.06260586 -0.06476746
000170 2e 2c 8c bc 3a d3 d5 bd 70 1a b9 bb 51 5e 9c 3d
       -0.01711091 -0.10440679 -0.0056489035 0.07635177
000180 ce 39 1a bd e5 84 67 3c 5e 2f 15 bd cd 18 73 3d
       -0.037652783 0.014130806 -0.036422126 0.059349824
000190 86 c0 da bc dd 55 2b 3c 90 db 7b 3c 0f e8 b7 3c
       -0.02670313 0.010457483 0.015372172 0.022449521
0001a0 18 49 36 3c dc 63 d1 3a 35 a0 04 3d 41 74 2e 3d
       0.011125825 0.0015975195 0.032379348 0.042591337
0001b0 2a 70 43 3d f1 0b 56 3d 11 b5 50 bd e0 dd a5 bd
       0.04771439 0.052257482 -0.05095393 -0.0809896
0001c0 1c 9f 9e bc 40 bf 4c 3c 6d 96 d9 bc fc 66 01 bc
       -0.019362979 0.012496769 -0.026560986 -0.007898089
0001d0 10 d8 33 bc dc 73 7f bd 24 b1 24 bd 75 8f f4 bc
       -0.010976806 -0.06236635 -0.040207997 -0.029853562
0001e0 9a 8f e8 bc dd 9b 0b bd 5c 4a 7a 3d 5e 55 d4 bd
       -0.028388787 -0.03408419 0.06110607 -0.10367845
0001f0 15 7d a5 3b 59 86 e0 3d 8e b7 28 3d cf dc f9 bc
       0.0050503113 0.10963125 0.041190676 -0.030500798
000200 46 4d b4 bd ee 2e ae 3c 9f 70 6b bd 25 60 2d 3d
       -0.08803801 0.021262612 -0.05748045 0.04232802
000210 18 04 8e 3d 65 61 24 bd c0 b1 52 bd 28 b1 20 3b
       0.069343746 -0.040131945 -0.051439047 0.0024519656
000220 80 dc 61 3d 56 9b 95 3c 51 6c 75 bd bd a8 1d bd
       0.055141926 0.018262547 -0.05991775 -0.038491
000230 91 73 ab 3c ec c9 26 bd 51 de ac bd e3 36 dd 3b
       0.02092913 -0.04071991 -0.08440841 0.006750928
000240 52 6b 24 3d 74 89 28 bc b6 73 e0 bd 57 d6 43 3d
       0.04014141 -0.010286678 -0.1095957 0.047811832
000250 a5 56 04 3e e4 71 f3 bd 85 e1 31 3c 1f 3e f8 3d
       0.12923677 -0.11886957 0.010856991 0.12121224
000260 18 c8 71 bd 2f 87 9f 3d db 24 34 3d 20 9c ca 3c
       -0.059028715 0.07789456 0.04398046 0.02473265
000270 dc ff 9a bb 34 71 bd bd ca 14 ed bc bd 19 2b bd
       -0.004730208 -0.092501074 -0.028940577 -0.041772593
000280 26 39 8d bd 16 e5 95 3d e5 d7 36 bd 5b 46 ce bc
       -0.06895666 0.07319085 -0.044639487 -0.025180032
000290 5b 59 19 3d 36 32 91 bb 22 c2 7b bc de fb d3 bd
       0.03743873 -0.0044310344 -0.015366109 -0.10350774
0002a0 ef 2e cb bc 34 5e 18 3d 51 73 15 3e a8 13 4a 3c
       -0.024802653 0.037199214 0.14594771 0.012333788
0002b0 7f 3b 68 bc 78 b8 ae 3d da 0f 93 bd a3 52 cd 3c
       -0.014174341 0.08531278 -0.07180758 0.025063818
0002c0 e5 f8 5a 3c 96 32 d1 bc dd 8e 33 3d 87 1a d6 3d
       0.013365005 -0.025536817 0.043837417 0.104542784
0002d0 db 48 d5 ba a8 e5 86 3d 60 c2 7a 3d 98 50 27 3d
       -0.0016272323 0.06586772 0.061220527 0.040848345
0002e0 de ae 14 3c f8 07 86 3d 69 ca b8 3d 5c b2 1c bc
       0.009074895 0.06544489 0.09022982 -0.009564009
0002f0 db 85 4b bd 14 78 af 3d e9 e1 ca 3c 7b ee 21 bd
       -0.0496882 0.08567825 0.024765925 -0.039534073
000300 4e d2 6a bd 05 a1 b9 bd 3c 16 99 bc d1 f1 d5 bd
       -0.05732947 -0.09063915 -0.01868736 -0.104465134
000310 d0 51 ef 3c 6b 65 af 3c b8 17 18 3d 86 b9 84 bd
       0.029213816 0.021410665 0.037131995 -0.06480698
000320 0b 90 d6 3b f8 dc 6b 3d ed e5 cb bd 45 2f 68 bd
       0.006547933 0.05758378 -0.09955964 -0.056685705
000330 78 f2 85 bc a0 18 0e bd 10 71 b5 ba 9b 58 33 bc
       -0.01635097 -0.034691453 -0.0013842899 -0.010946418
000340 55 05 56 bd f2 88 f7 bd 8c e4 6c bd 37 f7 55 3d
       -0.05225118 -0.12086667 -0.057835147 0.052237716
000350 e8 52 33 3d 1b d1 a9 bc 67 c7 79 3c df 40 25 3e
       0.043780237 -0.020729592 0.015245295 0.16138028
000360 21 1d f0 bc b1 f1 57 3c 17 01 43 3d c2 29 3a 3b
       -0.029310765 0.013180182 0.04760846 0.0028406237
000370 26 df 0b 3d 41 bd 33 bc 03 d3 52 bd 09 76 36 bd
       0.034148358 -0.010970415 -0.051470768 -0.04454616
000380 1e 9f 84 bd 35 cc 8e bd 8c 21 59 3d 6c 78 54 3d
       -0.06475662 -0.06972543 0.05301051 0.051872656
000390 ae 1f 1b 3c 89 60 5b bd a7 df 92 3c 4f 52 10 3e
       0.009468002 -0.05355886 0.017928911 0.14093898
0003a0 0f 8d ad 3c 39 ea 36 3d 7d cd 22 bd 93 ef e1 bc
       0.021185426 0.044656966 -0.03974675 -0.027580058
0003b0 12 a6 9a bd 92 ad 3d 3d 81 f0 87 bd 57 3d 02 3d
       -0.07551207 0.046308108 -0.06637669 0.03179678
0003c0 81 e5 ba bd 37 c1 db 3c bc 3c f8 bc e0 6e 06 3d
       -0.09125806 0.02682553 -0.030302398 0.032820582
0003d0 49 94 3a 3d 7f 00 6a 3d 20 93 d7 bd 2e 77 80 bb
       0.045551572 0.05712938 -0.10526109 -0.0039204573
0003e0 a0 80 22 3b e1 ef ea 3b 39 69 4b 3e c4 60 b1 bd
       0.0024795905 0.007169709 0.19864358 -0.08661035
0003f0 a0 d7 3c 3c 1d 2b 4d 3d a9 48 22 3c cd b7 2c 3d
       0.011526018 0.050089944 0.009905019 0.042167474

fc.5.bias f4 [4]
000000 a5 23 2c 3d da 02 67 3c 42 48 a2 bb d0 ff 22 3d
       0.04202618 0.014099801 -0.0049524615 0.039794743
