best_model.pth (torch, 140089 bytes, 6 tensors)

fc.1.weight f4 [128, 200]
0	0xbce8d89c	-0.0284236
1	0x3cbc98d0	0.023022085
2	0x3d8d6113	0.06903281
3	0x3c6c9a70	0.014441118
4	0xbd4557b4	-0.048179343
5	0xbc903450	-0.01760307
6	0xbb4955e0	-0.0030721352
7	0x3d027524	0.031849995
8	0xbd6c4e79	-0.057692025
9	0xbd5ae44e	-0.053440385
10	0xbd74564e	-0.05965262
11	0xbcff0ebc	-0.031134956
12	0xbd716899	-0.058937643
13	0x3d15eb78	0.036601514
14	0xbd70bc7a	-0.058773495
15	0x3d2a0bd4	0.041515186
16	0xbcd3f20a	-0.02587225
17	0xbd859ac2	-0.06523658
18	0xbd4c4efe	-0.04988002
19	0xbd656002	-0.055999763
20	0xbc7d008c	-0.015442025
21	0xbccc6ebe	-0.02495515
22	0x3d2defbe	0.042464964
23	0xbc6bbf88	-0.014388926
24	0x3ca19ff0	0.019729584
25	0x3d8175ef	0.06321322
26	0x3a7c2480	0.0009618476
27	0xbb172080	-0.0023060143
28	0x3c81ec20	0.015859663
29	0x3d7384ce	0.059452824
30	0x3d7d6d76	0.06187197
31	0xbcd18a14	-0.025578536
32	0xbd48edce	-0.049054913
33	0x3d4b4456	0.049625717
34	0xbd3a95d1	-0.045553032
35	0xbd8221de	-0.06354116
36	0x3d8dd075	0.06924526
37	0xb810c000	-3.451109e-05
38	0xbcbf9a24	-0.02338893
39	0xbd1a2e31	-0.037641708
40	0x3d6bf286	0.057604335
41	0xbca51dfa	-0.020155896
42	0xbd54926b	-0.051897448
43	0xbd810807	-0.06300359
44	0xbbdc1db0	-0.006717406
45	0x3c6b1738	0.0143487975
46	0xbd489f1f	-0.048979875
47	0xbcb97dde	-0.022643026
48	0x3c2bb428	0.010479964
49	0xbd8d7d35	-0.06908647
50	0x3d149ea2	0.036284097
51	0x3cb73364	0.022363372
52	0x3ca0ea04	0.019642837
53	0x3d1ed1fa	0.038774468
54	0xbd6ca5f6	-0.05777546
55	0xbd905b20	-0.07048631
56	0xbd6eb228	-0.05827537
57	0xbd8e5852	-0.069504395
58	0x3cbdea64	0.023183055
59	0xbd87b536	-0.0662636
60	0x3d7a5882	0.061119564
61	0xbc68b5ec	-0.01420353
62	0x3c8fbd44	0.017546304
63	0xbd161ce3	-0.036648642
64	0x3bff5d00	0.007793069
65	0x3bd0e120	0.0063744932
66	0xbd83c19c	-0.064334124
67	0x3c26e0a8	0.010185398
68	0x3d0ffde0	0.035154223
69	0xbd1de1dd	-0.038545478
70	0x3d4af10a	0.04954628
71	0xbcf9915e	-0.030464824
72	0x3c373c18	0.011183761
73	0xbd4d0836	-0.05005666
74	0xbcab2696	-0.020892423
75	0x3d2763ea	0.04086677
76	0x3b36cba0	0.0027892366
77	0xbd280f50	-0.04103023
78	0x3ca5259c	0.020159535
79	0xbd8bd236	-0.06827204
80	0xbce520f4	-0.027969815
81	0x3d8ff645	0.07029394
82	0xbd6fcdd0	-0.058545887
83	0xbc82a75a	-0.01594894
84	0x3c9ea064	0.01936359
85	0xbd53a710	-0.051672995
86	0xbd9c2f03	-0.07626154
87	0xbd786360	-0.060641646
88	0x3d8a4e21	0.06753183
89	0x3cc173a8	0.02361472
90	0xbd37d356	-0.04487928
91	0x3d8e6181	0.06952191
92	0xbc55ddf8	-0.01305341
93	0x3cb56104	0.022140987
94	0xbcbd354e	-0.023096707
95	0xbd78049f	-0.060551282
96	0xbd421cf1	-0.047390882
97	0x3bbcf920	0.0057670027
98	0x3cce07f8	0.025150284
99	0xbd1fa813	-0.038978647
100	0x3d1044ce	0.035221867
101	0xbd358568	-0.04431668
102	0xbd379e8b	-0.044828933
103	0xbd759f5e	-0.059966438
104	0x3d6d09ed	0.057870794
105	0xbda8b8f6	-0.082384035
106	0xbc9bdfdc	-0.019027643
107	0x3c0c86e0	0.008577079
108	0x3ade7040	0.0016970709
109	0x3d396f3c	0.045272097
110	0xbd8bd6a8	-0.06828052
111	0x3d755e86	0.059904598
112	0xbc957ed4	-0.018248953
113	0xbb82a230	-0.0039866194
114	0x3cf0eeba	0.029410709
115	0xbca85ffa	-0.020553578
116	0x3ce702dc	0.028199606
117	0x3d166b92	0.03672368
118	0xbd07d07a	-0.033157803
119	0xbb363b60	-0.0027806386
120	0xbd4c9ec6	-0.049956106
121	0x3d38c670	0.04511112
122	0x3ca954f0	0.020670384
123	0xbd8a29e9	-0.06746275
124	0x3ce7d0b9	0.028297769
125	0x3d19dc4e	0.037563615
126	0x3d620a02	0.055185325
127	0xbd24f2ed	-0.040270735
128	0xbce03fb0	-0.027374119
129	0x3c7c5bb0	0.015402719
130	0x3d36689a	0.04453335
131	0xbcd2304c	-0.025657795
132	0x3b8b60e5	0.004253494
133	0xbd6847e2	-0.056709178
134	0x3c0f7b51	0.008757428
135	0x3ce9c9ac	0.028538547
136	0x3cc4f34d	0.024041796
137	0x3c117840	0.0088787675
138	0x3cd6a041	0.026199462
139	0xbd4dd4ac	-0.050251648
140	0x3c2ff594	0.010739703
141	0xbd88386b	-0.06651386
142	0xbd722d70	-0.059125364
143	0xbc38ebc1	-0.011286677
144	0xbcf976eb	-0.030452212
145	0xbb49be9e	-0.0030783783
146	0xbda54710	-0.08070195
147	0xbdab865d	-0.08375237
148	0x3c83d602	0.016093258
149	0xbb897f20	-0.0041960627
150	0xbd84f4d7	-0.06492012
151	0xbcedeb6a	-0.029042918
152	0xbce7fa70	-0.02831766
153	0xbda3a3b7	-0.079902105
154	0xbd1c5381	-0.038165573
155	0xbd9e9ecf	-0.07745134
156	0xbcf8fef6	-0.030395012
157	0x3cf06c11	0.029348405
158	0xbc6b783b	-0.014371927
159	0xbc87f1c4	-0.016594775
160	0x3d2f7e22	0.0428449
161	0x3b8458fd	0.0040389285
162	0xbd637baa	-0.055537857
163	0xbdba349c	-0.09092066
164	0xbce8fe76	-0.028441649
165	0xbc1e0ef4	-0.00964712
166	0xbc4b2378	-0.012398593
167	0xbc30a438	-0.01078134
168	0xbd7e780b	-0.0621262
169	0xbcc08025	-0.023498604
170	0xbd9f7726	-0.07786398
171	0xbd114b4c	-0.0354722
172	0xbdbeba3c	-0.09312865
173	0xbd7f0ec2	-0.062269934
174	0x3d432674	0.047644094
175	0xbd2407b2	-0.0400464
176	0x3c906276	0.017625075
177	0x3d4b063a	0.049566485
178	0xbcc838f2	-0.024441216
179	0xbd8d0191	-0.068850644
180	0xbb93dd8f	-0.004512496
181	0xbcede699	-0.029040622
182	0xbd1ceb9e	-0.03831064
183	0xbd5cff6d	-0.05395453
184	0x3b72ffaa	0.0037078657
185	0xbc7547be	-0.014970718
186	0xbd84d870	-0.06486595
187	0xbba18cb6	-0.004930104
188	0xbd58eb24	-0.052958623
189	0xbbfb58e3	-0.007670508
190	0xbd868075	-0.0656747
191	0x3c972b15	0.01845316
192	0xbd9d5f92	-0.07684244
193	0xbcbc5530	-0.02298984
194	0xbd25c5e4	-0.040471926
195	0xbd2f3799	-0.04277763
196	0x3aadc400	0.0013257265
197	0x3c28985a	0.01029023
198	0xbd648cd7	-0.055798378
199	0xbd81c4d9	-0.06336374
200	0x3d888bcf	0.066672914
201	0xbd4af0c6	-0.049546026
202	0xbcc9e678	-0.024646029
203	0x3d300fd4	0.042983845
204	0xbcc10cd8	-0.023565695
205	0xbc6a8d1c	-0.01431587
206	0x3b9d7380	0.0048050284
207	0xbd8ec1cd	-0.06970558
208	0x3c51bff8	0.012802117
209	0xbd06403a	-0.032776095
210	0xbccc14cc	-0.02491226
211	0x3bea4af0	0.0071500465
212	0xbd8dd4ff	-0.069253914
213	0xbd2e3805	-0.042533893
214	0xbce227bc	-0.027606837
215	0x3ba4d910	0.0050307587
216	0xbcb6915c	-0.02228611
217	0xbcac439a	-0.021028329
218	0x3cd23318	0.025659129
219	0xbd8313ae	-0.06400238
220	0x3d0ea3c4	0.034824148
221	0xbd34543a	-0.044025637
222	0xbd1c2373	-0.038119745
223	0xbd276a66	-0.040872954
224	0xbd158b03	-0.036509525
225	0x3bc359a0	0.005961612
226	0x3d8546c7	0.0650764
227	0x3cd9a524	0.026568003
228	0xbd64dc5a	-0.055874206
229	0xbd5119f5	-0.051050145
230	0x3d4bf986	0.04979851
231	0xbc1a1a20	-0.009405643
232	0xbd76e6dd	-0.060278762
233	0xbc64bc94	-0.013960976
234	0x3b28ce6a	0.0025757798
235	0x3b78b54b	0.0037949856
236	0xbd1d15cc	-0.038350865
237	0x3b8a3740	0.004218012
238	0x3d2d2490	0.042271197
239	0x3c578580	0.0131543875
240	0x3d2da3a6	0.042392395
241	0x3d2de759	0.04245696
242	0xbd32f48d	-0.043690253
243	0x3d6e2f8a	0.058150806
244	0xbd49dc66	-0.049282454
245	0xbd61965c	-0.055075034
246	0x3c8145e7	0.015780402
247	0xbd8a006e	-0.06738363
248	0xbd182c1b	-0.037151437
249	0xbd336964	-0.04380168
250	0x3d69028f	0.056887206
251	0x3d6990e5	0.057022948
252	0xbae62938	-0.0017559892
253	0x3d50d1ee	0.050981455
254	0xbca4c104	-0.020111568
255	0xbc65d7bc	-0.014028486

fc.1.bias f4 [128]
0	0xbdaff68c	-0.08591947
1	0xbc22fb89	-0.009947666
2	0xbd8fcd93	-0.07021632
3	0xbc7f7e15	-0.015594025
4	0xbd856e37	-0.065151624
5	0xbdf6c8a5	-0.12049989
6	0xbdf496ab	-0.119428
7	0xbda6d0c6	-0.08145289
8	0xbd6e39ba	-0.05816052
9	0xbd8f7efb	-0.070066415
10	0xbe095e06	-0.13414773
11	0xbdcb2eaa	-0.0992101
12	0xbd843401	-0.064552315
13	0xbde2e9ce	-0.11079751
14	0xbde24e6d	-0.11050115
15	0xbd204899	-0.039131735
16	0x3d23a09e	0.0399481
17	0xbe024de7	-0.1272503
18	0x3d95a0aa	0.07306035
19	0xbd9a074f	-0.07520925
20	0x3cf104d1	0.029421242
21	0xbe003ad0	-0.12522435
22	0xbdb6324d	-0.08896313
23	0xbe2078f1	-0.15671135
24	0xbd9b82f4	-0.07593337
25	0xbe4b6268	-0.19861758
26	0xbd4cccb5	-0.04999991
27	0xbcde0afe	-0.02710485
28	0x3c0773f5	0.008267392
29	0xbda28b7b	-0.0793676
30	0xbd925a58	-0.07146138
31	0xbd2d668f	-0.042334136
32	0xbc20f1d6	-0.009823283
33	0xbd7763f5	-0.06039806
34	0xbc36cd2a	-0.011157313
35	0xbd2d7266	-0.042345427
36	0x3e194edb	0.14971487
37	0xbe139c36	-0.14415058
38	0xbd384a9c	-0.044993028
39	0xbd9b765e	-0.07590936
40	0xbd90137c	-0.07034966
41	0xbd34a176	-0.044099294
42	0xbdbcaafa	-0.09212299
43	0xbd96ee41	-0.07369662
44	0x3b3ecff5	0.0029115651
45	0xbd8f0bac	-0.06984648
46	0x3de5aab2	0.11214198
47	0xbdedc0d1	-0.116090424
48	0x3d79985c	0.060936317
49	0xbd93834c	-0.07202777
50	0xbd1163b1	-0.035495464
51	0xbd8eb89f	-0.069688074
52	0xbdd51b12	-0.10405554
53	0xbdc4f84c	-0.09617671
54	0xbd4eb45c	-0.050464973
55	0xbdbea567	-0.09308892
56	0xbd9caf34	-0.07650605
57	0xbde28978	-0.11061376
58	0xbe3a7830	-0.1820991
59	0xbd10105f	-0.035171863
60	0xbe03c23a	-0.1286706
61	0x3d1a4dae	0.037671737
62	0x3c0e8cf0	0.008700594
63	0x3d717f62	0.058959372
64	0xbdba5395	-0.09097973
65	0xbe048d90	-0.12944627
66	0x3d91869b	0.07105752
67	0xbe19598c	-0.14975566
68	0xbc9eac87	-0.019369377
69	0xbd6a6b92	-0.057231493
70	0xbd9c7e58	-0.07641286
71	0xbd8530ee	-0.06503473
72	0x3d051e02	0.03249932
73	0x3dc63b54	0.09679285
74	0xbd80ea7d	-0.06294725
75	0xbc1d8860	-0.009615034
76	0xbdd63001	-0.10458375
77	0xbe629763	-0.22128062
78	0xbc062f48	-0.008189984
79	0xbdfb0207	-0.12256246
80	0xbd63b0dd	-0.05558859
81	0xbd8bf3b4	-0.06833592
82	0x3d8b320c	0.06796655
83	0xbd53ce7b	-0.051710587
84	0xbdb6b5c2	-0.08921386
85	0xbe037672	-0.12838152
86	0xbda12fe1	-0.0787046
87	0x3e28f284	0.16498762
88	0xbd9b2605	-0.07575611
89	0xbd60b73d	-0.05486225
90	0xbdd47213	-0.103733204
91	0xbd548808	-0.051887542
92	0xbdd75950	-0.10515082
93	0xbd988de7	-0.07448941
94	0xbdc0f62e	-0.09421955
95	0x3ddd441e	0.10804008
96	0x3d3c33c3	0.0459478
97	0xbe114f89	-0.14190497
98	0xbdffbc1c	-0.12487051
99	0x3d6c2a5f	0.057657596
100	0xbdcc9e0d	-0.09991083
101	0xbe12f9e9	-0.14353146
102	0xbcd3d256	-0.025857132
103	0xbe026e61	-0.12737419
104	0xbdd3b12a	-0.10336526
105	0xbd81ab51	-0.06331504
106	0xbc5c8589	-0.013459572
107	0xbdf44acf	-0.11928331
108	0xbe264c5b	-0.16240065
109	0xbd071296	-0.03297671
110	0x3d6f1f4e	0.058379464
111	0xbda557b4	-0.08073369
112	0xbd63b438	-0.055591792
113	0xbd22fb74	-0.039790586
114	0xbc4610c7	-0.012088961
115	0x3e13c726	0.14431438
116	0xbe1f9b6e	-0.15586635
117	0xbda3ba6c	-0.079945415
118	0xbcc6cd6f	-0.02426788
119	0xbdc00ef5	-0.09377853
120	0xbdeba95d	-0.11506913
121	0xbd92c72b	-0.071668945
122	0xbd83faa1	-0.06444288
123	0x3e3fc031	0.18725659
124	0xbd690140	-0.056885958
125	0xbb64c978	-0.0034910124
126	0xbddf9e47	-0.10918861
127	0xbd0f0fec	-0.034927294

fc.3.weight f4 [64, 128]
0	0x3c773558	0.015088402
1	0xbbdeffe5	-0.0068054073
2	0xbd83d56b	-0.064371906
3	0xbd6dedd3	-0.058088135
4	0x3cf175e7	0.029475166
5	0x3a7b8a8d	0.0009595536
6	0xbd1f8d84	-0.03895332
7	0xbe9a1318	-0.30092692
8	0xbd4f4d46	-0.050610803
9	0x3c8e8aa5	0.017400095
10	0xbd924360	-0.07141757
11	0xbd090fca	-0.033462323
12	0x3dacdd75	0.08440677
13	0x3d9c6e93	0.07638278
14	0xbbe61b6a	-0.007022311
15	0x3de85304	0.11343959
16	0xbda119c2	-0.07866241
17	0xbcbefa37	-0.023312671
18	0x3d444b0c	0.047923133
19	0xbb40c631	-0.0029415006
20	0xbe29dc51	-0.1658795
21	0x3d87095b	0.06593581
22	0xbe0da48b	-0.138323
23	0xbda1e638	-0.07905239
24	0x3d12e6a6	0.035864495
25	0x3d75284f	0.059852894
26	0x3d534a1a	0.05158434
27	0x3c428070	0.011871442
28	0xbdc05c71	-0.09392632
29	0xbd213680	-0.039358616
30	0x3d25ef24	0.040511265
31	0xbebff9d7	-0.374953
32	0xbd6441c4	-0.05572678
33	0xbd3060f4	-0.04306121
34	0xbcd7a2d1	-0.026322754
35	0x3c00efcb	0.007869671
36	0xbda35cad	-0.07976661
37	0xba745edf	-0.0009321998
38	0x3baff8d3	0.0053702383
39	0xbe2ac8c8	-0.16678154
40	0xbe849063	-0.25891408
41	0xbd859d65	-0.06524161
42	0xbe099b7c	-0.13438219
43	0x3a04d40d	0.00050669984
44	0x3e5a3b6d	0.21311732
45	0x3e4e82c4	0.2016707
46	0xbe318d53	-0.17339067
47	0xbe805bf0	-0.25070143
48	0xbeab749a	-0.33487397
49	0x3ba0a918	0.00490297
50	0xbda4acaa	-0.080407456
51	0xbe0ef107	-0.13959132
52	0x3d648ab0	0.055796325
53	0xbd84d7b0	-0.064864516
54	0xbc8d1f12	-0.01722673
55	0xbd97f672	-0.074200526
56	0xbcc7dfed	-0.024398768
57	0xbd9e00e1	-0.077150114
58	0xbd907696	-0.070538685
59	0x3d960913	0.073259495
60	0xbc72e8b6	-0.01482599
61	0xbdf83a11	-0.1212045
62	0x3dd0c464	0.101937085
63	0xbe906dc6	-0.2820875
64	0x3e186405	0.14881904
65	0x3cd57007	0.026054395
66	0x3b1e7c30	0.0024182908
67	0x3cdba619	0.0268126
68	0x3d7a8b84	0.06116821
69	0xbdb89f67	-0.090147786
70	0xbe3485ae	-0.1762912
71	0xbd98313f	-0.07431268
72	0x3e14b4a9	0.14522041
73	0x3e3ad9d4	0.18247157
74	0xbde7afdd	-0.1131284
75	0xbf0e8970	-0.55678463
76	0x3c170438	0.009217314
77	0xbdbd2438	-0.09235424
78	0x3e292f40	0.1652193
79	0x3d11b3ae	0.035571747
80	0xbe3b7d18	-0.18309438
81	0x3cf87473	0.030328965
82	0x3c5afd59	0.013366067
83	0xbe051640	-0.12996769
84	0x3d2a8c4a	0.041637696
85	0x3cf2131a	0.029550124
86	0xbe71f4ce	-0.23628542
87	0xbe936457	-0.2878749
88	0xbdd1687a	-0.102250054
89	0xbdaaa274	-0.08331767
90	0x3d59bd5d	0.053159107
91	0xbd4aa055	-0.04946931
92	0x3d0826d4	0.033240154
93	0xbe987acb	-0.29781184
94	0xbdb7848e	-0.0896083
95	0xbd9f5a0b	-0.07780846
96	0xbe131f38	-0.14367378
97	0xbe2b7c34	-0.16746598
98	0xbdaa4a76	-0.083149835
99	0xbe476821	-0.19473316
100	0xbe6b9d4d	-0.23009224
101	0x3d0905da	0.033452846
102	0x3d2cbce9	0.042172346
103	0xbd8c823b	-0.06860777
104	0xbba08071	-0.004898124
105	0xbd4d0546	-0.050053857
106	0xbd96ab48	-0.07356888
107	0x3d28ccb7	0.041210856
108	0xbe373508	-0.17891324
109	0xbce1de6d	-0.027571881
110	0x3d69accb	0.057049554
111	0x3d262656	0.040563904
112	0xbd49f1c3	-0.049302828
113	0xbd70d76b	-0.05879919
114	0xbe8d84b0	-0.27640295
115	0xbe07470b	-0.13210694
116	0x3d43c49f	0.047794934
117	0xbdd20aa3	-0.10255935
118	0xbcaf77f7	-0.021419508
119	0x3d8b7e58	0.068112075
120	0xbd8b6947	-0.068071894
121	0xbd09d1bf	-0.033647295
122	0xbc83a7f1	-0.016071292
123	0xbe112039	-0.14172448
124	0xbeb7d0c7	-0.35901472
125	0x3d0f087d	0.034920204
126	0xbd61f2ca	-0.055163182
127	0x3d309db5	0.04311915
128	0xbd054af0	-0.03254217
129	0xbc816477	-0.015794976
130	0xbeaf1272	-0.3419376
131	0x3d053747	0.03252342
132	0x3c99a049	0.018753188
133	0xbd87fb9d	-0.06639788
134	0x3d244711	0.040106837
135	0xbd1fc1b7	-0.0390031
136	0x3cd09c42	0.025465135
137	0x3cc1cf36	0.023658376
138	0x3d21a7aa	0.039466538
139	0xbd2c8a68	-0.042124182
140	0xbdabe748	-0.08393723
141	0xbdddcd01	-0.10830117
142	0xbd111089	-0.03541616
143	0xbb96fad4	-0.0046075378
144	0xbde8e654	-0.113720566
145	0xbb8b36aa	-0.00424846
146	0xbdcab6cd	-0.09898148
147	0x3cecb3d2	0.028894339
148	0xbe3e2c99	-0.185717
149	0x3cf36c2a	0.029714663
150	0xbc82805d	-0.015930349
151	0xbcdeca33	-0.027196025
152	0x3d0aaf70	0.033858716
153	0xbd01d9a6	-0.031701706
154	0xbd3b582e	-0.04573839
155	0x3db2f6fd	0.087385155
156	0x3e3f0cac	0.18657178
157	0xbe0a79a2	-0.13522962
158	0xbe0da2ac	-0.13831586
159	0xbd02cac2	-0.031931646
160	0x3d681e82	0.05666972
161	0x3e032c63	0.12809901
162	0xbc18dbed	-0.009329778
163	0x3d00a541	0.0314076
164	0x3d3686cc	0.044562146
165	0x3d9e243b	0.07721754
166	0xbdf9fa90	-0.12205994
167	0xbe01e2d4	-0.12684184
168	0xbd5e6753	-0.054297756
169	0xbc4c9eb5	-0.012489011
170	0xbccb5af3	-0.024823641
171	0x3c4d91e8	0.012546994
172	0xbe1b26b7	-0.15151487
173	0xbf2b8f7f	-0.6701583
174	0xbe4093a7	-0.18806325
175	0xbc002c39	-0.0078230435
176	0xbea3f167	-0.32020113
177	0xbda5b315	-0.08090798
178	0xbd94f188	-0.07272631
179	0xbd70f73e	-0.05882954
180	0x3d44492f	0.047921356
181	0x3d3c6b8f	0.046001013
182	0xbd03793d	-0.032098044
183	0x3d4cfe7f	0.050047394
184	0xbd079101	-0.03309727
185	0xbdc8fe46	-0.09814124
186	0x3c7242b0	0.014786407
187	0x3af9806f	0.0019035469
188	0x3a888208	0.0010414729
189	0xbe02db44	-0.12778956
190	0xbe0b3e95	-0.13598092
191	0xbd4f350d	-0.050587703
192	0xbe2a3a94	-0.16623908
193	0x3d97a899	0.07405204
194	0xbe853e28	-0.26023984
195	0xbdebf59f	-0.11521458
196	0x3d24feaf	0.040281948
197	0xbbf3f29a	-0.007444692
198	0xbd3d1e1b	-0.04617129
199	0xbd0d605e	-0.03451573
200	0x3bb14465	0.0054097646
201	0xbd25bb6a	-0.040461935
202	0xbe42b5dc	-0.19014686
203	0xbe81404e	-0.25244373
204	0xbd93ff6d	-0.07226453
205	0xbeb4cccf	-0.35312507
206	0x3dc54e9f	0.096341364
207	0x3dc0dbff	0.09416961
208	0xbdb5875c	-0.088637084
209	0x3cb3daa5	0.021954844
210	0xbd2b2982	-0.04178763
211	0xbd857a82	-0.06517507
212	0xbcc52d72	-0.024069522
213	0x3dc8d6e4	0.09806612
214	0xbe38996d	-0.18027277
215	0xbd710f82	-0.05885268
216	0xbd7b4666	-0.061346434
217	0x3c51f381	0.0128144035
218	0x39bb0c04	0.00035676372
219	0xbd8f2158	-0.06988782
220	0x3b2ece70	0.002667334
221	0xbe924665	-0.28569332
222	0xbd2108f7	-0.03931519
223	0xbcb8191e	-0.022472914
224	0xbe8645cc	-0.26225126
225	0x3eb314d5	0.3497683
226	0xbdedd37b	-0.11612602
227	0xbe47b16d	-0.19501276
228	0xbd92d447	-0.07169395
229	0xbd53d618	-0.051717848
230	0xbcff5964	-0.031170554
231	0xbca44ea7	-0.020057036
232	0xbde738b1	-0.1129011
233	0x3e41186b	0.18856971
234	0x3d4c7be3	0.049922835
235	0xbd12999e	-0.035791032
236	0xbe681848	-0.22665513
237	0xbc54295b	-0.012949313
238	0xbdc2b19c	-0.095065325
239	0x3c38d261	0.011280627
240	0xbc08c2f3	-0.008347261
241	0x3d8d4dce	0.06899606
242	0xbda3b902	-0.07994272
243	0xbdab677f	-0.0836935
244	0xbd455538	-0.048176974
245	0x3daa53dc	0.08316776
246	0x3cbbdfce	0.022933867
247	0x3cbcda5e	0.023053344
248	0xbf062f0c	-0.5241554
249	0xbb8b0f8f	-0.004243798
250	0x3da471ee	0.08029543
251	0xbc8eefe2	-0.01744837
252	0xbb51e6a4	-0.0032028342
253	0x3d0f1983	0.03493644
254	0xbd340c43	-0.043957006
255	0xbcdb2047	-0.02674879

fc.3.bias f4 [64]
0	0x3c445c6e	0.011984928
1	0xbcc1cdd3	-0.023657715
2	0xbe212b00	-0.1573906
3	0xbe1c9464	-0.15290982
4	0xbd0f8d08	-0.035046607
5	0xbe6836fe	-0.22677228
6	0xbe506871	-0.20352341
7	0x3e3294ee	0.17439625
8	0xbe45d315	-0.19318803
9	0xbe9085d5	-0.28227106
10	0x3de9f129	0.11422951
11	0x3d078ae2	0.033091433
12	0x3ceed554	0.029154457
13	0xbddc2ad8	-0.10750359
14	0xbe311a8a	-0.1729528
15	0xbe0fc0a2	-0.14038327
16	0xbe17a8a2	-0.14810422
17	0x3c8e9b90	0.017408162
18	0x3e92779e	0.28606886
19	0xbe01fbb5	-0.12693675
20	0xbdfd4a95	-0.12367741
21	0x3e16deb9	0.147334
22	0xbe2f0163	-0.17090373
23	0xbe46dfb6	-0.19421276
24	0x3dd2a58b	0.10285481
25	0xbe143681	-0.14473917
26	0xbdaade28	-0.08343154
27	0xbdeb34d6	-0.11484687
28	0xbdfbf8ce	-0.12303315
29	0xbe0c597d	-0.13706012
30	0x3d998c75	0.07497493
31	0xbe621aca	-0.22080532
32	0x3e1b9774	0.15194494
33	0xbc2144ee	-0.009843094
34	0xbe05568f	-0.130213
35	0xbe2c46a0	-0.16823816
36	0xbe524672	-0.20534685
37	0xbdb23232	-0.0870098
38	0xbe36dd47	-0.17857848
39	0xbe1eab7c	-0.15495104
40	0x3d2933cb	0.04130916
41	0xbe1b5081	-0.15167429
42	0xbe7a043a	-0.24415675
43	0x3ded05e3	0.115733884
44	0xbe4c748e	-0.19966337
45	0xbd2ed5d0	-0.042684376
46	0xbd5c9bc4	-0.053859487
47	0xbe969ac8	-0.29414964
48	0xbde1c034	-0.11022988
49	0xbe6e3762	-0.23263314
50	0x3d66500e	0.05622869
51	0xbe42096b	-0.18948905
52	0xbe3af59f	-0.1825776
53	0xbdf1e4ea	-0.1181124
54	0xbe81c0d4	-0.2534243
55	0x3d078279	0.033083413
56	0xbe078d18	-0.13237417
57	0xbdd9c879	-0.1063394
58	0xbe307bcb	-0.17234723
59	0x3dc2994c	0.09501895
60	0xbe294801	-0.16531374
61	0x3d561def	0.05227464
62	0xbe62a9a8	-0.22135031
63	0xbe5f7366	-0.21821365

fc.5.weight f4 [4, 64]
0	0xbd427789	-0.04747728
1	0xbd8fc3c2	-0.0701976
2	0xbcf0a74f	-0.029376654
3	0x3ce56663	0.028002923
4	0x3dd06a21	0.101764925
5	0xbb105161	-0.0022021162
6	0x3d908907	0.07057386
7	0xbdaad80c	-0.08341989
8	0xbc7bb363	-0.015362593
9	0xbcc97ed4	-0.02459661
10	0x3d25a612	0.04044158
11	0xbdf37576	-0.11887638
12	0xbd911914	-0.070848614
13	0x3d82baec	0.06383309
14	0x3d9deb0d	0.07710848
15	0xbc83b409	-0.016077058
16	0x3bf52489	0.007481162
17	0xbe70d545	-0.23518856
18	0xbd972d17	-0.07381647
19	0x3e13a036	0.14416584
20	0x3c190d31	0.009341524
21	0xbd5b51b4	-0.053544715
22	0x3d11f455	0.035633404
23	0xbe0a1406	-0.13484201
24	0xbd95ffd4	-0.07324186
25	0x3c69344d	0.014233661
26	0x3e07785e	0.1322951
27	0xbccd9e75	-0.025099972
28	0x3bdc887e	0.0067301383
29	0x3c86744c	0.016412877
30	0x3e1433a9	0.14472832
31	0x3c66c3f4	0.014084805
32	0xbdfe298b	-0.124102674
33	0x3e1790cb	0.14801328
34	0x3e144ff9	0.14483632
35	0xbd165a0c	-0.03670697
36	0x3c736ccc	0.014857482
37	0xb90f5012	-0.00013667371
38	0x3bfc758c	0.0077044424
39	0xbbff46c7	-0.0077904197
40	0xbd2c0fe0	-0.042007327
41	0x3d31f0fe	0.04344272
42	0x3dd6c63a	0.104870275
43	0x3e20fb67	0.15720902
44	0x3d319630	0.04335612
45	0x3daae8e0	0.08345199
46	0x3d523c08	0.05132678
47	0x3d8b791f	0.068102114
48	0x3d10907a	0.035294034
49	0xba6fca5c	-0.00091472804
50	0xbdef9ec9	-0.11700208
51	0x3c6c09ff	0.01440668
52	0xbdc163bc	-0.09442851
53	0xbba5e407	-0.0050625834
54	0x3bfb7d7a	0.00767487
55	0xbc36b699	-0.011151933
56	0xbc36bcda	-0.011153424
57	0xbd2c3b39	-0.042048667
58	0x3e82ef4a	0.25573188
59	0xbde86030	-0.11346471
60	0x3d1c6a90	0.038187563
61	0x3d904eca	0.07046278
62	0xbd642bc9	-0.05570582
63	0xbd00d499	-0.03145275
64	0xbd1135c8	-0.03545168
65	0x3d6df072	0.058090635
66	0x3c140129	0.00903348
67	0xbd300de3	-0.042981993
68	0x3dea1705	0.11430172
69	0x3c48e437	0.012261442
70	0x3c7ab269	0.015301325
71	0xbe0b6913	-0.13614301
72	0x3bd7cb64	0.0065855253
73	0x3cf68a8e	0.030095365
74	0xbd388d2b	-0.045056503
75	0x3c8e7321	0.017388882
76	0xbd9b762b	-0.07590898
77	0xbd4bbbc7	-0.049739625
78	0x3d1b6fc5	0.03794839
79	0xbc812c88	-0.015768304
80	0x3dca76e5	0.098859586
81	0xbcef0304	-0.029176243
82	0xbd8ef9c9	-0.069812365
83	0xbbd03dc3	-0.006355019
84	0x3994c601	0.00028376284
85	0xbd1336ab	-0.035940807
86	0x3ceb0a30	0.028691381
87	0x3ad4d32c	0.001623725
88	0xbd8bd166	-0.06827049
89	0x3cd80235	0.02636824
90	0x3d819453	0.06327119
91	0xbc9a8919	-0.018864201
92	0xbd63164e	-0.055441193
93	0xbdb65162	-0.08902241
94	0xbd8e1ec2	-0.0693946
95	0x3d17634d	0.036959935
96	0xbe0bf246	-0.13666639
97	0xbd27d3b3	-0.040973376
98	0x3c1ded40	0.009639084
99	0x3c6c78f3	0.014433133
100	0x3c84b095	0.016197482
101	0xbdbbc2ab	-0.09167989
102	0x3d102015	0.035186846
103	0x39d1def9	0.00040029714
104	0xbd1e3a89	-0.038630042
105	0x3e0c7c48	0.13719285
106	0x3cd58873	0.02606604
107	0x3dcfcd62	0.101465955
108	0xbc89152b	-0.016733726
109	0xbd375013	-0.0447541
110	0x3d4f54d9	0.050618026
111	0x3d523a0e	0.051324897
112	0xbc9e9f1c	-0.019362979
113	0x3d028e39	0.031873915
114	0x3ded789b	0.11595269
115	0xbdec3ad8	-0.11534661
116	0x3c9d0856	0.019169014
117	0xbd0fa561	-0.035069827
118	0xbca9de89	-0.020735996
119	0x3d13ccbc	0.03608392
120	0xbc134ced	-0.0089905085
121	0xbd1643d8	-0.036685795
122	0x3b90810b	0.0044099144
123	0xbc56f8f6	-0.01312088
124	0x3d1ccf60	0.038283706
125	0x3d9470ef	0.07248103
126	0xbc93054b	-0.01794686
127	0xbcac8f76	-0.021064501
128	0xbd23b534	-0.03996773
129	0x3dc77ab6	0.09740202
130	0xbd6b709f	-0.05748045
131	0x3c4e1467	0.0125781065
132	0x3d4ad262	0.049517043
133	0x3c053697	0.008130691
134	0x3df60e8d	0.12014494
135	0xbdbca50f	-0.0921117
136	0xbbbefa8b	-0.005828207
137	0x3c98d166	0.018654536
138	0xbd95b455	-0.07309786
139	0xbc9065e6	-0.017626714
140	0xbdc4c184	-0.09607223
141	0xbd0e3ad5	-0.034724075
142	0xbc28cd73	-0.010302889
143	0x3bdd36e3	0.006750928
144	0xbdf59304	-0.11990932
145	0xbdcd2273	-0.10016336
146	0xbd9c2522	-0.0762427
147	0x3ca04967	0.019566251
148	0x3e0456a5	0.12923677
149	0xbd13a89f	-0.03604948
150	0x3c758958	0.014986359
151	0x3c68d8f2	0.01421188
152	0xbd664226	-0.056215428
153	0x3d8f1bbe	0.06987713
154	0x3e10a0b6	0.14123806
155	0x3d62ac58	0.05534014
156	0xbcb60cc3	-0.022222882
157	0xbdbd7134	-0.092501074
158	0xbcfe8edd	-0.031073982
159	0xbc49d37a	-0.012318486
160	0xbd964039	-0.07336468
161	0xbd636e97	-0.05552539
162	0xbd942631	-0.07233847
163	0xbc1dcd8c	-0.009631526
164	0x3bf1ed05	0.0073829913
165	0xbb2f2f1f	-0.0026730967
166	0x3ccc9506	0.024973404
167	0xbd9d8fe4	-0.076934606
168	0xbd3c5b37	-0.045985427
169	0x3dc1d904	0.094652206
170	0xbc538435	-0.012909939
171	0x3e2a6ace	0.16642305
172	0x3d3c3723	0.04595102
173	0xbd82b350	-0.063818574
174	0x3d2755d1	0.040853325
175	0x3c95355f	0.018213926
176	0xbaa6ba9a	-0.0012720407
177	0x39909be6	0.00027581974
178	0xbd5ad066	-0.0534214
179	0x3c5e7b32	0.013579177
180	0xbe0b8064	-0.13623196
181	0x3ce1859e	0.027529534
182	0xbde9bc78	-0.11412901
183	0x3e30fe58	0.17284524
184	0xbd3bc6b7	-0.045843806
185	0xbd33d39e	-0.043902986
186	0xbd881342	-0.06644298
187	0xbdca9c72	-0.09893121
188	0xbd9dd2fe	-0.07706259
189	0x3d969c12	0.07353987
190	0xbc85f6f0	-0.0163531
191	0xbc4999b0	-0.012304708
192	0xbd1f5096	-0.038895212
193	0x3d334f3b	0.043776732
194	0xbc99163c	-0.01868736
195	0xbdaadedd	-0.08343289
196	0x3da68483	0.08130743
197	0xbc7b8730	-0.015352055
198	0x3dd9c180	0.1063261
199	0xbdc189fb	-0.09450146
200	0xbce9a7ef	-0.02852246
201	0x3d5231b3	0.051316928
202	0xbd3e599b	-0.046472173
203	0x38f6b405	0.00011763725
204	0xbda84c70	-0.08217704
205	0xbd0e18a0	-0.034691453
206	0x3ce0d3c3	0.027444726
207	0xbc33589b	-0.010946418
208	0x3c8ce0d1	0.017197045
209	0xbdb8bd8f	-0.090205304
210	0xbd910f41	-0.070829876
211	0x3d82a830	0.063797355
212	0x3cfd8cd2	0.030950937
213	0xbd0a08c6	-0.033699773
214	0x3d5529bf	0.052041765
215	0x3c537f84	0.01290882
216	0xbd82e8ce	-0.0639206
217	0x3c57f1b1	0.013180182
218	0x3e2de1f7	0.1698073
219	0x3b4e5e11	0.0031489173
220	0x3c927b55	0.017881075
221	0xbb382c6c	-0.002810265
222	0xbd75dfc5	-0.060027856
223	0x3ce7bc89	0.028288143
224	0xbe2ed99e	-0.17075202
225	0xbd25ef3f	-0.040511366
226	0xbcd5848f	-0.026064185
227	0x3d42a116	0.047516905
228	0x3c1b1fae	0.009468002
229	0xbcc1113a	-0.023567785
230	0x3cf2a98e	0.029621866
231	0x3de09ddf	0.109676115
232	0xbd0f74fd	-0.035023678
233	0x3dd841b8	0.1055941
234	0x3d86cb18	0.06581706
235	0x3e2008e2	0.15628389
236	0xbdb0df6d	-0.08636365
237	0xbd4d2798	-0.050086588
238	0x3d64743c	0.055774912
239	0x3d8204f2	0.063485995
240	0xbdbae581	-0.09125806
241	0xbd5d3416	-0.05400475
242	0xbc2358b1	-0.009969876
243	0xbd9af14a	-0.075655535
244	0xbd8b2f97	-0.067961864
245	0x3d6a007f	0.05712938
246	0x3d3d577c	0.04622601
247	0x3e5df4e3	0.21675448
248	0xbc3e2314	-0.011605043
249	0xbd16a504	-0.036778465
250	0x3d62eb1f	0.05540001
251	0xbd04c81e	-0.03241741
252	0xbca5c68b	-0.020236274
253	0x3da37520	0.07981324
254	0xbd814f7b	-0.06313988
255	0x3cb1b95a	0.021694828

fc.5.bias f4 [4]
0	0x3d38cf35	0.045119483
1	0x3d3f0813	0.04663856
2	0x3d4049ba	0.04694531
3	0x3d366b9f	0.04453623
