best_model.pth (torch, 140089 bytes, 6 tensors)

fc.1.weight f4 [128, 200]
00000000: 9cd8 e8bc d098 bc3c 1361 8d3d 709a 6c3c
00000010: b457 45bd 5034 90bc e055 49bb 2475 023d
00000020: 794e 6cbd 4ee4 5abd 4e56 74bd bc0e ffbc
00000030: 9968 71bd 78eb 153d 7abc 70bd d40b 2a3d
00000040: 0af2 d3bc c29a 85bd fe4e 4cbd 0260 65bd
00000050: 8c00 7dbc be6e ccbc beef 2d3d 88bf 6bbc
00000060: f09f a13c ef75 813d 8024 7c3a 8020 17bb
00000070: 20ec 813c ce84 733d 766d 7d3d 148a d1bc
00000080: ceed 48bd 5644 4b3d d195 3abd de21 82bd
00000090: 75d0 8d3d 00c0 10b8 249a bfbc 312e 1abd
000000a0: 86f2 6b3d fa1d a5bc 6b92 54bd 0708 81bd
000000b0: b01d dcbb 3817 6b3c 1f9f 48bd de7d b9bc
000000c0: 28b4 2b3c 357d 8dbd a29e 143d 6433 b73c
000000d0: 04ea a03c fad1 1e3d f6a5 6cbd 205b 90bd
000000e0: 28b2 6ebd 5258 8ebd 64ea bd3c 36b5 87bd
000000f0: 8258 7a3d ecb5 68bc 44bd 8f3c e31c 16bd
00000100: 005d ff3b 20e1 d03b 9cc1 83bd a8e0 263c
00000110: e0fd 0f3d dde1 1dbd 0af1 4a3d 5e91 f9bc
00000120: 183c 373c 3608 4dbd 9626 abbc ea63 273d
00000130: a0cb 363b 500f 28bd 9c25 a53c 36d2 8bbd
00000140: f420 e5bc 45f6 8f3d d0cd 6fbd 5aa7 82bc
00000150: 64a0 9e3c 10a7 53bd 032f 9cbd 6063 78bd
00000160: 214e 8a3d a873 c13c 56d3 37bd 8161 8e3d
00000170: f8dd 55bc 0461 b53c 4e35 bdbc 9f04 78bd
00000180: f11c 42bd 20f9 bc3b f807 ce3c 13a8 1fbd
00000190: ce44 103d 6885 35bd 8b9e 37bd 5e9f 75bd
000001a0: ed09 6d3d f6b8 a8bd dcdf 9bbc e086 0c3c
000001b0: 4070 de3a 3c6f 393d a8d6 8bbd 865e 753d
000001c0: d47e 95bc 30a2 82bb baee f03c fa5f a8bc
000001d0: dc02 e73c 926b 163d 7ad0 07bd 603b 36bb
000001e0: c69e 4cbd 70c6 383d f054 a93c e929 8abd
000001f0: b9d0 e73c 4edc 193d 020a 623d edf2 24bd
00000200: b03f e0bc b05b 7c3c 9a68 363d 4c30 d2bc
00000210: e560 8b3b e247 68bd 517b 0f3c acc9 e93c
00000220: 4df3 c43c 4078 113c 41a0 d63c acd4 4dbd
00000230: 94f5 2f3c 6b38 88bd 702d 72bd c1eb 38bc
00000240: eb76 f9bc 9ebe 49bb 1047 a5bd 5d86 abbd
00000250: 02d6 833c 207f 89bb d7f4 84bd 6aeb edbc
00000260: 70fa e7bc b7a3 a3bd 8153 1cbd cf9e 9ebd
00000270: f6fe f8bc 116c f03c 3b78 6bbc c4f1 87bc
00000280: 227e 2f3d fd58 843b aa7b 63bd 9c34 babd
00000290: 76fe e8bc f40e 1ebc 7823 4bbc 38a4 30bc
000002a0: 0b78 7ebd 2580 c0bc 2677 9fbd 4c4b 11bd
000002b0: 3cba bebd c20e 7fbd 7426 433d b207 24bd
000002c0: 7662 903c 3a06 4b3d f238 c8bc 9101 8dbd
000002d0: 8fdd 93bb 99e6 edbc 9eeb 1cbd 6dff 5cbd
000002e0: aaff 723b be47 75bc 70d8 84bd b68c a1bb
000002f0: 24eb 58bd e358 fbbb 7580 86bd 152b 973c
00000300: 925f 9dbd 3055 bcbc e4c5 25bd 9937 2fbd
00000310: 00c4 ad3a 5a98 283c d78c 64bd d9c4 81bd
00000320: cf8b 883d c6f0 4abd 78e6 c9bc d40f 303d
00000330: d80c c1bc 1c8d 6abc 8073 9d3b cdc1 8ebd
00000340: f8bf 513c 3a40 06bd cc14 ccbc f04a ea3b
00000350: ffd4 8dbd 0538 2ebd bc27 e2bc 10d9 a43b
00000360: 5c91 b6bc 9a43 acbc 1833 d23c ae13 83bd
00000370: c4a3 0e3d 1e24 30bd 57f3 17bd c962 e33c
00000380: 038b 15bd a059 c33b c746 853d 24a5 d93c
00000390: 5adc 64bd f519 51bd 27a9 7c3d cef6 4d3b
000003a0: c1b6 72bd 7fa6 4cbd 87ea 08bd 4bb5 783b
000003b0: cc15 1dbd bff2 eabd e303 9dbd 8085 573c
000003c0: 4753 5e3d 4d4d 613d 8df4 32bd f518 46be
000003d0: eba9 aebd 5c96 61bd bb44 d3bd 56cb 3ebe
000003e0: 1b2c 18bd 6469 33bd c621 493d 8dc1 1d3d
000003f0: 7ac3 23bc 7b68 03be d393 97bd 6d00 9cbd
-0.0284236 0.023022085 0.06903281 0.014441118 -0.048179343 -0.01760307 -0.0030721352 0.031849995
-0.057692025 -0.053440385 -0.05965262 -0.031134956 -0.058937643 0.036601514 -0.058773495 0.041515186
-0.02587225 -0.06523658 -0.04988002 -0.055999763 -0.015442025 -0.02495515 0.042464964 -0.014388926
0.019729584 0.06321322 0.0009618476 -0.0023060143 0.015859663 0.059452824 0.06187197 -0.025578536
-0.049054913 0.049625717 -0.045553032 -0.06354116 0.06924526 -3.451109e-05 -0.02338893 -0.037641708
0.057604335 -0.020155896 -0.051897448 -0.06300359 -0.006717406 0.0143487975 -0.048979875 -0.022643026
0.010479964 -0.06908647 0.036284097 0.022363372 0.019642837 0.038774468 -0.05777546 -0.07048631
-0.05827537 -0.069504395 0.023183055 -0.0662636 0.061119564 -0.01420353 0.017546304 -0.036648642
0.007793069 0.0063744932 -0.064334124 0.010185398 0.035154223 -0.038545478 0.04954628 -0.030464824
0.011183761 -0.05005666 -0.020892423 0.04086677 0.0027892366 -0.04103023 0.020159535 -0.06827204
-0.027969815 0.07029394 -0.058545887 -0.01594894 0.01936359 -0.051672995 -0.07626154 -0.060641646
0.06753183 0.02361472 -0.04487928 0.06952191 -0.01305341 0.022140987 -0.023096707 -0.060551282
-0.047390882 0.0057670027 0.025150284 -0.038978647 0.035221867 -0.04431668 -0.044828933 -0.059966438
0.057870794 -0.082384035 -0.019027643 0.008577079 0.0016970709 0.045272097 -0.06828052 0.059904598
-0.018248953 -0.0039866194 0.029410709 -0.020553578 0.028199606 0.03672368 -0.033157803 -0.0027806386
-0.049956106 0.04511112 0.020670384 -0.06746275 0.028297769 0.037563615 0.055185325 -0.040270735
-0.027374119 0.015402719 0.04453335 -0.025657795 0.004253494 -0.056709178 0.008757428 0.028538547
0.024041796 0.0088787675 0.026199462 -0.050251648 0.010739703 -0.06651386 -0.059125364 -0.011286677
-0.030452212 -0.0030783783 -0.08070195 -0.08375237 0.016093258 -0.0041960627 -0.06492012 -0.029042918
-0.02831766 -0.079902105 -0.038165573 -0.07745134 -0.030395012 0.029348405 -0.014371927 -0.016594775
0.0428449 0.0040389285 -0.055537857 -0.09092066 -0.028441649 -0.00964712 -0.012398593 -0.01078134
-0.0621262 -0.023498604 -0.07786398 -0.0354722 -0.09312865 -0.062269934 0.047644094 -0.0400464
0.017625075 0.049566485 -0.024441216 -0.068850644 -0.004512496 -0.029040622 -0.03831064 -0.05395453
0.0037078657 -0.014970718 -0.06486595 -0.004930104 -0.052958623 -0.007670508 -0.0656747 0.01845316
-0.07684244 -0.02298984 -0.040471926 -0.04277763 0.0013257265 0.01029023 -0.055798378 -0.06336374
0.066672914 -0.049546026 -0.024646029 0.042983845 -0.023565695 -0.01431587 0.0048050284 -0.06970558
0.012802117 -0.032776095 -0.02491226 0.0071500465 -0.069253914 -0.042533893 -0.027606837 0.0050307587
-0.02228611 -0.021028329 0.025659129 -0.06400238 0.034824148 -0.043003194 -0.0370973 0.027757065
-0.036509525 0.005961612 0.0650764 0.026568003 -0.055874206 -0.051050145 0.061684754 0.0031427625
-0.05925632 -0.04996347 -0.033426788 0.0037949856 -0.038350865 -0.114720814 -0.07666757 0.0131543875
0.05427864 0.05500536 -0.043690253 -0.19345458 -0.08528503 -0.055075034 -0.10315844 -0.18632254
-0.037151437 -0.04380168 0.049104474 0.038514663 -0.009995336 -0.12832825 -0.07401242 -0.07617269

fc.1.bias f4 [128]
00000000: 8cf6 afbd 5b59 c33e 4307 a3be 157e 7fbc
00000010: 376e 85bd a5c8 f6bd ab96 f4bd 7fef 01bf
00000020: ba39 6ebd fb7e 8fbd 065e 09be aa2e cbbd
00000030: 5de3 bcbd 5b28 21bd 6d4e e2bd 9948 20bd
00000040: ca25 103f e74d 02be c0b6 1d3e 4f07 9abd
00000050: b31d 0ebe d03a 00be 87ee aebe f178 20be
00000060: ca3e 4fbd cd4a 92be b5cc 4cbd 8966 6bbd
00000070: 3f6c 513e 5542 cc3d 129d c0be 906b 21bf
00000080: 651a e0bc f563 77bd c275 6abd b9ac aebe
00000090: 3495 c6bc ebe4 29be 21c4 1dbe caf7 cdbe
000000a0: 726e ffbd 05bd 52bd faaa bcbd 41ee 96bd
000000b0: 3c17 95be 99bd aebe 42f2 d8be ed12 b3be
000000c0: cc1e c03e 56a5 d2bd 3d13 62bd 1d07 33be
000000d0: 2ecd dcbd 3976 07be 5325 8bbd 2632 0abe
000000e0: c2e1 aebe fb68 41be 3376 d0be 72f6 a83d
000000f0: 3ac2 03be e749 aebd f387 96be 2254 19bf
00000100: 5536 cdbe 908d 04be db4f cabe 358a 39be
00000110: b326 29be 926b 6abd 852a cdbe 1482 bbbd
00000120: 7bbe 063e 3ed8 b0be c8b3 86be dc89 a9be
00000130: 0130 d6bd 73a7 e2be 482f 06bc 803c 01be
00000140: e097 e5be 2135 bdbd 7945 45be f870 cebe
00000150: c2b5 b6bd 7276 03be c7bf a83c dfbd cf3e
00000160: e0fc f4bd 3db7 60bd 1372 d4bd 3e32 88be
00000170: 5059 d7bd d278 e8be 2ef6 c0bd a380 79be
00000180: ee2a 7a3e 9c69 8abe 1cbc ffbd 587f e6bd
00000190: 4155 9abd e9f9 12be 15f2 f2be 616e 02be
000001a0: 0526 09bd 07a8 ecbd 8985 5cbc cf4a f4bd
000001b0: 194b 3abf ab02 0abd 270d 583e 1243 bfbd
000001c0: 1ca9 c9be 550a 69bd 8b01 a2bd 54f4 e43e
000001d0: 6e9b 1fbe 8518 ccbd 300c fbbd f50e c0bd
000001e0: ce8f 58be ff9f 2dbd a1fa 83bd c96e 28be
000001f0: 7e9b 9cbe 78c9 64bb a70a 27be fa47 96bd
-0.08591947 0.3815411 -0.31841478 -0.015594025 -0.065151624 -0.12049989 -0.119428 -0.5075607
-0.05816052 -0.070066415 -0.13414773 -0.0992101 -0.092230536 -0.039345127 -0.11050115 -0.039131735
0.5630766 -0.1272503 0.15401745 -0.07520925 -0.13878517 -0.12522435 -0.34166357 -0.15671135
-0.05059699 -0.28572693 -0.04999991 -0.057470832 0.20451449 0.09973589 -0.37619835 -0.6305475
-0.027356336 -0.06039806 -0.05724121 -0.34116152 -0.024241067 -0.16591232 -0.15406848 -0.4022811
-0.12472238 -0.051449794 -0.09212299 -0.07369662 -0.2911929 -0.34129027 -0.42372328 -0.34975377
0.37523496 -0.102854416 -0.05519413 -0.17483182 -0.107813224 -0.13228692 -0.067942284 -0.13495693
-0.34156615 -0.18887703 -0.4071518 0.08250131 -0.1286706 -0.085101895 -0.29400596 -0.59894
-0.40080515 -0.12944627 -0.3951405 -0.18119128 -0.16518669 -0.057231493 -0.40071502 -0.0915567
0.131586 -0.3453998 -0.26309037 -0.3311299 -0.10458375 -0.4426838 -0.008189984 -0.12620735
-0.44842434 -0.09238649 -0.19264783 -0.40320563 -0.08921386 -0.12838152 0.020599259 0.40574548
-0.119622946 -0.05486225 -0.103733204 -0.26600832 -0.10515082 -0.4540468 -0.09421955 -0.24365477
0.24430439 -0.270337 -0.12487051 -0.11254758 -0.07535792 -0.14353146 -0.4745032 -0.12737419
-0.033483524 -0.11555486 -0.013459572 -0.11928331 -0.7277084 -0.03369395 0.21098767 -0.093389645
-0.39386833 -0.05689462 -0.079104505 0.44717658 -0.15586635 -0.09965614 -0.12258184 -0.09377853
-0.21148607 -0.042388912 -0.06444288 -0.16448511 -0.3058738 -0.0034910124 -0.16312657 -0.07337947

fc.3.weight f4 [64, 128]
00000000: 5835 773c 7fe7 8cbe 6170 9e3e d3ed 6dbd
00000010: e775 f13c 8d8a 7b3a 848d 1fbd 893d 2dbd
00000020: 464d 4fbd a58a 8e3c 6043 92bd ca0f 09bd
00000030: 75dd ac3d 1b6e 07bc 6a1b e6bb 0453 e83d
00000040: 04cd 1abf 37fa bebc c78a ccbe 31c6 40bb
00000050: 22b5 1cbd 5b09 873d a189 0abe 38e6 a1bd
00000060: a6e6 123d aae6 563d 1a4a 533d 7080 423c
00000070: f17d 05bd f6a2 31be 789b 3ebe 9a3c b2be
00000080: 6ecc 16bd f460 30bd d1a2 d7bc 6134 05bf
00000090: f1ba 73bd df5e 74ba 3e15 0cbf d40c 38be
000000a0: 9027 e6be 659d 85bd 7c9b 09be 0dd4 043a
000000b0: a743 a0bb 2b29 8cbe 5812 403e fef7 aebe
000000c0: fa55 8fbd 18a9 a03b aaac a4bd 8167 3dbe
000000d0: b08a 643d b0d7 84bd c22e 98bd 72f6 97bd
000000e0: 7f7d 283d cf00 88bd 1293 85bc edc3 2ebe
000000f0: b6e8 72bc 8752 afbd b252 08bf 656b c2be
00000100: 8551 5bba 0770 d53c 9e64 62ba e0ab 46be
00000110: aab5 46bd 679f b8bd 7723 a6be 3f31 98bd
00000120: 1069 2abf 6b26 22be 941e babd 1786 86be
00000130: 3804 173c 2bc9 d4bc 402f 293e d25a 673d
00000140: 44c3 72bf d911 b33c f25b 8e3e a5c1 87be
00000150: 4a8c 2a3d 1a13 f23c eeb1 e0be bea3 cdbe
00000160: d962 b8bd 74a2 aabd 5dbd 593d c23e 86bd
00000170: d426 083d 64ed 653e 8e84 b7bd a60f b93d
00000180: 1438 273e 7651 43be 764a aabd a5dc e4bd
00000190: 4ee9 74be da05 093d b96b 403d 3b82 8cbd
000001a0: 31a7 56be b55c 5dbe 48ab 96bd b7cc 283d
000001b0: ae3d 71be 593c 65bc 8ccc debe 5626 263d
000001c0: bc2e 9abe 6bd7 70bd 8be2 a2be 3e8b efbd
000001d0: 9fc4 433d a30a d2bd 46cb 88bd 587e 8b3d
000001e0: fbcb 8f3d 2789 55be f1a7 83bc b4c6 0abb
000001f0: a502 8f3e 7d08 0f3d caf2 61bd aa05 503d
00000200: f04a 05bd 6fc9 36bd e61f b6be 4737 053d
00000210: 49a0 993c 9dfb 87bd 1147 243d d4c0 3ebd
00000220: 429c d03c 36cf c13c aaa7 213d 688a 2cbd
00000230: 48e7 abbd a4ef a5bd 8910 11bd d4fa 96bb
00000240: af5e 19be aa36 8bbb da3c 973c d2b3 ec3c
00000250: 992c 3ebe 2a6c f33c f434 27be 33ca debc
00000260: 70af 0a3d a6d9 01bd 2e58 3bbd fdf6 b23d
00000270: bcf7 c7bc a279 0abe 1278 a4bd 5c94 94be
00000280: 821e 683d 632c 033e eddb 18bc 7e6b edbd
00000290: 8488 283e 455d f2b9 90fa f9bd f54c 63be
000002a0: 0761 8abd b59e 4cbc f35a cbbc e891 4d3c
000002b0: dbda e7be c9d4 eebe de56 c5bd 0a68 1bbd
000002c0: cf6d c2be 15b3 a5bd 88f1 94bd a4bb 71be
000002d0: 2f49 443d 8f6b 3c3d 3d79 03bd 7ffe 4c3d
000002e0: 0191 07bd 46fe c8bd b042 723c 3753 6cbe
000002f0: 0882 883a a6ad a1be 9242 cebe 3f97 2c3d
00000300: b9f7 59b8 99a8 973d df23 bdbe 9ff5 ebbd
00000310: 80f7 413c 9af2 f3bb 915e d8bd 5e60 0dbd
00000320: e187 75be 7d1e 38be dcb5 42be 1ec0 40be
00000330: 6dff 93bd c771 14bf 9f4e c53d ffeb 6bbd
00000340: b838 7fbd a5da b33c 1a00 513d 3407 26be
00000350: 722d c5bc e4d6 c83d 7528 b4be c064 9cbd
00000360: 6646 7bbd 81f3 513c 040c bb39 5821 8fbd
00000370: 70ce 2e3b 68e6 d8be f708 21bd 1e19 b8bc
00000380: ade3 18bd 8572 af3e 7bd3 edbd 42ec 61be
00000390: 47d4 92bd 18d6 53bd f1ea 4dbd a74e a4bc
000003a0: 1c5a 12be c7d8 633d e37b 4c3d 9e99 12bd
000003b0: 4fad 80be 5b29 54bc 3755 1e3d 61d2 383c
000003c0: 79d5 8ebe ce4d 8d3d 02b9 a3bd 10ce 61be
000003d0: 3855 45bd dc53 aa3d cedf bb3c 5eda bc3c
000003e0: 3e74 0dbf 220e 48be ee71 a43d 5512 383d
000003f0: c578 ff3d 8319 0f3d 5acf 0bbd 4547 b0bc
0.015088402 -0.27520368 0.30945113 -0.058088135 0.029475166 0.0009595536 -0.03895332 -0.042295013
-0.050610803 0.017400095 -0.07141757 -0.033462323 0.08440677 -0.008265997 -0.007022311 0.11343959
-0.6046908 -0.023312671 -0.3994963 -0.0029415006 -0.03825868 0.06593581 -0.13529064 -0.07905239
0.035864495 0.052466072 0.05158434 0.011871442 -0.03259081 -0.17347321 -0.18613994 -0.3481186
-0.036816053 -0.04306121 -0.026322754 -0.5203305 -0.059504453 -0.0009321998 -0.54719913 -0.17973644
-0.4495206 -0.06524161 -0.13438219 0.00050669984 -0.0048908773 -0.2737516 0.18756998 -0.34173578
-0.069988206 0.00490297 -0.080407456 -0.18496515 0.055796325 -0.064864516 -0.07430793 -0.074200526
0.041135307 -0.06640779 -0.01630548 -0.17066927 -0.01482599 -0.08560663 -0.53251183 -0.3797256
-0.00083663344 0.026054395 -0.0008636209 -0.19401503 -0.048513092 -0.090147786 -0.32448933 -0.07431268
-0.6656656 -0.15834968 -0.090878636 -0.26274177 0.009217314 -0.02597483 0.1652193 0.056483097
-0.948292 0.021859096 0.27804524 -0.26514927 0.041637696 0.029550124 -0.4388575 -0.40163988
-0.09003229 -0.08331767 0.053159107 -0.06554939 0.033240154 0.22453839 -0.0896083 0.09036188
0.16329986 -0.19074044 -0.083149835 -0.11174897 -0.23917124 0.033452846 0.046977732 -0.06860777
-0.20962216 -0.21617396 -0.07356888 0.041210856 -0.23558685 -0.013991439 -0.43515432 0.040563904
-0.3011378 -0.05879919 -0.31813464 -0.1169648 0.047794934 -0.10255935 -0.06679396 0.068112075
0.07021328 -0.208531 -0.016071292 -0.0021175565 0.27931705 0.034920204 -0.055163182 0.05078665
-0.03254217 -0.044625696 -0.35571212 0.03252342 0.018753188 -0.06639788 0.040106837 -0.046570614
0.025465135 0.023658376 0.039466538 -0.042124182 -0.08393723 -0.081023484 -0.03541616 -0.0046075378
-0.14977525 -0.00424846 0.018461633 0.028894339 -0.185717 0.029714663 -0.16328794 -0.027196025
0.033858716 -0.031701706 -0.04573839 0.087385155 -0.024410121 -0.13522962 -0.08030714 -0.2901944
0.05666972 0.12809901 -0.009329778 -0.11592768 0.16458327 -0.00046227328 -0.12205994 -0.22197326
-0.06756788 -0.012489011 -0.024823641 0.012546994 -0.4528416 -0.46646717 -0.09635709 -0.037941016
-0.37974402 -0.08090798 -0.07272631 -0.23606735 0.047921356 0.046001013 -0.032098044 0.050047394
-0.03309727 -0.09814124 0.014786407 -0.23078619 0.0010414729 -0.31577796 -0.40285164 0.042136427
-5.196754e-05 0.07405204 -0.3694143 -0.11521458 0.011838794 -0.007444692 -0.10564912 -0.03451573
-0.23977615 -0.1798038 -0.19014686 -0.18823287 -0.07226453 -0.5798611 0.096341364 -0.05759811
-0.06230995 0.021954844 0.051025487 -0.16213685 -0.024069522 0.09806612 -0.35187116 -0.07636404
-0.061346434 0.0128144035 0.00035676372 -0.06988782 0.002667334 -0.42363286 -0.03931519 -0.022472914
-0.037326504 0.3426706 -0.11612602 -0.22062781 -0.07169395 -0.051717848 -0.050272886 -0.020057036
-0.14292186 0.055626657 0.049922835 -0.035791032 -0.25132224 -0.012949313 0.038655486 0.011280627
-0.27897242 0.06899606 -0.07994272 -0.22051263 -0.048176974 0.08316776 0.022933867 0.023053344
-0.55255497 -0.19536641 0.08029543 0.044939358 0.12474207 0.03493644 -0.034133293 -0.021518359

fc.3.bias f4 [64]
00000000: 48f4 8dbc 836f 91be 204a 68be 6f94 67be
00000010: 827a b8bc 0c95 82be 6a32 99be e83e b03d
00000020: 11e2 ffbe 6175 b1be 4a8b 5ebe ae67 90be
00000030: a676 cdbd a668 11bd 4bbb 87be ba73 2dbe
00000040: a2a8 17be 4590 c5bd d399 f13e 6f43 9dbe
00000050: 7470 0bbe b948 58be 856d a7be f2bf 6bbe
00000060: 752b d8bd c728 6ebe 5eef 1bbe db2f 06be
00000070: 5aef 18be 2bb7 4ebe 9e85 47be 7c40 b3be
00000080: 2a61 763d b049 4abe f2d8 ea3d 95f1 38be
00000090: 579c 92be ba49 293e c778 81be 485a 84be
000000a0: d3c5 a0be f04f 71be 4843 f7be a19c 6dbe
000000b0: 3048 6cbe 7d2a 3cbe 315d dbbe 41a2 95be
000000c0: 9d1e 4cbe 7424 8dbe cd27 8dbd d21d 81be
000000d0: 6027 5abd 08fb 5abe b77c 93be 563c 13bd
000000e0: edb1 03bf 75e2 a7be cb7b 30be 35d4 75be
000000f0: ec2b 7abe 9ad7 24be a8a9 62be dda6 67be
-0.017328396 -0.2840539 -0.22684526 -0.22615217 -0.022519354 -0.2550434 -0.29921275 0.086057484
-0.49977162 -0.34659865 -0.21732822 -0.282041 -0.10032396 -0.03550019 -0.2651008 -0.16938677
-0.14810422 -0.09646658 0.4718767 -0.3071551 -0.13617116 -0.21121491 -0.32700744 -0.2302244
-0.10555164 -0.23257743 -0.1522803 -0.13104193 -0.14935055 -0.2018706 -0.19484565 -0.35010135
0.060151257 -0.19754672 0.1146716 -0.18060906 -0.28634903 0.1653203 -0.25287458 -0.2585013
-0.31400928 -0.2356565 -0.4829352 -0.2320428 -0.23074412 -0.18375583 -0.42844537 -0.29225352
-0.19933553 -0.27566874 -0.06892357 -0.25218064 -0.053260207 -0.21384823 -0.28806087 -0.035946213
-0.5144337 -0.3278996 -0.17234723 -0.24006732 -0.24430817 -0.1609787 -0.22135031 -0.22622247

fc.5.weight f4 [4, 64]
00000000: ab0b 4b3d 066f 08bd d238 2dbb 2c9f 0bbb
00000010: 948e 9b3d 6151 10bb 6b84 b03d b98b 73bd
00000020: 9588 06bd 1156 873c debb 293d c40e d93c
00000030: 0c8c b6bd 29ba 853e 80df 843d 4d52 a83b
00000040: 8924 f53b 45d5 70be 1c1e a8bd a73d c33d
00000050: da56 b5bb 6f91 a23d efc8 c7ba de96 84bd
00000060: 8bb9 4fbe fb65 f3bc fc81 cb3d 63e8 51bd
00000070: fe4b 33bb 4c74 863c 1b6a 173d f964 5dbc
00000080: c226 143d 0a93 90bc b6cf 57bc 6705 46bd
00000090: cc6c 733c 97a9 b8bd 2f46 99bc 8944 a03c
000000a0: ee71 c93c ce5c 963c 072a b739 9dd8 473d
000000b0: 2b6d 993c 2c45 5c3c 1bf4 0d3e 1f79 8b3d
000000c0: bab0 c2bc a62a febc 4b63 c33d 3912 1e3c
000000d0: 87b3 76bd 4cf4 483c a5d0 e43c 99b6 36bc
000000e0: 82b6 153d 6769 2dbd 4aef 823e b52e a13c
000000f0: 1e39 96bc d130 913c c92b 64bd ca17 55bc
00000100: 08fe 8abc e360 883d 283f 163d c08c 2abd
00000110: 6809 943d 37e4 483c 86d4 dbbc 2453 50be
00000120: 28ec 04bd be08 e93c 80c6 ffbd 6dbf 343b
00000130: b7f5 8b3b 3e46 063d 7fd6 1e3b 882c 81bc
00000140: e576 ca3d 6a7a 113c 3d0d a8bd c089 05bc
00000150: ae1b f9bc b2d9 903c 59ff 9f3c 0590 1dbc
00000160: 7eba 1fbe 3e37 5b3d 0538 4e3d ba09 abbb
00000170: 4e16 63bd 6251 b6bd ed46 a3bc bfb3 063c
00000180: 0687 e93d 2c57 b9bc f17a 90bd 0ce2 aa3c
00000190: 95b0 843c b867 cabd 29ec 42bd 34ab a03c
000001a0: 307c 40bd 33c5 023e 1477 ab3d b15c c2bd
000001b0: 2b15 89bc bc69 eabd 853a 1f3e 0e3a 523d
000001c0: e75a 83bc 09c4 883b cc80 f33b 3c28 b8bd
000001d0: e8e6 1abe b049 0cbd 89de a9bc bccc 133d
000001e0: 32ec 2b3d b950 5dbd 0b81 903b 0cf2 c4bd
000001f0: 8c66 f43c d061 4d3b 4b05 93bc 768f acbc
00000200: d683 bb3d 42bb 9cbd 4d15 f8bc 385c 453d
00000210: 8b6e 563d 4295 81bc eef9 a83d 160a 71bd
00000220: 7722 853b 7cc6 0c3b b007 b8bc f81b cd3d
00000230: ff34 5cbd 632f 63bd 8b08 0f3c e336 dd3b
00000240: 0493 f5bd 0ee6 5dbd 36c3 a8bd 42c6 26bc
00000250: a556 043e a439 613b 7d3c 6f3d 8f8a 4e3c
00000260: 5635 463d 99ec 12bc b6a0 103e 90b1 7ebd
00000270: 7579 1cbc f97a 0bbd 325e febc 2c99 e93c
00000280: 2386 cbbe 3032 80ba 9938 72bd 5802 e63c
00000290: cb63 68bc 588c cfbd 687b 6d3d 3517 a7bc
000002a0: 5306 0abd 87fd bd3d 62fd 893d 9453 0bbe
000002b0: 2337 3c3d 98fe a33c d782 443d 18ee 3c3c
000002c0: 6a5c 83bc 6369 99bc 2436 f23d 327b 5e3c
000002d0: e72c 5e3c 4c3f d03c de98 8fbd 58fe 303e
000002e0: c469 553d 5119 4cbd 4213 88bd 4b0c 87bc
000002f0: 9bed 8c3b a8c4 ab3c f0f6 85bc b099 49bc
00000300: d88d 01be b83d 5b3d 1f19 ab3c e5ec 5bbc
00000310: 1782 bb3d 3087 7bbc ca30 463d ce80 65bd
00000320: 7500 523d 6b77 883c 47df 0abd 1de2 f4bc
00000330: 378e 42bd e684 953d 792f 1e3d 9b58 33bc
00000340: d1e0 8c3c 1af7 7bbd c4f8 a4bd e009 6c3c
00000350: 0f97 743d 09d4 db3d e2ca 9d3d def4 733b
00000360: 144d e7bc dfa9 afbc dbc9 2f3e 4ef5 46bd
00000370: 2fe8 df3b 6c2c 38bb f3bd 9abd b316 093d
00000380: 2bc7 e63c 4cc1 b73c d9cf 9ebd 9178 713c
00000390: 36d5 be3c 6148 aabd 8e75 2abe 5558 ab3d
000003a0: c76e 153d b3d6 b63d dec8 e63d 43a6 963c
000003b0: 6ddf b0bd 139f adbd aa1d a83d f204 823d
000003c0: ddda 8dbd 1f54 b7b9 9fe6 f3bc 5c92 43bd
000003d0: 3fb3 c23d c56a feba 7c57 3d3d 1fe2 233e
000003e0: e1f1 793d 16d2 1bbd 1feb 623d 95f0 a7bd
000003f0: 16f1 993d 89c3 863c 7b4f 81bd 578a c0ba
0.049571674 -0.033309005 -0.0026431573 -0.002130459 0.07595554 -0.0022021162 0.08619007 -0.05945942
-0.0328451 0.016520532 0.04143893 0.026496299 -0.089134306 0.2611859 0.06487942 0.005136764
0.007481162 -0.23518856 -0.08208868 0.095332436 -0.005534035 0.079378955 -0.0015242378 -0.06474088
-0.20285623 -0.029711714 0.09936902 -0.051247012 -0.0027358527 0.016412877 0.036966424 -0.013512843
0.036169775 -0.017648239 -0.013172081 -0.048344996 0.014857482 -0.09016722 -0.018710224 0.01956393
0.024590459 0.0183548 0.00034935793 0.048790563 0.018728813 0.013444226 0.1386265 0.068102114
-0.02376591 -0.031026196 0.09540423 0.009647899 -0.060229804 0.012265276 0.02793152 -0.011151933
0.036551006 -0.042336848 0.25573188 0.019675592 -0.018337782 0.017723473 -0.05570582 -0.01300616
-0.016966835 0.06659105 0.036681324 -0.041638136 0.072283566 0.012261442 -0.026834738 -0.20344216
-0.03245178 0.028446551 -0.12489033 0.002757992 0.004271235 0.032781832 0.0024236736 -0.015768304
0.098859586 0.008879283 -0.0820565 -0.008150518 -0.030408707 0.01768193 0.019530939 -0.009616856
-0.15598485 0.05351948 0.050346393 -0.0052196654 -0.055441193 -0.08902241 -0.019931281 0.008221566
0.11402707 -0.022624575 -0.07054699 0.02085974 0.016197482 -0.09883064 -0.0475885 0.019612886
-0.046993434 0.12770538 0.08372322 -0.09490336 -0.016733726 -0.114459485 0.15549667 0.051324897
-0.016034557 0.00417376 0.0074311253 -0.08992049 -0.15127146 -0.03424996 -0.020735996 0.03608392
0.0419733 -0.05403206 0.0044099144 -0.09616479 0.029834054 0.0031338818 -0.01794686 -0.021064501
0.09156005 -0.07652904 -0.030283595 0.04818365 0.052351516 -0.015818242 0.08250795 -0.05884751
0.0040629464 0.002148061 -0.022464603 0.100151 -0.05376148 -0.055465113 0.008730064 0.006750928
-0.11990932 -0.054174475 -0.082403585 -0.010179104 0.12923677 0.0034366632 0.058407295 0.012606277
0.04839071 -0.008967542 0.14123806 -0.062181056 -0.009550442 -0.034052823 -0.031050775 0.02851542
-0.39750776 -0.0009780582 -0.059136007 0.02807729 -0.014183949 -0.1013419 0.057979017 -0.020396808
-0.033697437 0.09276872 0.06737782 -0.13606101 0.04595102 0.02001886 0.04797634 0.011531375
-0.016035277 -0.01872701 0.11826733 0.013579177 0.01356051 0.025420807 -0.07011579 0.17284524
0.05210282 -0.04982883 -0.06644298 -0.016485354 0.0043007857 0.020967796 -0.0163531 -0.012304708
-0.12651765 0.053525656 0.020886002 -0.013423179 0.09155672 -0.015352055 0.048386373 -0.05603104
0.051269967 0.016658505 -0.03390434 -0.029892975 -0.047498908 0.07300739 0.038619492 -0.010946418
0.017197045 -0.06151495 -0.08055261 0.014406651 0.059714373 0.10733802 0.077047125 0.003722481
-0.028234996 -0.021443306 0.17166846 -0.048573785 0.0068330984 -0.002810265 -0.07555761 0.033468913
0.028171143 0.022431038 -0.077544875 0.014738218 0.023295026 -0.083145864 -0.16646406 0.083664574
0.0364826 0.089276694 0.11268781 0.018389827 -0.08636365 -0.084776066 0.08208783 0.063485995
-0.069265105 -0.00034967155 -0.029773055 -0.047747 0.09506845 -0.0019410482 0.04622601 0.16004227
0.06102169 -0.03804215 0.05540001 -0.08200184 0.075166866 0.01645066 -0.06313988 -0.0014689666

fc.5.bias f4 [4]
00000000: 4331 d43d b662 d43d 048a d33d d2b8 d43d
0.103609584 0.1037039 0.10329059 0.10386814
