best_model.pth (torch, 140089 bytes, 6 tensors)

fc.1.weight f4 [128, 200]
-0.0284236 0.023022085 0.06903281 0.014441118 -0.048179343 -0.01760307 -0.0030721352 0.031849995
-0.057692025 -0.053440385 -0.05965262 -0.031134956 -0.058937643 0.036601514 -0.058773495 0.041515186
-0.02587225 -0.06523658 -0.04988002 -0.055999763 -0.015442025 -0.02495515 0.042464964 -0.014388926
0.019729584 0.06321322 0.0009618476 -0.0023060143 0.015859663 0.059452824 0.06187197 -0.025578536
-0.049054913 0.049625717 -0.045553032 -0.06354116 0.06924526 -3.451109e-05 -0.02338893 -0.037641708
0.057604335 -0.020155896 -0.051897448 -0.06300359 -0.006717406 0.0143487975 -0.048979875 -0.022643026
0.010479964 -0.06908647 0.036284097 0.022363372 0.019642837 0.038774468 -0.05777546 -0.07048631
-0.05827537 -0.069504395 0.023183055 -0.0662636 0.061119564 -0.01420353 0.017546304 -0.036648642
0.007793069 0.0063744932 -0.064334124 0.010185398 0.035154223 -0.038545478 0.04954628 -0.030464824
0.011183761 -0.05005666 -0.020892423 0.04086677 0.0027892366 -0.04103023 0.020159535 -0.06827204
-0.027969815 0.07029394 -0.058545887 -0.01594894 0.01936359 -0.051672995 -0.07626154 -0.060641646
0.06753183 0.02361472 -0.04487928 0.06952191 -0.01305341 0.022140987 -0.023096707 -0.060551282
-0.047390882 0.0057670027 0.025150284 -0.038978647 0.035221867 -0.04431668 -0.044828933 -0.059966438
0.057870794 -0.082384035 -0.019027643 0.008577079 0.0016970709 0.045272097 -0.06828052 0.059904598
-0.018248953 -0.0039866194 0.029410709 -0.020553578 0.028199606 0.03672368 -0.033157803 -0.0027806386
-0.049956106 0.04511112 0.020670384 -0.06746275 0.028297769 0.037563615 0.055185325 -0.040270735
-0.027374119 0.015402719 0.04453335 -0.025657795 0.004253494 -0.056709178 0.008757428 0.028538547
0.024041796 0.0088787675 0.026199462 -0.050251648 0.010739703 -0.06651386 -0.059125364 -0.011286677
-0.030452212 -0.0030783783 -0.08070195 -0.08375237 0.016093258 -0.0041960627 -0.06492012 -0.029042918
-0.02831766 -0.079902105 -0.038165573 -0.07745134 -0.030395012 0.029348405 -0.014371927 -0.016594775
0.0428449 0.0040389285 -0.055537857 -0.09092066 -0.028441649 -0.00964712 -0.012398593 -0.01078134
-0.0621262 -0.023498604 -0.07786398 -0.0354722 -0.09312865 -0.062269934 0.047644094 -0.0400464
0.017625075 0.049566485 -0.024441216 -0.068850644 -0.004512496 -0.029040622 -0.03831064 -0.05395453
0.0037078657 -0.014970718 -0.06486595 -0.004930104 -0.052958623 -0.007670508 -0.0656747 0.01845316
-0.07684244 -0.02298984 -0.040471926 -0.04277763 0.0013257265 0.01029023 -0.055798378 -0.06336374
0.066672914 -0.049546026 -0.024646029 0.042983845 -0.023565695 -0.01431587 0.0048050284 -0.06970558
0.012802117 -0.032776095 -0.02491226 0.0071500465 -0.069253914 -0.042533893 -0.027606837 0.0050307587
-0.02228611 -0.021028329 0.025659129 -0.06400238 0.034824148 -0.044025637 -0.038119745 -0.040872954
-0.036509525 0.005961612 0.0650764 0.026568003 -0.055874206 -0.051050145 0.04979851 -0.009405643
-0.060278762 -0.013960976 0.0025757798 0.0037949856 -0.038350865 0.004218012 0.042271197 0.0131543875
0.042392395 0.04245696 -0.043690253 0.058150806 -0.049282454 -0.055075034 0.015780402 -0.06738363
-0.037151437 -0.04380168 0.056887206 0.057022948 -0.0017559892 0.050981455 -0.020111568 -0.014028486
00000000: 9cd8 e8bc d098 bc3c 1361 8d3d 709a 6c3c
00000010: b457 45bd 5034 90bc e055 49bb 2475 023d
00000020: 794e 6cbd 4ee4 5abd 4e56 74bd bc0e ffbc
00000030: 9968 71bd 78eb 153d 7abc 70bd d40b 2a3d
00000040: 0af2 d3bc c29a 85bd fe4e 4cbd 0260 65bd
00000050: 8c00 7dbc be6e ccbc beef 2d3d 88bf 6bbc
00000060: f09f a13c ef75 813d 8024 7c3a 8020 17bb
00000070: 20ec 813c ce84 733d 766d 7d3d 148a d1bc
00000080: ceed 48bd 5644 4b3d d195 3abd de21 82bd
00000090: 75d0 8d3d 00c0 10b8 249a bfbc 312e 1abd
000000a0: 86f2 6b3d fa1d a5bc 6b92 54bd 0708 81bd
000000b0: b01d dcbb 3817 6b3c 1f9f 48bd de7d b9bc
000000c0: 28b4 2b3c 357d 8dbd a29e 143d 6433 b73c
000000d0: 04ea a03c fad1 1e3d f6a5 6cbd 205b 90bd
000000e0: 28b2 6ebd 5258 8ebd 64ea bd3c 36b5 87bd
000000f0: 8258 7a3d ecb5 68bc 44bd 8f3c e31c 16bd
00000100: 005d ff3b 20e1 d03b 9cc1 83bd a8e0 263c
00000110: e0fd 0f3d dde1 1dbd 0af1 4a3d 5e91 f9bc
00000120: 183c 373c 3608 4dbd 9626 abbc ea63 273d
00000130: a0cb 363b 500f 28bd 9c25 a53c 36d2 8bbd
00000140: f420 e5bc 45f6 8f3d d0cd 6fbd 5aa7 82bc
00000150: 64a0 9e3c 10a7 53bd 032f 9cbd 6063 78bd
00000160: 214e 8a3d a873 c13c 56d3 37bd 8161 8e3d
00000170: f8dd 55bc 0461 b53c 4e35 bdbc 9f04 78bd
00000180: f11c 42bd 20f9 bc3b f807 ce3c 13a8 1fbd
00000190: ce44 103d 6885 35bd 8b9e 37bd 5e9f 75bd
000001a0: ed09 6d3d f6b8 a8bd dcdf 9bbc e086 0c3c
000001b0: 4070 de3a 3c6f 393d a8d6 8bbd 865e 753d
000001c0: d47e 95bc 30a2 82bb baee f03c fa5f a8bc
000001d0: dc02 e73c 926b 163d 7ad0 07bd 603b 36bb
000001e0: c69e 4cbd 70c6 383d f054 a93c e929 8abd
000001f0: b9d0 e73c 4edc 193d 020a 623d edf2 24bd
00000200: b03f e0bc b05b 7c3c 9a68 363d 4c30 d2bc
00000210: e560 8b3b e247 68bd 517b 0f3c acc9 e93c
00000220: 4df3 c43c 4078 113c 41a0 d63c acd4 4dbd
00000230: 94f5 2f3c 6b38 88bd 702d 72bd c1eb 38bc
00000240: eb76 f9bc 9ebe 49bb 1047 a5bd 5d86 abbd
00000250: 02d6 833c 207f 89bb d7f4 84bd 6aeb edbc
00000260: 70fa e7bc b7a3 a3bd 8153 1cbd cf9e 9ebd
00000270: f6fe f8bc 116c f03c 3b78 6bbc c4f1 87bc
00000280: 227e 2f3d fd58 843b aa7b 63bd 9c34 babd
00000290: 76fe e8bc f40e 1ebc 7823 4bbc 38a4 30bc
000002a0: 0b78 7ebd 2580 c0bc 2677 9fbd 4c4b 11bd
000002b0: 3cba bebd c20e 7fbd 7426 433d b207 24bd
000002c0: 7662 903c 3a06 4b3d f238 c8bc 9101 8dbd
000002d0: 8fdd 93bb 99e6 edbc 9eeb 1cbd 6dff 5cbd
000002e0: aaff 723b be47 75bc 70d8 84bd b68c a1bb
000002f0: 24eb 58bd e358 fbbb 7580 86bd 152b 973c
00000300: 925f 9dbd 3055 bcbc e4c5 25bd 9937 2fbd
00000310: 00c4 ad3a 5a98 283c d78c 64bd d9c4 81bd
00000320: cf8b 883d c6f0 4abd 78e6 c9bc d40f 303d
00000330: d80c c1bc 1c8d 6abc 8073 9d3b cdc1 8ebd
00000340: f8bf 513c 3a40 06bd cc14 ccbc f04a ea3b
00000350: ffd4 8dbd 0538 2ebd bc27 e2bc 10d9 a43b
00000360: 5c91 b6bc 9a43 acbc 1833 d23c ae13 83bd
00000370: c4a3 0e3d 3a54 34bd 7323 1cbd 666a 27bd
00000380: 038b 15bd a059 c33b c746 853d 24a5 d93c
00000390: 5adc 64bd f519 51bd 86f9 4b3d 201a 1abc
000003a0: dde6 76bd 94bc 64bc 6ace 283b 4bb5 783b
000003b0: cc15 1dbd 4037 8a3b 9024 2d3d 8085 573c
000003c0: a6a3 2d3d 59e7 2d3d 8df4 32bd 8a2f 6e3d
000003d0: 66dc 49bd 5c96 61bd e745 813c 6e00 8abd
000003e0: 1b2c 18bd 6469 33bd 8f02 693d e590 693d
000003f0: 3829 e6ba eed1 503d 04c1 a4bc bcd7 65bc

fc.1.bias f4 [128]
-0.08591947 -0.009947666 -0.07960321 -0.004358316 -0.065151624 -0.12049989 -0.119428 -0.06065832
-0.05816052 -0.070066415 -0.13414773 -0.0992101 -0.064552315 -0.11079751 -0.11050115 -0.039131735
-0.032199208 -0.1272503 0.033664964 -0.07520925 0.02286073 -0.10145527 -0.07024886 -0.12522332
-0.07593337 -0.14044157 -0.04999991 -0.010852937 0.023879597 -0.049606543 -0.073784366 0.022536885
-0.009823283 -0.06039806 -0.011157313 -0.042345427 0.13660277 -0.14415058 -0.014923636 -0.06910689
-0.07906216 -0.044241674 -0.09212299 -0.07369662 -0.07254356 -0.02174865 0.10153519 -0.07759094
0.03952966 -0.07202777 -0.035495464 -0.07484312 -0.093572736 -0.09617671 -0.036727708 -0.09308892
-0.08983419 -0.11061376 -0.11936411 -0.06338986 -0.1286706 -0.023365194 -0.028424034 0.04324973
-0.047273014 -0.12944627 0.08756346 -0.14975566 -0.019369377 -0.057231493 -0.020931805 -0.06503473
0.018394327 0.094996825 -0.053437147 0.01526332 -0.10458375 -0.27234578 -0.008189984 -0.12256246
-0.047860146 -0.06833592 0.05310936 -0.07577232 -0.08921386 -0.12838152 -0.10735529 0.13704605
-0.07575611 -0.05486225 -0.103733204 -0.041913368 -0.10515082 -0.046605647 -0.09421955 0.07253666
0.07505802 -0.13175887 -0.12487051 0.05103851 -0.09991083 -0.14353146 -0.061072607 -0.12737419
-0.11816768 -0.075503945 -0.013459572 -0.11928331 -0.122941606 -0.03297671 0.038548462 -0.08073369
-0.057462465 -0.039790586 -0.031585824 0.09815367 -0.15586635 -0.079945415 -0.02426788 -0.09377853
-0.110215254 -0.08643545 -0.06444288 0.15583338 -0.0396618 -0.0034910124 -0.10918861 -0.055597458
00000000: 8cf6 afbd 89fb 22bc 0207 a3bd 34d0 8ebb
00000010: 376e 85bd a5c8 f6bd ab96 f4bd dc74 78bd
00000020: ba39 6ebd fb7e 8fbd 065e 09be aa2e cbbd
00000030: 0134 84bd cee9 e2bd 6d4e e2bd 9948 20bd
00000040: 51e3 03bd e74d 02be 46e4 093d 4f07 9abd
00000050: 6d46 bb3c c8c7 cfbd a2de 8fbd 8b3a 00be
00000060: f482 9bbd eacf 0fbe b5cc 4cbd 84d0 31bc
00000070: 259f c33c 3b30 4bbd 421c 97bd 469f b83c
00000080: d6f1 20bc f563 77bd 2acd 36bc 6672 2dbd
00000090: 99e1 0b3e 369c 13be 4482 74bc ea87 8dbd
000000a0: 57eb a1bd c236 35bd faaa bcbd 41ee 96bd
000000b0: b891 94bd 3a2a b2bc aff1 cf3d 00e8 9ebd
000000c0: dae9 213d 4c83 93bd b163 11bd 5a47 99bd
000000d0: 10a3 bfbd 4cf8 c4bd cb6f 16bd 67a5 bebd
000000e0: fdfa b7bd 7889 e2bd 2c75 f4bd 8bd2 81bd
000000f0: 3ac2 03be 5d68 bfbc 85d9 e8bc a126 313d
00000100: 59a1 41bd 908d 04be 7954 b33d 8c59 19be
00000110: 87ac 9ebc 926b 6abd 2d79 abbc ee30 85bd
00000120: b3af 963c b28d c23d e9e0 5abd 0113 7a3c
00000130: 0130 d6bd e870 8bbe 482f 06bc 0702 fbbd
00000140: 0009 44bd b4f3 8bbd 3389 593d 852e 9bbd
00000150: c2b5 b6bd 7276 03be 17dd dbbd cd55 0c3e
00000160: 0526 9bbd 3db7 60bd 1372 d4bd 5aad 2bbd
00000170: 5059 d7bd 90e5 3ebd 2ef6 c0bd 1a8e 943d
00000180: 05b8 993d cceb 06be 1cbc ffbd c20d 513d
00000190: 0d9e ccbd e9f9 12be 4527 7abd 616e 02be
000001a0: e601 f2bd d0a1 9abd 8985 5cbc cf4a f4bd
000001b0: cfc8 fbbd 9612 07bd fee4 1d3d b457 a5bd
000001c0: c35d 6bbd 74fb 22bd 2360 01bd cb04 c93d
000001d0: 6e9b 1fbe 6cba a3bd 6fcd c6bc f50e c0bd
000001e0: 89b8 e1bd 1205 b1bd a1fa 83bd c992 1f3e
000001f0: 6974 22bd 78c9 64bb 479e dfbd 29ba 63bd

fc.3.weight f4 [64, 128]
0.015088402 -0.0068054073 -0.21235019 -0.058088135 0.029475166 0.0009595536 -0.03895332 -0.35558763
-0.050610803 0.017400095 -0.07141757 -0.033462323 0.08440677 0.07638278 -0.007022311 0.11343959
-0.12548335 -0.023312671 0.02051676 -0.0029415006 -0.1658795 0.06593581 -0.15574585 -0.103493
0.035864495 -0.020961413 0.05158434 -0.022659153 -0.09192481 -0.039358616 0.10176274 -0.22384907
-0.05572678 -0.04306121 -0.026322754 0.007869671 -0.14245902 -0.0009321998 0.0053702383 -0.10830701
-0.11730512 -0.06524161 -0.13438219 0.00050669984 0.27231836 0.22966403 -0.19348758 -0.16276225
-0.3008106 0.00490297 -0.080407456 -0.17423262 0.055796325 -0.064864516 -0.01722673 -0.074200526
-0.024398768 -0.077150114 -0.09237752 0.058324505 -0.01482599 -0.064207084 0.15682334 -0.21296857
0.06933859 0.026054395 0.0031986805 0.0268126 0.06116821 -0.090147786 -0.06582756 -0.07431268
0.09515454 0.14487962 -0.1131284 -0.68308216 0.009217314 -0.2454167 0.1652193 0.035571747
0.13951078 0.030328965 0.0633722 -0.34209675 0.041637696 0.029550124 -0.27555913 -0.25840786
-0.102250054 -0.08331767 0.053159107 0.048398353 0.033240154 -0.26426747 -0.0896083 -0.07780846
-0.12850866 0.036274604 -0.083149835 -0.06873926 -0.23009224 0.033452846 0.10258095 -0.06860777
-0.015452117 -0.17581712 -0.07356888 0.041210856 -0.14222291 -0.027571881 0.047800317 0.040563904
-0.071788386 -0.05879919 -0.23883606 -0.046354253 0.047794934 -0.10255935 -0.021419508 0.068112075
-0.013839469 0.005748424 -0.016071292 -0.1562871 -0.5070453 0.034920204 -0.055163182 0.08089625
-0.03254217 -0.015794976 -0.3037374 0.03252342 0.018753188 -0.06639788 0.040106837 -0.013449886
0.025465135 0.023658376 0.039466538 -0.042124182 -0.08393723 -0.10830117 -0.03541616 -0.0046075378
-0.07478735 -0.00424846 -0.018451463 0.028894339 -0.185717 0.029714663 -0.015930349 -0.027196025
0.033858716 -0.009714896 -0.04573839 0.057238106 0.12617013 -0.13522962 -0.14349127 -0.15494093
0.05666972 0.12809901 -0.009329778 0.0314076 0.044562146 0.07721754 -0.12205994 -0.13564067
-0.017411165 -0.012489011 -0.024823641 0.012546994 -0.09248514 -0.4463771 -0.22477525 -0.014539304
-0.23766944 -0.08090798 -0.07272631 -0.0060914406 0.047921356 0.046001013 -0.032098044 0.050047394
-0.03309727 -0.09814124 0.014786407 0.02457293 0.0010414729 -0.14969398 -0.2559684 -0.12177394
-0.44479373 0.07405204 -0.24565528 -0.11521458 0.040281948 -0.007444692 -0.012318492 -0.03451573
-0.06943725 -0.17554815 -0.19014686 -0.06276863 -0.07226453 -0.30002356 0.096341364 0.09416961
0.05140267 0.021954844 -0.041787654 -0.015274521 -0.024069522 0.09806612 -0.18027277 -0.010546993
-0.061346434 0.0128144035 0.00035676372 -0.03924541 0.002667334 -0.49103287 -0.03931519 -0.022472914
-0.25233626 0.246308 -0.11612602 -0.19392401 -0.07169395 -0.051717848 0.035586227 -0.020057036
0.037015554 0.19300203 0.049922835 -0.035791032 -0.3144305 -0.012949313 0.0488567 0.011280627
0.000395951 0.06899606 -0.07994272 -0.03311139 -0.048176974 0.08316776 0.022933867 0.023053344
-0.42769337 -0.004243798 0.08029543 -0.14247301 0.09331331 0.03493644 -0.043957006 -0.02674879
00000000: 5835 773c e5ff debb 5472 59be d3ed 6dbd
00000010: e775 f13c 8d8a 7b3a 848d 1fbd 950f b6be
00000020: 464d 4fbd a58a 8e3c 6043 92bd ca0f 09bd
00000030: 75dd ac3d 936e 9c3d 6a1b e6bb 0453 e83d
00000040: b57e 00be 37fa bebc c412 a83c 31c6 40bb
00000050: 51dc 29be 5b09 873d d77b 1fbe 23f4 d3bd
00000060: a6e6 123d 45b7 abbc 1a4a 533d b09f b9bc
00000070: 1343 bcbd 8036 21bd fc68 d03d b138 65be
00000080: c441 64bd f460 30bd d1a2 d7bc cbef 003c
00000090: c7e0 11be df5e 74ba d3f8 af3b 11d0 ddbd
000000a0: ab3d f0bd 659d 85bd 7c9b 09be 0dd4 043a
000000b0: 506d 8b3e 0c2d 6b3e 9c21 46be 26ab 26be
000000c0: d903 9abe 18a9 a03b aaac a4bd 096a 32be
000000d0: b08a 643d b0d7 84bd 121f 8dbc 72f6 97bd
000000e0: eddf c7bc e100 9ebd 6d30 bdbd ade5 6e3d
000000f0: b6e8 72bc 017f 83bd 4c96 203e 6f14 5abe
00000100: 6401 8e3d 0770 d53c f4a0 513b 19a6 db3c
00000110: 848b 7a3d 679f b8bd 9ad0 86bd 3f31 98bd
00000120: 62e0 c23d 535b 143e ddaf e7bd 79de 2ebf
00000130: 3804 173c 844e 7bbe 402f 293e aeb3 113d
00000140: eadb 0e3e 7374 f83c 49c9 813d 4e27 afbe
00000150: 4a8c 2a3d 1a13 f23c 1616 8dbe 094e 84be
00000160: 7a68 d1bd 74a2 aabd 5dbd 593d 5a3d 463d
00000170: d426 083d 114e 87be 8e84 b7bd 0b5a 9fbd
00000180: c697 03be ae94 143d 764a aabd 2bc7 8cbd
00000190: 4d9d 6bbe da05 093d f615 d23d 3b82 8cbd
000001a0: e02a 7dbc 6709 34be 48ab 96bd b7cc 283d
000001b0: e2a2 11be 6dde e1bc 44ca 433d 5626 263d
000001c0: ca05 93bd 6bd7 70bd 7191 74be f5dd 3dbd
000001d0: 9fc4 433d a30a d2bd f777 afbc 587e 8b3d
000001e0: f1be 62bc 475d bc3b f1a7 83bc ba09 20be
000001f0: b9cd 01bf 7d08 0f3d caf2 61bd efac a53d
00000200: f04a 05bd 7764 81bc 7883 9bbe 4737 053d
00000210: 49a0 993c 9dfb 87bd 1147 243d e95c 5cbc
00000220: 429c d03c 36cf c13c aaa7 213d 688a 2cbd
00000230: 48e7 abbd 01cd ddbd 8910 11bd d4fa 96bb
00000240: 1c2a 99bd aa36 8bbb 8627 97bc d2b3 ec3c
00000250: 992c 3ebe 2a6c f33c 5d80 82bc 33ca debc
00000260: 70af 0a3d 3a2b 1fbc 2e58 3bbd 8172 6a3d
00000270: be32 013e a279 0abe 60ef 12be d6a8 1ebe
00000280: 821e 683d 632c 033e eddb 18bc 41a5 003d
00000290: cc86 363d 3b24 9e3d 90fa f9bd 63e5 0abe
000002a0: dca1 8ebc b59e 4cbc f35a cbbc e891 4d3c
000002b0: d968 bdbd 8a8b e4be 7c2b 66be 4336 6ebc
000002c0: 9e5f 73be 15b3 a5bd 88f1 94bd b59a c7bb
000002d0: 2f49 443d 8f6b 3c3d 3d79 03bd 7ffe 4c3d
000002e0: 0191 07bd 46fe c8bd b042 723c 2b4d c93c
000002f0: 0882 883a 6149 19be 4a0e 83be 9e64 f9bd
00000300: 01bc e3be 99a8 973d 0f8d 7bbe 9ff5 ebbd
00000310: affe 243d 9af2 f3bb 80d3 49bc 5e60 0dbd
00000320: 1e35 8ebd e5c2 33be dcb5 42be d78c 80bd
00000330: 6dff 93bd b09c 99be 9f4e c53d ffdb c03d
00000340: 9b8b 523d a5da b33c 8829 2bbd fc41 7abc
00000350: 722d c5bc e4d6 c83d 6d99 38be 4ccd 2cbc
00000360: 6646 7bbd 81f3 513c 040c bb39 ccbf 20bd
00000370: 70ce 2e3b a968 fbbe f708 21bd 1e19 b8bc
00000380: 3832 81be 2a38 7c3e 7bd3 edbd 0494 46be
00000390: 47d4 92bd 18d6 53bd ddc2 113d a74e a4bc
000003a0: 9f9d 173d 53a2 453e e37b 4c3d 9e99 12bd
000003b0: 09fd a0be 5b29 54bc f71d 483d 61d2 383c
000003c0: a597 cf39 ce4d 8d3d 02b9 a3bd cf9f 07bd
000003d0: 3855 45bd dc53 aa3d cedf bb3c 5eda bc3c
000003e0: a0fa dabe 8f0f 8bbb ee71 a43d 72e4 11be
000003f0: 0c1b bf3d 8319 0f3d 430c 34bd 4720 dbbc

fc.3.bias f4 [64]
0.008092821 -0.028079562 -0.1573906 -0.15290982 -0.08059234 -0.19661391 -0.19485429 0.17553599
-0.11179123 -0.28227106 0.106862694 0.045554124 0.018296778 -0.10750359 -0.20515525 -0.088867925
-0.088088505 0.025663078 0.21891357 -0.14821415 -0.12367741 0.11537612 -0.11173528 -0.17396733
0.097127765 -0.14473917 -0.050576 -0.09724173 -0.12303315 -0.10565413 -0.013160995 -0.16552725
0.12238882 -0.044589464 -0.12971374 -0.12515211 -0.20534685 -0.076285325 -0.11047206 -0.12324337
0.021292808 -0.14154617 -0.28604943 0.1333919 -0.17216998 -0.07176321 -0.031769246 -0.25243062
-0.11022988 -0.20101593 0.038043313 -0.17856306 -0.16054651 -0.1181124 -0.24335589 0.08210887
-0.13237417 -0.10846518 -0.17234723 0.08937022 -0.165242 0.09380939 -0.22135031 -0.18756697
00000000: c097 043c 1c07 e6bc 002b 21be 6494 1cbe
00000010: 990d a5bd 2855 49be e287 47be b5bf 333e
00000020: cdf2 e4bd d585 90be d4da da3d f696 3a3d
00000030: 20e3 953c d82a dcbd 3814 52be 6300 b6bd
00000040: bf67 b4bd 603b d23c e12a 603e 73c5 17be
00000050: 954a fdbd 514a ec3d 77d5 e4bd 7e24 32be
00000060: ecea c63d 8136 14be c828 4fbd ac26 c7bd
00000070: cef8 fbbd 3161 d8bd 37a1 57bc fa7f 29be
00000080: fda6 fa3d 71a3 36bd aed3 04be e027 00be
00000090: 7246 52be 7b3b 9cbd 2d3f e2bd 0567 fcbd
000000a0: 416e ae3c 7bf1 10be 1275 92be e397 083e
000000b0: 544d 30be 97f8 92bd 7820 02bd 963e 81be
000000c0: 34c0 e1bd 1fd7 4dbe 4ed3 1b3d 3cd9 36be
000000d0: 4e66 24be eae4 f1bd 4932 79be b228 a83d
000000e0: 188d 07be fe22 debd cb7b 30be bc07 b73d
000000f0: 3335 29be 231f c03d a8a9 62be 8e11 40be

fc.5.weight f4 [4, 64]
-0.05668517 0.023006279 -0.029376654 0.028002923 0.034268286 -0.0022021162 0.07208655 -0.11893582
-0.055440072 -0.02459661 -0.041537523 -0.04397967 -0.09766976 0.06383309 0.028341034 0.021747736
0.008279979 -0.17188503 -0.090175316 0.05671596 0.009341524 -0.062173408 0.04884072 -0.13484201
-0.06271581 0.014233661 0.13462028 -0.025099972 0.0067301383 0.016412877 0.11031937 -0.070108466
-0.083247095 0.028325308 0.1736235 -0.07677397 0.014857482 -0.0069259475 0.084654495 -0.039093826
-0.057114623 0.04344272 0.007351309 0.18898374 0.04335612 0.006227149 0.023041645 0.068102114
0.035294034 -0.021748733 0.017077222 0.01440668 -0.09442851 -0.0050625834 -0.023049619 -0.052826058
-0.011153424 -0.06703451 0.25573188 -0.116060816 0.038187563 0.058838826 -0.05570582 -0.03145275
-0.05286204 0.076652735 0.00903348 -0.042981993 0.03613818 0.012261442 0.015301325 -0.13513346
-0.02574039 0.030095365 -0.06260763 0.015117096 -0.0977841 -0.049739625 0.09524941 -0.015768304
0.10595716 -0.10479802 -0.07654783 0.065099254 0.00028376284 -0.05127011 0.06887485 0.001623725
-0.058955587 0.02636824 0.06327119 -0.05038044 -0.055441193 -0.10440679 -0.05551701 0.01173795
-0.13710769 -0.05464599 0.010094576 0.059349824 0.016197482 -0.09209646 0.07802936 0.00040029714
-0.04098017 0.13719285 -0.09326353 0.07661678 -0.016733726 0.0039556227 -0.002958687 0.051324897
-0.019362979 0.031873915 0.104438625 -0.12219598 -0.0070471605 -0.035069827 0.007649444 0.0053379913
-0.0089905085 -0.044463422 0.0044099144 -0.016335461 0.038291547 0.12482844 -0.01794686 -0.021064501
-0.04894522 0.0929447 -0.05748045 0.0125781065 0.050737485 -0.022601096 0.12014494 -0.13378325
-0.030657211 0.018654536 -0.042893432 -0.016048606 -0.107480414 -0.034724075 0.0850917 0.006750928
-0.15761916 -0.1350938 -0.07209674 0.06394373 0.12923677 -0.065575294 0.063820854 -0.009410326
-0.04858013 0.06987713 0.14960483 0.035228435 -0.022222882 -0.092501074 -0.09294264 0.01603427
-0.04455302 -0.09174575 -0.07233847 0.004657158 0.0073829913 -0.046564788 0.06455696 -0.076934606
-0.024354825 0.09581785 0.002164021 0.16635682 0.049724497 -0.039871823 -0.020638384 0.05864754
-0.0012720407 0.00027581974 0.04500554 0.013579177 -0.13623196 0.027529534 -0.11412901 0.25543374
-0.045843806 -0.04200806 -0.06644298 -0.07223312 -0.07706259 0.0676483 -0.0163531 -0.02175687
-0.05177888 0.028688196 -0.01868736 -0.08343289 0.054970335 -0.015352055 0.1063261 -0.13912116
-0.03824946 0.051316928 -0.060565203 -0.029361518 -0.104129404 -0.034691453 0.10355023 -0.010946418
0.013609573 -0.14138664 -0.070290335 0.07037667 0.030950937 -0.049842186 0.11874464 -0.0077373586
-0.048846547 0.013180182 0.1698073 0.0031489173 0.017881075 0.002302837 -0.11021382 0.022351518
-0.07357736 -0.059769798 -0.026064185 0.020890377 0.009468002 -0.059299763 0.036850717 0.109676115
-0.035907596 0.1055941 0.11837604 0.18293488 -0.08636365 -0.07585561 -0.0034706164 0.063485995
-0.09125806 -0.05400475 -0.081466295 -0.075655535 -0.067961864 0.05712938 0.04622601 0.1139175
-0.011605043 -0.042506237 0.05540001 -0.053206332 -0.020236274 0.07122568 -0.06313988 0.021694828
00000000: b52e 68bd aa77 bc3c 4fa7 f0bc 6366 e53c
00000010: e75c 0c3d 6151 10bb 1da2 933d a094 f3bd
00000020: 2115 63bd d47e c9bc 4023 2abd 0724 34bd
00000030: 1507 c8bd ecba 823d 752b e83c 4f28 b23c
00000040: c0a8 073c a102 30be d6ad b8bd ff4e 683d
00000050: 310d 193c 8ba9 7ebd 350d 483d 0614 0abe
00000060: 2671 80bd 4d34 693c e6d9 093e 759e cdbc
00000070: 7e88 dc3b 4c74 863c 1fef e13d 0795 8fbd
00000080: 747d aabd 7a0a e83c 5cca 313e ac3b 9dbd
00000090: cc6c 733c 0ff3 e2bb 565f ad3d d920 20bd
000000a0: 06f1 69bd fef0 313d 40e3 f03b f484 413e
000000b0: 3096 313d 1d0d cc3b d5c1 bc3c 1f79 8b3d
000000c0: 7a90 103d 662a b2bc 88e5 8b3c ff09 6c3c
000000d0: bc63 c1bd 07e4 a5bb 8ed2 bcbc 2360 58bd
000000e0: dabc 36bc 6449 89bd 4aef 823e 4bb1 edbd
000000f0: 906a 1c3d fb00 713d c92b 64bd 99d4 00bd
00000100: de85 58bd 1cfc 9c3d 2901 143c e30d 30bd
00000110: a105 143d 37e4 483c 69b2 7a3c 6d60 0abe
00000120: 83dd d2bc 8e8a f63c 6e38 80bd b2ad 773c
00000130: 0843 c8bd c7bb 4bbd 1f12 c33d 882c 81bc
00000140: 1100 d93d 58a0 d6bd 1cc5 9cbd c252 853d
00000150: 01c6 9439 9b00 52bd 420e 8d3d 2cd3 d43a
00000160: 6a7b 71bd 3502 d83c 5394 813d b85b 4ebd
00000170: 4e16 63bd 3ad3 d5bd ce65 63bd 8850 403c
00000180: f565 0cbe 79d4 5fbd b863 253c cd18 733d
00000190: 95b0 843c 129d bcbd dbcd 9f3d f9de d139
000001a0: d3da 27bd 487c 0c3e f300 bfbd 42e9 9c3d
000001b0: 2b15 89bc 2b9e 813b 88e6 41bb 0e3a 523d
000001c0: 1c9f 9ebc 398e 023d ebe3 d53d e341 fabd
000001d0: deeb e6bb 61a5 0fbd 30a8 fa3b 51ea ae3b
000001e0: ed4c 13bc 471f 36bd 0b81 903b f2d1 85bc
000001f0: 99d7 1c3d 0ea6 ff3d 4b05 93bc 768f acbc
00000200: c87a 48bd ca59 be3d 9f70 6bbd 6714 4e3c
00000210: 1cd2 4f3d ef25 b9bc 8d0e f63d 7afe 08be
00000220: d524 fbbc 66d1 983c 06b1 2fbd 5e78 83bc
00000230: b11e dcbd d53a 0ebd 8f44 ae3d e336 dd3b
00000240: eb66 21be 0756 0abe 75a7 93bd eef4 823d
00000250: a556 043e 574c 86bd 82b4 823d c52d 1abc
00000260: f5fb 46bd be1b 8f3d 0232 193e b14b 103d
00000270: c30c b6bc 3471 bdbd b658 bebd 4d5a 833c
00000280: 3a7d 36bd 32e5 bbbd 3126 94bd 139b 983b
00000290: 05ed f13b b8ba 3ebd 7036 843d e48f 9dbd
000002a0: c583 c7bc 263c c43d 3fd2 0d3b 7159 2a3e
000002b0: eaab 4b3d a350 23bd d411 a9bc 6738 703d
000002c0: 9aba a6ba e69b 9039 bb57 383d 327b 5e3c
000002d0: 6480 0bbe 9e85 e13c 78bc e9bd 36c8 823e
000002e0: b7c6 3bbd a510 2cbd 4213 88bd f5ee 93bd
000002f0: fed2 9dbd 318b 8a3d f0f6 85bc 773b b2bc
00000300: 1716 54bd 8203 eb3c 3c16 99bc ddde aabd
00000310: 9328 613d 3087 7bbc 80c1 d93d c775 0ebe
00000320: 77ab 1cbd b331 523d 3813 78bd 9187 f0bc
00000330: cc41 d5bd a018 0ebd 2512 d43d 9b58 33bc
00000340: b0fa 5e3c a9c7 10be 61f4 8fbd a521 903d
00000350: d28c fd3c 5227 4cbd 6430 f33d ab89 fdbb
00000360: 5113 48bd b1f1 573c f7e1 2d3e 115e 4e3b
00000370: 557b 923c 32eb 163b c9b7 e1bd 881a b73c
00000380: baaf 96bd 2dd1 74bd 8f84 d5bc 4c22 ab3c
00000390: ae1f 1b3c 4fe4 72bd c7f0 163d df9d e03d
000003a0: d813 13bd b841 d83d 236f f23d 4853 3b3e
000003b0: 6ddf b0bd 305a 9bbd 4873 63bb f204 823d
000003c0: 81e5 babd 1634 5dbd cdd7 a6bd 4af1 9abd
000003d0: 972f 8bbd 7f00 6a3d 7c57 3d3d 944d e93d
000003e0: 1423 3ebc 051b 2ebd 1feb 623d e2ee 59bd
000003f0: 8bc6 a5bc c5de 913d 7b4f 81bd 5ab9 b13c

fc.5.bias f4 [4]
0.042443573 0.037067067 0.03585888 0.036834393
00000000: 50d9 2d3d a3d3 173d c3e0 123d a9df 163d
