best_model_2.pth (torch, 140113 bytes, 6 tensors)

fc.1.weight f4 [128, 200]
000000 76 ec 7b 3d 00 d0 ea b8 ea 2c 7b 3d 0e 37 89 bd
       0.061504804 -0.000111967325 0.06132213 -0.06699954
000010 f2 11 06 bc 34 f6 b1 bc 68 50 bd bc 64 0e d0 bd
       -0.008182989 -0.021723844 -0.02310963 -0.10158995
000020 2a 98 60 3d 26 56 d0 bc 42 3c 84 bc 45 72 ba 3d
       0.054832615 -0.025431704 -0.016142014 0.091038264
000030 af 24 6b be 32 42 5e be 15 ff a3 bd e4 61 06 be
       -0.22963212 -0.21704939 -0.080076374 -0.1312328
000040 38 af 3f 3e 8f 48 a3 3e 2c 36 57 3d 4c 49 1b bd
       0.18719184 0.31891295 0.052541897 -0.0379117
000050 d1 7c f7 bd b7 29 04 3e e0 16 d5 3d 55 c1 bd 3d
       -0.12084354 0.12906538 0.10404754 0.09265391
000060 42 de 0c bf dd 07 a4 3d 28 92 17 3f 0a ca a2 3e
       -0.5502664 0.08009312 0.5920739 0.3179477
000070 b4 fa e1 3d ae f8 45 3e a1 33 1e 3e e8 c3 89 3d
       0.11034146 0.19333145 0.15449382 0.06726819
000080 28 45 82 be 2c e7 73 be fd f9 cb bd ca f9 37 3e
       -0.25443387 -0.23818654 -0.09959791 0.1796638
000090 85 ea d0 3d e5 72 75 3e 9b 3f 41 3e b1 7e 46 3e
       0.10200981 0.2396961 0.1887192 0.19384266
0000a0 35 5d 57 be 7c 6d 45 3e 43 ff 78 3d 88 71 ad bd
       -0.2103165 0.19280046 0.06079031 -0.0846892
0000b0 af a6 6f 3e 72 ee dd 3d d8 bb 7b 3d 7f 4b 12 3e
       0.23403428 0.108364955 0.06145844 0.14286612
0000c0 ce eb 31 bd e4 04 bd bd 31 e8 05 be 88 66 b3 3c
       -0.04343777 -0.092294484 -0.13076855 0.021899477
0000d0 bd f4 99 3d e1 ee 6c bd f6 e9 c0 3e 35 e0 2b 3e
       0.07517383 -0.057845 0.37678498 0.16784747
0000e0 0b 35 6f 3e b4 e0 7a bd 37 86 e9 3d ad 6f 6a bd
       0.23360078 -0.06124945 0.114025526 -0.05723541
0000f0 ce 6d 2a be 1b e8 da bd 0c e6 6d be c4 df dd 3c
       -0.1664345 -0.10688802 -0.23232287 0.027084239
000100 41 bb 48 3e 7e f6 8a 3e 78 62 9a 3e 9e 4b a6 3d
       0.19602682 0.27141184 0.3015325 0.081198916
000110 ac 4f c2 3c 71 a8 80 3c 7a c8 eb bd 3a 43 c1 bd
       0.023719631 0.01570532 -0.11512847 -0.094366506
000120 b9 b1 16 be 14 58 63 be ee dc c5 bd 4e 90 17 3d
       -0.14716233 -0.22201568 -0.096612796 0.037002854
000130 f4 75 3a 3c 81 7f a2 bd c6 3b 2c bd 7d 0b b8 3b
       0.011380661 -0.07934476 -0.042049192 0.005616604
000140 a8 79 48 bd f7 d6 c7 3c 85 bb 28 be 9d 55 cd bd
       -0.048944145 0.024394495 -0.16477783 -0.10026095
000150 af 69 43 3b 00 5a c5 bd 24 bc b4 3d c8 9f 97 bd
       0.002981763 -0.09636307 0.088249475 -0.07403523
000160 eb cc e1 bc 42 40 2e bd d0 3f 91 bd d7 80 d0 3c
       -0.027563533 -0.04254175 -0.070922494 0.02545206
000170 d4 9c 3a be 5e d9 40 be e6 2d 75 bd 02 eb 14 3e
       -0.18223888 -0.18832919 -0.059858225 0.14542773
000180 81 be 3c 3d 16 f0 02 be ff 52 37 be 35 4b b9 bd
       0.046080116 -0.12786898 -0.17902754 -0.09047548
000190 a8 26 02 be 0e 20 ef bd 64 09 d6 3b ac 5c c7 bd
       -0.12710059 -0.11676036 0.006531881 -0.09734473
0001a0 46 ec cd bd d8 0d 62 3e a6 82 ba bd 00 9f ea bb
       -0.10054831 0.22075593 -0.091069505 -0.0071600676
0001b0 3a a8 fe bd e0 c3 7e 3d aa a2 f5 bd 79 82 e8 bd
       -0.124344304 0.06219852 -0.11993916 -0.11353011
0001c0 90 ea 9b bd 80 8f b2 bd 74 24 b9 3d 13 ef 09 be
       -0.076130986 -0.08718777 0.09040156 -0.13470106
0001d0 61 5b 27 be b8 58 06 be 17 60 d9 bd de e8 18 bc
       -0.16343452 -0.13119781 -0.10614031 -0.009332864
0001e0 d1 bd 9c 3d d2 75 bd bd 52 c8 2f be 45 73 26 be
       0.07653392 -0.09250988 -0.1716626 -0.1625491
0001f0 6b 35 b6 bd b8 07 58 be 11 17 62 be 1f 91 22 bc
       -0.088969074 -0.21096694 -0.22079112 -0.009922295
000200 68 01 46 3b b5 b5 1e bd ee 1a cb 3d de d3 25 3d
       0.003021324 -0.038747508 0.09917246 0.040485255
000210 ef 46 a5 bd 0c ed 9e be aa 53 60 bd 83 e5 03 be
       -0.0807017 -0.31040227 -0.05476729 -0.1288052
000220 0d ce d3 bd 3b d3 b8 3c a6 9d 01 be 2a c7 54 bd
       -0.103420354 0.02256166 -0.12657794 -0.05194775
000230 90 d5 32 be be ef 4b bd 94 8a 6c bb 0e 7e a8 bc
       -0.1746428 -0.049789183 -0.0036093341 -0.02056792
000240 8c a4 d8 3d 1f c1 89 bc 55 19 f7 bd 2f 3c 5a be
       0.1057826 -0.01681572 -0.120653786 -0.2131202
000250 c2 d1 c6 bd c8 87 7c bd b3 84 2d be 9b 11 17 be
       -0.09707977 -0.06165293 -0.16945152 -0.1475281
000260 46 72 52 be af b4 df bd 1a ef 13 bd 61 a6 5f bd
       -0.20551404 -0.109231345 -0.036116697 -0.05460203
000270 2d d3 11 be 80 40 16 bd 53 44 de 3c 4e 45 55 3d
       -0.14240713 -0.036682606 0.027132189 0.052068047
000280 3c 8f b2 bd 1c 27 64 3d 49 93 31 be ac 12 96 bd
       -0.08718726 0.05570136 -0.17341341 -0.0732778
000290 3f 2a 25 b8 67 07 0f be 74 38 21 be ec 13 db 3c
       -3.937841e-05 -0.13967668 -0.15744191 0.026742898
0002a0 c6 9b 91 bc 88 44 9b bc 0b 3e 38 bd f8 32 fb bd
       -0.017774474 -0.018953577 -0.044981044 -0.12265581
0002b0 18 34 9d bc 48 97 1f be a1 04 f1 bd 8d fc e5 bd
       -0.01918988 -0.15585053 -0.11768461 -0.11229811
0002c0 5b 7f 49 bd 77 7b 4d bc da 43 20 bd 9a e5 ad bd
       -0.04919372 -0.012541643 -0.03912721 -0.08491059
0002d0 29 5f d1 bd d7 34 bb bd 22 ab 2b be e2 64 10 be
       -0.102232285 -0.09140938 -0.167645 -0.14100984
0002e0 72 b8 19 be f6 82 8d ba bf dd 1a be ea 04 7a be
       -0.15011767 -0.0010796476 -0.15123652 -0.24415937
0002f0 d1 64 dc bd bb 0a 19 be d7 8e 24 be 37 71 0f be
       -0.10761417 -0.149455 -0.16070114 -0.14008032
000300 0b a1 5c be 6b c8 3a bc f2 91 78 be 13 ef 20 be
       -0.21545808 -0.011400322 -0.24274424 -0.157162
000310 40 1d 1f be c1 6b 02 be 15 38 21 be d2 52 8f be
       -0.15538502 -0.12736417 -0.1574405 -0.27992874
000320 68 4e 1c bd 90 1f f5 bb 40 01 d7 3c 3c 93 c0 3c
       -0.03816071 -0.007480569 0.026245713 0.023507707
000330 90 60 b0 3b 78 ca 51 bd b0 32 62 3c c8 7a 3f bd
       0.005382605 -0.05121848 0.01380603 -0.046747953
000340 60 ee c4 3c 40 f4 01 3b a2 2c 71 bd 08 78 f2 3c
       0.024039447 0.0019829422 -0.058880456 0.029598251
000350 1f e4 88 3d 0c 90 5a bc 00 8b b3 ba a4 53 c8 3c
       0.06684136 -0.0133400075 -0.0013698041 0.024453945
000360 22 52 f9 bc 30 45 d3 bb 00 87 fa b9 64 b7 d0 3c
       -0.030434672 -0.006447457 -0.000477843 0.025478072
000370 fe 0a dc bc 90 c1 dd bb 86 b6 f3 bc 64 8e e0 bc
       -0.02686071 -0.006767459 -0.02975012 -0.027411647
000380 4e f7 93 bc 36 5a be bc f6 41 67 bd fc ed 03 3d
       -0.01806226 -0.023236375 -0.05645939 0.03220938
000390 dc 25 4d bd 56 93 75 3d 00 01 0f 3a 56 e8 1e 3d
       -0.050084934 0.059954964 0.0005455166 0.03879579
0003a0 18 de c5 bc 80 e1 27 3a 29 70 12 3d 70 7e 0e bd
       -0.024153754 0.00064041466 0.035751496 -0.03478855
0003b0 9a 7b f9 bc da e5 59 3d 12 3f 27 3d 94 a9 09 3d
       -0.030454446 0.05319772 0.040831633 0.033608988
0003c0 9e b8 b8 bc 54 cf 94 bc 43 f1 86 3d f6 8a 88 bc
       -0.02254897 -0.018165268 0.06588986 -0.016667824
0003d0 84 ff ab bb 99 e9 95 3c 26 c7 2a bd 50 68 b4 bb
       -0.0052489657 0.018299865 -0.04169383 -0.005505599
0003e0 9c a5 61 bc 61 85 89 3d 40 6a 1c 3c 1e 3b 68 bd
       -0.0137723945 0.06714893 0.009546816 -0.056697004
0003f0 60 24 95 3b ac d9 c7 bc c4 30 43 bd 47 a6 83 3d
       0.0045514554 -0.024395786 -0.04765393 0.06428199

fc.1.bias f4 [128]
000000 22 00 37 be 02 f8 4d bd bb 70 07 be ab 1a dd bd
       -0.17871144 -0.050285347 -0.13226597 -0.10796102
000010 d6 d4 af bd 00 92 cd ba 21 98 f8 bc eb c5 ab bd
       -0.08585517 -0.001568377 -0.030345978 -0.08387359
000020 7a 6c f9 bc 5c 7a be bd f1 a0 98 be aa 10 46 bc
       -0.030447233 -0.09300682 -0.2981029 -0.012088934
000030 62 e9 8c bd b5 ea 30 be 8a c2 7f 3d 61 e8 5e bd
       -0.06880452 -0.17277034 0.062441386 -0.054420833
000040 e5 9e a8 bd 53 8c fc bc 4c ff 2c bd 65 ea da bd
       -0.08233432 -0.03082863 -0.042235658 -0.106892385
000050 cf 29 84 bd 27 93 8b ba 8e 9b 2d be 21 3d 7f bd
       -0.06453287 -0.0010648713 -0.1695387 -0.062314156
000060 49 fe 69 bd 63 b8 ce bd 18 56 f1 3d c7 27 ba bb
       -0.05712727 -0.10093763 0.11783999 -0.0056810114
000070 0a d9 00 bd 4c 02 6f bc 7b f7 9b bd f7 9c da bd
       -0.031456985 -0.01458795 -0.076155625 -0.1067447
000080 8e ec bf 3d 92 bc f0 bd c9 18 13 be 0c 1d 88 bd
       0.09371291 -0.11754717 -0.14364924 -0.06646165
000090 cd b4 ae bc b7 e1 fe bd f7 48 1b be 11 b1 3f bd
       -0.021326447 -0.124453954 -0.15164553 -0.046799723
0000a0 ce ee fb 3c 30 eb f8 bd 0c e6 b5 bd e8 a3 71 3d
       0.03075352 -0.121542335 -0.088817686 0.058994204
0000b0 d7 ee fb bc 0a 7b a7 bd 01 96 b2 bd 72 c4 60 be
       -0.030753536 -0.08177765 -0.08720017 -0.21949938
0000c0 32 99 6d bd cf 16 c9 bd df eb d8 bd c4 12 a8 bd
       -0.058007427 -0.098188035 -0.10591864 -0.08206704
0000d0 f3 9d c5 bd e7 0e d7 bd 42 33 a8 be 8f 5f 1c 3d
       -0.09649267 -0.10500889 -0.32851607 0.03817707
0000e0 71 43 27 bb 5c fe 91 bd 49 15 36 be 46 09 32 3e
       -0.0025522376 -0.07128593 -0.17781557 0.1738635
0000f0 53 79 b4 bd 3a eb 82 bd 56 6d 8b bd 3c d4 a0 bd
       -0.08812203 -0.06392522 -0.068079636 -0.078529805
000100 92 35 eb bd 78 c1 e9 bd 3c 33 a8 bc cd e8 09 bb
       -0.11484827 -0.11413854 -0.020532243 -0.00210433
000110 5c cd 10 bd a1 20 fc bc 77 9a f9 bd 51 dc e1 bd
       -0.035352096 -0.030777277 -0.12187665 -0.1102835
000120 4b 6e 87 bb a7 cc e9 bd 69 81 f3 bc 1f 8b d9 bd
       -0.004133021 -0.114159875 -0.029724794 -0.10622238
000130 de 72 8b bd 58 84 d8 bd d0 be 1d be f7 90 de bd
       -0.068090186 -0.105721176 -0.1540482 -0.108674936
000140 ad 87 38 be 6b 5d 4a be 1a a0 4b 3c 33 52 0a 3d
       -0.18020506 -0.19762199 0.012428308 0.033769798
000150 f4 c5 c3 bd b3 e9 99 bd 4f ca af bd 97 71 2a be
       -0.09559241 -0.07515278 -0.08583509 -0.16644894
000160 e8 5d 5c bd db 38 30 be 0a 22 84 bd f1 fd 85 3d
       -0.053800493 -0.17209189 -0.06451805 0.06542576
000170 76 75 eb bd af 3b 92 bc be ea 07 be ad 20 11 3d
       -0.11497013 -0.017850725 -0.13273141 0.035431553
000180 f4 ca f9 bc 2e d9 5c bd 66 70 9d be 94 dd cb bd
       -0.030492283 -0.053918056 -0.30749816 -0.09954372
000190 b3 54 da bd 53 2a 0d be fd f1 d0 bd 2c 61 0c be
       -0.10660686 -0.13785677 -0.102024056 -0.13708943
0001a0 25 68 05 be 0d 80 d0 bd ea 4a 02 3d 4b c6 c6 bd
       -0.13028009 -0.10180674 0.031809725 -0.0970579
0001b0 0e 8d 00 be d4 d6 82 bd 6f 32 aa 3b 81 ec 8b bd
       -0.12553808 -0.063886315 0.0051940004 -0.06832219
0001c0 25 72 cf bd 46 ee 7f bd d1 40 6b bd 1a 22 d5 bd
       -0.10129193 -0.062483095 -0.05743486 -0.10406895
0001d0 03 f2 2a be 1c 40 19 bd cb a4 e8 bd b1 a2 98 bd
       -0.16693883 -0.037414655 -0.11359557 -0.07452906
0001e0 1a 0a 5e bd 6b 12 83 bd df 3e b4 bd ce ac 5e bd
       -0.054208852 -0.06399997 -0.08801054 -0.05436402
0001f0 1d dc c5 ba ff 3f 53 bd 5b 80 92 bd f9 29 a6 bc
       -0.0015095506 -0.051574703 -0.07153388 -0.020283686

fc.3.weight f4 [64, 128]
000000 f0 16 07 3c bd 24 3b 3c 80 65 2d ba 59 43 9f bb
       0.008245215 0.011422333 -0.0006614551 -0.0048603234
000010 78 9e e3 bd fc ab f6 bd ec 88 ce bc 77 77 1d bd
       -0.1111421 -0.12044522 -0.025211774 -0.03844401
000020 95 c7 e6 3c b9 40 9b bb d4 39 63 3d 00 cd 74 3d
       0.02817134 -0.00473794 0.05547507 0.059765816
000030 60 ca 99 bb 25 e3 9f 3d 17 53 18 bd 39 de 89 3d
       -0.0046933144 0.07806996 -0.037188616 0.06731839
000040 e6 48 eb bb bf 33 60 3d a6 3c be 3b cc 18 de bd
       -0.007180321 0.05473685 0.0058055697 -0.108445734
000050 9d 77 48 3c 50 58 e3 3b b2 2f ab 3d 8e ad 18 3d
       0.012235549 0.006938018 0.083587065 0.03727489
000060 14 c9 91 3d c4 3f 0f 3e c9 d3 89 bd 09 50 87 bd
       0.07118431 0.13989168 -0.06729848 -0.06607062
000070 3c 2a 67 bc 61 ec 68 bd 35 6e 7c bc 6b ba 25 3c
       -0.014109191 -0.056866053 -0.015407135 0.010115246
000080 58 8c 4f be 89 8e 18 3d 32 79 92 bd da f9 98 bd
       -0.2026838 0.037245307 -0.071520224 -0.074695304
000090 06 b3 b4 3d 17 90 8b 3d c0 a1 d4 bd a9 68 9a bd
       0.088232085 0.06814592 -0.10382414 -0.075394936
0000a0 22 5e 3b bb ea 9c 9d 3c 2c 22 62 bd 4d ae 2d 3d
       -0.0028590043 0.019239862 -0.05520837 0.042402554
0000b0 c9 2f f7 3c 02 be d8 3c 49 8b 33 bd c0 6d 58 bd
       0.030174153 0.02645779 -0.043834005 -0.05283904
0000c0 79 ed 08 3d 28 3a 27 bd 1b 3f 88 3d 53 60 9b 3d
       0.033429597 -0.040826946 0.066526614 0.07586732
0000d0 01 d8 78 3d db 2c 55 bd a3 bb 12 bd aa 1d 5a be
       0.060752872 -0.05204473 -0.035823476 -0.21300378
0000e0 ed 30 25 be 83 dd 9a 3d 55 f9 38 bd 8c ef dd bd
       -0.16131945 0.07561781 -0.045159657 -0.108367056
0000f0 b6 70 93 bc 22 b5 95 bd d1 9a 89 bd 20 cd 46 bd
       -0.01799808 -0.07309939 -0.06718982 -0.048535466
000100 81 a0 85 bb 4c 4d 8f 3c 65 4f 7b bd ee 98 1c be
       -0.0040779714 0.017492913 -0.061355013 -0.15292713
000110 70 94 b1 3d 9d 82 9f 3d 8c 3a 1c be a8 2b a0 bd
       0.0867089 0.077885844 -0.15256709 -0.07820827
000120 cc 91 9c bd 7a a5 86 be c3 df 14 3d 8f 26 57 3c
       -0.07644996 -0.26298124 0.03634621 0.013131752
000130 49 eb 09 3d f5 6e 81 bd 12 34 ff bc a7 f5 97 3d
       0.03367165 -0.063199915 -0.031152759 0.07419901
000140 20 25 82 be 3d 48 3f 3b f3 37 2a bd 89 5a 08 3e
       -0.2541895 0.0029187344 -0.041557264 0.13315786
000150 85 9b 12 be f6 00 79 3d a0 ea 17 3d ac 2b af bd
       -0.14317138 0.060791932 0.03708899 -0.085532516
000160 40 3f 3d 3d 03 38 6d bd 62 0c e0 bc 4d 40 69 be
       0.046202898 -0.057914745 -0.027349655 -0.22778435
000170 3f 60 ac bd c0 56 9d 3d 5d 53 56 bd 97 5d c1 bd
       -0.08416795 0.07682562 -0.052325595 -0.09441679
000180 a7 f8 03 3d 45 6d 36 3c c0 6e 77 bd 3e f0 15 3c
       0.032219555 0.01113445 -0.060408354 0.0091515165
000190 3b 98 78 bd 40 ca 30 bd 54 df 81 3d a6 fa fe bd
       -0.060692053 -0.04316163 0.063414246 -0.12450151
0001a0 63 d8 8d be f6 78 d4 bb d9 2d f6 3a 0c 46 19 be
       -0.27704152 -0.006484146 0.0018781974 -0.14968127
0001b0 4e 81 06 be a1 e6 91 bd 26 8b bb bc 40 52 1e bd
       -0.13135263 -0.07124067 -0.0228935 -0.03865266
0001c0 94 15 96 bd 48 00 9e bd eb 3f 19 3e e9 45 aa bd
       -0.073283345 -0.077148974 0.14965789 -0.083141156
0001d0 a9 97 08 be b5 77 c5 bc 6b 4f b3 bd 75 1f fb bd
       -0.13339104 -0.024104932 -0.08755382 -0.12261859
0001e0 6e f0 20 3c 5d 41 09 3d dc 6e ec bd b0 00 19 3c
       0.009822948 0.0335096 -0.11544582 0.009338543
0001f0 ca 4f b6 bd 40 f4 60 bb 5c b8 5b 3d 0c 53 da bc
       -0.08901937 -0.0034325272 0.053642616 -0.026650928
000200 80 56 62 bd e7 46 b2 3d c2 fa 77 3d 2a 6a a0 bd
       -0.055258274 0.0870493 0.060541876 -0.07832749
000210 41 f3 2c 3c ed 27 5d bd 0f 22 7d 3d cf 80 34 3d
       0.010556043 -0.053993154 0.06180006 0.044068154
000220 60 01 2e 3d 9e 51 bd bd 0b fc 2a bc 7b 9f 38 bd
       0.04248178 -0.09244083 -0.010436068 -0.045073967
000230 c6 a0 34 3d e0 1c bb 3c 60 de 02 3d 43 24 5c bd
       0.044098638 0.022840917 0.031950355 -0.05374552
000240 b6 c4 82 3d 26 2c 42 3d ad 90 9a 3d 0e 3f 22 3d
       0.06385176 0.047405384 0.07547126 0.039610915
000250 12 a0 a5 bd 08 39 8c bc db 00 26 bd b7 82 88 bd
       -0.080871716 -0.017117038 -0.04052816 -0.06665557
000260 c0 09 f8 3b a1 b8 62 bc 09 91 35 bd 19 7e 89 3c
       0.0075695217 -0.013837964 -0.04432777 0.01678376
000270 73 fc 65 bb f0 fb 55 bc 13 cb 30 bb 6f 56 23 3d
       -0.0035093098 -0.013060555 -0.002697651 0.03987735
000280 e6 39 af bd f6 13 17 3d f8 aa 99 3d e2 04 7e 3d
       -0.08555965 0.03688427 0.07503313 0.062016375
000290 d3 14 aa 3d 0e 96 77 3d 29 84 84 3c 11 be a5 bd
       0.08304753 0.060445838 0.0161763 -0.08092893
0002a0 e4 65 6b 3d 23 35 5e bd ca 21 2f 3d 68 b4 91 bd
       0.057470217 -0.054249894 0.042756833 -0.07114488
0002b0 7b 19 0e 3c 7a 24 25 3d d2 1f a5 bc 12 98 41 3d
       0.008673067 0.04031799 -0.020156775 0.047264166
0002c0 01 13 2e 3c c6 93 6d 3d 18 83 9c bc 05 99 a3 3d
       0.010624648 0.058002256 -0.01910548 0.079881705
0002d0 f8 5c 0b 3d e2 1f 60 bd ff 2c cc bb d0 b7 36 3d
       0.03402421 -0.054717906 -0.00623095 0.04460889
0002e0 8c b6 88 3c b4 7f 8f bd 1a 0f ef bb ef 21 9b 3d
       0.016688608 -0.07006779 -0.0072955014 0.07574832
0002f0 34 77 82 bd 7f 70 40 bc 40 2b 6c bd 70 dc da 3c
       -0.063703924 -0.011745571 -0.057658434 0.02671644
000300 e6 9f 9f bb de 95 32 bd 66 6d fa 3c 1e 78 47 bd
       -0.0048713563 -0.043599956 0.030569743 -0.048698537
000310 2b 0f 44 bd 51 5a c5 bd 2f af 20 3d 4e 1b 01 3d
       -0.047866028 -0.09636367 0.039229568 0.03152018
000320 3d 34 98 bd 12 c4 70 bd af 16 a5 3d c8 d9 43 bd
       -0.07431839 -0.058780737 0.08060967 -0.047815114
000330 0f c0 8c 3d 29 b2 88 bc 26 d7 13 bb 4b 0a 17 bd
       0.0687257 -0.016686516 -0.0022558658 -0.03687505
000340 a2 8a 49 bd 4d b9 a3 bd 55 83 ee 3b bb 47 51 3d
       -0.049204476 -0.07994328 0.0072788396 0.051093798
000350 e5 4c c3 bd 36 58 33 bd 0e 27 35 bd 76 81 82 bd
       -0.09536151 -0.043785296 -0.0442267 -0.06372349
000360 a0 ad ce bc 47 fc b6 bc 55 ff ca 3c 89 d7 93 bd
       -0.025229275 -0.022337092 0.024779955 -0.072188444
000370 b8 11 e8 bc 27 87 77 bd 1d fb 81 bd 99 03 86 bd
       -0.028328761 -0.060431626 -0.06346724 -0.06543655
000380 cf 78 b2 bd a5 58 23 bd 69 75 66 bd 9a d0 dc bc
       -0.08714449 -0.03987946 -0.056264315 -0.026954938
000390 a1 4e 8b 3c 54 e1 13 bd 64 cd a7 bd 2d 75 23 bd
       0.017005267 -0.03610356 -0.08193472 -0.03990667
0003a0 8a b1 b4 bd 49 1a 82 3d b3 3a ac 3d 1e e8 7b 3d
       -0.088229254 0.0635267 0.084096335 0.06150066
0003b0 ba 2d 65 3d 97 d9 a2 bc 70 d7 5e 3d 55 20 a0 bd
       0.05595181 -0.019879146 0.054404676 -0.07818667
0003c0 c6 9a cb 3c d7 4e ea bc 00 ad 0d 3a d8 27 7e bd
       0.024854075 -0.028602047 0.0005404502 -0.062049717
0003d0 e3 c2 3a bd 50 c3 8e bc ac a5 0d bd 13 57 42 bd
       -0.045596015 -0.017427117 -0.034581825 -0.04744632
0003e0 1c 3e 89 bc f0 8d 39 bc 83 bf b2 bd b9 fe 87 bd
       -0.016753249 -0.011325344 -0.08727934 -0.06640381
0003f0 02 4b 98 bd 41 ae c4 bd 53 73 5d 3d dc e9 16 bd
       -0.074361816 -0.09603549 0.05406506 -0.03684412

fc.3.bias f4 [64]
000000 fd 12 fd bd 85 5b 51 be a6 76 e6 bd f6 f3 80 be
       -0.12357137 -0.20445068 -0.11253099 -0.25186127
000010 17 05 c5 3d 01 ad df bd 2b d1 1c be d9 38 d2 bd
       0.096201114 -0.1092167 -0.15314166 -0.10264749
000020 86 a7 11 be 3b 26 1f be 54 01 c4 bd 6b 92 e4 bd
       -0.14224061 -0.15541928 -0.09570566 -0.111607395
000030 48 17 7a 3d 88 d7 39 be 69 e6 fa bd 63 81 89 bd
       0.06105736 -0.18148625 -0.122509785 -0.06714132
000040 d3 03 1d bd 89 44 8c bd ff e0 19 be b6 a3 21 be
       -0.038333725 -0.068490095 -0.15027235 -0.15785107
000050 3c b5 ef 3b 16 0c 16 be 95 94 e1 3d f8 b1 5d bd
       0.007315306 -0.14653048 0.11014668 -0.054124802
000060 24 a5 7a bd 8d 58 97 3d 98 ed 81 bd 70 8b b9 3d
       -0.061192647 0.073899366 -0.063441455 0.09059799
000070 f8 9d b1 be f5 59 33 bd 40 fe 44 3d 0e 72 45 3d
       -0.34690833 -0.04378696 0.048094034 0.048204474
000080 2a b4 cf bd 73 dc 45 be dd 17 60 bd d6 25 3c bc
       -0.101417854 -0.19322376 -0.054710258 -0.01148363
000090 95 43 9f 3d ea 25 79 bd 8a bd 0b be d6 43 29 be
       0.07776562 -0.060827173 -0.13646522 -0.16529784
0000a0 b7 21 f9 3d 23 e5 a3 3d d9 ed 27 be f8 17 1a be
       0.12164634 0.08002689 -0.16399325 -0.15048206
0000b0 3e 87 d5 bb be fa 81 bd 86 55 4e bd 6e bc ef 3c
       -0.0065163663 -0.063466534 -0.05037453 0.029264655
0000c0 b5 8f d4 bd a7 c1 54 be 3f 09 fb bd b7 37 2d be
       -0.103789724 -0.20776998 -0.12257623 -0.16915785
0000d0 4c f6 ca bd a5 c9 92 be 4c 20 64 bd 3f 7e 0b be
       -0.09910259 -0.28669468 -0.055694863 -0.13622378
0000e0 89 d0 e0 bd c7 85 e6 bd e8 a3 15 bd fc 7c 68 be
       -0.10977275 -0.11255985 -0.036533266 -0.22703928
0000f0 48 9b bd bd a1 48 8f bd 7d 27 c6 bd 70 f8 28 be
       -0.09258133 -0.06996275 -0.096755005 -0.16501021

fc.5.weight f4 [4, 64]
000000 08 d9 f3 3d ad 8f 59 3c 2f e4 40 be 24 de 22 3c
       0.1190663 0.013278884 -0.18837045 0.009940658
000010 5f 48 9c 3d 12 75 8c bd 45 39 3b 3d 59 64 96 bd
       0.07630991 -0.06858267 0.045708913 -0.073433585
000020 c4 0f e0 bd 56 01 77 3c d1 19 98 3d 0d aa 47 bd
       -0.10940507 0.015076002 0.07426799 -0.048746157
000030 7a cf 2f bd 56 3b 8b bc 91 16 d1 bc 62 77 9c bc
       -0.042922474 -0.016996067 -0.025523456 -0.019099895
000040 c5 d0 d9 3b 34 99 37 be cd 50 90 3c 41 b2 d7 3c
       0.0066472017 -0.17929536 0.017616654 0.026330115
000050 d6 c7 b0 3d a5 10 da 3d 1f e8 7f be e9 57 31 3d
       0.08631866 0.10647706 -0.24990891 0.04329673
000060 4e a2 e7 bd 39 4d 56 3d 12 dd 60 bd 9c 18 6a be
       -0.11310254 0.05231974 -0.05489833 -0.2286095
000070 d5 c4 12 3a cd 85 d7 bd 4d 8e d3 3b e8 71 33 be
       0.0005598788 -0.10523567 0.0064561726 -0.1752392
000080 88 bc 2d bd 4d c8 8e ba d6 35 b9 bc 66 e3 64 bd
       -0.042416126 -0.0010893435 -0.022608679 -0.055880927
000090 e2 41 49 bd 1f 9f 45 3d 7b b3 8e 3c 7b c5 9f bc
       -0.049135096 0.048247453 0.017419567 -0.019503346
0000a0 2c 50 11 be 83 78 87 bd 71 33 57 bd 14 57 55 bd
       -0.1419074 -0.06614783 -0.052539293 -0.052084997
0000b0 27 a6 d8 bd 94 0f a3 bd b0 9d ca bb dd cf 9d 3d
       -0.10578566 -0.07961956 -0.0061833486 0.077056624
0000c0 1a ee 9b 3c 10 60 21 3b 49 6d 9f 3c 59 a3 0d 3d
       0.019034434 0.0024623908 0.01946129 0.03457961
0000d0 f5 60 5a 3d 5e 2a a6 3d a7 1f 02 bd 7f 44 98 3d
       0.05331512 0.0811355 -0.031768467 0.074349396
0000e0 d5 38 f7 3b 6c bf 75 bd e0 a7 a9 3d 00 6c 36 bd
       0.0075446167 -0.059997007 0.08283973 -0.04453659
0000f0 7f 9a 80 bb a2 1f 60 3d ac b3 df 3d fc 2e 49 3c
       -0.0039246674 0.054717667 0.109229416 0.012279268
000100 f7 3b d3 bc cb 3d 87 bc 70 e8 c5 3c 75 9f 1c bc
       -0.02578543 -0.016508957 0.024158686 -0.009559502
000110 5f 30 94 3d cc e8 fa 3d 9d a8 22 3d f5 18 d6 3d
       0.072357886 0.12251434 0.039711583 0.10453979
000120 31 1a 73 bd 3a 95 5e bd 6a 56 80 bd 46 49 06 3c
       -0.05935115 -0.054341532 -0.06266482 0.008196181
000130 ae 99 1f bd eb 5e 78 bc 2a ef 5e bd d3 0d 17 3d
       -0.03896492 -0.015159349 -0.054427303 0.03687842
000140 ca 0d 75 3d fc 49 75 bc 67 f3 1d bd ef 3f bf bd
       0.059827603 -0.0149712525 -0.038562205 -0.09338366
000150 27 6c e4 3d d2 d4 5e 3d bf 74 b6 3d 35 ba 37 3d
       0.11153441 0.05440218 0.08908986 0.044855315
000160 cb b0 84 3d 9f ff 5d 3d f9 0e e7 bc ba 9f 22 3e
       0.06479033 0.054198857 -0.028205382 0.15881243
000170 22 8a 80 bd d8 52 e2 bd b3 b6 dc bd 23 02 b0 3d
       -0.06276347 -0.110509574 -0.107770346 0.085941575
000180 b2 2d b4 bc b3 ed f1 ba c2 79 be 3d dd 69 53 bc
       -0.021994445 -0.0018457681 0.09300567 -0.012903658
000190 d1 b5 31 bd 6e 04 e9 bd 74 cd 93 3b c4 fd 74 bb
       -0.043386284 -0.11377798 0.004510576 -0.0037382701
0001a0 b5 b8 2f 3e 0a c5 d4 3d cd db ae 3c 88 80 c2 bd
       0.17160304 0.10389145 0.021345044 -0.09497172
0001b0 54 02 9e bc c9 90 19 bc 24 ef 41 bc 0e 85 c6 3d
       -0.01928822 -0.009372898 -0.011836801 0.09693347
0001c0 99 fd 61 3d 61 8e a6 bb b2 37 e5 bd b3 5f a8 bd
       0.05517349 -0.005082891 -0.11192264 -0.08221378
0001d0 8a c5 bf bc 61 c6 83 3c 83 3b 9b 3d d3 e7 e5 bc
       -0.023409624 0.016085805 0.0757971 -0.028064644
0001e0 76 f3 59 bc 9b b1 97 3b a5 c9 00 be b2 46 27 bd
       -0.0133026745 0.0046293265 -0.12576921 -0.040838905
0001f0 7c 85 fb 3c a7 da 8b bc 3b 69 68 bd ba 64 fe bc
       0.030703299 -0.017072035 -0.05674098 -0.03105389
000200 68 d8 c8 bc c2 38 e8 bc e8 2c 37 3c 90 e7 6e 3d
       -0.024517253 -0.028347377 0.01118014 0.058326304
000210 d9 45 8a 3d 87 24 c6 bc 62 53 1f 3d 8f 8b 92 bb
       0.06751604 -0.02418734 0.03889788 -0.004472203
000220 63 f8 b1 b7 9d 9d ab 3c e1 2b a7 bc 3e 44 f1 3c
       -2.1215708e-05 0.02094918 -0.020406665 0.029451486
000230 cb 20 27 bd df 6e 04 3c 4e c6 73 3d 9a 44 87 3d
       -0.04080276 0.008083074 0.05951529 0.066048816
000240 72 46 4d bd 48 ca 23 bc ab 70 a2 bd 9b 0f db 3b
       -0.05011601 -0.009996958 -0.07931646 0.00668521
000250 3d 62 e6 3d 79 bc 30 3d 05 98 bb 3d eb 45 48 3d
       0.11249206 0.04314849 0.09159855 0.048894804
000260 d5 21 49 bd 0a 39 74 3d ca 62 9b bc ce 07 18 3e
       -0.04910453 0.05962471 -0.018968005 0.14846727
000270 cf b6 68 be 40 83 eb bd 4a 20 9f bd ae fd 21 3d
       -0.22725986 -0.11499643 -0.077698305 0.03954857
000280 79 3c fb bc 12 84 da 3b ff fa 32 3d 34 97 1a 3e
       -0.030668484 0.006668576 0.0436964 0.15096742
000290 ad e6 c3 bd 0f f9 56 bd 2b 9a b6 bb d8 8d 21 3c
       -0.09565482 -0.052483615 -0.0055725775 0.009860478
0002a0 61 77 72 3c 1c c2 b9 bd 4f df be ba ba ea 43 3d
       0.01479897 -0.090702266 -0.0014562401 0.047831275
0002b0 d7 2f 11 3c e1 cb 3c 3d 50 cc dd 3c 05 1f 24 3d
       0.008861504 0.04609287 0.027074963 0.040068645
0002c0 7b a1 3d be 82 9f 34 3d eb 8a 0d be a4 1b 36 be
       -0.18518631 0.04409743 -0.13822524 -0.17783982
0002d0 61 44 da ba b7 58 df bd 5a e0 70 3d 18 c3 d5 bb
       -0.0016652459 -0.10905593 0.05880771 -0.006523501
0002e0 69 02 03 3d 0f 91 eb bc c4 3e 09 be dd 2c 1f bd
       0.03198472 -0.028755693 -0.1340285 -0.038861144
0002f0 b6 5c 67 3d 77 52 4e 3d 99 4c dd 3c d9 0c 19 3d
       0.0564849 0.050371613 0.027014064 0.037365768
000300 3e 7a 44 bc 05 8e 69 bd 33 46 6f 3d 55 85 e2 bd
       -0.011992035 -0.057020206 0.058416557 -0.11060587
000310 ce 9e 91 3d 0b 7c c4 3d de 2c 30 3d 52 b9 88 bc
       0.07110368 0.09593972 0.04301154 -0.01668993
000320 2a be 2f bc d1 3b 80 bc 8f da 13 3c cf 78 34 bd
       -0.010726491 -0.015653523 0.009024276 -0.044060525
000330 b3 29 45 bd 9b 03 d1 3b f9 d1 d4 39 ba 1a 17 3d
       -0.04813547 0.0063786036 0.00040592233 0.036890723
000340 83 79 6e bd 9a 71 f3 bd 26 0c cf bd 0c 31 1b 3d
       -0.05822135 -0.11886902 -0.10109739 0.03788857
000350 a9 18 d0 3d e1 de 11 be 77 63 ef bd ca f4 4c 3d
       0.101609536 -0.14245178 -0.11688893 0.050038137
000360 cc 65 9e bd 92 b7 5b 3d d8 59 05 bd 24 28 49 3d
       -0.0773426 0.053641863 -0.032556385 0.049110547
000370 cf 67 57 bd b8 f3 61 bd b2 c0 6d 3d ed 87 54 bd
       -0.052589234 -0.05516407 0.058045097 -0.05188744
000380 bb 74 3c bb 3c 0f 08 bc f7 f4 03 3d 28 b1 b2 bc
       -0.00287561 -0.008304413 0.03221604 -0.02181299
000390 a4 85 8e bd 79 50 b6 bd bd 9c 3e 3d d4 f9 51 3d
       -0.06959084 -0.08902068 0.046536196 0.051263645
0003a0 64 03 17 be f7 b5 42 3c 1b 66 1c bd e4 dc 8f 3d
       -0.14747387 0.011884204 -0.038183313 0.070245534
0003b0 25 6f 5b bd e5 bd 24 bd 04 d6 dd 3c 8e 75 f1 bc
       -0.053572793 -0.04022016 0.02707959 -0.029475
0003c0 4f 6e 62 bd b9 59 03 3c 7b ee 95 bd c5 fd 87 3c
       -0.05528098 0.008016997 -0.07320877 0.016600499
0003d0 02 8f 1e 3e 10 dd a9 3a 34 1c 1d 3d 64 f9 04 3c
       0.1548424 0.0012959559 0.038356975 0.0081161
0003e0 91 62 d1 bc 24 b1 f2 bd 11 86 47 bd d7 58 0a bd
       -0.025559695 -0.11850193 -0.04871184 -0.03377613
0003f0 47 f9 6c 3c a2 1e e0 3d 08 dd 40 3d b1 61 85 bc
       0.014463729 0.10943343 0.04708579 -0.016281934

fc.5.bias f4 [4]
000000 40 d2 94 3d 82 3a 94 3d 35 7a 97 3d d9 fc 93 3d
       0.072666645 0.07237722 0.07396356 0.07225961
