best_model_2.pth (torch, 140113 bytes, 6 tensors)

fc.1.weight f4 [128, 200]
0	0x3d7bec76	0.061504804
1	0xb8ead000	-0.000111967325
2	0x3d7b2cea	0.06132213
3	0xbd89370e	-0.06699954
4	0xbc0611f2	-0.008182989
5	0xbcb1f634	-0.021723844
6	0xbcbd5068	-0.02310963
7	0xbdd00e64	-0.10158995
8	0x3d60982a	0.054832615
9	0xbcd05626	-0.025431704
10	0xbc843c42	-0.016142014
11	0x3dba7245	0.091038264
12	0xbe6b24af	-0.22963212
13	0xbe5e4232	-0.21704939
14	0xbda3ff15	-0.080076374
15	0xbe0661e4	-0.1312328
16	0x3e3faf38	0.18719184
17	0x3ea3488f	0.31891295
18	0x3d57362c	0.052541897
19	0xbd1b494c	-0.0379117
20	0xbdf77cd1	-0.12084354
21	0x3e0429b7	0.12906538
22	0x3dd516e0	0.10404754
23	0x3dbdc155	0.09265391
24	0xbf0cde42	-0.5502664
25	0x3da407dd	0.08009312
26	0x3f179228	0.5920739
27	0x3ea2ca0a	0.3179477
28	0x3de1fab4	0.11034146
29	0x3e45f8ae	0.19333145
30	0x3e1e33a1	0.15449382
31	0x3d89c3e8	0.06726819
32	0xbe824528	-0.25443387
33	0xbe73e72c	-0.23818654
34	0xbdcbf9fd	-0.09959791
35	0x3e37f9ca	0.1796638
36	0x3dd0ea85	0.10200981
37	0x3e7572e5	0.2396961
38	0x3e413f9b	0.1887192
39	0x3e467eb1	0.19384266
40	0xbe575d35	-0.2103165
41	0x3e456d7c	0.19280046
42	0x3d78ff43	0.06079031
43	0xbdad7188	-0.0846892
44	0x3e6fa6af	0.23403428
45	0x3dddee72	0.108364955
46	0x3d7bbbd8	0.06145844
47	0x3e124b7f	0.14286612
48	0xbd31ebce	-0.04343777
49	0xbdbd04e4	-0.092294484
50	0xbe05e831	-0.13076855
51	0x3cb36688	0.021899477
52	0x3d99f4bd	0.07517383
53	0xbd6ceee1	-0.057845
54	0x3ec0e9f6	0.37678498
55	0x3e2be035	0.16784747
56	0x3e6f350b	0.23360078
57	0xbd7ae0b4	-0.06124945
58	0x3de98637	0.114025526
59	0xbd6a6fad	-0.05723541
60	0xbe2a6dce	-0.1664345
61	0xbddae81b	-0.10688802
62	0xbe6de60c	-0.23232287
63	0x3cdddfc4	0.027084239
64	0x3e48bb41	0.19602682
65	0x3e8af67e	0.27141184
66	0x3e9a6278	0.3015325
67	0x3da64b9e	0.081198916
68	0x3cc24fac	0.023719631
69	0x3c80a871	0.01570532
70	0xbdebc87a	-0.11512847
71	0xbdc1433a	-0.094366506
72	0xbe16b1b9	-0.14716233
73	0xbe635814	-0.22201568
74	0xbdc5dcee	-0.096612796
75	0x3d17904e	0.037002854
76	0x3c3a75f4	0.011380661
77	0xbda27f81	-0.07934476
78	0xbd2c3bc6	-0.042049192
79	0x3bb80b7d	0.005616604
80	0xbd4879a8	-0.048944145
81	0x3cc7d6f7	0.024394495
82	0xbe28bb85	-0.16477783
83	0xbdcd559d	-0.10026095
84	0x3b4369af	0.002981763
85	0xbdc55a00	-0.09636307
86	0x3db4bc24	0.088249475
87	0xbd979fc8	-0.07403523
88	0xbce1cceb	-0.027563533
89	0xbd2e4042	-0.04254175
90	0xbd913fd0	-0.070922494
91	0x3cd080d7	0.02545206
92	0xbe3a9cd4	-0.18223888
93	0xbe40d95e	-0.18832919
94	0xbd752de6	-0.059858225
95	0x3e14eb02	0.14542773
96	0x3d3cbe81	0.046080116
97	0xbe02f016	-0.12786898
98	0xbe3752ff	-0.17902754
99	0xbdb94b35	-0.09047548
100	0xbe0226a8	-0.12710059
101	0xbdef200e	-0.11676036
102	0x3bd60964	0.006531881
103	0xbdc75cac	-0.09734473
104	0xbdcdec46	-0.10054831
105	0x3e620dd8	0.22075593
106	0xbdba82a6	-0.091069505
107	0xbbea9f00	-0.0071600676
108	0xbdfea83a	-0.124344304
109	0x3d7ec3e0	0.06219852
110	0xbdf5a2aa	-0.11993916
111	0xbde88279	-0.11353011
112	0xbd9bea90	-0.076130986
113	0xbdb28f80	-0.08718777
114	0x3db92474	0.09040156
115	0xbe09ef13	-0.13470106
116	0xbe275b61	-0.16343452
117	0xbe0658b8	-0.13119781
118	0xbdd96017	-0.10614031
119	0xbc18e8de	-0.009332864
120	0x3d9cbdd1	0.07653392
121	0xbdbd75d2	-0.09250988
122	0xbe2fc852	-0.1716626
123	0xbe267345	-0.1625491
124	0xbdb6356b	-0.088969074
125	0xbe5807b8	-0.21096694
126	0xbe621711	-0.22079112
127	0xbc22911f	-0.009922295
128	0x3b460168	0.003021324
129	0xbd1eb5b5	-0.038747508
130	0x3dcb1aee	0.09917246
131	0x3d25d3de	0.040485255
132	0xbda546ef	-0.0807017
133	0xbe9eed0c	-0.31040227
134	0xbd6053aa	-0.05476729
135	0xbe03e583	-0.1288052
136	0xbdd3ce0d	-0.103420354
137	0x3cb8d33b	0.02256166
138	0xbe019da6	-0.12657794
139	0xbd54c72a	-0.05194775
140	0xbe32d590	-0.1746428
141	0xbd4befbe	-0.049789183
142	0xbb6c8a94	-0.0036093341
143	0xbca87e0e	-0.02056792
144	0x3dd8a48c	0.1057826
145	0xbc89c11f	-0.01681572
146	0xbdf71955	-0.120653786
147	0xbe5a3c2f	-0.2131202
148	0xbdc6d1c2	-0.09707977
149	0xbd7c87c8	-0.06165293
150	0xbe2d84b3	-0.16945152
151	0xbe17119b	-0.1475281
152	0xbe527246	-0.20551404
153	0xbddfb4af	-0.109231345
154	0xbd13ef1a	-0.036116697
155	0xbd5fa661	-0.05460203
156	0xbe11d32d	-0.14240713
157	0xbd164080	-0.036682606
158	0x3cde4453	0.027132189
159	0x3d55454e	0.052068047
160	0xbdb28f3c	-0.08718726
161	0x3d64271c	0.05570136
162	0xbe319349	-0.17341341
163	0xbd9612ac	-0.0732778
164	0xb8252a3f	-3.937841e-05
165	0xbe0f0767	-0.13967668
166	0xbe213874	-0.15744191
167	0x3cdb13ec	0.026742898
168	0xbc919bc6	-0.017774474
169	0xbc9b4488	-0.018953577
170	0xbd383e0b	-0.044981044
171	0xbdfb32f8	-0.12265581
172	0xbc9d3418	-0.01918988
173	0xbe1f9748	-0.15585053
174	0xbdf104a1	-0.11768461
175	0xbde5fc8d	-0.11229811
176	0xbd497f5b	-0.04919372
177	0xbc4d7b77	-0.012541643
178	0xbd2043da	-0.03912721
179	0xbdade59a	-0.08491059
180	0xbdd15f29	-0.102232285
181	0xbdbb34d7	-0.09140938
182	0xbe2bab22	-0.167645
183	0xbe1064e2	-0.14100984
184	0xbe19b872	-0.15011767
185	0xba8d82f6	-0.0010796476
186	0xbe1addbf	-0.15123652
187	0xbe7a04ea	-0.24415937
188	0xbddc64d1	-0.10761417
189	0xbe190abb	-0.149455
190	0xbe248ed7	-0.16070114
191	0xbe0f7137	-0.14008032
192	0xbe5ca10b	-0.21545808
193	0xbc3ac86b	-0.011400322
194	0xbe7891f2	-0.24274424
195	0xbe20ef13	-0.157162
196	0xbe1f1d40	-0.15538502
197	0xbe026bc1	-0.12736417
198	0xbe213815	-0.1574405
199	0xbe8f52d2	-0.27992874
200	0xbd1c4e68	-0.03816071
201	0xbbf51f90	-0.007480569
202	0x3cd70140	0.026245713
203	0x3cc0933c	0.023507707
204	0x3bb06090	0.005382605
205	0xbd51ca78	-0.05121848
206	0x3c6232b0	0.01380603
207	0xbd3f7ac8	-0.046747953
208	0x3cc4ee60	0.024039447
209	0x3b01f440	0.0019829422
210	0xbd712ca2	-0.058880456
211	0x3cf27808	0.029598251
212	0x3d88e41f	0.06684136
213	0xbc5a900c	-0.0133400075
214	0xbab38b00	-0.0013698041
215	0x3cc853a4	0.024453945
216	0xbcf95222	-0.030434672
217	0xbbd34530	-0.006447457
218	0xb9fa8700	-0.000477843
219	0x3cd0b764	0.025478072
220	0xbcdc0afe	-0.02686071
221	0xbbddc190	-0.006767459
222	0xbcf3b686	-0.02975012
223	0xbce08e64	-0.027411647
224	0xbc93f74e	-0.01806226
225	0xbcbe5a36	-0.023236375
226	0xbd6741f6	-0.05645939
227	0x3d03edfc	0.03220938
228	0xbd4d25dc	-0.050084934
229	0x3d759356	0.059954964
230	0x3a0f0100	0.0005455166
231	0x3d1ee856	0.03879579
232	0xbcc5de18	-0.024153754
233	0x3a27e180	0.00064041466
234	0x3d127029	0.035751496
235	0xbd0e7e70	-0.03478855
236	0xbcf97b9a	-0.030454446
237	0x3d59e5da	0.05319772
238	0x3d273f12	0.040831633
239	0x3d09a994	0.033608988
240	0xbcb8b89e	-0.02254897
241	0xbc94cf54	-0.018165268
242	0x3d86f143	0.06588986
243	0xbc888af6	-0.016667824
244	0xbbabff84	-0.0052489657
245	0x3c95e999	0.018299865
246	0xbd2ac726	-0.04169383
247	0xbbb46850	-0.005505599
248	0xbc61a59c	-0.0137723945
249	0x3d898561	0.06714893
250	0x3c1c6a40	0.009546816
251	0xbd683b1e	-0.056697004
252	0x3b952460	0.0045514554
253	0xbcc7d9ac	-0.024395786
254	0xbd4330c4	-0.04765393
255	0x3d83a647	0.06428199

fc.1.bias f4 [128]
0	0xbe370022	-0.17871144
1	0xbd4df802	-0.050285347
2	0xbe0770bb	-0.13226597
3	0xbde147f2	-0.110000506
4	0xbd9c7c76	-0.076409265
5	0xbd1c35bd	-0.038137186
6	0x3c49a39f	0.012307077
7	0xbdfb4e98	-0.1227085
8	0xbcf96c7a	-0.030447233
9	0xbdbe7a5c	-0.09300682
10	0xbeb52c5e	-0.35385412
11	0xbc4610aa	-0.012088934
12	0xbd8ce962	-0.06880452
13	0xbe30eab5	-0.17277034
14	0x3d707769	0.05870763
15	0xbd8f0904	-0.069841415
16	0xbda89ee5	-0.08233432
17	0xbcfc8c53	-0.03082863
18	0xbd413b9a	-0.04717598
19	0xbddaea65	-0.106892385
20	0xbd99b3d6	-0.07505004
21	0xba8b9327	-0.0010648713
22	0xbe27d918	-0.16391408
23	0xbd7f3d21	-0.062314156
24	0xbd841d06	-0.06450848
25	0xbdd4b7a5	-0.1038659
26	0x3e17f598	0.1483978
27	0xbbba27c7	-0.0056810114
28	0xbd6a77db	-0.05724321
29	0xbc6f024c	-0.01458795
30	0xbd9bf77b	-0.076155625
31	0xbda1c729	-0.07899315
32	0x3e23cbd8	0.15995729
33	0xbdf0bc92	-0.11754717
34	0xbe1318c9	-0.14364924
35	0xbe0a0e17	-0.13481937
36	0xbd9f978d	-0.07792578
37	0xbdfee1b7	-0.124453954
38	0xbe29d3ce	-0.16584703
39	0xbdbe6844	-0.09297231
40	0x3c38b7e8	0.011274315
41	0xbe0bd999	-0.13657226
42	0xbdb5e60c	-0.088817686
43	0x3dc4d364	0.09610632
44	0xbd9dc7f2	-0.07704152
45	0xbda77b0a	-0.08177765
46	0xbdb29601	-0.08720017
47	0xbe7edfb5	-0.24890025
48	0xbd6d9932	-0.058007427
49	0xbdc916cf	-0.098188035
50	0xbdd8ebdf	-0.10591864
51	0xbda812c4	-0.08206704
52	0xbdc59df3	-0.09649267
53	0xbdd70ee7	-0.10500889
54	0xbeb1c1d0	-0.3471818
55	0x3d8fea32	0.07027091
56	0xbc4ceb5e	-0.012507288
57	0xbd91fe5c	-0.07128593
58	0xbe361549	-0.17781557
59	0x3e85cb35	0.26131597
60	0xbdd49cb2	-0.1038145
61	0xbd82eb3a	-0.06392522
62	0xbdd0f0a7	-0.10202151
63	0xbda0d43c	-0.078529805
64	0xbdeb3592	-0.11484827
65	0xbde9c178	-0.11413854
66	0xbce8034e	-0.028321888
67	0x3d32c7b7	0.043647494
68	0xbdfd8c6e	-0.123803005
69	0xbcfc20a1	-0.030777277
70	0xbe2694ca	-0.16267696
71	0xbde1dc51	-0.1102835
72	0xbc9f0594	-0.01941184
73	0xbe0dc0da	-0.13843098
74	0xbcf38169	-0.029724794
75	0xbdd98b1f	-0.10622238
76	0xbd4594ae	-0.048237495
77	0xbe0572fc	-0.13032144
78	0xbe1dbed0	-0.1540482
79	0xbdde90f7	-0.108674936
80	0xbe3fc770	-0.18728423
81	0xbe5f9fad	-0.21838255
82	0x3c7dff27	0.015502728
83	0xbbd21f96	-0.0064124567
84	0xbda0a353	-0.078436516
85	0xbd99e9b3	-0.07515278
86	0xbdafca4f	-0.08583509
87	0xbe0a3277	-0.13495813
88	0xbd1d662e	-0.038427524
89	0xbe70d292	-0.23517826
90	0xbdae768e	-0.08518706
91	0x3d86f4f6	0.06589691
92	0xbdeb7576	-0.11497013
93	0xbc923baf	-0.017850725
94	0xbe07eabe	-0.13273141
95	0x3cb30976	0.021855097
96	0xbcf9caf4	-0.030492283
97	0xbe041d3f	-0.12901781
98	0xbeb197b1	-0.34686044
99	0xbdcbdd94	-0.09954372
100	0xbe46427c	-0.193613
101	0xbe0d2a53	-0.13785677
102	0xbdd0f1fd	-0.102024056
103	0xbe26a3d2	-0.1627343
104	0xbe3d114c	-0.1846363
105	0xbe2710cb	-0.16315
106	0x3b44152c	0.0029919846
107	0xbdb8b4fa	-0.090188935
108	0xbda64117	-0.08117884
109	0xbdd9c534	-0.10633317
110	0xbbbc7801	-0.0057516103
111	0xbd8bec81	-0.06832219
112	0xbdcf7225	-0.10129193
113	0xbd7fee46	-0.062483095
114	0xbddc0173	-0.10742464
115	0xbdd5221a	-0.10406895
116	0xbe7644a9	-0.2404963
117	0xbd706bd7	-0.058696594
118	0xbde8a4cb	-0.11359557
119	0xbd98a2b1	-0.07452906
120	0xbdad2368	-0.08454019
121	0xbda38400	-0.079841614
122	0xbde6078f	-0.112319104
123	0xbd5eacce	-0.05436402
124	0xbc85ec95	-0.016348163
125	0xbd533fff	-0.051574703
126	0xbd86e516	-0.065866634
127	0xbcbb0f2c	-0.022834383

fc.3.weight f4 [64, 128]
0	0x3c0716f0	0.008245215
1	0x3c3b24bd	0.011422333
2	0xba2d6580	-0.0006614551
3	0xbb9f4359	-0.0048603234
4	0xbde39e78	-0.1111421
5	0xbdf6abfc	-0.12044522
6	0xbcce88ec	-0.025211774
7	0xbd1d7777	-0.03844401
8	0x3ce6c795	0.02817134
9	0xbb9b40b9	-0.00473794
10	0x3d6339d4	0.05547507
11	0x3d74cd00	0.059765816
12	0xbb99ca60	-0.0046933144
13	0x3d9fe325	0.07806996
14	0xbd185317	-0.037188616
15	0x3d89de39	0.06731839
16	0xbbeb48e6	-0.007180321
17	0x3d6033bf	0.05473685
18	0x3bbe3ca6	0.0058055697
19	0xbdde18cc	-0.108445734
20	0x3c48779d	0.012235549
21	0x3be35850	0.006938018
22	0x3dab2fb2	0.083587065
23	0x3d18ad8e	0.03727489
24	0x3d91c914	0.07118431
25	0x3e0f3fc4	0.13989168
26	0xbd89d3c9	-0.06729848
27	0xbd875009	-0.06607062
28	0xbc672a3c	-0.014109191
29	0xbd68ec61	-0.056866053
30	0xbc7c6e35	-0.015407135
31	0x3c25ba6b	0.010115246
32	0xbe4f8c58	-0.2026838
33	0x3d188e89	0.037245307
34	0xbd927932	-0.071520224
35	0xbd98f9da	-0.074695304
36	0x3db4b306	0.088232085
37	0x3d8b9017	0.06814592
38	0xbdd4a1c0	-0.10382414
39	0xbd9a68a9	-0.075394936
40	0xbb3b5e22	-0.0028590043
41	0x3c9d9cea	0.019239862
42	0xbd62222c	-0.05520837
43	0x3d2dae4d	0.042402554
44	0x3cf72fc9	0.030174153
45	0x3cd8be02	0.02645779
46	0xbd338b49	-0.043834005
47	0xbd586dc0	-0.05283904
48	0x3d08ed79	0.033429597
49	0xbd273a28	-0.040826946
50	0x3d883f1b	0.066526614
51	0x3d9b6053	0.07586732
52	0x3d78d801	0.060752872
53	0xbd552cdb	-0.05204473
54	0xbd12bba3	-0.035823476
55	0xbe5a1daa	-0.21300378
56	0xbe2530ed	-0.16131945
57	0x3d9add83	0.07561781
58	0xbd38f955	-0.045159657
59	0xbdddef8c	-0.108367056
60	0xbc9370b6	-0.01799808
61	0xbd95b522	-0.07309939
62	0xbd899ad1	-0.06718982
63	0xbd46cd20	-0.048535466
64	0xbb85a081	-0.0040779714
65	0x3c8f4d4c	0.017492913
66	0xbd7b4f65	-0.061355013
67	0xbe1c98ee	-0.15292713
68	0x3db19470	0.0867089
69	0x3d9f829d	0.077885844
70	0xbe1c3a8c	-0.15256709
71	0xbda02ba8	-0.07820827
72	0xbd9c91cc	-0.07644996
73	0xbe86a57a	-0.26298124
74	0x3d14dfc3	0.03634621
75	0x3c57268f	0.013131752
76	0x3d09eb49	0.03367165
77	0xbd816ef5	-0.063199915
78	0xbcff3412	-0.031152759
79	0x3d97f5a7	0.07419901
80	0xbe822520	-0.2541895
81	0x3b3f483d	0.0029187344
82	0xbd2a37f3	-0.041557264
83	0x3e085a89	0.13315786
84	0xbe129b85	-0.14317138
85	0x3d7900f6	0.060791932
86	0x3d17eaa0	0.03708899
87	0xbdaf2bac	-0.085532516
88	0x3d3d3f40	0.046202898
89	0xbd6d3803	-0.057914745
90	0xbce00c62	-0.027349655
91	0xbe69404d	-0.22778435
92	0xbdac603f	-0.08416795
93	0x3d9d56c0	0.07682562
94	0xbd56535d	-0.052325595
95	0xbdc15d97	-0.09441679
96	0x3d03f8a7	0.032219555
97	0x3c366d45	0.01113445
98	0xbd776ec0	-0.060408354
99	0x3c15f03e	0.0091515165
100	0xbd78983b	-0.060692053
101	0xbd30ca40	-0.04316163
102	0x3d81df54	0.063414246
103	0xbdfefaa6	-0.12450151
104	0xbe8dd863	-0.27704152
105	0xbbd478f6	-0.006484146
106	0x3af62dd9	0.0018781974
107	0xbe19460c	-0.14968127
108	0xbe06814e	-0.13135263
109	0xbd91e6a1	-0.07124067
110	0xbcbb8b26	-0.0228935
111	0xbd1e5240	-0.03865266
112	0xbd961594	-0.073283345
113	0xbd9e0048	-0.077148974
114	0x3e193feb	0.14965789
115	0xbdaa45e9	-0.083141156
116	0xbe0897a9	-0.13339104
117	0xbcc577b5	-0.024104932
118	0xbdb34f6b	-0.08755382
119	0xbdfb1f75	-0.12261859
120	0x3c20f06e	0.009822948
121	0x3d09415d	0.0335096
122	0xbdec6edc	-0.11544582
123	0x3c1900b0	0.009338543
124	0xbdb64fca	-0.08901937
125	0xbb60f440	-0.0034325272
126	0x3d5bb85c	0.053642616
127	0xbcda530c	-0.026650928
128	0xbd625680	-0.055258274
129	0x3db246e7	0.0870493
130	0x3d77fac2	0.060541876
131	0xbda06a2a	-0.07832749
132	0x3c2cf341	0.010556043
133	0xbd5d27ed	-0.053993154
134	0x3d7d220f	0.06180006
135	0x3d3480cf	0.044068154
136	0x3d2e0160	0.04248178
137	0xbdbd519e	-0.09244083
138	0xbc2afc0b	-0.010436068
139	0xbd389f7b	-0.045073967
140	0x3d34a0c6	0.044098638
141	0x3cbb1ce0	0.022840917
142	0x3d02de60	0.031950355
143	0xbd5c2443	-0.05374552
144	0x3d82c4b6	0.06385176
145	0x3d422c26	0.047405384
146	0x3d9a90ad	0.07547126
147	0x3d223f0e	0.039610915
148	0xbda5a012	-0.080871716
149	0xbc8c3908	-0.017117038
150	0xbd2600db	-0.04052816
151	0xbd8882b7	-0.06665557
152	0x3bf809c0	0.0075695217
153	0xbc62b8a1	-0.013837964
154	0xbd359109	-0.04432777
155	0x3c897e19	0.01678376
156	0xbb65fc73	-0.0035093098
157	0xbc55fbf0	-0.013060555
158	0xbb30cb13	-0.002697651
159	0x3d23566f	0.03987735
160	0xbdaf39e6	-0.08555965
161	0x3d1713f6	0.03688427
162	0x3d99aaf8	0.07503313
163	0x3d7e04e2	0.062016375
164	0x3daa14d3	0.08304753
165	0x3d77960e	0.060445838
166	0x3c848429	0.0161763
167	0xbda5be11	-0.08092893
168	0x3d6b65e4	0.057470217
169	0xbd5e3523	-0.054249894
170	0x3d2f21ca	0.042756833
171	0xbd91b468	-0.07114488
172	0x3c0e197b	0.008673067
173	0x3d25247a	0.04031799
174	0xbca51fd2	-0.020156775
175	0x3d419812	0.047264166
176	0x3c2e1301	0.010624648
177	0x3d6d93c6	0.058002256
178	0xbc9c8318	-0.01910548
179	0x3da39905	0.079881705
180	0x3d0b5cf8	0.03402421
181	0xbd601fe2	-0.054717906
182	0xbbcc2cff	-0.00623095
183	0x3d36b7d0	0.04460889
184	0x3c88b68c	0.016688608
185	0xbd8f7fb4	-0.07006779
186	0xbbef0f1a	-0.0072955014
187	0x3d9b21ef	0.07574832
188	0xbd827734	-0.063703924
189	0xbc40707f	-0.011745571
190	0xbd6c2b40	-0.057658434
191	0x3cdadc70	0.02671644
192	0xbb9f9fe6	-0.0048713563
193	0xbd3295de	-0.043599956
194	0x3cfa6d66	0.030569743
195	0xbd47781e	-0.048698537
196	0xbd440f2b	-0.047866028
197	0xbdc55a51	-0.09636367
198	0x3d20af2f	0.039229568
199	0x3d011b4e	0.03152018
200	0xbd98343d	-0.07431839
201	0xbd70c412	-0.058780737
202	0x3da516af	0.08060967
203	0xbd43d9c8	-0.047815114
204	0x3d8cc00f	0.0687257
205	0xbc88b229	-0.016686516
206	0xbb13d726	-0.0022558658
207	0xbd170a4b	-0.03687505
208	0xbd498aa2	-0.049204476
209	0xbda3b94d	-0.07994328
210	0x3bee8355	0.0072788396
211	0x3d5147bb	0.051093798
212	0xbdc34ce5	-0.09536151
213	0xbd335836	-0.043785296
214	0xbd35270e	-0.0442267
215	0xbd828176	-0.06372349
216	0xbcceada0	-0.025229275
217	0xbcb6fc47	-0.022337092
218	0x3ccaff55	0.024779955
219	0xbd93d789	-0.072188444
220	0xbce811b8	-0.028328761
221	0xbd778727	-0.060431626
222	0xbd81fb1d	-0.06346724
223	0xbd860399	-0.06543655
224	0xbdb278cf	-0.08714449
225	0xbd2358a5	-0.03987946
226	0xbd667569	-0.056264315
227	0xbcdcd09a	-0.026954938
228	0x3c8b4ea1	0.017005267
229	0xbd13e154	-0.03610356
230	0xbda7cd64	-0.08193472
231	0xbd23752d	-0.03990667
232	0xbdb4b18a	-0.088229254
233	0x3d821a49	0.0635267
234	0x3dac3ab3	0.084096335
235	0x3d7be81e	0.06150066
236	0x3d652dba	0.05595181
237	0xbca2d997	-0.019879146
238	0x3d5ed770	0.054404676
239	0xbda02055	-0.07818667
240	0x3ccb9ac6	0.024854075
241	0xbcea4ed7	-0.028602047
242	0x3a0dad00	0.0005404502
243	0xbd7e27d8	-0.062049717
244	0xbd3ac2e3	-0.045596015
245	0xbc8ec350	-0.017427117
246	0xbd0da5ac	-0.034581825
247	0xbd425713	-0.04744632
248	0xbc893e1c	-0.016753249
249	0xbc398df0	-0.011325344
250	0xbdb2bf83	-0.08727934
251	0xbd87feb9	-0.06640381
252	0xbd984b02	-0.074361816
253	0xbdc4ae41	-0.09603549
254	0x3d5d7353	0.05406506
255	0xbd16e9dc	-0.03684412

fc.3.bias f4 [64]
0	0xbdfd12fd	-0.12357137
1	0xbe515b85	-0.20445068
2	0xbde676a6	-0.11253099
3	0xbe80f3f6	-0.25186127
4	0x3dbd1289	0.09232051
5	0xbdbebe45	-0.09313635
6	0xbe59077f	-0.21194266
7	0xbe067963	-0.13132243
8	0xbe11a786	-0.14224061
9	0xbe3741e9	-0.17896236
10	0xbe077191	-0.13226916
11	0xbe152c15	-0.14567597
12	0x3dc7545b	0.097328864
13	0xbe541735	-0.20711978
14	0xbdb2aa83	-0.08723929
15	0xbe308f99	-0.17242278
16	0xbc6a2389	-0.014290699
17	0xbcf6e09a	-0.030136395
18	0xbe098d61	-0.13432838
19	0xbe332666	-0.17495117
20	0xbd7585ef	-0.059942182
21	0xbe296db4	-0.16545755
22	0x3ceade79	0.028670536
23	0xbd09c551	-0.03363544
24	0xbce7eb3e	-0.028310414
25	0x3c9fb611	0.019495996
26	0xbd90214b	-0.070376
27	0x3d5d84aa	0.054081596
28	0xbeb3b993	-0.3510252
29	0xbda47e9b	-0.080319606
30	0x3e0e15aa	0.13875452
31	0x3dcfde11	0.10149778
32	0xbdcfb42a	-0.101417854
33	0xbe45dc73	-0.19322376
34	0xbdf6ed00	-0.12056923
35	0x3d2cd581	0.0421958
36	0x3d98ee87	0.074673705
37	0xbdc30044	-0.09521535
38	0xbe0bbd8a	-0.13646522
39	0xbe47d544	-0.19514948
40	0x3d3cbc0c	0.046077773
41	0x3d7aaf4c	0.061202332
42	0xbe27edd9	-0.16399325
43	0xbe1a17f8	-0.15048206
44	0x3dda66c1	0.1066413
45	0xbd93d5e5	-0.072185315
46	0xbd4e5586	-0.05037453
47	0xbc779419	-0.015110993
48	0xbde3c08e	-0.11120711
49	0xbe5b00aa	-0.21386972
50	0xbe350bdd	-0.17680307
51	0xbe677dd5	-0.22606595
52	0xbe05b8ba	-0.13058749
53	0xbe92c9a5	-0.28669468
54	0xbd64204c	-0.055694863
55	0xbe2bf72c	-0.16793507
56	0xbe0e19bb	-0.13877003
57	0xbe134d59	-0.14384975
58	0xbccea6ed	-0.02522608
59	0xbe2c9bba	-0.1685628
60	0xbdbd9b48	-0.09258133
61	0xbde5f116	-0.11227624
62	0xbdc6277d	-0.096755005
63	0xbe28f870	-0.16501021

fc.5.weight f4 [4, 64]
0	0x3df3d908	0.1190663
1	0x3c598fad	0.013278884
2	0xbe40e42f	-0.18837045
3	0x3c22de24	0.009940658
4	0x3d9e07f5	0.077163614
5	0xbc94f9ae	-0.018185463
6	0x3d6eb33e	0.058276407
7	0xbd362057	-0.044464435
8	0xbde00fc4	-0.10940507
9	0x3caf173c	0.021373384
10	0x3d9b494d	0.075823404
11	0xbcebf752	-0.028804455
12	0xbd6595a4	-0.05605091
13	0x3c706020	0.0146713555
14	0xbdab1de3	-0.0835531
15	0xbb75554e	-0.0037434879
16	0x3c8890a5	0.016670534
17	0xbe06c45e	-0.13160846
18	0x3c10658b	0.008813272
19	0xbbb148f2	-0.005410307
20	0x3d54c9c3	0.051950227
21	0x3d9a7db5	0.07543508
22	0xbe25de1e	-0.16198012
23	0x3dc0c443	0.09412434
24	0xbde99f89	-0.11407382
25	0x3d2d6aa2	0.04233802
26	0xbd730f64	-0.05934085
27	0xbe62ef44	-0.22161585
28	0x3a12c4d5	0.0005598788
29	0xbd9b91d9	-0.075961776
30	0x3cf5971c	0.029979281
31	0xbe32d7cd	-0.17465134
32	0xbd2dbc88	-0.042416126
33	0xba8ec84d	-0.0010893435
34	0xbcb935d6	-0.022608679
35	0xbdccdbb4	-0.100028425
36	0xbd822031	-0.06353796
37	0x3db36abc	0.08760592
38	0x3c8eb37b	0.017419567
39	0xbc8567d9	-0.01628487
40	0xbe419229	-0.18903412
41	0xbe29a030	-0.16565013
42	0xbd573371	-0.052539293
43	0xbd555714	-0.052084997
44	0xbe1949c4	-0.14969546
45	0xbda2405f	-0.07922434
46	0xbbca9db0	-0.0061833486
47	0x3dc7ec50	0.0976187
48	0x3d023b65	0.031794924
49	0x3b216010	0.0024623908
50	0x3d922711	0.071363576
51	0x3c93c242	0.018036965
52	0x3d5a60f5	0.05331512
53	0x3da62a5e	0.0811355
54	0xbd021fa7	-0.031768467
55	0x3d2f8478	0.04285094
56	0x3bf738d5	0.0075446167
57	0xbd343af7	-0.044001546
58	0xbcf79944	-0.03022445
59	0xbcde571a	-0.027141143
60	0xbb809a7f	-0.0039246674
61	0x3e2bcb30	0.16776729
62	0x3ddfb3ac	0.109229416
63	0x3c492efc	0.012279268
64	0xbcd33bf7	-0.02578543
65	0xbc873dcb	-0.016508957
66	0x3cc5e870	0.024158686
67	0xbc1c9f75	-0.009559502
68	0x3d9a7787	0.07542329
69	0x3dc274a7	0.09494906
70	0x3d48ef56	0.049056374
71	0x3dd618f5	0.10453979
72	0xbd731a31	-0.05935115
73	0xbd4e1bb7	-0.0503194
74	0xbe8534f6	-0.26016968
75	0x3c064946	0.008196181
76	0xbd7dada1	-0.061933164
77	0x3c82ba17	0.015957875
78	0xbdeff224	-0.117161065
79	0xbc921639	-0.017832862
80	0x3cfe9261	0.031075658
81	0xbdaa997a	-0.083300546
82	0xbe6553da	-0.22395268
83	0xbd8330a9	-0.064057656
84	0x3d8ea234	0.069645315
85	0x3d9fe781	0.07807828
86	0x3c26d6ab	0.010183017
87	0x3dab3fe0	0.083617926
88	0x3cfdddcc	0.03098955
89	0x3d14c45a	0.036320068
90	0xbc450630	-0.012025401
91	0x3e63a445	0.22230633
92	0xbd7c2a07	-0.061563518
93	0xbd0fc477	-0.035099473
94	0xbdc5ab8e	-0.09651862
95	0x3e31874a	0.17336765
96	0xbcb42db2	-0.021994445
97	0xbaf1edb3	-0.0018457681
98	0x3d6b21bd	0.057405222
99	0xbcd818c7	-0.026379002
100	0xbda7dbb3	-0.08196201
101	0xbd37b3b4	-0.044849113
102	0x3b93cd74	0.004510576
103	0xbb74fdc4	-0.0037382701
104	0x3ddc60a1	0.10760618
105	0x3df55203	0.11978533
106	0x3caedbcd	0.021345044
107	0xbdc28088	-0.09497172
108	0xbda0e54e	-0.078562364
109	0xbc16b531	-0.009198473
110	0xbc41ef24	-0.011836801
111	0x3dd36efc	0.10323903
112	0x3ca52c9b	0.020162871
113	0x3c5dc079	0.013534659
114	0xbd7cf0dd	-0.061753143
115	0xbdaa2067	-0.083069615
116	0xbcbfc58a	-0.023409624
117	0x3c83c661	0.016085805
118	0x3d9b3b83	0.0757971
119	0xbce5e7d3	-0.028064644
120	0x3c82ec30	0.015981764
121	0x3bd5aff1	0.006521218
122	0xbe0cd851	-0.13754393
123	0xbd494a46	-0.0491431
124	0x3cfb857c	0.030703299
125	0xbd1cea8d	-0.038309623
126	0xbd68693b	-0.05674098
127	0xbcfe64ba	-0.03105389
128	0xbcc8d868	-0.024517253
129	0xbce838c2	-0.028347377
130	0x3c372ce8	0.01118014
131	0x3d6ee790	0.058326304
132	0x3d9f74af	0.077859275
133	0x3d064363	0.03277911
134	0x3d2731a9	0.040818844
135	0xbb928b8f	-0.004472203
136	0xb7b1f863	-2.1215708e-05
137	0x3c1d8d48	0.009616204
138	0xbd692788	-0.056922466
139	0x3cf08af6	0.029363137
140	0xbd61dcbd	-0.055142153
141	0x3c046edf	0.008083074
142	0x3c250cd6	0.010073861
143	0x3b4b0fdd	0.0030984797
144	0x3c80730c	0.015679859
145	0xbd5915c8	-0.052999288
146	0xbe84d8aa	-0.25946552
147	0x3bdb0f9b	0.00668521
148	0x3d818ca6	0.06325655
149	0x3da275f1	0.07932652
150	0x3c9ea1c4	0.019364245
151	0x3de28c52	0.1106192
152	0x3da5de7e	0.08099078
153	0x3d217794	0.03942068
154	0xbd0062b7	-0.03134414
155	0x3e2d3777	0.1691569
156	0xbe68b6cf	-0.22725986
157	0xbc820ddb	-0.015875747
158	0xbdb6a1d1	-0.08917583
159	0x3dfab68d	0.1224185
160	0xbcfb3c79	-0.030668484
161	0x3bda8412	0.006668576
162	0x3ca48675	0.020083645
163	0x3dc2e819	0.09516925
164	0xbd8e7cec	-0.06957421
165	0xbc83fab1	-0.01611075
166	0xbbb69a2b	-0.0055725775
167	0x3c3c4222	0.011490377
168	0x3e0c7955	0.1371816
169	0x3b9a1025	0.0047016316
170	0xbabedf4f	-0.0014562401
171	0x3d43eaba	0.047831275
172	0xbdd59628	-0.10429031
173	0x3d3ccbe1	0.04609287
174	0x3cddcc50	0.027074963
175	0x3d556ec2	0.05210758
176	0xbdeab440	-0.11460161
177	0x3d349f82	0.04409743
178	0xbe1be95c	-0.15225738
179	0xbe081ddc	-0.1329264
180	0xbada4461	-0.0016652459
181	0xbddf58b7	-0.10905593
182	0x3d70e05a	0.05880771
183	0xbbd5c318	-0.006523501
184	0x3d030269	0.03198472
185	0x3d43f655	0.047842342
186	0xbd815c1e	-0.06316398
187	0xbd194dc6	-0.037427686
188	0x3d675cb6	0.0564849
189	0xbd7ad966	-0.061242484
190	0x3cdd4c99	0.027014064
191	0x3d190cd9	0.037365768
192	0xbc447a3e	-0.011992035
193	0xbd698e05	-0.057020206
194	0x3d6f4633	0.058416557
195	0xbde28555	-0.11060587
196	0x3d9e271b	0.077223025
197	0x3dc9dd77	0.09856694
198	0x3d8509f9	0.06496043
199	0xbc88b952	-0.01668993
200	0xbc2fbe2a	-0.010726491
201	0x3c89bba1	0.016813101
202	0xbcc94357	-0.024568243
203	0xbd3478cf	-0.044060525
204	0xbd935356	-0.071936294
205	0x3d0a140a	0.033710517
206	0x39d4d1f9	0.00040592233
207	0x3a98cd5b	0.001165788
208	0x3bc61a32	0.006045603
209	0xbdd44a4c	-0.103657335
210	0xbe247cf5	-0.16063292
211	0x3d1b310c	0.03788857
212	0x3da16cc1	0.07882071
213	0x3b84f39c	0.004057361
214	0xbe1b2577	-0.1515101
215	0x3d9ccf3b	0.076567136
216	0x3cbdcd41	0.023169162
217	0x3d28aea3	0.04118217
218	0x3d84d4a6	0.06485872
219	0x3e27e211	0.16394831
220	0xbd5767cf	-0.052589234
221	0xbd2b9b1f	-0.041895982
222	0x3c93ebcb	0.01805677
223	0x3d92a068	0.07159501
224	0xbb3c74bb	-0.00287561
225	0xbc080f3c	-0.008304413
226	0x3d1739ed	0.036920477
227	0xbd6be85c	-0.057594642
228	0xbe41ec4b	-0.18937795
229	0x3ce6afd9	0.028160023
230	0x3d3e9cbd	0.046536196
231	0x3d51f9d4	0.051263645
232	0xbe052da8	-0.13005698
233	0x3e150a73	0.14554767
234	0xbd1c661b	-0.038183313
235	0x3d8fdce4	0.070245534
236	0xbdc3ac54	-0.09554353
237	0xbd24bde5	-0.04022016
238	0x3cddd604	0.02707959
239	0xba96ec82	-0.0011514577
240	0xbc9efe52	-0.019408379
241	0x3c0359b9	0.008016997
242	0xbdc2c9d5	-0.09511153
243	0x3de3850a	0.111093596
244	0x3e02d230	0.12775493
245	0x3aa9dd10	0.0012959559
246	0x3d1d1c34	0.038356975
247	0x3c04f964	0.0081161
248	0xbcd16291	-0.025559695
249	0xbe2af245	-0.16693981
250	0x3ca81d02	0.020521645
251	0xbd10bb20	-0.035334706
252	0x3c6cf947	0.014463729
253	0x3cbc5c37	0.02299319
254	0x3d40dd08	0.04708579
255	0xbc8561b1	-0.016281934

fc.5.bias f4 [4]
0	0x3d916921	0.0710013
1	0x3d919d40	0.07110071
2	0x3d91a784	0.07112029
3	0x3d8df02b	0.06930574
