best_model_2.pth (torch, 140113 bytes, 6 tensors)

fc.1.weight f4 [128, 200]
00000000: 76ec 7b3d 00d0 eab8 ea2c 7b3d 0e37 89bd
00000010: 7a24 453d e0ad 0d3d c600 083d d573 39bd
00000020: 2a98 603d 2656 d0bc 423c 84bc 4572 ba3d
00000030: af24 6bbe 3242 5ebe 15ff a3bd e461 06be
00000040: fc24 643e 29b1 983e 2c36 573d 4c49 1bbd
00000050: d17c f7bd b729 043e e016 d53d 9568 c03d
00000060: 0fe6 f7be 7968 e83d d209 1f3f bbde bd3e
00000070: b5fa e13d aef8 453e a133 1e3e e8c3 893d
00000080: 2845 82be 947b 72be 496a c4bd 0a81 3a3e
00000090: 1545 173e d842 913e 6030 703e 6589 4d3e
000000a0: 355d 57be 7c6d 453e 43ff 783d 8871 adbd
000000b0: 581f 723e d359 e53d debb 7b3d 5c16 1c3e
000000c0: e227 e33b cdb4 aabc 31e8 05be 8866 b33c
000000d0: bdf4 993d d1f4 66bd eccd c23e 35e0 2b3e
000000e0: 0b35 6f3e afe0 7abd 4332 283e 6723 e2bb
000000f0: ce6d 2abe 1be8 dabd 0ce6 6dbe 278d e93c
00000100: a3e5 763e f1a5 a33e 1d9a b03e 8f5a 033e
00000110: 4078 8c3d 7174 7a3d 7ac8 ebbd 3a43 c1bd
00000120: b9b1 16be 1458 63be 630f 5abd b4c4 a43d
00000130: 9a6c 603d 4ad7 03bd be85 d33b 9455 5f3d
00000140: a879 48bd f7d6 c73c 85bb 28be 9d55 cdbd
00000150: af69 433b f0f9 50bd f990 0a3e 562f f3bc
00000160: 69b8 a23c 4240 2ebd d03f 91bd d780 d03c
00000170: d49c 3abe 2e4e 3ebe 8e6e 6bbd 8a56 163e
00000180: cef1 f73d c0c3 94bd 3705 01be 20d1 2fbd
00000190: a826 02be 0e20 efbd 6409 d63b 5448 c2bd
000001a0: 6627 cbbd 3f58 633e a682 babd 009f eabb
000001b0: 6087 93bd e0c3 7e3d aaa2 f5bd 7982 e8bd
000001c0: 90ea 9bbd 808f b2bd 28b6 bb3d 3da6 08be
000001d0: 615b 27be 80fe 76bd 04b9 5cbd d4e8 18bc
000001e0: d1bd 9c3d d275 bdbd 52c8 2fbe 4573 26be
000001f0: 6b35 b6bd b8c7 56be b9cc 60be af34 573d
00000200: cf67 643d b5b5 1ebd ee1a cb3d ded3 253d
00000210: ef46 a5bd 0948 9ebe aa53 60bd 64a0 02be
00000220: 4343 d1bd 3bd3 b83c 4234 a3bd 2ac7 54bd
00000230: 3cd4 00be 5ff2 c1ba 948a 6cbb 8927 9dbc
00000240: 19a3 db3d 73c4 7fbc 5519 f7bd db4f 29be
00000250: fa50 4cbd c487 7cbd b384 2dbe 48dd c9bd
00000260: ea20 19be aeb4 dfbd 0610 0ebd 05b7 5abd
00000270: e38c 10be 8040 16bd 5809 a63d 5108 db3d
00000280: 3c8f b2bd 1c27 643d 8fb7 f4bd 254b 93bd
00000290: d86a a83a 6707 0fbe 7438 21be ec13 db3c
000002a0: 7f42 f03c df7c 073d 0b3e 38bd 2c44 98bd
000002b0: c1b2 d33c b6e1 1cbe 656a ebbd 84eb 48bd
000002c0: 5b7f 49bd 777b 4dbc da43 20bd 2ddb 07bd
000002d0: fa87 51bd e00b 46bd 61e9 fbbd 6706 0fbe
000002e0: 41ae 16be 9cae 343d bfdd 1abe 2ea7 78be
000002f0: 0e1e d4bd c253 d2bd d78e 24be 29ee c6bd
00000300: 6c47 17be 05d6 0dbc 1fa7 43be d542 dfbd
00000310: 401d 1fbe c16b 02be 12fc e5bd 2db5 72be
00000320: 684e 1cbd 901f f5bb 4001 d73c 3c93 c03c
00000330: 9060 b03b 78ca 51bd b032 623c c87a 3fbd
00000340: 60ee c43c 40f4 013b a22c 71bd 0878 f23c
00000350: 1fe4 883d 0c90 5abc 008b b3ba a453 c83c
00000360: 2252 f9bc 3045 d3bb 0087 fab9 64b7 d03c
00000370: fe0a dcbc 90c1 ddbb 86b6 f3bc 648e e0bc
00000380: 4ef7 93bc 365a bebc f641 67bd fced 033d
00000390: dc25 4dbd 5693 753d 0001 0f3a 56e8 1e3d
000003a0: 18de c5bc 80e1 273a 2970 123d 707e 0ebd
000003b0: 9a7b f9bc dae5 593d 123f 273d 94a9 093d
000003c0: 9eb8 b8bc 54cf 94bc 43f1 863d f68a 88bc
000003d0: 84ff abbb 99e9 953c 26c7 2abd 5068 b4bb
000003e0: 9ca5 61bc 6185 893d 406a 1c3c 1e3b 68bd
000003f0: 6024 953b acd9 c7bc c430 43bd 47a6 833d
0.061504804 -0.000111967325 0.06132213 -0.06699954 0.04813049 0.03458965 0.033203863 -0.04527648
0.054832615 -0.025431704 -0.016142014 0.091038264 -0.22963212 -0.21704939 -0.080076374 -0.1312328
0.22279733 0.29822662 0.052541897 -0.0379117 -0.12084354 0.12906538 0.10404754 0.093949474
-0.48417708 0.113480516 0.6212436 0.37083992 0.11034147 0.19333145 0.15449382 0.06726819
-0.25443387 -0.23679954 -0.09590585 0.18213287 0.14772446 0.2837131 0.23455954 0.20071943
-0.2103165 0.19280046 0.06079031 -0.0846892 0.23644769 0.11198773 0.06145846 0.15242904
0.0069322446 -0.020838166 -0.13076855 0.021899477 0.07517383 -0.05638582 0.3804773 0.16784747
0.23360078 -0.06124943 0.16425423 -0.006901193 -0.1664345 -0.10688802 -0.23232287 0.02850969
0.24111037 0.3196254 0.3449258 0.12827514 0.06858873 0.061146203 -0.11512847 -0.094366506
-0.14716233 -0.22201568 -0.05323733 0.08045331 0.05479107 -0.032187738 0.0064551523 0.054524973
-0.048944145 0.024394495 -0.16477783 -0.10026095 0.002981763 -0.05101961 0.13531865 -0.029685657
0.019863324 -0.04254175 -0.070922494 0.02545206 -0.18223888 -0.1858451 -0.05747848 0.1468145
0.121066675 -0.07263899 -0.12599646 -0.042924047 -0.12710059 -0.11676036 0.006531881 -0.09486452
-0.09919624 0.22201632 -0.091069505 -0.0071600676 -0.07203555 0.06219852 -0.11993916 -0.11353011
-0.076130986 -0.08718777 0.09165603 -0.13344665 -0.16343452 -0.060301304 -0.053887382 -0.009332854
0.07653392 -0.09250988 -0.1716626 -0.1625491 -0.088969074 -0.20974624 -0.21953095 0.052540477
0.055763062 -0.038747508 0.09917246 0.040485255 -0.0807017 -0.30914333 -0.05476729 -0.12756497
-0.10217907 0.02256166 -0.07968952 -0.05194775 -0.12580961 -0.0014796964 -0.0036093341 -0.01918389
0.10724468 -0.015610802 -0.120653786 -0.16534369 -0.049881913 -0.061652914 -0.16945152 -0.09856659
-0.14953962 -0.10923134 -0.03468325 -0.053397197 -0.14116244 -0.036682606 0.08107251 0.106949456
-0.08718726 0.05570136 -0.119490735 -0.07192067 0.0012849225 -0.13967668 -0.15744191 0.026742898
0.029328583 0.03307807 -0.044981044 -0.07434878 0.025842072 -0.15320477 -0.114949025 -0.04905273
-0.04919372 -0.012541643 -0.03912721 -0.033168007 -0.051155068 -0.04835117 -0.12300373 -0.13967286
-0.1471491 0.044111833 -0.15123652 -0.24282524 -0.10357295 -0.10269882 -0.16070114 -0.09713394
-0.14773339 -0.008656983 -0.1910672 -0.10901419 -0.15538502 -0.12736417 -0.11229719 -0.23701926
-0.03816071 -0.007480569 0.026245713 0.023507707 0.005382605 -0.05121848 0.01380603 -0.046747953
0.024039447 0.0019829422 -0.058880456 0.029598251 0.06684136 -0.0133400075 -0.0013698041 0.024453945
-0.030434672 -0.006447457 -0.000477843 0.025478072 -0.02686071 -0.006767459 -0.02975012 -0.027411647
-0.01806226 -0.023236375 -0.05645939 0.03220938 -0.050084934 0.059954964 0.0005455166 0.03879579
-0.024153754 0.00064041466 0.035751496 -0.03478855 -0.030454446 0.05319772 0.040831633 0.033608988
-0.02254897 -0.018165268 0.06588986 -0.016667824 -0.0052489657 0.018299865 -0.04169383 -0.005505599
-0.0137723945 0.06714893 0.009546816 -0.056697004 0.0045514554 -0.024395786 -0.04765393 0.06428199

fc.1.bias f4 [128]
00000000: 3f2c 0bbe 02f8 4dbd bb70 07be d3c4 9fbd
00000010: 01c6 bbbd 0dcd 2bbb 3182 7fbc 522b 9cbd
00000020: 7a6c f9bc 5c7a bebd a80c 80be aa10 46bc
00000030: 62e9 8cbd b5ea 30be d8bc 9c3d 522a f4bc
00000040: e59e a8bd 538c fcbc 060a 56bd 65ea dabd
00000050: 0f70 e2bd 2793 8bba 69bc c0bd 213d 7fbd
00000060: 1d60 64bc f1c9 abbd 9cb0 d23d c727 babb
00000070: 16b3 16bc 4c02 6fbc 7bf7 9bbd 8cc8 bfbd
00000080: 1186 b73d 92bc f0bd c918 13be 7cdd 23bc
00000090: 5094 fcbc b7e1 febd 523b 06be 722a 84bc
000000a0: fe28 bb3c d2c0 d7bd 0ce6 b5bd 0404 8d3d
000000b0: 453d 67bc 0a7b a7bd 0196 b2bd 43b4 5bbe
000000c0: 3299 6dbd cf16 c9bd dfeb d8bd c412 a8bd
000000d0: f39d c5bd 7d84 bfbd a48e 97be 9890 853d
000000e0: a6c8 bf3c 5cfe 91bd a871 21be 4c88 263e
000000f0: 5379 b4bd 3aeb 82bd 566d 8bbd 3cd4 a0bd
00000100: 9dd6 e1bd 78c1 e9bd 481c c6bc be76 b23b
00000110: 096d 74bc a120 fcbc 1bf1 e0bd 51dc e1bd
00000120: d7c1 19bd 7f1e a7bd 6981 f3bc 1f8b d9bd
00000130: 74b7 fcbc 00b6 83bd d0be 1dbe f790 debd
00000140: 0e92 01be dc75 07be 0ddd 723c b66c 1e3d
00000150: 4166 dabd 9013 83bd 014e 57bd 074e d0bd
00000160: 0d8a 39bd e8bc 46be 0a22 84bd d7b9 9f3d
00000170: 7675 ebbd af3b 92bc c7ce ddbd ebdf 823d
00000180: f4ca f9bc e082 cbbc be69 87be 5714 acbd
00000190: ace8 c1bd 532a 0dbe fdf1 d0bd 0835 ecbd
000001a0: c89f e7bd 15d7 dcbd 4e25 b13d d643 b8bd
000001b0: 0e8d 00be c97c adbd 9ca1 aabc 81ec 8bbd
000001c0: 2572 cfbd d632 62bd ca19 69bd 1a22 d5bd
000001d0: d5dd 09be 30a0 afbc cba4 e8bd b1a2 98bd
000001e0: 1a0a 5ebd 9dfb 59bd 5875 96bd ceac 5ebd
000001f0: 790e 753c ff3f 53bd fd9e 5cbd 9034 dfbc
-0.13591097 -0.050285347 -0.13226597 -0.07801213 -0.091686256 -0.002621475 -0.015595005 -0.0762545
-0.030447233 -0.09300682 -0.25009656 -0.012088934 -0.06880452 -0.17277034 0.076532066 -0.029805336
-0.08233432 -0.03082863 -0.052255653 -0.106892385 -0.1105653 -0.0010648713 -0.094109364 -0.062314156
-0.013938931 -0.08388127 0.10287592 -0.0056810114 -0.009197971 -0.01458795 -0.076155625 -0.09364423
0.08961118 -0.11754717 -0.14364924 -0.010001536 -0.03083244 -0.124453954 -0.13108566 -0.01613352
0.022846695 -0.105348244 -0.088817686 0.068855315 -0.014113729 -0.08177765 -0.08720017 -0.21455483
-0.058007427 -0.098188035 -0.10591864 -0.08206704 -0.09649267 -0.09351442 -0.29601014 0.0652172
0.023411106 -0.07128593 -0.15766013 0.1626293 -0.08812203 -0.06392522 -0.068079636 -0.078529805
-0.11027262 -0.11413854 -0.024183407 0.005446284 -0.014918574 -0.030777277 -0.10983487 -0.1102835
-0.037538376 -0.081601135 -0.029724794 -0.10622238 -0.030849196 -0.06431198 -0.1540482 -0.108674936
-0.12653372 -0.13228554 0.01482321 0.038677894 -0.10664035 -0.064002156 -0.052564625 -0.101711325
-0.04529767 -0.19408 -0.06451805 0.07799118 -0.11497013 -0.017850725 -0.10830455 0.06390365
-0.030492283 -0.02484268 -0.26447862 -0.08402317 -0.09468207 -0.13785677 -0.102024056 -0.115335524
-0.11309773 -0.10783211 0.086496934 -0.08997314 -0.12553808 -0.084710665 -0.020829014 -0.06832219
-0.10129193 -0.055224262 -0.05690936 -0.10406895 -0.13463528 -0.021438688 -0.11359557 -0.07452906
-0.054208852 -0.053218473 -0.073466 -0.05436402 0.014957064 -0.051574703 -0.05386256 -0.027246743

fc.3.weight f4 [64, 128]
00000000: f016 073c bd24 3b3c 8065 2dba 5943 9fbb
00000010: 789e e3bd fcab f6bd ec88 cebc 7777 1dbd
00000020: 95c7 e63c b940 9bbb d439 633d 00cd 743d
00000030: 60ca 99bb 25e3 9f3d 1753 18bd 39de 893d
00000040: e648 ebbb bf33 603d a63c be3b cc18 debd
00000050: 9d77 483c 5058 e33b b22f ab3d 8ead 183d
00000060: 14c9 913d c43f 0f3e c9d3 89bd 0950 87bd
00000070: 3c2a 67bc 61ec 68bd 356e 7cbc 6bba 253c
00000080: 588c 4fbe 898e 183d 3279 92bd daf9 98bd
00000090: 06b3 b43d 1790 8b3d c0a1 d4bd a968 9abd
000000a0: 225e 3bbb ea9c 9d3c 2c22 62bd 4dae 2d3d
000000b0: c92f f73c 02be d83c 498b 33bd c06d 58bd
000000c0: 79ed 083d 283a 27bd 1b3f 883d 5360 9b3d
000000d0: 01d8 783d db2c 55bd a3bb 12bd aa1d 5abe
000000e0: ed30 25be 83dd 9a3d 55f9 38bd 8cef ddbd
000000f0: b670 93bc 22b5 95bd d19a 89bd 20cd 46bd
00000100: 81a0 85bb 4c4d 8f3c 654f 7bbd ee98 1cbe
00000110: 7094 b13d 9d82 9f3d 8c3a 1cbe a82b a0bd
00000120: cc91 9cbd 7aa5 86be c3df 143d 8f26 573c
00000130: 49eb 093d f56e 81bd 1234 ffbc a7f5 973d
00000140: 2025 82be 3d48 3f3b f337 2abd 895a 083e
00000150: 859b 12be f600 793d a0ea 173d ac2b afbd
00000160: 403f 3d3d 0338 6dbd 620c e0bc 4d40 69be
00000170: 3f60 acbd c056 9d3d 5d53 56bd 975d c1bd
00000180: a7f8 033d 456d 363c c06e 77bd 3ef0 153c
00000190: 3b98 78bd 40ca 30bd 54df 813d a6fa febd
000001a0: 63d8 8dbe f678 d4bb d92d f63a 0c46 19be
000001b0: 4e81 06be a1e6 91bd 268b bbbc 4052 1ebd
000001c0: 9415 96bd 4800 9ebd eb3f 193e e945 aabd
000001d0: a997 08be b577 c5bc 6b4f b3bd 751f fbbd
000001e0: 6ef0 203c 5d41 093d dc6e ecbd b000 193c
000001f0: ca4f b6bd 40f4 60bb 5cb8 5b3d 0c53 dabc
00000200: 8056 62bd e746 b23d c2fa 773d 2a6a a0bd
00000210: 41f3 2c3c ed27 5dbd 0f22 7d3d cf80 343d
00000220: 6001 2e3d 9e51 bdbd 0bfc 2abc 7b9f 38bd
00000230: c6a0 343d e01c bb3c 60de 023d 4324 5cbd
00000240: b6c4 823d 262c 423d ad90 9a3d 0e3f 223d
00000250: 12a0 a5bd 0839 8cbc db00 26bd b782 88bd
00000260: c009 f83b a1b8 62bc 0991 35bd 197e 893c
00000270: 73fc 65bb f0fb 55bc 13cb 30bb 6f56 233d
00000280: e639 afbd f613 173d f8aa 993d e204 7e3d
00000290: d314 aa3d 0e96 773d 2984 843c 11be a5bd
000002a0: e465 6b3d 2335 5ebd ca21 2f3d 68b4 91bd
000002b0: 7b19 0e3c 7a24 253d d21f a5bc 1298 413d
000002c0: 0113 2e3c c693 6d3d 1883 9cbc 0599 a33d
000002d0: f85c 0b3d e21f 60bd ff2c ccbb d0b7 363d
000002e0: 8cb6 883c b47f 8fbd 1a0f efbb ef21 9b3d
000002f0: 3477 82bd 7f70 40bc 402b 6cbd 70dc da3c
00000300: e69f 9fbb de95 32bd 666d fa3c 1e78 47bd
00000310: 2b0f 44bd 515a c5bd 2faf 203d 4e1b 013d
00000320: 3d34 98bd 12c4 70bd af16 a53d c8d9 43bd
00000330: 0fc0 8c3d 29b2 88bc 26d7 13bb 4b0a 17bd
00000340: a28a 49bd 4db9 a3bd 5583 ee3b bb47 513d
00000350: e54c c3bd 3658 33bd 0e27 35bd 7681 82bd
00000360: a0ad cebc 47fc b6bc 55ff ca3c 89d7 93bd
00000370: b811 e8bc 2787 77bd 1dfb 81bd 9903 86bd
00000380: cf78 b2bd a558 23bd 6975 66bd 9ad0 dcbc
00000390: a14e 8b3c 54e1 13bd 64cd a7bd 2d75 23bd
000003a0: 8ab1 b4bd 491a 823d b33a ac3d 1ee8 7b3d
000003b0: ba2d 653d 97d9 a2bc 70d7 5e3d 5520 a0bd
000003c0: c69a cb3c d74e eabc 00ad 0d3a d827 7ebd
000003d0: e3c2 3abd 50c3 8ebc aca5 0dbd 1357 42bd
000003e0: 1c3e 89bc f08d 39bc 83bf b2bd b9fe 87bd
000003f0: 024b 98bd 41ae c4bd 5373 5d3d dce9 16bd
0.008245215 0.011422333 -0.0006614551 -0.0048603234 -0.1111421 -0.12044522 -0.025211774 -0.03844401
0.02817134 -0.00473794 0.05547507 0.059765816 -0.0046933144 0.07806996 -0.037188616 0.06731839
-0.007180321 0.05473685 0.0058055697 -0.108445734 0.012235549 0.006938018 0.083587065 0.03727489
0.07118431 0.13989168 -0.06729848 -0.06607062 -0.014109191 -0.056866053 -0.015407135 0.010115246
-0.2026838 0.037245307 -0.071520224 -0.074695304 0.088232085 0.06814592 -0.10382414 -0.075394936
-0.0028590043 0.019239862 -0.05520837 0.042402554 0.030174153 0.02645779 -0.043834005 -0.05283904
0.033429597 -0.040826946 0.066526614 0.07586732 0.060752872 -0.05204473 -0.035823476 -0.21300378
-0.16131945 0.07561781 -0.045159657 -0.108367056 -0.01799808 -0.07309939 -0.06718982 -0.048535466
-0.0040779714 0.017492913 -0.061355013 -0.15292713 0.0867089 0.077885844 -0.15256709 -0.07820827
-0.07644996 -0.26298124 0.03634621 0.013131752 0.03367165 -0.063199915 -0.031152759 0.07419901
-0.2541895 0.0029187344 -0.041557264 0.13315786 -0.14317138 0.060791932 0.03708899 -0.085532516
0.046202898 -0.057914745 -0.027349655 -0.22778435 -0.08416795 0.07682562 -0.052325595 -0.09441679
0.032219555 0.01113445 -0.060408354 0.0091515165 -0.060692053 -0.04316163 0.063414246 -0.12450151
-0.27704152 -0.006484146 0.0018781974 -0.14968127 -0.13135263 -0.07124067 -0.0228935 -0.03865266
-0.073283345 -0.077148974 0.14965789 -0.083141156 -0.13339104 -0.024104932 -0.08755382 -0.12261859
0.009822948 0.0335096 -0.11544582 0.009338543 -0.08901937 -0.0034325272 0.053642616 -0.026650928
-0.055258274 0.0870493 0.060541876 -0.07832749 0.010556043 -0.053993154 0.06180006 0.044068154
0.04248178 -0.09244083 -0.010436068 -0.045073967 0.044098638 0.022840917 0.031950355 -0.05374552
0.06385176 0.047405384 0.07547126 0.039610915 -0.080871716 -0.017117038 -0.04052816 -0.06665557
0.0075695217 -0.013837964 -0.04432777 0.01678376 -0.0035093098 -0.013060555 -0.002697651 0.03987735
-0.08555965 0.03688427 0.07503313 0.062016375 0.08304753 0.060445838 0.0161763 -0.08092893
0.057470217 -0.054249894 0.042756833 -0.07114488 0.008673067 0.04031799 -0.020156775 0.047264166
0.010624648 0.058002256 -0.01910548 0.079881705 0.03402421 -0.054717906 -0.00623095 0.04460889
0.016688608 -0.07006779 -0.0072955014 0.07574832 -0.063703924 -0.011745571 -0.057658434 0.02671644
-0.0048713563 -0.043599956 0.030569743 -0.048698537 -0.047866028 -0.09636367 0.039229568 0.03152018
-0.07431839 -0.058780737 0.08060967 -0.047815114 0.0687257 -0.016686516 -0.0022558658 -0.03687505
-0.049204476 -0.07994328 0.0072788396 0.051093798 -0.09536151 -0.043785296 -0.0442267 -0.06372349
-0.025229275 -0.022337092 0.024779955 -0.072188444 -0.028328761 -0.060431626 -0.06346724 -0.06543655
-0.08714449 -0.03987946 -0.056264315 -0.026954938 0.017005267 -0.03610356 -0.08193472 -0.03990667
-0.088229254 0.0635267 0.084096335 0.06150066 0.05595181 -0.019879146 0.054404676 -0.07818667
0.024854075 -0.028602047 0.0005404502 -0.062049717 -0.045596015 -0.017427117 -0.034581825 -0.04744632
-0.016753249 -0.011325344 -0.08727934 -0.06640381 -0.074361816 -0.09603549 0.05406506 -0.03684412

fc.3.bias f4 [64]
00000000: fd12 fdbd 855b 51be 3024 a8bd d463 6bbe
00000010: 1a15 873d 26f1 12be 2689 e8bd ea14 a3bd
00000020: 86a7 11be 2163 7cbd 4a78 0ebe 1392 e4bd
00000030: 6821 db3d e31c 39be 6c2d f3bd 272b 77bd
00000040: 5f37 1bbd 352c d6bd ffe0 19be 4330 04be
00000050: eee5 c9bc 7b75 bfbd 3921 b53d 8261 32bc
00000060: 4891 1dbd b0c9 743d 015e d9bb c0b6 923d
00000070: 6318 89be 8c0e 17bc 6f1b 9cbd dc1e 763d
00000080: 2ab4 cfbd 45d5 24be c47d 88bd c598 5d3d
00000090: 1975 013e f92a 99bc 8d3a febd d80b 15be
000000a0: deb5 9a3c c2ca 723d 05dc 07be f817 1abe
000000b0: 27e3 223d ae4b 27bd a4f8 18bd 4aa3 313c
000000c0: 18c2 a8bd a7c1 54be 8473 02be f5e6 38be
000000d0: b1a9 9cbd d488 82be fdca 35bd 3f7e 0bbe
000000e0: d5e6 ddbd f523 acbd 41cf acbc d169 29be
000000f0: 489b bdbd 2de5 10be 7d27 c6bd 70f8 28be
-0.12357137 -0.20445068 -0.08210027 -0.229873 0.06595822 -0.14349803 -0.11354284 -0.079629734
-0.14224061 -0.061617974 -0.13913074 -0.11160674 0.10699731 -0.18077426 -0.11873898 -0.060343888
-0.037894603 -0.104576506 -0.15027235 -0.12909035 -0.024645772 -0.093485795 0.08844227 -0.0108875055
-0.03846863 0.059762657 -0.0066335206 0.07163763 -0.26776418 -0.009219777 -0.0762242 0.060088024
-0.101417854 -0.16096981 -0.06664613 0.05410077 0.12642325 -0.018697249 -0.124135114 -0.145553
0.01888555 0.059275396 -0.13267525 -0.15048206 0.03976741 -0.04084366 -0.037346497 0.010842154
-0.082401454 -0.20776998 -0.12739378 -0.18056853 -0.076495536 -0.25495017 -0.044383038 -0.13622378
-0.10835043 -0.08405296 -0.02109492 -0.16544272 -0.09258133 -0.14149924 -0.096755005 -0.16501021

fc.5.weight f4 [4, 64]
00000000: 08d9 f33d ad8f 593c fc08 5ebe 24de 223c
00000010: e64e 863d 9fc3 ea3c 0a82 1a3d a494 15bd
00000020: c40f e0bd de99 bf3c 1003 8d3c 0daa 47bd
00000030: 70a3 83bd 563b 8bbc 9116 d1bc f9c2 5fbd
00000040: 42d1 2abb 8dce 18be cd50 903c f3e9 563d
00000050: 1cca 69bb 9f8b 323e 13c0 f9bd db3a be3c
00000060: e015 91bd 4c6d 243d a82c 88bd 319e 74be
00000070: dfd6 213d 65bc b4bd d217 5e3d 3466 24be
00000080: 88bc 2dbd 4dc8 8eba 5215 5bbd c742 debd
00000090: b15d c3bd 45ea 3b3d 7bb3 8e3c 1a07 8a3b
000000a0: ded1 ab3d 4c6c b1bd 7133 57bd 1457 55bd
000000b0: e4c3 6e39 add5 9cbd e4ac e1ba 7643 623c
000000c0: a791 16bd 1060 213b 0772 003e e904 283d
000000d0: cae1 9a3d 5e2a a63d eb31 d0bc 7f44 983d
000000e0: d538 f73b 02f9 2fbd 7c10 843d ac12 1dbd
000000f0: 7f9a 80bb 2944 77bb acb3 df3d fc2e 493c
00000100: f73b d3bc cb3d 87bc 24bb 343d 0377 a23c
00000110: ce2d 873d 9dad d53d 1beb 5f3c 596b 193e
00000120: 311a 73bd 80b8 3cba 1c11 10bd bf49 063c
00000130: abd2 84bd 26fa 91bc 1c83 81bd d30d 173d
00000140: f37d 5f3d 1e90 4b3d 67f3 1dbd ef3f bfbd
00000150: 4bf7 3bbc 62d8 84bd 1aed 073e 66d9 2e3c
00000160: 3d2f 3c3d e889 483d 1d37 a5bd 8bf2 df3d
00000170: 6908 9c3c e2c3 06be 40b0 f9bd 14e2 6f3d
00000180: b22d b4bc 9151 49bc 88c2 fdbb c26c 0ebd
00000190: 1a9b 92bd 007f e1bd 74cd 933b c4fd 74bb
000001a0: 937b c83d 6c54 093e 8dcd 24bc 8880 c2bd
000001b0: e6c0 a6bc c966 20bd 3c91 bdbb f1d2 043e
000001c0: 7c56 c73c 618e a6bb 3821 32bd 32d2 b4bd
000001d0: 39a8 cabb 9358 80bc cf4d 31bb d3e7 e5bc
000001e0: 5371 63bc c8fd 91bd b5cb 05be 74de fbbb
000001f0: 7c85 fb3c 9128 713c 3b69 68bd ba64 febc
00000200: 68d8 c8bc c238 e8bc e82c 373c 90e7 6e3d
00000210: 1322 673d 3f54 cf3d bd44 f33c 4a91 a33d
00000220: 63f8 b1b7 8176 0a3d 1639 75bd 3e44 f13c
00000230: ce9c 45bd 2845 1cbd 2288 5c3d 9a44 873d
00000240: 189d 83bd 4c34 13bd ab70 a2bd 9b0f db3b
00000250: f222 6c3d 044c 013e e92c 0a3e 0fd1 783c
00000260: b4ff 9cbd f6fb 653d 55bf 95bd f894 533d
00000270: a0bb 79be 65ea 34be b83e bcbc 2a77 8abd
00000280: 793c fbbc 1284 da3b 8ea3 d03c de37 83ba
00000290: 5372 bdbd e28f d6bd 55d6 8dbc 9bd5 42bc
000002a0: a00d 95bd e871 18bd 4fdf beba baea 433d
000002b0: 4e63 e63c d199 c2bb 4456 453c 33ac 443d
000002c0: bf44 aabc 829f 343d b53d a5bd c719 27be
000002d0: d1d4 2a3b b758 dfbd c295 a73b 18c3 d5bb
000002e0: 6902 033d 1089 bcbd f438 58bd 8833 46bd
000002f0: b65c 673d e82a 603d 994c dd3c d90c 193d
00000300: 3e7a 44bc 058e 69bd 3346 6f3d 5585 e2bd
00000310: 4fef 833d 06f7 073e caff e03c b11f 8d3c
00000320: 2abe 2fbc 980f 803c 561b 993c cf78 34bd
00000330: 589a 56bd b61b 933c f9d1 d439 ba1a 173d
00000340: b7c8 00bc c85c fbbc 260c cfbd 0d65 883d
00000350: 9b38 3d3d 36fe 0bbc d429 e9bd eb3a 8d3c
00000360: b3e0 92bd d651 3c3d 8029 6fbd 44d8 153d
00000370: 5d25 6abd ef97 f7bc f85e 983d 52ce dbbd
00000380: bb74 3cbb 13c1 ad3c d9cc c2bc d23b 41bd
00000390: 09ab adbd 33cc a4bd bd9c 3e3d d4f9 513d
000003a0: d5a8 a53d dedd 89bc 1b66 1cbd e4dc 8f3d
000003b0: 8541 39bd 96d5 9bbd 04d6 dd3c 6dbe 8ebd
000003c0: 2e17 24bd b959 033c 3aaf abbd 7b8e fcbc
000003d0: 028f 1e3e 10dd a93a d446 913b 64f9 043c
000003e0: 9162 d1bc efc7 efbc 6857 6fbd 447a 09bd
000003f0: 47f9 6c3c b5e4 433b 08dd 403d b161 85bc
0.1190663 0.013278884 -0.21683115 0.009940658 0.065580174 0.028657733 0.03772167 -0.036518708
-0.10940507 0.0233888 0.017213374 -0.048746157 -0.064276576 -0.016996067 -0.025523456 -0.0546293
-0.0026064669 -0.14922543 0.017616654 0.052469205 -0.0035673445 0.17436074 -0.121948384 0.023221424
-0.070842505 0.040143296 -0.066491425 -0.2388847 0.039511558 -0.08824996 0.054221936 -0.16054612
-0.042416126 -0.0010893435 -0.05348713 -0.108525805 -0.095393546 0.045877714 0.017419567 0.0042122724
0.08389638 -0.08663234 -0.052539293 -0.052084997 0.00022770424 -0.07657943 -0.0017217663 0.013810029
-0.03676 0.0024623908 0.12543498 0.041020308 0.07562597 0.0811355 -0.025414428 0.074349396
0.0075446167 -0.04296208 0.06448457 -0.038347885 -0.0039246674 -0.0037729836 0.109229416 0.012279268
-0.02578543 -0.016508957 0.044123784 0.01983214 0.066005334 0.10433505 0.013666893 0.14982356
-0.05935115 -0.00071991235 -0.035172567 0.008196293 -0.06485494 -0.017819475 -0.06323835 0.03687842
0.054563474 0.049697988 -0.038562205 -0.09338366 -0.011472533 -0.06486584 0.13274041 0.010671949
0.045943487 0.048959643 -0.08067153 0.10934933 0.019046979 -0.13160661 -0.1219182 0.058565214
-0.021994445 -0.012287513 -0.007744137 -0.03477169 -0.071584895 -0.110105515 0.004510576 -0.0037382701
0.09789195 0.1341111 -0.010058773 -0.09497172 -0.020355653 -0.039160524 -0.0057851356 0.12971093
0.024333231 -0.005082891 -0.04348871 -0.08829154 -0.0061846045 -0.015667235 -0.0027054434 -0.028064644
-0.013881999 -0.07128483 -0.1306599 -0.0076864306 0.030703299 0.014719144 -0.05674098 -0.03105389
-0.024517253 -0.028347377 0.01118014 0.058326304 0.05642898 0.101234905 0.029695863 0.07986696
-2.1215708e-05 0.03380442 -0.059868895 0.029451486 -0.048245244 -0.03815189 0.053840764 0.066048816
-0.06426448 -0.035938546 -0.07931646 0.00668521 0.057650514 0.12626654 0.13493694 0.015186562
-0.07665959 0.05614849 -0.07311884 0.05165574 -0.2438798 -0.1766754 -0.022979125 -0.0676101
-0.030668484 0.006668576 0.025468614 -0.0010011157 -0.09250321 -0.10476662 -0.017314116 -0.011891748
-0.072779894 -0.037218004 -0.0014562401 0.047831275 0.028123524 -0.0059387465 0.012044493 0.048015784
-0.020784734 0.04409743 -0.0806841 -0.16318427 0.002606679 -0.10905593 0.005114288 -0.006523501
0.03198472 -0.0920583 -0.05278869 -0.048388988 0.0564849 0.05472842 0.027014064 0.037365768
-0.011992035 -0.057020206 0.058416557 -0.11060587 0.06442129 0.13277826 0.02746572 0.017227026
-0.010726491 0.015632436 0.018689793 -0.044060525 -0.052393287 0.01795755 0.00040592233 0.036890723
-0.007860354 -0.03068389 -0.10109739 0.06659899 0.04619656 -0.008544495 -0.11384931 0.017240008
-0.07171764 0.045976482 -0.058389187 0.0365832 -0.05716454 -0.030223815 0.07439989 -0.10732712
-0.00287561 0.021210229 -0.02377932 -0.04717619 -0.08479888 -0.080467604 0.046536196 0.051263645
0.08088843 -0.016829427 -0.038183313 0.070245534 -0.0452285 -0.07609098 0.02707959 -0.069699146
-0.04006117 0.008016997 -0.08383031 -0.030829659 0.1548424 0.0012959559 0.004433492 0.0081161
-0.025559695 -0.02927014 -0.058432966 -0.033563867 0.014463729 0.0029890959 0.04708579 -0.016281934

fc.5.bias f4 [4]
00000000: b9d9 973d 7b1d 973d 0e81 953d 8161 953d
0.07414574 0.0737867 0.07300006 0.07293988
