best_model_7.pth (torch, 140113 bytes, 6 tensors)

fc.1.weight f4 [128, 200]
0	0x3cdba394	0.026811399
1	0x3d8acaa1	0.0677693
2	0x3d3dbd28	0.04632297
3	0x3d8bb16b	0.06820949
4	0xbd48eaea	-0.049052157
5	0x3d30e124	0.04318346
6	0xbd6d63fa	-0.057956673
7	0xbb926240	-0.0044672787
8	0x3c249908	0.010046251
9	0x3c0a45a0	0.008439451
10	0xbd8ace00	-0.06777573
11	0x3cfa38d0	0.030544668
12	0x3d156fd7	0.036483612
13	0xbd0495dd	-0.032369483
14	0x3d47756c	0.048695967
15	0x3c3ba0f2	0.011451947
16	0xbd5ae1bc	-0.053437933
17	0x3b672500	0.0035269856
18	0x3a6e9600	0.0009101331
19	0x3d318416	0.043338858
20	0x3cf1f6d2	0.029536638
21	0x3d9fb954	0.077990204
22	0x3d79dfb6	0.061004363
23	0x3c050fb3	0.008121419
24	0xbd2ebbbe	-0.042659514
25	0xbcb582c7	-0.022157086
26	0xbc29c20f	-0.010361209
27	0xbd3a17f7	-0.04543301
28	0x3d3945a7	0.04523244
29	0xbbca3ab0	-0.006171547
30	0xbbfd3a2a	-0.007727881
31	0xbd2889b7	-0.04114696
32	0x3d9d3897	0.07676809
33	0xbcb3db5d	-0.021955187
34	0x3d8ac483	0.06775763
35	0x3cc15993	0.023602283
36	0xbc5f1e1c	-0.0136180185
37	0xbb30df5b	-0.00269886
38	0xbb539c57	-0.003228923
39	0xbba30099	-0.0049744365
40	0x3d68da20	0.056848645
41	0x3d6ddba1	0.058070783
42	0xbd59871d	-0.05310737
43	0xbd6447e8	-0.055732638
44	0xba9e6ad5	-0.0012086282
45	0x3c6531f5	0.013988961
46	0x3d0e0fa9	0.034682903
47	0xbd2dc3ab	-0.04242293
48	0xbce3c24c	-0.027802609
49	0x3be8b5b2	0.007101738
50	0x3d82b3d3	0.06381955
51	0x3d85b90f	0.06529438
52	0xbd8b9331	-0.06815184
53	0x3bdaa45a	0.0066724243
54	0x3cba840e	0.022768047
55	0x3bbfa6a9	0.005848725
56	0xbc33c785	-0.010972862
57	0x3ca1633d	0.01970064
58	0x3cc03ea8	0.023467377
59	0xbda2a450	-0.07941496
60	0xbc07dc37	-0.008292249
61	0xbd236581	-0.039891724
62	0x3bdeb34e	0.006796277
63	0xbcae886b	-0.021305284
64	0xbbe1c94d	-0.006890452
65	0xbb1f3f5f	-0.0024299247
66	0xbc0c1f8b	-0.008552442
67	0xbd8731df	-0.06601309
68	0x3cf0c2d0	0.029389769
69	0xbd649f4c	-0.05581598
70	0xbd87defc	-0.06634328
71	0x3ce608d4	0.028080381
72	0xbc6f56dd	-0.014608112
73	0xbc1a8c82	-0.009432914
74	0xbd804ef1	-0.06265057
75	0x3cae65a4	0.0212887
76	0xbccef14d	-0.025261546
77	0xbb1fd2bb	-0.002438708
78	0xbd321caa	-0.043484367
79	0xbd657617	-0.056020822
80	0x3d4c80b6	0.049927436
81	0xbc0a3b39	-0.008436971
82	0xbc8c656c	-0.017138205
83	0xbd7eb512	-0.0621844
84	0xbb7c78a8	-0.0038524065
85	0xbd20170d	-0.039084483
86	0xbd17b067	-0.037033465
87	0xbc1c0a8f	-0.009524002
88	0xbc02de35	-0.007987549
89	0xbd7056ee	-0.058676653
90	0x3d26aed6	0.04069408
91	0x3d6680b2	0.056275077
92	0xbd3e9009	-0.04652408
93	0xbc2a8fd6	-0.01041027
94	0xbd06b6f1	-0.03288931
95	0xbb67492c	-0.0035291417
96	0x3c9a8817	0.01886372
97	0xbd82c614	-0.06385437
98	0xbd7363f1	-0.059421483
99	0x3d39cf06	0.04536345
100	0xbd85f37d	-0.06540582
101	0xbd562c0f	-0.05228811
102	0x3c861d27	0.016371323
103	0xbd0f327e	-0.034960262
104	0xbd57e451	-0.052707974
105	0xbd018f41	-0.03163076
106	0x3d4787f4	0.04871364
107	0xbd802a43	-0.06258061
108	0x3d0a9a4e	0.033838563
109	0xbd3e507e	-0.046463482
110	0x3c998978	0.018742308
111	0x3d07004f	0.03295928
112	0x3bbb48a0	0.0057154447
113	0xbd428ab7	-0.04749557
114	0xbcac573f	-0.021037696
115	0xbc80fcd2	-0.015745554
116	0x3d0114cc	0.031513974
117	0x3d44350a	0.047902144
118	0xbb6eb2b8	-0.0036422443
119	0x3c4e200f	0.012580886
120	0x3c91e4fa	0.01780938
121	0xbda21f20	-0.07916093
122	0xbd12286c	-0.03568308
123	0xbccfdb3e	-0.025373098
124	0x3d204aff	0.03913402
125	0x3b8ee352	0.004360595
126	0xbd6dc18c	-0.05804591
127	0x3d77a7d6	0.060462795
128	0x3bb556dc	0.005534036
129	0xbda26672	-0.07929696
130	0xbcb3d522	-0.021952216
131	0xbd3cbca8	-0.046078354
132	0xbd63b02f	-0.055587944
133	0xbd6c33e6	-0.05766668
134	0xbd624e51	-0.05525047
135	0xbd98e2df	-0.07465147
136	0x3c4c57e8	0.01247213
137	0x3d808c2e	0.06276737
138	0x3d066fea	0.032821573
139	0xbd4345d4	-0.047674015
140	0xbd1534b8	-0.03642723
141	0x3c011063	0.007877442
142	0xbd70d753	-0.0587991
143	0xbd9fadc3	-0.07796814
144	0x3ce69871	0.028148862
145	0x3ca8bb97	0.020597262
146	0xbcc29143	-0.023750907
147	0x3d68e746	0.056861185
148	0x3c0ab9f3	0.008467185
149	0x3d94ef93	0.07272258
150	0xbb9af219	-0.0047285673
151	0xbd23f360	-0.040027022
152	0x3d61fdaa	0.055173554
153	0xbd8fdd34	-0.07024613
154	0x3d43227d	0.047640312
155	0x3d06b94b	0.032891553
156	0x3b80e72d	0.0039338083
157	0xbd05dbe0	-0.032680392
158	0xbb55f553	-0.0032647445
159	0xbc1f3227	-0.009716547
160	0x3b7c6208	0.003851058
161	0x3c6b2c19	0.014353775
162	0xbcc506cb	-0.02405109
163	0x3d5e1736	0.054221354
164	0x3d39acf4	0.045330957
165	0xbc45f9bd	-0.012083468
166	0x3d60bcd5	0.054867584
167	0x3d713969	0.05889264
168	0x3d355035	0.044265945
169	0x3c440627	0.011964357
170	0xbcfb6324	-0.030686922
171	0xbd5855e4	-0.052816287
172	0xbd1678d9	-0.036736343
173	0xbcd86213	-0.026413953
174	0xbd896f90	-0.06710732
175	0xbd33a159	-0.043855045
176	0xbd2f3420	-0.04277432
177	0x3d1861f2	0.037202783
178	0x3d17a21b	0.03701983
179	0x3a65ec43	0.00087708625
180	0xbd41aaae	-0.047281913
181	0x3ccf1c0b	0.025281927
182	0xbd35c249	-0.044374738
183	0xbcf8fe6f	-0.03039476
184	0xbcb7bdc4	-0.022429354
185	0xbd88aced	-0.06673608
186	0x3d5a99ac	0.05336921
187	0xbc88c42c	-0.016695105
188	0x3c911e28	0.017714575
189	0xbd8bcbed	-0.06826005
190	0xbd99480a	-0.074844435
191	0x3cf78b3b	0.030217757
192	0x3d21b99c	0.03948365
193	0x3d09786f	0.03356212
194	0xbc76f122	-0.015072139
195	0x3d8c2144	0.068422824
196	0xbd8e7301	-0.06955529
197	0x3d67cfe3	0.05659474
198	0x3caa88c1	0.020817162
199	0xbd78cea4	-0.060743943
200	0x3d057f8c	0.03259234
201	0x3c40ae50	0.011760309
202	0x3d4af90c	0.049553916
203	0x3d59aaa4	0.05314125
204	0xbc93c6ac	-0.01803907
205	0x3d0137fa	0.031547524
206	0xbd1a7a1b	-0.037714105
207	0xbd1e0101	-0.038575176
208	0x3d3b10fa	0.045670487
209	0xbc03ae08	-0.008037098
210	0x3d439760	0.047751784
211	0x3d63135b	0.05543838
212	0x3d076319	0.03305349
213	0xbd7f1d52	-0.06228382
214	0xbd1d091e	-0.038338773
215	0xbcb2bc95	-0.021818439
216	0x3cbf2205	0.023331651
217	0x3d6ca1a9	0.05777136
218	0xbbbe3480	-0.0058045983
219	0xbb2d53c0	-0.0026447624
220	0xbc8d6cfb	-0.01726388
221	0xbd7f2073	-0.062286805
222	0xbcbb503e	-0.02286541
223	0xbd6a5ae4	-0.057215586
224	0x3cf9e265	0.030503461
225	0xbd96c067	-0.073609166
226	0x3c8b1518	0.016977832
227	0xbbb48c9e	-0.005509927
228	0xbcc52ed0	-0.024070174
229	0xbd7cb992	-0.06170041
230	0x3d633047	0.055465963
231	0x3d64c8c1	0.055855516
232	0xbdb1da15	-0.08684174
233	0xbd751c66	-0.059841536
234	0xbcbf96a9	-0.02338727
235	0x3d0dcf18	0.034621328
236	0xbaac2d13	-0.0013135992
237	0xbcf85957	-0.030316038
238	0xbb42d83a	-0.0029730932
239	0xbcf84de2	-0.030310575
240	0x3d038c20	0.032116055
241	0xbc9fb0e7	-0.019493533
242	0x3c088fad	0.008335036
243	0x3d08ca1c	0.03339587
244	0xbcf8f123	-0.03038842
245	0x3d299be6	0.041408442
246	0x3d4f04e6	0.05054178
247	0xbd7c09a5	-0.061532635
248	0xb9fb6a54	-0.0004795367
249	0x3c95fa4a	0.018307824
250	0x3bde1aa0	0.0067780763
251	0x3d0251b4	0.0318162
252	0xbd23c400	-0.039981842
253	0xbce90227	-0.02844341
254	0x3d81e0fc	0.063417405
255	0x3cacdd4e	0.02110162

fc.1.bias f4 [128]
0	0x3d9b7af0	0.07591808
1	0x3d8bcd65	0.06826285
2	0xbd00794f	-0.03136569
3	0x3db678f5	0.089097895
4	0x3da0f6d1	0.078595765
5	0x3dba9a01	0.09111405
6	0xbd1575a0	-0.03648913
7	0xbd2cf23d	-0.042223204
8	0x3d390170	0.045167387
9	0x3d27639b	0.040866476
10	0xbcc27497	-0.023737235
11	0x3d85a276	0.065251276
12	0xbcc72f89	-0.024314659
13	0x3d7825fa	0.060583092
14	0x3c38683d	0.011255321
15	0x3d80ef97	0.06295698
16	0xbcf61c08	-0.030042663
17	0x3d48e09e	0.049042337
18	0xbb4ad278	-0.0030948203
19	0x3cc9a96e	0.024616923
20	0xbd6f41d9	-0.058412407
21	0xbd63b334	-0.055590823
22	0x3dcc5540	0.09977198
23	0xbcd5ee6b	-0.026114663
24	0xbd8005d7	-0.06251114
25	0xbcb63217	-0.022240682
26	0xbbc818d8	-0.006106477
27	0x3cd8fc20	0.02648741
28	0xbd92eef9	-0.07174487
29	0xbd6eb072	-0.05827374
30	0x3d16f987	0.03685906
31	0xbd14eefc	-0.036360726
32	0x3d1bfc9f	0.038082715
33	0xbd2c7867	-0.042107012
34	0x3dc6f3dc	0.09714481
35	0xbd19e0cf	-0.03756791
36	0x3d7c7e3b	0.06164382
37	0x3cbb419d	0.022858435
38	0xbd7c866f	-0.061651643
39	0xbc87ec72	-0.016592238
40	0xbd47ad31	-0.048749153
41	0x3d3f2e8c	0.04667525
42	0x38ec761b	0.00011275356
43	0xbd8af964	-0.06785849
44	0xbd3d0e17	-0.046156015
45	0xbd4c3a85	-0.049860496
46	0x3be6d3b4	0.00704428
47	0xbd8da317	-0.069158725
48	0x3d9eafb2	0.07748355
49	0x3d237e86	0.039915584
50	0x3d8c03c0	0.06836653
51	0x3d81279e	0.063063845
52	0x3db5bb69	0.08873636
53	0xbd2e409e	-0.042542093
54	0xbccd978a	-0.025096674
55	0xbd7527dd	-0.05985247
56	0x3c8535c0	0.016260982
57	0x3d54de27	0.051969673
58	0xbd74432e	-0.05963438
59	0xbc1d3564	-0.009595249
60	0x3d3dae09	0.04630855
61	0x3d7f1a8f	0.062281188
62	0x3c3c3865	0.011488055
63	0x3d859f6e	0.065245494
64	0xbcbadcbd	-0.022810334
65	0x3d3d206c	0.046173498
66	0x3d1e8730	0.038703144
67	0x3cbb0d64	0.022833534
68	0x3d6d2434	0.057895854
69	0x3c6db3e4	0.014508221
70	0xbc7f4309	-0.015579947
71	0xbd477572	-0.04869599
72	0xbd5bdf56	-0.053679787
73	0xbcf80547	-0.030275954
74	0xbc48fe99	-0.012267732
75	0x3cb6b9b1	0.022305341
76	0x3b848334	0.004043961
77	0xbcccb2ed	-0.024987662
78	0x3d599da3	0.05312885
79	0x3db7b1dc	0.08969471
80	0x3cf11c79	0.029432522
81	0x3cc30ed9	0.02381079
82	0xbd43b968	-0.04778424
83	0x3d451576	0.04811617
84	0xbd6fefa6	-0.058578156
85	0xbc216e34	-0.009852935
86	0xbc68713b	-0.0141871525
87	0x3d8ec5ad	0.069712974
88	0xbcbd0853	-0.023075258
89	0xbd89938e	-0.06717597
90	0xbc83d4af	-0.016092626
91	0xbd1940b4	-0.03741522
92	0xbd2aab3e	-0.041667216
93	0x3d63ee6a	0.05564729
94	0xbca00327	-0.019532753
95	0x3d078dfd	0.033094395
96	0xbbc91d40	-0.00613752
97	0x3cb913e1	0.022592487
98	0xbd53fc1d	-0.051754106
99	0xbc9e7173	-0.019341206
100	0xbd7abda2	-0.061216004
101	0xbdaa7a45	-0.08324102
102	0xbd9c38e8	-0.076280415
103	0x3db46463	0.0880821
104	0xbd684c1d	-0.056713212
105	0xbc86cd0d	-0.016455198
106	0x3d93a06f	0.07208335
107	0xbc92e8df	-0.017933307
108	0xbbf636e0	-0.007513866
109	0x3dc2122a	0.09476121
110	0x3d63438f	0.05548435
111	0xbd13dfe1	-0.03610218
112	0x3d7381d0	0.05944997
113	0xbcd706a2	-0.02624828
114	0x3d938b3f	0.072042935
115	0xbd627416	-0.05528649
116	0xbbfcf50d	-0.007719642
117	0xbd548acb	-0.051890176
118	0xbd75be3c	-0.059995875
119	0x3dc63bb8	0.09679359
120	0xbca4cb5e	-0.020116504
121	0x3dc33077	0.09530728
122	0x3c9d4b54	0.019200958
123	0xbd220522	-0.039555676
124	0xbb911a9e	-0.004428222
125	0x3d87a2a6	0.066228196
126	0xbd5a2ccb	-0.053265374
127	0x3d428095	0.047485907

fc.3.weight f4 [64, 128]
0	0x3da308f1	0.0796069
1	0x3d47065e	0.048590057
2	0x3d20883f	0.039192434
3	0xbd7b23a5	-0.06131329
4	0x3d2bfc5a	0.041988708
5	0xbd25a45f	-0.04043996
6	0xbcb04d7f	-0.021521328
7	0x3cc7117a	0.024300326
8	0xbd376826	-0.044777058
9	0x3d7d7bf6	0.061885796
10	0xbd33cf95	-0.043899138
11	0x3bc56591	0.0060240705
12	0xbd839643	-0.064251445
13	0x3c5074a9	0.012723126
14	0xbd2283a9	-0.039676342
15	0xbcc86e1b	-0.024466565
16	0xbd7956f4	-0.06087394
17	0x3d2c06a1	0.04199851
18	0x3d2d1b9a	0.04226265
19	0x3d15de85	0.036589164
20	0xbcf26215	-0.029587785
21	0xbd283a1b	-0.04107104
22	0xbcb652bd	-0.02225625
23	0x3da1db46	0.07903151
24	0x3af4c2c8	0.0018673772
25	0x3cacf74d	0.021114016
26	0x3d90b966	0.07066612
27	0xbd88e957	-0.06685131
28	0xb922f196	-0.00015539522
29	0x3c94f70e	0.018184211
30	0x3c8cd68b	0.017192146
31	0xbd0dec22	-0.034649022
32	0x3cd5a973	0.026081776
33	0x39262672	0.00015845316
34	0xbc17a03e	-0.009254513
35	0xbd62a9dd	-0.055337775
36	0xbdbc93ae	-0.09207855
37	0xbdc3d128	-0.09561378
38	0xbcd62c1b	-0.026144078
39	0x3d411461	0.047138575
40	0xbd9be56a	-0.07612117
41	0x3d5e0d61	0.054211978
42	0x3c4b6bfa	0.01241588
43	0xbc15d024	-0.009143863
44	0xbce14276	-0.027497511
45	0xbd5ee0a3	-0.05441345
46	0x3c8207af	0.015872804
47	0x3d808f22	0.062773004
48	0xbd76ddbe	-0.060270064
49	0x3d30956a	0.043111242
50	0x3d88d8da	0.06681986
51	0x3d611e99	0.05496082
52	0x3d16926a	0.036760725
53	0xbd343db0	-0.044004142
54	0x3d482b56	0.048869453
55	0x3ca5a14a	0.02021851
56	0xbb0dea6d	-0.0021654621
57	0xbce76525	-0.028246472
58	0xbca5ae44	-0.020224698
59	0xbb8ca91c	-0.0042926203
60	0x3d06d31d	0.032916177
61	0x3dabed30	0.08394849
62	0xbd220384	-0.039554134
63	0xbd5bd10a	-0.053666152
64	0xbc08bde4	-0.008346055
65	0x3d9dd732	0.07707061
66	0xbcbb23a3	-0.022844141
67	0xbd924431	-0.07141913
68	0xbd82eae0	-0.06392455
69	0x3d49a2e1	0.0492276
70	0x3d8ec3de	0.069709525
71	0x3d923861	0.0713966
72	0xbd372d90	-0.044721186
73	0xbd02277b	-0.031775933
74	0x3d91ec81	0.07125188
75	0xbda8c1d2	-0.08240093
76	0x3c81ed87	0.015860332
77	0x3d805226	0.062656686
78	0x3d113b59	0.03545699
79	0xbd8800f0	-0.06640804
80	0x3d31df29	0.043425713
81	0x3d8a4041	0.06750537
82	0xbca54d07	-0.020178331
83	0x3d5b9c30	0.05361575
84	0x3db635fe	0.08897017
85	0xbb5137a9	-0.0031924045
86	0x3c38dfb8	0.011283807
87	0xbdc41423	-0.09574153
88	0x3d5899b6	0.052880965
89	0xbd9a3793	-0.07530131
90	0xbd2afdc6	-0.041745923
91	0x3d64d6db	0.055868965
92	0xbda5d5dd	-0.08097432
93	0x3d3a12b0	0.045427978
94	0xbca22514	-0.01979307
95	0x3d621d59	0.05520377
96	0xbd0dc6ae	-0.034613304
97	0x3d43e719	0.047827814
98	0x3d6ebf44	0.058287874
99	0xbc0059ed	-0.00783394
100	0x3ca3d430	0.01999864
101	0xbd8ef9c0	-0.0698123
102	0x3ceff079	0.029289471
103	0xbd970215	-0.07373444
104	0xbd92e137	-0.071718626
105	0xbb5acbf0	-0.0033385716
106	0x3bf32d11	0.007421144
107	0x3cf46467	0.029833032
108	0xbd6a6084	-0.05722095
109	0x3c58605b	0.013206567
110	0x3d23384a	0.039848603
111	0xbc8f569d	-0.017497355
112	0xbdacd329	-0.08438713
113	0xbd6a6372	-0.057223745
114	0xbd1a7208	-0.037706405
115	0xbd29ff01	-0.041502956
116	0x3d85fd84	0.06542495
117	0xbb9756b5	-0.0046184906
118	0xbd9d5037	-0.076813154
119	0xbc1e4198	-0.009659193
120	0xbce37408	-0.027765289
121	0x3d4b9ea4	0.04971184
122	0xbd3ad55c	-0.04561363
123	0xbd947233	-0.07248344
124	0xbd997b64	-0.07494238
125	0x3d63fcba	0.05566094
126	0xbd3f8790	-0.04676014
127	0x3d188e3c	0.03724502
128	0xbd1cfa47	-0.03832462
129	0x3cd07eda	0.025451113
130	0x3dc66f3c	0.09689185
131	0x3d2d818f	0.042359885
132	0xbd499599	-0.049214933
133	0xbba45a9f	-0.0050156857
134	0x3d5190ef	0.05116361
135	0xbcde8f3f	-0.027167914
136	0xbbadba61	-0.005301759
137	0xbb92b048	-0.004476581
138	0xbcf4a1f6	-0.029862385
139	0xbd9c00ef	-0.076173656
140	0x3d87054e	0.06592809
141	0x3d0703f6	0.03296276
142	0x3cf19326	0.029489111
143	0x3d0db182	0.034593113
144	0x3da2bbe1	0.07945991
145	0xbdaf3347	-0.08554702
146	0x3bb81921	0.00561823
147	0xbc2fc66b	-0.010728459
148	0x3c1023df	0.008797615
149	0xbdbc2131	-0.09186018
150	0xbd3f9d9f	-0.04678118
151	0x3c619407	0.013768203
152	0x3c869edf	0.016433178
153	0xbd6e4e43	-0.058180105
154	0x3b31b989	0.0027118644
155	0xbd67012b	-0.0563976
156	0xbccc7df8	-0.02496241
157	0x3d82b4b7	0.06382125
158	0xbbc6795d	-0.006056948
159	0xbd8413fe	-0.06449126
160	0xbd83e21e	-0.06439613
161	0xbcce37b9	-0.025173055
162	0xbd1fe6ec	-0.039038584
163	0x3d5c6ad6	0.053812824
164	0x3d1e87cf	0.038703736
165	0x3d40d525	0.04707827
166	0x3cd3de4d	0.025862837
167	0x3d6021b0	0.054719627
168	0x3d50b8da	0.05095754
169	0x3ce18e9e	0.027533825
170	0xbd6d9996	-0.0580078
171	0x3d92a3b2	0.07160129
172	0xbd17ef9a	-0.037093736
173	0x3d6bdbb4	0.057582572
174	0x3cdae73c	0.02672159
175	0xbd70230a	-0.058627166
176	0x3c971e91	0.018447192
177	0x3d053bf6	0.032527886
178	0x3cda43c8	0.026643649
179	0xbaa0f8d3	-0.0012281187
180	0xbcc87669	-0.024470525
181	0x3ca388ee	0.019962754
182	0x3d513909	0.051079784
183	0xbd104f16	-0.035231672
184	0xbc84f83d	-0.01623165
185	0xbd22a88e	-0.039711528
186	0x3cafdc2d	0.021467293
187	0x3da94c44	0.082665
188	0xbc56b8e7	-0.013105608
189	0xbc93f3d0	-0.018060595
190	0x3c35f285	0.011105184
191	0x3d67a3d5	0.056552727
192	0xbb9062b3	-0.004406297
193	0x3d9ebaad	0.07750449
194	0xbd8c7db3	-0.06859913
195	0xbd057152	-0.032578774
196	0x3bc28745	0.0059365355
197	0xbabf7d30	-0.0014609452
198	0x3d615242	0.055010088
199	0xbcf48ccf	-0.029852299
200	0xbd0b9a3b	-0.034082633
201	0xbd2c4d40	-0.04206586
202	0x3d753390	0.059863627
203	0xbd97675c	-0.07392761
204	0xbd76edc0	-0.06028533
205	0xbd9a4f40	-0.07534647
206	0x3cd75bf2	0.02628896
207	0x3d7ac8e5	0.061226744
208	0x3d9ae81c	0.075638026
209	0xbc2c17ee	-0.010503752
210	0xbd89e63c	-0.06733367
211	0x3d144c16	0.036205374
212	0xbd20e138	-0.039277285
213	0xbd95a669	-0.07307131
214	0x3d838369	0.06421549
215	0x3daf8948	0.08571106
216	0x3d48a8f7	0.048989262
217	0x3d5c0f92	0.053725787
218	0xbcf6c012	-0.030120883
219	0x3bc7aa4b	0.0060932986
220	0xbd9fe519	-0.07807369
221	0xbd38277e	-0.044959538
222	0x3cc96bb2	0.024587486
223	0xba840074	-0.0010070936
224	0x3ce8ace5	0.028402755
225	0xbdb80d26	-0.08986883
226	0xbd48e19e	-0.04904329
227	0x3c8806c3	0.016604787
228	0x3c378f75	0.011203636
229	0xbd480717	-0.048834886
230	0xbbaad26b	-0.005213072
231	0x3d2cfd92	0.04223401
232	0x3da3d5f1	0.079997905
233	0x3d969421	0.07352472
234	0x3c60ebdf	0.013728111
235	0x3d4441ba	0.047914244
236	0x3d0ace11	0.033887926
237	0xbd26bb3e	-0.04070591
238	0x3d45b9ab	0.04827277
239	0xbd45b38b	-0.04826693
240	0x3d8d06d8	0.06886071
241	0x3d31eaee	0.043436937
242	0x3d924470	0.0714196
243	0x3dc18f9b	0.09451219
244	0xbcaf415c	-0.02139347
245	0x3d39a7a9	0.04532591
246	0xbcea3710	-0.028590709
247	0xbd2240be	-0.039612524
248	0xbd693778	-0.056937665
249	0x3d0eea7c	0.03489159
250	0x3d820cef	0.06350123
251	0x3d33fb11	0.043940607
252	0x3d0aa25b	0.03384624
253	0xbafd129e	-0.0019307917
254	0xbc62eb88	-0.0138501
255	0xbcb39aac	-0.02192434

fc.3.bias f4 [64]
0	0xbd3a328a	-0.045458354
1	0xbda243e4	-0.07923105
2	0x3deee29d	0.11664317
3	0x3c71bd53	0.014754611
4	0x3db093e9	0.086219616
5	0xbd03b68c	-0.032156512
6	0xbd0b3c86	-0.033993267
7	0xbd5a37fd	-0.05327605
8	0x3cbdc632	0.023165796
9	0x38a78f4d	7.9898724e-05
10	0xbd1b9cef	-0.03799146
11	0x3d9af956	0.07567088
12	0x3d69ffa8	0.05712858
13	0x3dcc411b	0.099733554
14	0x3d65fb63	0.056147944
15	0x3c5d7bdb	0.013518299
16	0x3cb89850	0.022533566
17	0x3d8ed8a6	0.06974916
18	0x3daa6f00	0.08321953
19	0xbda6419d	-0.081179835
20	0x3bfe0d5f	0.007753059
21	0xbd0456d9	-0.032309387
22	0xbd865148	-0.06558472
23	0x3dbc9387	0.09207826
24	0x3d58f1de	0.052965038
25	0xbcc87590	-0.02447012
26	0xbc05de1d	-0.008170632
27	0x3d536d68	0.05161801
28	0xbc5a87d5	-0.013338049
29	0xbcf231d8	-0.029564783
30	0x3cf9a1a0	0.030472577
31	0x3cefb95d	0.029263193
32	0x3b22eef0	0.0024861656
33	0xbd2146ba	-0.03937409
34	0x3c590f32	0.013248252
35	0x3d21b68f	0.039480742
36	0x3d4f33c7	0.050586488
37	0xbd12658b	-0.03574137
38	0xbd09296b	-0.033486765
39	0xbd163d67	-0.03667965
40	0xbda5be10	-0.08092892
41	0x3dc7201b	0.097229205
42	0x3b17f76f	0.0023188253
43	0xbcd23d0f	-0.02566388
44	0xbd76ac25	-0.060222764
45	0xbd8982a8	-0.06714374
46	0x3da388a4	0.079850465
47	0x3db8cf35	0.090238966
48	0xbcb39073	-0.021919465
49	0x3d6681b1	0.056276027
50	0x3d008239	0.03137419
51	0x3d38f1f0	0.045152605
52	0x3ddcb749	0.10777146
53	0x3d4a840d	0.04944234
54	0xbd968e3a	-0.07351346
55	0x3d217643	0.039419424
56	0x3c944667	0.018099977
57	0x3d8c2a10	0.0684396
58	0xbd09c5f6	-0.033636056
59	0x3d50436a	0.05084554
60	0x3c06b74d	0.008222413
61	0x3db27be5	0.08715037
62	0xbd58c48e	-0.052921824
63	0x3bfb5f58	0.007671278

fc.5.weight f4 [4, 64]
0	0xbc28da30	-0.010305926
1	0x3d566493	0.05234201
2	0x3d52e3da	0.051486827
3	0x3d97229b	0.07379647
4	0x3dbff560	0.093729734
5	0x3d62d424	0.055378094
6	0xbdded1a7	-0.10879832
7	0x3de835a2	0.11338355
8	0xbdad9f72	-0.084776774
9	0x3cc31d41	0.02381766
10	0xbd92d5fc	-0.071697205
11	0x3cc3a172	0.023880694
12	0xbd12a642	-0.035803087
13	0x3b09ab55	0.0021006663
14	0x3cb01707	0.021495355
15	0xbcfdb0ff	-0.030968187
16	0xbd6a1f0b	-0.05715851
17	0x3d98349c	0.074319094
18	0xbd0191ff	-0.031633373
19	0xbd16a8b2	-0.036781974
20	0x3dd6d307	0.10489469
21	0x3ce57731	0.028010936
22	0x3db3acc1	0.087731846
23	0x3c07021a	0.008240247
24	0x3cc4e319	0.02403407
25	0x3c1f5db0	0.009726927
26	0xbdbd451a	-0.09241696
27	0x3d1dbcf3	0.038510274
28	0xbd3a7ec1	-0.04553104
29	0x3deddb9f	0.11614155
30	0xbdabc48b	-0.08387097
31	0xbdd03932	-0.10167159
32	0x3d8468cb	0.064653
33	0xbd341f5c	-0.04397522
34	0xbcc04adb	-0.023473194
35	0xbb039e6f	-0.0020083447
36	0x3d411160	0.04713571
37	0x3db5c8d2	0.08876194
38	0xbcf8a5d9	-0.03035252
39	0xbdedbffa	-0.11608882
40	0xbc7a1b8f	-0.01526536
41	0x3d298cfe	0.041394226
42	0x3e0035a2	0.1252046
43	0xbd85122c	-0.06497607
44	0xbdb44065	-0.08801345
45	0x3dcf19d5	0.10112349
46	0xbc9aefed	-0.018913234
47	0x3d9c4e5a	0.07632132
48	0xbd6f5710	-0.05843264
49	0xbcbf7b28	-0.023374155
50	0x39e0391b	0.00042767156
51	0x3dde4fbb	0.10855051
52	0x3d81c51c	0.06336424
53	0x3ddcf7c9	0.10789449
54	0xbb9dfbc8	-0.0048212744
55	0xbd81f5fb	-0.06345745
56	0x3d3d7c1d	0.04626094
57	0x3ba55ad1	0.0050462265
58	0xbdbc0198	-0.091799915
59	0xbdcc6e2d	-0.09981952
60	0xbdd7c600	-0.105358124
61	0xbc2783e0	-0.010224313
62	0x3dcf90ca	0.10135038
63	0xbb464e35	-0.0030259017
64	0xbd0c8a21	-0.034311417
65	0x3cf3a02b	0.02973946
66	0x3daf9274	0.085728556
67	0xbdb3429f	-0.08752941
68	0x3dcc7441	0.09983111
69	0xbd40d169	-0.04707471
70	0x3b982f97	0.004644345
71	0x3df16a45	0.117878474
72	0xbb863209	-0.00409532
73	0x3dcf7b51	0.101309426
74	0xbd3f2f19	-0.046675775
75	0xbdb17422	-0.08664729
76	0xbddb01eb	-0.10693725
77	0x3d97031b	0.07373639
78	0xbc90dd4b	-0.017683646
79	0x3dea2d77	0.11434453
80	0x3d05b6a1	0.03264487
81	0xbd595e13	-0.05306823
82	0x3e0c0d44	0.13676935
83	0x3e03092a	0.12796465
84	0xbc7d10ca	-0.015445897
85	0xbd6dcfa2	-0.058059342
86	0x3cf35097	0.029701514
87	0x3c9957df	0.018718658
88	0xbd5799e2	-0.05263699
89	0x3db5148c	0.0884181
90	0x3dbf8b22	0.09352709
91	0x3ca4cd70	0.020117491
92	0xbda74af0	-0.0816859
93	0x3d804b0d	0.06264315
94	0x3d1d986d	0.038475443
95	0x3deaaa17	0.11458223
96	0x3c90e965	0.017689416
97	0xbdce853a	-0.10084005
98	0xbd3d6faa	-0.04624907
99	0xbd8729ec	-0.06599793
100	0x3d2a7232	0.04161281
101	0xbdb181da	-0.08667345
102	0x3d0ba1e4	0.034089938
103	0xbddb5a91	-0.107106335
104	0xbd81136a	-0.06302531
105	0x3c028944	0.007967297
106	0xbca59d24	-0.020216532
107	0xbd2f93b7	-0.04286548
108	0x3c1c5c3e	0.009543477
109	0xbdced2b6	-0.10098784
110	0x3db189dd	0.086688735
111	0xbcc96f2f	-0.02458915
112	0x3df3df41	0.11907817
113	0x3cbd7952	0.02312914
114	0x3db810ed	0.08987603
115	0x3d8fb155	0.07016245
116	0x3e039578	0.12849987
117	0x3d87dbf4	0.066337496
118	0x3b11b093	0.002223049
119	0x3de6d6b6	0.112714216
120	0xbd9e57ea	-0.07731612
121	0xbdbd16fe	-0.09232901
122	0xbd83ab49	-0.064291544
123	0x3dec6f28	0.11544639
124	0xbc859aa3	-0.016309088
125	0x3dd63fd5	0.10461394
126	0x3da62dfa	0.08114238
127	0xbdc3180a	-0.095260695
128	0xbc79f289	-0.015255579
129	0x3dbd4aee	0.09242807
130	0xbdddb3cb	-0.108253084
131	0x3ddaddcd	0.106868364
132	0xbc761804	-0.015020374
133	0x3b8a1a0b	0.0042145303
134	0xbd2b84b9	-0.04187462
135	0x3d9fdb1a	0.07805462
136	0x3d783b9d	0.060603727
137	0x3df16836	0.11787455
138	0x3c96b9d3	0.018399155
139	0x3dbf4ad0	0.09340441
140	0x3dd40bd9	0.10353822
141	0x3c8d769e	0.017268475
142	0x3c3ff437	0.01171594
143	0xbdd71d4a	-0.10503633
144	0xbd93de08	-0.072200835
145	0x3d51fb94	0.051265314
146	0xbd29c430	-0.041446865
147	0xbdda87ef	-0.106704585
148	0xbde5205f	-0.11187815
149	0x3dcaa650	0.09895003
150	0xbde92241	-0.113834865
151	0xbcec5805	-0.028850565
152	0xbdd5f798	-0.104476154
153	0x3cc5d268	0.024148181
154	0xbdf3f555	-0.11912028
155	0x3de45d03	0.11150553
156	0xbd9fb7ec	-0.07798752
157	0xbd9940b9	-0.07483048
158	0x3d88ad46	0.06673674
159	0x3d1bceab	0.03803889
160	0x3d754252	0.0598777
161	0x3d05097c	0.032479748
162	0x3d5ecfa5	0.054397244
163	0xbc54bb85	-0.012984161
164	0x3d30b7a3	0.04314388
165	0xbdfc2188	-0.12311083
166	0x3d083552	0.033253975
167	0x3acaa39d	0.0015460138
168	0xbdb1afae	-0.08676086
169	0xbbef5d4b	-0.0073048226
170	0x3d8d58ca	0.06901701
171	0xbd88c211	-0.0667764
172	0xbc888e5e	-0.016669448
173	0xbdb68a11	-0.08913053
174	0xbd146e0f	-0.036237773
175	0x3cef46f2	0.029208634
176	0xbd1c8da8	-0.03822103
177	0x3e022881	0.12710764
178	0x3d485b5e	0.04891526
179	0x3db0916b	0.08621486
180	0xbc108535	-0.0088208215
181	0xbdee7495	-0.1164333
182	0xbd1aa52d	-0.03775518
183	0x3da61464	0.08109358
184	0xbdbefad5	-0.09325186
185	0xbdae90d3	-0.08523717
186	0x3dc178c8	0.09446865
187	0xbdeb4cd6	-0.11489265
188	0xbd7e2a40	-0.06205201
189	0x3dc22054	0.09478822
190	0xbcd91670	-0.026499957
191	0xbceea136	-0.029129606
192	0x3dc72582	0.09723951
193	0x3ddcfdc6	0.10790591
194	0xba15153f	-0.0005687065
195	0xbb42c8cc	-0.0029721735
196	0x3bc8edab	0.006131848
197	0x3d53637f	0.05160856
198	0x3dd3d13b	0.10342642
199	0xbd4bf4cc	-0.049794003
200	0xbdb8b85f	-0.09019541
201	0xbce78041	-0.028259398
202	0xbd678493	-0.056522917
203	0x3dcfc600	0.101451874
204	0x3dd49146	0.10379271
205	0x3e030bc5	0.12797458
206	0xbd94f3ba	-0.0727305
207	0x3da22a8e	0.07918273
208	0xbc688583	-0.014191988
209	0x3d1476c2	0.03624607
210	0x3d21cadc	0.039500102
211	0xbdb880a1	-0.09008909
212	0x3db0b20d	0.086277105
213	0xbd2263d0	-0.03964597
214	0xbd9cb017	-0.07650774
215	0x3e0a3797	0.13497768
216	0x3c600d15	0.013674994
217	0xbd3f9164	-0.046769515
218	0xbddc4622	-0.10755564
219	0x3c74fc7f	0.014952778
220	0x3d9b928b	0.0759631
221	0x3d8c1f86	0.0684195
222	0x3d247d18	0.04015836
223	0xbda48b1a	-0.08034344
224	0x3b0e2cc8	0.0021694172
225	0x3d4c5e7a	0.049894787
226	0xbdc20fcc	-0.09475669
227	0xbdbaeb5d	-0.09126923
228	0x3dfe2d71	0.12411011
229	0x3dee431c	0.11633894
230	0xbd27cc0e	-0.040966086
231	0x3dfcdb32	0.12346496
232	0xbcd088e8	-0.025455907
233	0x3e00b91c	0.12570614
234	0xbd2a1e23	-0.041532647
235	0x3ad31b75	0.0016106205
236	0xbcebd066	-0.028785896
237	0x3d1bda24	0.038049832
238	0x3c49f666	0.012326812
239	0xbd357593	-0.04430158
240	0xbda40ee9	-0.080106564
241	0xbda28311	-0.07935155
242	0x3d0d1716	0.034445845
243	0x3df2a46f	0.118477695
244	0xbdb2cd5a	-0.08730574
245	0xbd92ad24	-0.0716193
246	0x3bf7caaa	0.0075620012
247	0xbd706a3c	-0.058695063
248	0x3dd88874	0.10572901
249	0xbd02b8ae	-0.031914406
250	0x3d31f805	0.04344942
251	0x3dd54e5d	0.10415337
252	0xbcc664a3	-0.02421791
253	0xbc6ab4d3	-0.014325338
254	0xbdfd537a	-0.123694375
255	0x3d456fd9	0.04820237

fc.5.bias f4 [4]
0	0xbd2f4b87	-0.042796638
1	0xbce50c7e	-0.027960058
2	0x3d8c2a3f	0.06843995
3	0xbc21944a	-0.009862015
