best_model.pth (torch, 140089 bytes, 6 tensors)

fc.1.weight f4 [128, 200]
0	0xbce8d89c	-0.0284236
1	0x3cbc98d0	0.023022085
2	0x3d8d6113	0.06903281
3	0x3c6c9a70	0.014441118
4	0xbd4557b4	-0.048179343
5	0xbc903450	-0.01760307
6	0xbb4955e0	-0.0030721352
7	0x3d027524	0.031849995
8	0xbd6c4e79	-0.057692025
9	0xbd5ae44e	-0.053440385
10	0xbd74564e	-0.05965262
11	0xbcff0ebc	-0.031134956
12	0xbd716899	-0.058937643
13	0x3d15eb78	0.036601514
14	0xbd70bc7a	-0.058773495
15	0x3d2a0bd4	0.041515186
16	0xbcd3f20a	-0.02587225
17	0xbd859ac2	-0.06523658
18	0xbd4c4efe	-0.04988002
19	0xbd656002	-0.055999763
20	0xbc7d008c	-0.015442025
21	0xbccc6ebe	-0.02495515
22	0x3d2defbe	0.042464964
23	0xbc6bbf88	-0.014388926
24	0x3ca19ff0	0.019729584
25	0x3d8175ef	0.06321322
26	0x3a7c2480	0.0009618476
27	0xbb172080	-0.0023060143
28	0x3c81ec20	0.015859663
29	0x3d7384ce	0.059452824
30	0x3d7d6d76	0.06187197
31	0xbcd18a14	-0.025578536
32	0xbd48edce	-0.049054913
33	0x3d4b4456	0.049625717
34	0xbd3a95d1	-0.045553032
35	0xbd8221de	-0.06354116
36	0x3d8dd075	0.06924526
37	0xb810c000	-3.451109e-05
38	0xbcbf9a24	-0.02338893
39	0xbd1a2e31	-0.037641708
40	0x3d6bf286	0.057604335
41	0xbca51dfa	-0.020155896
42	0xbd54926b	-0.051897448
43	0xbd810807	-0.06300359
44	0xbbdc1db0	-0.006717406
45	0x3c6b1738	0.0143487975
46	0xbd489f1f	-0.048979875
47	0xbcb97dde	-0.022643026
48	0x3c2bb428	0.010479964
49	0xbd8d7d35	-0.06908647
50	0x3d149ea2	0.036284097
51	0x3cb73364	0.022363372
52	0x3ca0ea04	0.019642837
53	0x3d1ed1fa	0.038774468
54	0xbd6ca5f6	-0.05777546
55	0xbd905b20	-0.07048631
56	0xbd6eb228	-0.05827537
57	0xbd8e5852	-0.069504395
58	0x3cbdea64	0.023183055
59	0xbd87b536	-0.0662636
60	0x3d7a5882	0.061119564
61	0xbc68b5ec	-0.01420353
62	0x3c8fbd44	0.017546304
63	0xbd161ce3	-0.036648642
64	0x3bff5d00	0.007793069
65	0x3bd0e120	0.0063744932
66	0xbd83c19c	-0.064334124
67	0x3c26e0a8	0.010185398
68	0x3d0ffde0	0.035154223
69	0xbd1de1dd	-0.038545478
70	0x3d4af10a	0.04954628
71	0xbcf9915e	-0.030464824
72	0x3c373c18	0.011183761
73	0xbd4d0836	-0.05005666
74	0xbcab2696	-0.020892423
75	0x3d2763ea	0.04086677
76	0x3b36cba0	0.0027892366
77	0xbd280f50	-0.04103023
78	0x3ca5259c	0.020159535
79	0xbd8bd236	-0.06827204
80	0xbce520f4	-0.027969815
81	0x3d8ff645	0.07029394
82	0xbd6fcdd0	-0.058545887
83	0xbc82a75a	-0.01594894
84	0x3c9ea064	0.01936359
85	0xbd53a710	-0.051672995
86	0xbd9c2f03	-0.07626154
87	0xbd786360	-0.060641646
88	0x3d8a4e21	0.06753183
89	0x3cc173a8	0.02361472
90	0xbd37d356	-0.04487928
91	0x3d8e6181	0.06952191
92	0xbc55ddf8	-0.01305341
93	0x3cb56104	0.022140987
94	0xbcbd354e	-0.023096707
95	0xbd78049f	-0.060551282
96	0xbd421cf1	-0.047390882
97	0x3bbcf920	0.0057670027
98	0x3cce07f8	0.025150284
99	0xbd1fa813	-0.038978647
100	0x3d1044ce	0.035221867
101	0xbd358568	-0.04431668
102	0xbd379e8b	-0.044828933
103	0xbd759f5e	-0.059966438
104	0x3d6d09ed	0.057870794
105	0xbda8b8f6	-0.082384035
106	0xbc9bdfdc	-0.019027643
107	0x3c0c86e0	0.008577079
108	0x3ade7040	0.0016970709
109	0x3d396f3c	0.045272097
110	0xbd8bd6a8	-0.06828052
111	0x3d755e86	0.059904598
112	0xbc957ed4	-0.018248953
113	0xbb82a230	-0.0039866194
114	0x3cf0eeba	0.029410709
115	0xbca85ffa	-0.020553578
116	0x3ce702dc	0.028199606
117	0x3d166b92	0.03672368
118	0xbd07d07a	-0.033157803
119	0xbb363b60	-0.0027806386
120	0xbd4c9ec6	-0.049956106
121	0x3d38c670	0.04511112
122	0x3ca954f0	0.020670384
123	0xbd8a29e9	-0.06746275
124	0x3ce7d0b9	0.028297769
125	0x3d19dc4e	0.037563615
126	0x3d620a02	0.055185325
127	0xbd24f2ed	-0.040270735
128	0xbce03fb0	-0.027374119
129	0x3c7c5bb0	0.015402719
130	0x3d36689a	0.04453335
131	0xbcd2304c	-0.025657795
132	0x3b8b60e5	0.004253494
133	0xbd6847e2	-0.056709178
134	0x3c0f7b51	0.008757428
135	0x3ce9c9ac	0.028538547
136	0x3cc4f34d	0.024041796
137	0x3c117840	0.0088787675
138	0x3cd6a041	0.026199462
139	0xbd4dd4ac	-0.050251648
140	0x3c2ff594	0.010739703
141	0xbd88386b	-0.06651386
142	0xbd722d70	-0.059125364
143	0xbc38ebc1	-0.011286677
144	0xbcf976eb	-0.030452212
145	0xbb49be9e	-0.0030783783
146	0xbda54710	-0.08070195
147	0xbdab865d	-0.08375237
148	0x3c83d602	0.016093258
149	0xbb897f20	-0.0041960627
150	0xbd84f4d7	-0.06492012
151	0xbcedeb6a	-0.029042918
152	0xbce7fa70	-0.02831766
153	0xbda3a3b7	-0.079902105
154	0xbd1c5381	-0.038165573
155	0xbd9e9ecf	-0.07745134
156	0xbcf8fef6	-0.030395012
157	0x3cf06c11	0.029348405
158	0xbc6b783b	-0.014371927
159	0xbc87f1c4	-0.016594775
160	0x3d2f7e22	0.0428449
161	0x3b8458fd	0.0040389285
162	0xbd637baa	-0.055537857
163	0xbdba349c	-0.09092066
164	0xbce8fe76	-0.028441649
165	0xbc1e0ef4	-0.00964712
166	0xbc4b2378	-0.012398593
167	0xbc30a438	-0.01078134
168	0xbd7e780b	-0.0621262
169	0xbcc08025	-0.023498604
170	0xbd9f7726	-0.07786398
171	0xbd114b4c	-0.0354722
172	0xbdbeba3c	-0.09312865
173	0xbd7f0ec2	-0.062269934
174	0x3d432674	0.047644094
175	0xbd2407b2	-0.0400464
176	0x3c906276	0.017625075
177	0x3d4b063a	0.049566485
178	0xbcc838f2	-0.024441216
179	0xbd8d0191	-0.068850644
180	0xbb93dd8f	-0.004512496
181	0xbcede699	-0.029040622
182	0xbd1ceb9e	-0.03831064
183	0xbd5cff6d	-0.05395453
184	0x3b72ffaa	0.0037078657
185	0xbc7547be	-0.014970718
186	0xbd84d870	-0.06486595
187	0xbba18cb6	-0.004930104
188	0xbd58eb24	-0.052958623
189	0xbbfb58e3	-0.007670508
190	0xbd868075	-0.0656747
191	0x3c972b15	0.01845316
192	0xbd9d5f92	-0.07684244
193	0xbcbc5530	-0.02298984
194	0xbd25c5e4	-0.040471926
195	0xbd2f3799	-0.04277763
196	0x3aadc400	0.0013257265
197	0x3c28985a	0.01029023
198	0xbd648cd7	-0.055798378
199	0xbd81c4d9	-0.06336374
200	0x3d888bcf	0.066672914
201	0xbd4af0c6	-0.049546026
202	0xbcc9e678	-0.024646029
203	0x3d300fd4	0.042983845
204	0xbcc10cd8	-0.023565695
205	0xbc6a8d1c	-0.01431587
206	0x3b9d7380	0.0048050284
207	0xbd8ec1cd	-0.06970558
208	0x3c51bff8	0.012802117
209	0xbd06403a	-0.032776095
210	0xbccc14cc	-0.02491226
211	0x3bea4af0	0.0071500465
212	0xbd8dd4ff	-0.069253914
213	0xbd2e3805	-0.042533893
214	0xbce227bc	-0.027606837
215	0x3ba4d910	0.0050307587
216	0xbcb6915c	-0.02228611
217	0xbcac439a	-0.021028329
218	0x3cd23318	0.025659129
219	0xbd8313ae	-0.06400238
220	0x3d0ea3c4	0.034824148
221	0xbd34543a	-0.044025637
222	0xbd1c2373	-0.038119745
223	0xbd276a66	-0.040872954
224	0xbd158b03	-0.036509525
225	0x3bc359a0	0.005961612
226	0x3d8546c7	0.0650764
227	0x3cd9a524	0.026568003
228	0xbd64dc5a	-0.055874206
229	0xbd5119f5	-0.051050145
230	0x3d4bf986	0.04979851
231	0xbc1a1a20	-0.009405643
232	0xbd76e6dd	-0.060278762
233	0xbc64bc94	-0.013960976
234	0x3b28ce6a	0.0025757798
235	0x3b78b54b	0.0037949856
236	0xbd1d15cc	-0.038350865
237	0x3b8a3740	0.004218012
238	0x3d2d2490	0.042271197
239	0x3c578580	0.0131543875
240	0x3d2da3a6	0.042392395
241	0x3d2de759	0.04245696
242	0xbd32f48d	-0.043690253
243	0x3d6e2f8a	0.058150806
244	0xbd49dc66	-0.049282454
245	0xbd61965c	-0.055075034
246	0x3c8145e7	0.015780402
247	0xbd8a006e	-0.06738363
248	0xbd182c1b	-0.037151437
249	0xbd336964	-0.04380168
250	0x3d69028f	0.056887206
251	0x3d6990e5	0.057022948
252	0xbae62938	-0.0017559892
253	0x3d50d1ee	0.050981455
254	0xbca4c104	-0.020111568
255	0xbc65d7bc	-0.014028486

fc.1.bias f4 [128]
0	0xbdaff68c	-0.08591947
1	0xbc22fb89	-0.009947666
2	0xbe22dbc1	-0.15904142
3	0xbc7f7e15	-0.015594025
4	0xbd856e37	-0.065151624
5	0xbdf6c8a5	-0.12049989
6	0xbdf496ab	-0.119428
7	0xbe10d8ce	-0.14145204
8	0xbd6e39ba	-0.05816052
9	0xbd8f7efb	-0.070066415
10	0xbe095e06	-0.13414773
11	0xbdcb2eaa	-0.0992101
12	0xbdbce35d	-0.092230536
13	0xbde2e9ce	-0.11079751
14	0xbde24e6d	-0.11050115
15	0xbd204899	-0.039131735
16	0x3dc65f75	0.09686176
17	0xbe024de7	-0.1272503
18	0x3dd16c68	0.10225755
19	0xbd9a074f	-0.07520925
20	0xbcba5d22	-0.022749487
21	0xbe003ad0	-0.12522435
22	0xbd33f37c	-0.043933377
23	0xbe2078f1	-0.15671135
24	0xbd9b82f4	-0.07593337
25	0xbe8547e2	-0.26031405
26	0xbd4cccb5	-0.04999991
27	0xbcde0afe	-0.02710485
28	0x3d1179bc	0.035516486
29	0xbe17e25b	-0.14832442
30	0xbdc2865d	-0.09498284
31	0xbe530ebb	-0.20611088
32	0xbc5e909f	-0.013584285
33	0xbd7763f5	-0.06039806
34	0xbc36cd2a	-0.011157313
35	0xbd174199	-0.036927793
36	0x3d5241bd	0.051332224
37	0xbe139c36	-0.14415058
38	0xbd621071	-0.05519146
39	0xbe2f7ca2	-0.17137387
40	0xbe0e1238	-0.13874137
41	0xbd34a176	-0.044099294
42	0xbdbcaafa	-0.09212299
43	0xbd96ee41	-0.07369662
44	0x39b9397c	0.0003532878
45	0xbcbd3861	-0.023098173
46	0xbcc1d33d	-0.023660297
47	0xbddfa8fb	-0.10920902
48	0x3e79251a	0.2433056
49	0xbdd2a556	-0.102854416
50	0xbd1163b1	-0.035495464
51	0xbdfbe98c	-0.12300405
52	0xbdd51b12	-0.10405554
53	0xbdc4f84c	-0.09617671
54	0xbd6f0b27	-0.058360245
55	0xbdbea567	-0.09308892
56	0xbdbf6ff5	-0.09347526
57	0xbde28978	-0.11061376
58	0xbe695c65	-0.22789152
59	0xbd3c1841	-0.045921568
60	0xbe03c23a	-0.1286706
61	0xbbb2ac53	-0.0054526716
62	0xbbb8840d	-0.005630976
63	0xbd3c8a7c	-0.046030506
64	0xbe32f050	-0.17474484
65	0xbe048d90	-0.12944627
66	0xbe0ca5e4	-0.13735157
67	0xbe19598c	-0.14975566
68	0xbd605474	-0.05476804
69	0xbd6a6b92	-0.057231493
70	0xbe2bba11	-0.16770197
71	0xbdbb8214	-0.0915567
72	0xbce1079e	-0.027469452
73	0xbc704d64	-0.014666889
74	0xbe0f7217	-0.14008366
75	0xbd777656	-0.06041559
76	0xbdd63001	-0.10458375
77	0xbe899d16	-0.2687766
78	0xbc062f48	-0.008189984
79	0xbdfb0207	-0.12256246
80	0xbdd8d517	-0.10587519
81	0xbdaa2151	-0.08307136
82	0xbbd5b7c2	-0.00652215
83	0xbdaa9b15	-0.08330361
84	0xbdb6b5c2	-0.08921386
85	0xbe037672	-0.12838152
86	0xbd852153	-0.06500497
87	0x3dc3dc60	0.095635176
88	0xbdbbc7eb	-0.09168991
89	0xbd60b73d	-0.05486225
90	0xbdd47213	-0.103733204
91	0xbe44fd28	-0.19237196
92	0xbdd75950	-0.10515082
93	0xbe15ece0	-0.14641142
94	0xbdc0f62e	-0.09421955
95	0xbb5532d6	-0.0032531521
96	0x3c97218e	0.018448617
97	0xbe582e2c	-0.21111363
98	0xbdffbc1c	-0.12487051
99	0xbd87d197	-0.06631773
100	0xbe21d337	-0.15803228
101	0xbe12f9e9	-0.14353146
102	0xbdbb7ae1	-0.09154297
103	0xbe026e61	-0.12737419
104	0xbd388f58	-0.04505858
105	0xbe121d90	-0.1426909
106	0xbc5c8589	-0.013459572
107	0xbdf44acf	-0.11928331
108	0xbeb38882	-0.35065085
109	0xbd071296	-0.03297671
110	0x3d90dbc3	0.07073166
111	0xbda557b4	-0.08073369
112	0xbe4c6324	-0.19959694
113	0xbd22fb74	-0.039790586
114	0xbd9d998f	-0.076953046
115	0x3e6b1f53	0.22961168
116	0xbe1f9b6e	-0.15586635
117	0xbdcc1885	-0.09965614
118	0xbcc6cd6f	-0.02426788
119	0xbdc00ef5	-0.09377853
120	0xbe65e0a3	-0.22448973
121	0xbda277d1	-0.079330094
122	0xbd83faa1	-0.06444288
123	0x3e3c1778	0.18368328
124	0xbe1016fb	-0.14071266
125	0xbb64c978	-0.0034910124
126	0xbddf9e47	-0.10918861
127	0x3bef0f6a	0.0072955387

fc.3.weight f4 [64, 128]
0	0x3c773558	0.015088402
1	0xbbdeffe5	-0.0068054073
2	0xbe9cab71	-0.3059955
3	0xbd6dedd3	-0.058088135
4	0x3cf175e7	0.029475166
5	0x3a7b8a8d	0.0009595536
6	0xbd1f8d84	-0.03895332
7	0xbec60fbc	-0.3868388
8	0xbd4f4d46	-0.050610803
9	0x3c8e8aa5	0.017400095
10	0xbd924360	-0.07141757
11	0xbd090fca	-0.033462323
12	0x3dacdd75	0.08440677
13	0x3d9c6e93	0.07638278
14	0xbbe61b6a	-0.007022311
15	0x3de85304	0.11343959
16	0xbe3a2709	-0.18178953
17	0xbcbefa37	-0.023312671
18	0xbce1ed96	-0.02757911
19	0xbb40c631	-0.0029415006
20	0xbe29dc51	-0.1658795
21	0x3d87095b	0.06593581
22	0xbe79c983	-0.24393277
23	0xbda1e638	-0.07905239
24	0x3d12e6a6	0.035864495
25	0x3d0155c1	0.031575922
26	0x3d534a1a	0.05158434
27	0x3c428070	0.011871442
28	0xbe098e63	-0.13433222
29	0xbd213680	-0.039358616
30	0x3dc86632	0.09785117
31	0xbdb26e80	-0.087124825
32	0xbd16cc6e	-0.036816053
33	0xbd3060f4	-0.04306121
34	0xbcd7a2d1	-0.026322754
35	0xbdbd1296	-0.092320606
36	0xbd73baf1	-0.059504453
37	0xba745edf	-0.0009321998
38	0xbf0c153e	-0.54719913
39	0xbe380cd4	-0.17973644
40	0xbf21a3b0	-0.6314039
41	0xbd859d65	-0.06524161
42	0xbe099b7c	-0.13438219
43	0x3a04d40d	0.00050669984
44	0x3e2ab4c7	0.16670524
45	0xbd7bd670	-0.0614838
46	0xbe1b2435	-0.1515053
47	0xbf262237	-0.6489596
48	0xbe65a8e2	-0.22427705
49	0x3ba0a918	0.00490297
50	0xbda4acaa	-0.080407456
51	0xbe3d6781	-0.18496515
52	0x3d648ab0	0.055796325
53	0xbd84d7b0	-0.064864516
54	0xbc8d1f12	-0.01722673
55	0xbd97f672	-0.074200526
56	0xbd602b12	-0.054728575
57	0xbd9e00e1	-0.077150114
58	0xbe6ec8f2	-0.23318842
59	0x3c469b40	0.012121975
60	0xbc72e8b6	-0.01482599
61	0xbd99c502	-0.075082794
62	0x3e7a32c7	0.24433433
63	0xbf074c87	-0.52851146
64	0xbd93516e	-0.07193266
65	0x3cd57007	0.026054395
66	0x3b3aa13f	0.0028477458
67	0x3cdba619	0.0268126
68	0xbd836f44	-0.064177066
69	0xbdb89f67	-0.090147786
70	0xbeecb21b	-0.46229634
71	0xbd98313f	-0.07431268
72	0x3dadc987	0.08485704
73	0x3e831ece	0.2560944
74	0xbe83325c	-0.2562436
75	0xbf016e0b	-0.5055854
76	0x3c170438	0.009217314
77	0xbe841942	-0.2580052
78	0x3e292f40	0.1652193
79	0x3d11b3ae	0.035571747
80	0xbe8f36e3	-0.27971563
81	0x3c3cdbd9	0.011527025
82	0x3e820e2e	0.25401443
83	0xbeb9ea51	-0.36311582
84	0x3d2a8c4a	0.041637696
85	0x3cf2131a	0.029550124
86	0xbd00ec35	-0.031475265
87	0xbea10488	-0.3144877
88	0xbdb862d9	-0.09003229
89	0xbdaaa274	-0.08331767
90	0x3d59bd5d	0.053159107
91	0xbd863ec2	-0.06554939
92	0x3d0826d4	0.033240154
93	0xbec0d9a2	-0.3766604
94	0xbdb7848e	-0.0896083
95	0xbce46a60	-0.027882755
96	0x3d6e4b86	0.058177494
97	0xbe435176	-0.19074044
98	0xbdaa4a76	-0.083149835
99	0xbde4dca5	-0.11174897
100	0xbe6b9d4d	-0.23009224
101	0x3d0905da	0.033452846
102	0xbddf0a97	-0.10890692
103	0xbd8c823b	-0.06860777
104	0x3dd508b1	0.104020484
105	0xbda147a1	-0.0787499
106	0xbd96ab48	-0.07356888
107	0x3d28ccb7	0.041210856
108	0xbe7a42fc	-0.24439615
109	0xbce1de6d	-0.027571881
110	0x3c8d851b	0.017275384
111	0x3d262656	0.040563904
112	0xbe1615a3	-0.14656691
113	0xbd70d76b	-0.05879919
114	0xbebc9c0a	-0.36837798
115	0xbe84d011	-0.25939992
116	0x3d43c49f	0.047794934
117	0xbdd20aa3	-0.10255935
118	0xbcaf77f7	-0.021419508
119	0x3d8b7e58	0.068112075
120	0x3d3aecd0	0.045636
121	0xbd3cc6de	-0.046088092
122	0xbc83a7f1	-0.016071292
123	0xbca83a03	-0.020535475
124	0xbd54b576	-0.051930867
125	0x3d0f087d	0.034920204
126	0xbd61f2ca	-0.055163182
127	0x3da41353	0.08011498
128	0xbd054af0	-0.03254217
129	0xbc816477	-0.015794976
130	0xbeb61fe6	-0.35571212
131	0x3d053747	0.03252342
132	0x3c99a049	0.018753188
133	0xbd87fb9d	-0.06639788
134	0x3d244711	0.040106837
135	0x3a767cb8	0.000940274
136	0x3cd09c42	0.025465135
137	0x3cc1cf36	0.023658376
138	0x3d21a7aa	0.039466538
139	0xbd2c8a68	-0.042124182
140	0xbdabe748	-0.08393723
141	0xbdddcd01	-0.10830117
142	0xbd111089	-0.03541616
143	0xbb96fad4	-0.0046075378
144	0xbe9ca394	-0.3059355
145	0xbb8b36aa	-0.00424846
146	0xbd05a349	-0.032626424
147	0x3cecb3d2	0.028894339
148	0xbe3e2c99	-0.185717
149	0x3cf36c2a	0.029714663
150	0xbcf72f58	-0.030173942
151	0xbcdeca33	-0.027196025
152	0x3d0aaf70	0.033858716
153	0xbd01d9a6	-0.031701706
154	0xbd3b582e	-0.04573839
155	0x3db2f6fd	0.087385155
156	0x3e4fc4db	0.20289938
157	0xbe0a79a2	-0.13522962
158	0xbdb36e33	-0.08761253
159	0xbe429bd4	-0.19004756
160	0x3d681e82	0.05666972
161	0x3e032c63	0.12809901
162	0xbc18dbed	-0.009329778
163	0x3cb6daef	0.022321193
164	0x3e288884	0.16458327
165	0x3d9e243b	0.07721754
166	0xbdf9fa90	-0.12205994
167	0xbe01e2d4	-0.12684184
168	0xbce8bea4	-0.028411217
169	0xbc4c9eb5	-0.012489011
170	0xbccb5af3	-0.024823641
171	0x3c4d91e8	0.012546994
172	0xbdff2a86	-0.124592826
173	0xbf084454	-0.5322926
174	0xbd9448d5	-0.07240454
175	0xbc002c39	-0.0078230435
176	0xbeb359bb	-0.35029396
177	0xbda5b315	-0.08090798
178	0xbd94f188	-0.07272631
179	0xbe0ebf11	-0.13940074
180	0x3d44492f	0.047921356
181	0x3d3c6b8f	0.046001013
182	0xbd03793d	-0.032098044
183	0x3d4cfe7f	0.050047394
184	0xbd079101	-0.03309727
185	0xbdc8fe46	-0.09814124
186	0x3c7242b0	0.014786407
187	0xbe2e3fc6	-0.17016515
188	0x3a888208	0.0010414729
189	0xbea1ada6	-0.31577796
190	0xbeada65c	-0.33915985
191	0x3d80b765	0.0628498
192	0xb859f7b9	-5.196754e-05
193	0x3d97a899	0.07405204
194	0xbe828399	-0.25491026
195	0xbdebf59f	-0.11521458
196	0x3c41f780	0.011838794
197	0xbbf3f29a	-0.007444692
198	0xbdd85e91	-0.10564912
199	0xbd0d605e	-0.03451573
200	0xbea591ed	-0.32337895
201	0xbd7785d7	-0.060430374
202	0xbe42b5dc	-0.19014686
203	0xbe40c01e	-0.18823287
204	0xbd93ff6d	-0.07226453
205	0xbeda2548	-0.42606568
206	0x3dc54e9f	0.096341364
207	0x3dc0dbff	0.09416961
208	0xbd546f0f	-0.051863726
209	0x3cb3daa5	0.021954844
210	0x3d51001a	0.051025487
211	0xbe161134	-0.14655
212	0xbcc52d72	-0.024069522
213	0x3dc8d6e4	0.09806612
214	0xbe60e08e	-0.21960661
215	0xbb99461a	-0.004677546
216	0xbd7b4666	-0.061346434
217	0x3c51f381	0.0128144035
218	0x39bb0c04	0.00035676372
219	0xbd8f2158	-0.06988782
220	0x3b2ece70	0.002667334
221	0xbeaec4b2	-0.34134442
222	0xbd2108f7	-0.03931519
223	0xbcb8191e	-0.022472914
224	0xbe354b4a	-0.17704502
225	0x3eaf7285	0.3426706
226	0xbdedd37b	-0.11612602
227	0xbe61ec42	-0.22062781
228	0xbd92d447	-0.07169395
229	0xbd53d618	-0.051717848
230	0xbc0f8148	-0.00875885
231	0xbca44ea7	-0.020057036
232	0xbe125a1c	-0.14292186
233	0x3e1efbca	0.15525737
234	0x3d4c7be3	0.049922835
235	0xbd12999e	-0.035791032
236	0xbe7a5114	-0.24444991
237	0xbc54295b	-0.012949313
238	0xbd2c1aba	-0.042017676
239	0x3c38d261	0.011280627
240	0xbda5aaa0	-0.08089185
241	0x3d8d4dce	0.06899606
242	0xbda3b902	-0.07994272
243	0xbe3207bf	-0.17385767
244	0xbd455538	-0.048176974
245	0x3daa53dc	0.08316776
246	0x3cbbdfce	0.022933867
247	0x3cbcda5e	0.023053344
248	0xbf0d743e	-0.55255497
249	0xbe2aae7c	-0.16668123
250	0x3da471ee	0.08029543
251	0xbd25e5fd	-0.040502537
252	0x3df57bb0	0.11986482
253	0x3d0f1983	0.03493644
254	0xbd340c43	-0.043957006
255	0xbcb04745	-0.021518359

fc.3.bias f4 [64]
0	0x3d7e121d	0.062028993
1	0xbd8aada8	-0.067714036
2	0xbe212b00	-0.1573906
3	0xbe1c9464	-0.15290982
4	0x3d84f105	0.06491283
5	0xbe6836fe	-0.22677228
6	0xbe856e8f	-0.26060912
7	0x3e3d279c	0.18472141
8	0xbea10195	-0.3144652
9	0xbe9085d5	-0.28227106
10	0xbcc1fa09	-0.023678796
11	0x3bd40b53	0.0064710765
12	0xbcb07300	-0.021539211
13	0xbe10767a	-0.14107695
14	0xbe87bb4b	-0.2651008
15	0xbe0fc0a2	-0.14038327
16	0xbe17a8a2	-0.14810422
17	0xbcabe95f	-0.020985303
18	0x3eed2c6a	0.46322948
19	0xbe93110e	-0.2872395
20	0xbdfd4a95	-0.12367741
21	0x3e4904be	0.19630715
22	0xbe94875b	-0.29009518
23	0xbe476a86	-0.19474229
24	0x3ce4ddc2	0.027937774
25	0xbe2e7a4b	-0.17038839
26	0xbdaade28	-0.08343154
27	0xbdeb34d6	-0.11484687
28	0xbdfbf8ce	-0.12303315
29	0xbe0c597d	-0.13706012
30	0xbd63931d	-0.05556022
31	0xbe84150e	-0.25797313
32	0x3d3fb88c	0.046806857
33	0xbd50be8b	-0.050962966
34	0xbe05a808	-0.1305238
35	0xbe2c46a0	-0.16823816
36	0xbe6ca26f	-0.23108838
37	0xbe19e121	-0.15027286
38	0xbe800e82	-0.2501107
39	0xbe2b6ef6	-0.16741547
40	0x3d765620	0.06014073
41	0xbe332454	-0.17494327
42	0xbeb937fe	-0.3617553
43	0x3d6e7b3a	0.058222987
44	0xbe4c748e	-0.19966337
45	0xbdf6422f	-0.12024342
46	0xbe25d438	-0.16194236
47	0xbe969b1c	-0.29415214
48	0xbde1c034	-0.11022988
49	0xbe6e3776	-0.23263344
50	0x3d1fc189	0.03900293
51	0xbe618a16	-0.22025332
52	0xbe5b0164	-0.21387249
53	0xbe128e08	-0.14311993
54	0xbe937cb7	-0.28806087
55	0xbb92ba62	-0.004477785
56	0xbe078d18	-0.13237417
57	0xbe111cd3	-0.14171152
58	0xbe307bcb	-0.17234723
59	0x3e3c971a	0.18417016
60	0xbe294801	-0.16531374
61	0xbd317a29	-0.04332939
62	0xbe62a9a8	-0.22135031
63	0xbe5f7366	-0.21821365

fc.5.weight f4 [4, 64]
0	0xbd34e6c2	-0.04416538
1	0x3d5e3abd	0.054255236
2	0xbcf0a74f	-0.029376654
3	0x3ce56663	0.028002923
4	0x3d483821	0.048881654
5	0xbb105161	-0.0022021162
6	0x3dc629d1	0.096759446
7	0xbd917a14	-0.07103363
8	0x3cb6cf5a	0.02231567
9	0xbcc97ed4	-0.02459661
10	0xbca6e70b	-0.020373842
11	0xbe1dc136	-0.15405735
12	0xbdb68c0c	-0.089134306
13	0x3d705259	0.058672283
14	0x3d84df80	0.06487942
15	0xbc83b409	-0.016077058
16	0x3bf52489	0.007481162
17	0xbe70d545	-0.23518856
18	0xbdcac6d0	-0.09901202
19	0x3dc33da7	0.095332436
20	0x3c190d31	0.009341524
21	0xbd28531f	-0.041094895
22	0x3da294e1	0.07938553
23	0xbe0a1406	-0.13484201
24	0xbd376050	-0.044769585
25	0x3bb13481	0.0054078703
26	0x3e07785e	0.1322951
27	0xbccd9e75	-0.025099972
28	0x3bdc887e	0.0067301383
29	0x3c86744c	0.016412877
30	0x3dc5127f	0.096226685
31	0x3c56c58d	0.013108623
32	0xbe4c44e4	-0.19948155
33	0x3cbc9451	0.023019942
34	0x3e13fd86	0.1445218
35	0xbd165a0c	-0.03670697
36	0x3c736ccc	0.014857482
37	0xbc510523	-0.012757572
38	0x3d3c6d93	0.046002936
39	0x3cc47ab2	0.023984287
40	0xbd245764	-0.040122405
41	0x3c965cce	0.0183548
42	0x3d46a8a7	0.048500683
43	0x3d220342	0.03955389
44	0x3d319630	0.04335612
45	0x3d9b95f7	0.07596963
46	0x3d4652ec	0.048418924
47	0x3d8b791f	0.068102114
48	0x3d10907a	0.035294034
49	0xba6fbb2e	-0.00091450184
50	0xbd77b79c	-0.060477838
51	0x3c6c09ff	0.01440668
52	0xbd8a7314	-0.06760231
53	0xbba5e407	-0.0050625834
54	0x3ce4d0a5	0.02793152
55	0xbc36b699	-0.011151933
56	0xbc36bcda	-0.011153424
57	0xbd42f3e1	-0.047595862
58	0x3e82ef4a	0.25573188
59	0xbdf5e149	-0.1200586
60	0x3d1c6a90	0.038187563
61	0x3d3f0ae1	0.046641234
62	0xbd642bc9	-0.05570582
63	0xbd00d499	-0.03145275
64	0xbd5589f6	-0.052133523
65	0x3d8c7201	0.06857682
66	0x3c140129	0.00903348
67	0xbd300de3	-0.042981993
68	0x3d9577bc	0.07298228
69	0x3c48e437	0.012261442
70	0x3c7ab269	0.015301325
71	0xbd82cc52	-0.06386627
72	0x3b903d45	0.004401835
73	0x3cf68a8e	0.030095365
74	0xbd4b37a4	-0.04961361
75	0x3c145875	0.009054293
76	0xbb999327	-0.0046867314
77	0xbca4a775	-0.020099381
78	0x3b1ed67f	0.0024236736
79	0xbc812c88	-0.015768304
80	0x3dca76e5	0.098859586
81	0xbcae60c7	-0.021286381
82	0xbdce7ecc	-0.10082778
83	0xbc0589c0	-0.008150518
84	0x3994c601	0.00028376284
85	0xbd2b12cc	-0.041765973
86	0x3de93ade	0.11388181
87	0x3ad4d32c	0.001623725
88	0xbd516fdf	-0.05113208
89	0x3cf7a3f8	0.030229554
90	0x3d819453	0.06327119
91	0xbc9a8919	-0.018864201
92	0xbd63164e	-0.055441193
93	0xbdb65162	-0.08902241
94	0xbd39789b	-0.045281034
95	0x3c9047ed	0.017612422
96	0xbd4ae851	-0.04953796
97	0xbdc90dee	-0.0981711
98	0x3c1dac74	0.009623636
99	0x3c6c78f3	0.014433133
100	0x3c84b095	0.016197482
101	0xbdbbc2ab	-0.09167989
102	0xbde882ae	-0.1135305
103	0x3ca0ab34	0.019612886
104	0xbd6355e1	-0.055501822
105	0x3e0c7c48	0.13719285
106	0x3be0969b	0.006853891
107	0x3d1edbc8	0.03878382
108	0xbc89152b	-0.016733726
109	0xbdea69bc	-0.114459485
110	0x3d4f5302	0.05061627
111	0x3d523a0e	0.051324897
112	0xbc9e9f1c	-0.019362979
113	0x3d028e39	0.031873915
114	0xbd968373	-0.07349291
115	0xbdec3ad8	-0.11534661
116	0x3c9d0856	0.019169014
117	0xbd05b847	-0.032646444
118	0xbca9de89	-0.020735996
119	0x3d13ccbc	0.03608392
120	0xbc134ced	-0.0089905085
121	0x3c5240cc	0.012832832
122	0x3b90810b	0.0044099144
123	0xbd8b277e	-0.06794642
124	0x3d1ccf60	0.038283706
125	0x3d3fa1e4	0.04678525
126	0xbc93054b	-0.01794686
127	0xbcac8f76	-0.021064501
128	0xbd433280	-0.047655582
129	0x3d8f15d1	0.06986583
130	0xbd6b709f	-0.05748045
131	0x3c4e1467	0.0125781065
132	0xbdb1f525	-0.08689336
133	0x3c053697	0.008130691
134	0x3da8f9ee	0.08250795
135	0xbd8e069a	-0.06934853
136	0xbade6926	-0.0016968593
137	0x3c98d166	0.018654536
138	0x3ce09ba6	0.027417969
139	0xbd1fab34	-0.03898163
140	0xbdcac36f	-0.09900557
141	0xbd6a2011	-0.057159487
142	0x3c0f088b	0.008730064
143	0x3bdd36e3	0.006750928
144	0xbdf59304	-0.11990932
145	0xbdaacd37	-0.08339923
146	0xbdcbf31c	-0.09958479
147	0x3ca04967	0.019566251
148	0x3e0456a5	0.12923677
149	0xbd30f0a6	-0.04319825
150	0x3d05ed6b	0.032697123
151	0x3c76559c	0.015035059
152	0xbd40adb7	-0.047040667
153	0x3d8f1bbe	0.06987713
154	0x3e10a0b6	0.14123806
155	0x3d62ac58	0.05534014
156	0xbcb60cc3	-0.022222882
157	0xbdbd7134	-0.092501074
158	0xbd80c709	-0.06287963
159	0x3ce9992c	0.02851542
160	0x3dca49c5	0.09877352
161	0x3d067d72	0.032834478
162	0xbd942631	-0.07233847
163	0xbc1dcd8c	-0.009631526
164	0xbcb7fbaa	-0.02245887
165	0xbb2f2f1f	-0.0026730967
166	0x3d47ab81	0.048747543
167	0xbd4c398b	-0.049859565
168	0xbd6c9bc7	-0.05776575
169	0x3de7cf3c	0.11318824
170	0x3cf35e83	0.029708153
171	0x3d6eff51	0.058348957
172	0x3d3c3723	0.04595102
173	0xbd46c612	-0.04852874
174	0x3d153cbd	0.036434878
175	0x3c952fbc	0.018211238
176	0xbaa6ba9a	-0.0012720407
177	0x39909be6	0.00027581974
178	0x3bac8a84	0.005265536
179	0x3c5e7b32	0.013579177
180	0xbe0b8064	-0.13623196
181	0x3ce1859e	0.027529534
182	0xbd8f98de	-0.07011579
183	0x3e30fe58	0.17284524
184	0xbd3bc6b7	-0.045843806
185	0xbd9d4e5e	-0.07680963
186	0xbd881342	-0.06644298
187	0xbdf0fd3c	-0.117670506
188	0xbd9dd2fe	-0.07706259
189	0x3d37fe2f	0.044920143
190	0xbc85f6f0	-0.0163531
191	0xbc4999b0	-0.012304708
192	0xbd535d21	-0.051602487
193	0x3d61eee5	0.05515947
194	0xbc99163c	-0.01868736
195	0xbdaadedd	-0.08343289
196	0x3dd8e31c	0.10590193
197	0xbc7b8730	-0.015352055
198	0x3d4630ca	0.048386373
199	0xbdada182	-0.08478071
200	0x3d6cf63d	0.05785202
201	0x3d5231b3	0.051316928
202	0x3bb280ea	0.0054474967
203	0x3d08c5cb	0.033391755
204	0xbd428e37	-0.047498908
205	0xbcb7cbdb	-0.022436073
206	0x3d1e2f79	0.038619492
207	0xbc33589b	-0.010946418
208	0x3c8ce0d1	0.017197045
209	0xbdb71514	-0.08939567
210	0xbdcd8554	-0.10035196
211	0x3c6c09e0	0.014406651
212	0x3cfd8cd2	0.030950937
213	0xbd235380	-0.039874554
214	0x3d4736c8	0.048636228
215	0x3c537f86	0.012908822
216	0xbd2c4eed	-0.042067457
217	0xbb739933	-0.0037170171
218	0x3e2de1f7	0.1698073
219	0x3b4e5e11	0.0031489173
220	0x3c927b55	0.017881075
221	0xbb382c6c	-0.002810265
222	0xbd9abdf3	-0.07555761
223	0x3d0916b3	0.033468913
224	0x3c80eac2	0.015736941
225	0xbd12836b	-0.03576986
226	0xbcd5848f	-0.026064185
227	0x3d42a116	0.047516905
228	0x3cbed536	0.023295026
229	0x3cad2b2c	0.02113875
230	0x3a187930	0.0005816398
231	0x3de09ddf	0.109676115
232	0x3bf4d707	0.0074719223
233	0x3db6d6b3	0.089276694
234	0x3d203672	0.039114423
235	0x3daac3f0	0.08338153
236	0xbdb0df6d	-0.08636365
237	0xbdad9f13	-0.084776066
238	0x3d42f1ac	0.047593758
239	0x3d8204f2	0.063485995
240	0xbdbae581	-0.09125806
241	0xbd5d3416	-0.05400475
242	0x3c80a8e0	0.015705526
243	0xbd43925c	-0.047747
244	0xbd8b2f97	-0.067961864
245	0x3cf022df	0.029313503
246	0x3d3d577c	0.04622601
247	0x3e3db97d	0.1852779
248	0xbc3e2314	-0.011605043
249	0xbd8a9615	-0.06766907
250	0x3d62eb1f	0.05540001
251	0xbd3a51d0	-0.04548818
252	0xbca5c68b	-0.020236274
253	0x3d30e0ed	0.043183256
254	0xbd814f7b	-0.06313988
255	0x3cb1b95a	0.021694828

fc.5.bias f4 [4]
0	0x3da51cee	0.080621585
1	0x3da7b1b8	0.08188194
2	0x3da5147f	0.0806055
3	0x3da56beb	0.08077224
