best_model.pth (torch, 140089 bytes, 6 tensors)

fc.1.weight f4 [128, 200]
00000000: 9cd8 e8bc d098 bc3c 1361 8d3d 709a 6c3c
00000010: b457 45bd 5034 90bc e055 49bb 2475 023d
00000020: 794e 6cbd 4ee4 5abd 4e56 74bd bc0e ffbc
00000030: 9968 71bd 78eb 153d 7abc 70bd d40b 2a3d
00000040: 0af2 d3bc c29a 85bd fe4e 4cbd 0260 65bd
00000050: 8c00 7dbc be6e ccbc beef 2d3d 88bf 6bbc
00000060: f09f a13c ef75 813d 8024 7c3a 8020 17bb
00000070: 20ec 813c ce84 733d 766d 7d3d 148a d1bc
00000080: ceed 48bd 5644 4b3d d195 3abd de21 82bd
00000090: 75d0 8d3d 00c0 10b8 249a bfbc 312e 1abd
000000a0: 86f2 6b3d fa1d a5bc 6b92 54bd 0708 81bd
000000b0: b01d dcbb 3817 6b3c 1f9f 48bd de7d b9bc
000000c0: 28b4 2b3c 357d 8dbd a29e 143d 6433 b73c
000000d0: 04ea a03c fad1 1e3d f6a5 6cbd 205b 90bd
000000e0: 28b2 6ebd 5258 8ebd 64ea bd3c 36b5 87bd
000000f0: 8258 7a3d ecb5 68bc 44bd 8f3c e31c 16bd
00000100: 005d ff3b 20e1 d03b 9cc1 83bd a8e0 263c
00000110: e0fd 0f3d dde1 1dbd 0af1 4a3d 5e91 f9bc
00000120: 183c 373c 3608 4dbd 9626 abbc ea63 273d
00000130: a0cb 363b 500f 28bd 9c25 a53c 36d2 8bbd
00000140: f420 e5bc 45f6 8f3d d0cd 6fbd 5aa7 82bc
00000150: 64a0 9e3c 10a7 53bd 032f 9cbd 6063 78bd
00000160: 214e 8a3d a873 c13c 56d3 37bd 8161 8e3d
00000170: f8dd 55bc 0461 b53c 4e35 bdbc 9f04 78bd
00000180: f11c 42bd 20f9 bc3b f807 ce3c 13a8 1fbd
00000190: ce44 103d 6885 35bd 8b9e 37bd 5e9f 75bd
000001a0: ed09 6d3d f6b8 a8bd dcdf 9bbc e086 0c3c
000001b0: 4070 de3a 3c6f 393d a8d6 8bbd 865e 753d
000001c0: d47e 95bc 30a2 82bb baee f03c fa5f a8bc
000001d0: dc02 e73c 926b 163d 7ad0 07bd 603b 36bb
000001e0: c69e 4cbd 70c6 383d f054 a93c e929 8abd
000001f0: b9d0 e73c 4edc 193d 020a 623d edf2 24bd
00000200: b03f e0bc b05b 7c3c 9a68 363d 4c30 d2bc
00000210: e560 8b3b e247 68bd 517b 0f3c 7a53 363d
00000220: 4be8 233d 4078 113c c4be 2c3d acd4 4dbd
00000230: 94f5 2f3c 6b38 88bd 702d 72bd c1eb 38bc
00000240: eb76 f9bc ed4a 533c c18f 84bd 0ecf 8abd
00000250: a459 033d 207f 89bb d7f4 84bd 6aeb edbc
00000260: 70fa e7bc b7a3 a3bd 8153 1cbd cf9e 9ebd
00000270: 6043 6cbc aba4 393d 3b78 6bbc c4f1 87bc
00000280: 227e 2f3d fd58 843b aa7b 63bd 9c34 babd
00000290: 76fe e8bc f40e 1ebc 765c 6a3b c02c aa3b
000002a0: 0b78 7ebd 2580 c0bc 2677 9fbd 4c4b 11bd
000002b0: 3cba bebd c20e 7fbd 7426 433d b207 24bd
000002c0: 7662 903c 6d3a 863d f238 c8bc 9101 8dbd
000002d0: 8fdd 93bb 99e6 edbc 9eeb 1cbd 6dff 5cbd
000002e0: aaff 723b be47 75bc 70d8 84bd 35f4 343c
000002f0: 24eb 58bd e358 fbbb 7580 86bd 152b 973c
00000300: 925f 9dbd 3055 bcbc e4c5 25bd 9937 2fbd
00000310: 00c4 ad3a 7729 d73c 371e 23bd 0d1b 42bd
00000320: cf8b 883d c6f0 4abd 78e6 c9bc d40f 303d
00000330: d80c c1bc 1c8d 6abc 8073 9d3b cdc1 8ebd
00000340: f8bf 513c 3a40 06bd cc14 ccbc f04a ea3b
00000350: ffd4 8dbd 0538 2ebd bc27 e2bc 10d9 a43b
00000360: 5c91 b6bc 9a43 acbc 1833 d23c ae13 83bd
00000370: c4a3 0e3d 3a54 34bd 7323 1cbd 666a 27bd
00000380: 038b 15bd a059 c33b c746 853d 24a5 d93c
00000390: 5adc 64bd f519 51bd 86f9 4b3d 201a 1abc
000003a0: dde6 76bd 94bc 64bc 6ace 283b 4bb5 783b
000003b0: cc15 1dbd 4037 8a3b 9024 2d3d 8085 573c
000003c0: a6a3 2d3d 59e7 2d3d 8df4 32bd 8a2f 6e3d
000003d0: 66dc 49bd 5c96 61bd e745 813c 6e00 8abd
000003e0: 1b2c 18bd 6469 33bd 8f02 693d e590 693d
000003f0: 3829 e6ba eed1 503d 04c1 a4bc bcd7 65bc
-0.0284236 0.023022085 0.06903281 0.014441118 -0.048179343 -0.01760307 -0.0030721352 0.031849995
-0.057692025 -0.053440385 -0.05965262 -0.031134956 -0.058937643 0.036601514 -0.058773495 0.041515186
-0.02587225 -0.06523658 -0.04988002 -0.055999763 -0.015442025 -0.02495515 0.042464964 -0.014388926
0.019729584 0.06321322 0.0009618476 -0.0023060143 0.015859663 0.059452824 0.06187197 -0.025578536
-0.049054913 0.049625717 -0.045553032 -0.06354116 0.06924526 -3.451109e-05 -0.02338893 -0.037641708
0.057604335 -0.020155896 -0.051897448 -0.06300359 -0.006717406 0.0143487975 -0.048979875 -0.022643026
0.010479964 -0.06908647 0.036284097 0.022363372 0.019642837 0.038774468 -0.05777546 -0.07048631
-0.05827537 -0.069504395 0.023183055 -0.0662636 0.061119564 -0.01420353 0.017546304 -0.036648642
0.007793069 0.0063744932 -0.064334124 0.010185398 0.035154223 -0.038545478 0.04954628 -0.030464824
0.011183761 -0.05005666 -0.020892423 0.04086677 0.0027892366 -0.04103023 0.020159535 -0.06827204
-0.027969815 0.07029394 -0.058545887 -0.01594894 0.01936359 -0.051672995 -0.07626154 -0.060641646
0.06753183 0.02361472 -0.04487928 0.06952191 -0.01305341 0.022140987 -0.023096707 -0.060551282
-0.047390882 0.0057670027 0.025150284 -0.038978647 0.035221867 -0.04431668 -0.044828933 -0.059966438
0.057870794 -0.082384035 -0.019027643 0.008577079 0.0016970709 0.045272097 -0.06828052 0.059904598
-0.018248953 -0.0039866194 0.029410709 -0.020553578 0.028199606 0.03672368 -0.033157803 -0.0027806386
-0.049956106 0.04511112 0.020670384 -0.06746275 0.028297769 0.037563615 0.055185325 -0.040270735
-0.027374119 0.015402719 0.04453335 -0.025657795 0.004253494 -0.056709178 0.008757428 0.044513203
0.040016454 0.0088787675 0.042174116 -0.050251648 0.010739703 -0.06651386 -0.059125364 -0.011286677
-0.030452212 0.012896282 -0.064727314 -0.06777774 0.03206791 -0.0041960627 -0.06492012 -0.029042918
-0.02831766 -0.079902105 -0.038165573 -0.07745134 -0.01442036 0.045323055 -0.014371927 -0.016594775
0.0428449 0.0040389285 -0.055537857 -0.09092066 -0.028441649 -0.00964712 0.0035760677 0.005193323
-0.0621262 -0.023498604 -0.07786398 -0.0354722 -0.09312865 -0.062269934 0.047644094 -0.0400464
0.017625075 0.065541126 -0.024441216 -0.068850644 -0.004512496 -0.029040622 -0.03831064 -0.05395453
0.0037078657 -0.014970718 -0.06486595 0.011044552 -0.052958623 -0.007670508 -0.0656747 0.01845316
-0.07684244 -0.02298984 -0.040471926 -0.04277763 0.0013257265 0.02626489 -0.039823737 -0.04738908
0.066672914 -0.049546026 -0.024646029 0.042983845 -0.023565695 -0.01431587 0.0048050284 -0.06970558
0.012802117 -0.032776095 -0.02491226 0.0071500465 -0.069253914 -0.042533893 -0.027606837 0.0050307587
-0.02228611 -0.021028329 0.025659129 -0.06400238 0.034824148 -0.044025637 -0.038119745 -0.040872954
-0.036509525 0.005961612 0.0650764 0.026568003 -0.055874206 -0.051050145 0.04979851 -0.009405643
-0.060278762 -0.013960976 0.0025757798 0.0037949856 -0.038350865 0.004218012 0.042271197 0.0131543875
0.042392395 0.04245696 -0.043690253 0.058150806 -0.049282454 -0.055075034 0.015780402 -0.06738363
-0.037151437 -0.04380168 0.056887206 0.057022948 -0.0017559892 0.050981455 -0.020111568 -0.014028486

fc.1.bias f4 [128]
00000000: 3e3f 8fbd 89fb 22bc 8f3c 8fbd 34d0 8ebb
00000010: ee54 6ebd f646 c0bd ab96 f4bd 1609 823d
00000020: 1b16 18bd fb7e 8fbd efa9 9dbd 2636 93bd
00000030: 0134 84bd 12d5 aebd 6d4e e2bd 9948 20bd
00000040: 25be e0bd 854e d8bd d91d 983d 4f07 9abd
00000050: 35b7 bd3d 66da bfbd 630f d93c 8b3a 00be
00000060: fc05 7fbd 636e c7bd 8643 40bc 84d0 31bc
00000070: c39b c93c ea30 ba3c 45f8 12bd 42ef 6c3d
00000080: a51b aabb f563 77bd 7d07 c73b 144d dbbb
00000090: 7f3e 8b3d 5d68 f6bd 91c6 9bbc edb3 4cbc
000000a0: 4f3c 83bd ab16 b8bb faaa bcbd e760 88bd
000000b0: 89ca 94bb 6e77 59bd 6ce6 ae3d 044f 95bd
000000c0: 297c a03c 4c83 93bd b163 11bd 3293 b9bd
000000d0: 5e72 a0bd 4cf8 c4bd 821a 073d 7d0f 68bd
000000e0: ebbf 79bc 7889 e2bd e089 4ebc 72ea 82bd
000000f0: f058 c7bd f1bc f7bc fba9 29bc 1272 cc3c
00000100: cdfd a03b 908d 04be eddb e63c 8c59 19be
00000110: 87ac 9ebc 926b 6abd 1f29 c2bd ee30 85bd
00000120: 5222 60bc 594a cd3d 16fe a2bd edbc 8f3d
00000130: 0130 d6bd b013 22be 482f 06bc 5f0d e5bd
00000140: ad2c 61bd b4f3 8bbd d7c5 4e3d 4c16 2dbd
00000150: c2b5 b6bd fa5f e6bd 3944 c2bc 17f6 cf3d
00000160: f0b0 93bd 3db7 60bd 1372 d4bd 459f 3bbd
00000170: 5059 d7bd 8479 fc3c 5f85 8cbd d1eb a03d
00000180: cc3b 923d 2c68 1bbd 5474 c2bd 4473 9c3d
00000190: e052 46bd cdaf fabd 78f2 59bc 616e 02be
000001a0: e601 f2bd 0a85 7b3d 8985 5cbc cf4a f4bd
000001b0: 6399 38bd 9612 07bd 55d0 c23c b457 a5bd
000001c0: 971e 24bd d57d f9bb 0775 913c 17d3 bc3d
000001d0: 6e9b 1fbe f64d a3bd 74bb 293d f50e c0bd
000001e0: 63d8 64bc 1205 b1bd a1fa 83bd cdfa bb3d
000001f0: 1f08 e33a 78c9 64bb 479e dfbd 734e a7bc
-0.06994484 -0.009947666 -0.069939725 -0.004358316 -0.058186464 -0.09388535 -0.119428 0.06349389
-0.037130456 -0.070066415 -0.07698428 -0.07188062 -0.064552315 -0.08536734 -0.11050115 -0.039131735
-0.10973767 -0.105618514 0.07427568 -0.07520925 0.092634596 -0.09367828 0.026496595 -0.12522332
-0.062261567 -0.097378515 -0.011734849 -0.010852937 0.024610406 0.022728402 -0.0358813 0.05784536
-0.0051912838 -0.06039806 0.0060738907 -0.006692538 0.067990296 -0.120316245 -0.019015582 -0.0124940695
-0.06407987 -0.0056179366 -0.09212299 -0.06659108 -0.0045407456 -0.053092413 0.08540043 -0.07290462
0.019590454 -0.07202777 -0.035495464 -0.090612784 -0.07834314 -0.09617671 0.032984264 -0.056655396
-0.015243511 -0.11061376 -0.012606114 -0.06392373 -0.0973376 -0.030241461 -0.010355468 0.024956737
0.004913068 -0.12944627 0.02818104 -0.14975566 -0.019369377 -0.057231493 -0.094804995 -0.06503473
-0.013680058 0.10023946 -0.07958619 0.070184566 -0.10458375 -0.15827823 -0.008189984 -0.11184191
-0.054974247 -0.06833592 0.050481644 -0.042257592 -0.08921386 -0.11248775 -0.023714172 0.1015436
-0.072114825 -0.05486225 -0.103733204 -0.045806188 -0.10515082 0.030819662 -0.06861376 0.078574784
0.071403116 -0.037941143 -0.09494844 0.07639173 -0.04841888 -0.122405626 -0.013302438 -0.12737419
-0.11816768 0.061406173 -0.013459572 -0.11928331 -0.045068156 -0.03297671 0.023780981 -0.08073369
-0.040068235 -0.0076138773 0.017755998 0.0921995 -0.15586635 -0.07973854 0.041438535 -0.09377853
-0.013967606 -0.08643545 -0.06444288 0.09178696 0.0017321146 -0.0034910124 -0.10918861 -0.02042315

fc.3.weight f4 [64, 128]
00000000: 5835 773c e5ff debb c635 b2be d3ed 6dbd
00000010: e775 f13c 8d8a 7b3a 848d 1fbd 1eef c0bc
00000020: 464d 4fbd a58a 8e3c 6043 92bd ca0f 09bd
00000030: 75dd ac3d 936e 9c3d 6a1b e6bb 0453 e83d
00000040: 09e7 28bd 37fa bebc 798c 8e3c 31c6 40bb
00000050: 655a 12be 5b09 873d 456e b7bd 23f4 d3bd
00000060: a6e6 123d 6bba 87bd 1a4a 533d b09f b9bc
00000070: 93a9 a53d 9cad 8ebd 845c eabd 837c 39bd
00000080: c441 64bd f460 30bd d1a2 d7bc cbef 003c
00000090: 566e 10be df5e 74ba 96ba db3c e82d 1dbe
000000a0: c0a9 503d 659d 85bd 7c9b 09be 0dd4 043a
000000b0: ebd5 203e 0a1f 5e3c 9f9c a9be 5182 8f3c
000000c0: 3021 58be 18a9 a03b aaac a4bd 847c fcbd
000000d0: b08a 643d b0d7 84bd 5f6e adbd 72f6 97bd
000000e0: eddf c7bc e100 9ebd b215 e7bc 0377 f6bd
000000f0: a0cf 9bbc 84db 30bd 1913 e53d 7507 7fbe
00000100: bcc9 cebc 0770 d53c 7933 e7bd 19a6 db3c
00000110: 848b 7a3d 679f b8bd cf03 863d 3f31 98bd
00000120: 3fa3 053d 5312 0c3d b6a1 bebd 73bf 70be
00000130: 3804 173c e285 69be 402f 293e aeb3 113d
00000140: 1c55 513c 7374 f83c e0ee 153c 95a1 66bc
00000150: 4a8c 2a3d 1a13 f23c 992f 4bbe d793 a7bc
00000160: 7a68 d1bd 74a2 aabd 5dbd 593d b1cf a83d
00000170: d426 083d 79c4 1cbe 8e84 b7bd beb2 74be
00000180: 5a3e 17be 9e9e a3bd f833 55bd 623e dfbd
00000190: 8f55 1cbd d550 8c3d f615 d23d 3b82 8cbd
000001a0: e02a 7dbc 4e1c 0cbe 48ab 96bd b7cc 283d
000001b0: c383 29be 6dde e1bc 4861 003e 5626 263d
000001c0: 3e0e 153d 6bd7 70bd d1aa d3bd 3f84 32be
000001d0: 9fc4 433d a30a d2bd 57d4 bbbc 587e 8b3d
000001e0: f6ff 333d 475d bc3b f1a7 83bc 83e3 d3bd
000001f0: 6523 9ebd 7d08 0f3d caf2 61bd 134f 85bd
00000200: f04a 05bd 7764 81bc 0a44 48be 4737 053d
00000210: f998 833c 9dfb 87bd 1147 243d 64de 96bd
00000220: 429c d03c 36cf c13c 6ffd 143d 688a 2cbd
00000230: 48e7 abbd 485f bebd 8910 11bd d4fa 96bb
00000240: a214 afbc aa36 8bbb f8e1 4e3d d2b3 ec3c
00000250: 1033 02be 2a6c f33c 1575 ba3d 33ca debc
00000260: 485a 573d f5af 2c3b d952 08bd 8172 6a3d
00000270: 70f4 3a3d a5db f83c 16c4 253c 2039 13bd
00000280: 821e 683d 632c 033e b88c 64bb 7583 433d
00000290: e5f9 9b3d 06a3 723d 0cc2 593c 0109 983c
000002a0: 9422 0dbd b59e 4cbc f35a cbbc 65a3 453c
000002b0: 21d0 08bc 1795 9dbd 409c 7abc df8c 19bd
000002c0: 8f74 553d 15b3 a5bd 88f1 94bd 7789 893c
000002d0: 2f49 443d 8f6b 3c3d b73c 093d 7ffe 4c3d
000002e0: fa13 20bd 46fe c8bd 6f44 5cbc a665 0ebd
000002f0: 72ae 053d 96f7 8f3c 2ad7 29bd 1a5d 853b
00000300: c6db 5abd 99a8 973d b1a0 0cbd 9ff5 ebbd
00000310: affe 243d 9af2 f3bb e27f 50bd 5e60 0dbd
00000320: 0dc4 b73d 28dd 3fbc c3cb f7bd e711 c83d
00000330: 6dff 93bd af47 46bc 9f4e c53d ffdb c03d
00000340: d6fb 7f3c a5da b33c 5126 ae3c f26f fe3d
00000350: 722d c5bc 18bf d43d 6d6b dd3d 4193 29bd
00000360: 0577 b7bd 81f3 513c 040c bb39 6509 a93b
00000370: 70ce 2e3b 142d 34be f708 21bd c237 9d3b
00000380: 7638 83bd 32b9 2a3e f8e2 aebd facf 94bd
00000390: 30cd b5bc 0ba5 2fbd 3880 4e3d a74e a4bc
000003a0: 9f9d 173d 049b fb3d e37b 4c3d 9e99 12bd
000003b0: 5f3b 0fbe 5b29 54bc 331d 863d 61d2 383c
000003c0: 5c66 00bd 9567 523d 1e77 c93c 7c3c 54bc
000003d0: 3855 45bd be99 3f3d 939c 5b3c 5eda bc3c
000003e0: aae1 ddbd 8f0f 8bbb ee71 a43d 5a95 1dbd
000003f0: e174 cd3d 8319 0f3d 430c 34bd 538d 08bd
0.015088402 -0.0068054073 -0.3480665 -0.058088135 0.029475166 0.0009595536 -0.03895332 -0.02355152
-0.050610803 0.017400095 -0.07141757 -0.033462323 0.08440677 0.07638278 -0.007022311 0.11343959
-0.041235957 -0.023312671 0.017400967 -0.0029415006 -0.14292295 0.06593581 -0.08956579 -0.103493
0.035864495 -0.06627353 0.05158434 -0.022659153 0.08088984 -0.06966707 -0.11443427 -0.04528476
-0.05572678 -0.04306121 -0.026322754 0.007869671 -0.1410459 -0.0009321998 0.02682237 -0.15349543
0.050943136 -0.06524161 -0.13438219 0.00050669984 0.15706603 0.013557205 -0.33127305 0.017518194
-0.2110641 0.00490297 -0.080407456 -0.12328437 0.055796325 -0.064864516 -0.08468317 -0.074200526
-0.024398768 -0.077150114 -0.028208587 -0.120344184 -0.019019902 -0.043178096 0.11185283 -0.24905188
-0.025242679 0.026054395 -0.112891145 0.0268126 0.06116821 -0.090147786 0.06543695 -0.07431268
0.032626387 0.034197163 -0.09308188 -0.23510532 0.009217314 -0.22804978 0.1652193 0.035571747
0.012776639 0.030328965 0.0091511905 -0.01407661 0.041637696 0.029550124 -0.19842376 -0.020456238
-0.102250054 -0.08331767 0.053159107 0.08242739 0.033240154 -0.15309323 -0.0896083 -0.2389631
-0.14769879 -0.07989238 -0.052051514 -0.109005705 -0.038167533 0.06851355 0.10258095 -0.06860777
-0.015452117 -0.13682672 -0.07356888 0.041210856 -0.1655417 -0.027571881 0.1253711 0.040563904
0.036390536 -0.05879919 -0.10335315 -0.1743326 0.047794934 -0.10255935 -0.0229284 0.068112075
0.043945275 0.005748424 -0.016071292 -0.10346129 -0.07721595 0.034920204 -0.055163182 -0.06509223
-0.03254217 -0.015794976 -0.19557205 0.03252342 0.016064154 -0.06639788 0.040106837 -0.073666364
0.025465135 0.023658376 0.036374506 -0.042124182 -0.08393723 -0.09295517 -0.03541616 -0.0046075378
-0.021372143 -0.00424846 0.05050847 0.028894339 -0.12714791 0.029714663 0.09104363 -0.027196025
0.052576333 0.0026349996 -0.033282135 0.057238106 0.04564327 0.030378172 0.010117551 -0.03594315
0.05666972 0.12809901 -0.0034873914 0.04773279 0.07616023 0.059237503 0.013290893 0.01855898
-0.034456804 -0.012489011 -0.024823641 0.012062882 -0.008350403 -0.07694452 -0.015296042 -0.03748786
0.052113112 -0.08090798 -0.07272631 0.016789181 0.047921356 0.046001013 0.033505168 0.050047394
-0.03908155 -0.09814124 -0.01344405 -0.03476491 0.032637067 0.017574113 -0.041464962 0.0040699365
-0.05343225 0.07405204 -0.034332935 -0.11521458 0.040281948 -0.007444692 -0.05090321 -0.03451573
0.089729406 -0.011710443 -0.12099411 0.097690396 -0.07226453 -0.012102052 0.096341364 0.09416961
0.015624007 0.021954844 0.021258505 0.124236956 -0.024069522 0.10388011 0.108115055 -0.041400198
-0.08958248 0.0128144035 0.00035676372 0.0051585906 0.002667334 -0.17595321 -0.03931519 0.0047979066
-0.064072534 0.16672209 -0.085393846 -0.07266231 -0.022192568 -0.042882007 0.050415248 -0.020057036
0.037015554 0.12285426 0.049922835 -0.035791032 -0.13987492 -0.012949313 0.06548538 0.011280627
-0.031347618 0.051368315 0.024592932 -0.012953874 -0.048176974 0.04677748 0.013404029 0.023053344
-0.10834058 -0.004243798 0.08029543 -0.03847251 0.100320585 0.03493644 -0.043957006 -0.033337902

fc.3.bias f4 [64]
00000000: 687e 113d 35de ae3d c91a f8bd 1f9b c4bd
00000010: a97a b03c ce38 fabd 2b85 a7bd 6af9 b93d
00000020: ed3a 5a3d f07c 2abe d7a1 953d 6cec 283d
00000030: dfcd 01bd 8adf 9bbd eeb3 08be 6300 b6bd
00000040: 887d b1bb dc9b 9d3d 349f 143e b8ed dabd
00000050: 4abd c1bd 6848 403d d82d edbd bcbd dabd
00000060: 2277 323c f578 13be 758f b4bc ac26 c7bd
00000070: f567 b8bd a56e adbd 04db ddbd 34ab cbbd
00000080: 4a10 f83d f5d0 a53d 4c6b 93bd f9bc c0bd
00000090: 8955 25be afb4 393c 9720 e0bd 978e cebd
000000a0: c908 393d ca88 89bd 85a0 05be 399a 52bc
000000b0: f31b 1ebe d171 72bb cd15 9e3d 0e42 3bbe
000000c0: 5895 a1bd f515 c4bd c1b9 3ebc 8129 5cbd
000000d0: 467d 08be eae4 f1bd 1eea 1dbe 97bf 703d
000000e0: 071d cdbd 4286 89bd 37e9 5cbd c104 b13d
000000f0: edd5 0ebe 3832 823d 394b 0ebe 9ed9 11be
0.03552094 0.085384764 -0.12114484 -0.095998995 0.021542864 -0.12217866 -0.08179697 0.09080775
0.053278852 -0.16649222 0.07306259 0.041241094 -0.031690475 -0.07610996 -0.13349888 -0.088867925
-0.005416576 0.076957434 0.14513856 -0.106898725 -0.09459932 0.046944052 -0.115810096 -0.1068072
0.010892661 -0.1440161 -0.022041062 -0.09724173 -0.09004203 -0.084683694 -0.108327895 -0.09944764
0.12112482 0.08096496 -0.071982 -0.09411044 -0.1614591 0.011334582 -0.10943716 -0.100857906
0.045174394 -0.067155436 -0.13049515 -0.012854152 -0.1544035 -0.003699411 0.07719002 -0.18286917
-0.07889813 -0.095745005 -0.011640967 -0.05375052 -0.13329038 -0.1181124 -0.1542134 0.058776464
-0.10015302 -0.06715061 -0.05393335 0.08643485 -0.13948794 0.06357235 -0.13895883 -0.1424317

fc.5.weight f4 [4, 64]
00000000: 9133 5cbd 2655 b1bd cf41 e139 4e8b 8fbc
00000010: 7acb d13c 73c3 0bbd ca6c d73d e061 bbbd
00000020: 4b8f 38bd 95f6 78bd 1b6d 53bd 52a1 1bbd
00000030: 7577 c0bd ecba 823d dee4 243c 4f28 b23c
00000040: 072d 433c dd42 5ebe 0910 d8bd 2015 243d
00000050: 310d 193c 04ff a73b 8e0c 3cbc ee8d 23be
00000060: 88cb e6bd 4d34 693c a5bd 3b3e 759e cdbc
00000070: de67 313b 4c74 863c adc6 acbc 95d5 6fbc
00000080: b4ce 25bd 6404 0bbd df3b 5b3e ac3b 9dbd
00000090: cc6c 733c 0bc8 41bd 0c57 a63c d920 20bd
000000a0: 25b7 88bd 3d04 263d a96f cdbd 631e 4d3e
000000b0: 85a3 883d 4136 113d e7cb 6bbd b7d0 3a3e
000000c0: db78 673d e95f ecba cf72 333e 2619 b9bd
000000d0: e8af c8bd 07e4 a5bb ff80 03bd e4cc 3f3b
000000e0: 14ca b8bb 4f3c f5bc eaa3 973e 4aa9 9fbd
000000f0: c7f5 463d 0409 4a3d fecc d33a 17ca 0dbc
00000100: 205d 11bd 8274 963d 8773 5abc 2748 84bd
00000110: 05a8 6abb f4ed bd3c 0ee6 513d 522b e9bc
00000120: 7e97 fe3c f22d 0abd b29b d6bd 23a9 83bd
00000130: bf3e 05bd c7bb 4bbd 19da b83d 882c 81bc
00000140: 5af5 ddbb 6311 8dbe 51bd b4bd 14d0 983d
00000150: 7ffc b13c ccad b6bd ad54 3a3d 77c0 62bd
00000160: 7884 7dbd 56bd dd3c 1c95 8cbd b85b 4ebd
00000170: 2e2c 8cbc 3ad3 d5bd 24fb a0bb f59f 433d
00000180: 61e3 7dbd 4201 263d 0cdd 88bd cd18 733d
00000190: 86c0 dabc fd7f d6bc 3967 5a3d 0fe8 b73c
000001a0: a8e2 fabc 1dc6 80bc dcc0 803c 4279 9b3b
000001b0: 566e d8bb 791b 013e 805b b8bd 300d be3d
000001c0: 1c9f 9ebc 6f59 01bd f0f9 8ebd e4b5 55be
000001d0: 79d0 01bc 61a5 0fbd c511 223a 7340 03be
000001e0: 9a8f e8bc 42a5 2abd 8297 2c3c e7e8 0ebe
000001f0: 1f86 d63b 4abd 153e d1c5 273c cfdc f9bc
00000200: a7b6 c8bd 4316 13bd 9f70 6bbd 11b0 2c3d
00000210: 61e2 7f3d 6ac9 32bc 18c2 1d3e 1968 f9bd
00000220: 6b3b 1fbc 6ce3 3fba 370c a5bd 7813 41bd
00000230: 2d1f 44bc ecc9 26bd 5d1d 9a3c e336 dd3b
00000240: f487 423c 5964 07be a4dc 6cbd 477d 203d
00000250: a556 043e c76b 9bbd 5ad1 d73b 0021 073d
00000260: b0d9 84bd be1b 8f3d d549 0c3d b14b 103d
00000270: f99f 4e3c 3471 bdbd 8c24 03bd 75df 2cbd
00000280: be45 06bd 9e4b afbc 7d87 d6bc 5b46 cebc
00000290: 5b59 193d 1c03 c9bc 3b15 c33c e48f 9dbd
000002a0: 683d 49bd 345e 183d 69cc fb3d 48ab a03d
000002b0: fdb3 b83c 1f32 0fbd b9fc 58bd a621 333e
000002c0: 9aba a6ba 847c 14bc 2de0 503c cd1f 42bd
000002d0: d396 17be 9e85 e13c 5cfb 61bc 26ad 80bd
000002e0: deae 143c 1bc0 9abc 7486 96bd eb29 85bd
000002f0: b8e8 39bd d096 a43d 1ad6 703d 26e2 61bd
00000300: dc6b d3bd 1cdf 70bd 3c16 99bc d1f1 d5bd
00000310: 09f9 7e3d f61a 633c 5237 dd3d 1a39 09be
00000320: 4aba 27bb f8dc 6b3d 4dd9 a7bd f286 2fbd
00000330: 3e22 d9bc a018 0ebd 3daf 5d3d 9b58 33bc
00000340: 5c4f edbc ca88 41be 25bb 60bd 7655 1a3d
00000350: d28c fd3c d4e6 f9bc 67c7 793c 01d0 433d
00000360: f0d6 13bd b1f1 573c 20f4 b73d 115e 4e3b
00000370: 26df 0b3d 41bd 33bc e9a2 32bd 0976 36bd
00000380: 61f2 a6bc 7d01 0abd cc53 733d 4c22 ab3c
00000390: ae1f 1b3c 5449 4c3c 1ed7 623d 4f52 103e
000003a0: 79aa a2bd 39ea 363d d854 973d e7c5 053e
000003b0: cdbe 72bd d8d7 483b 65d5 4abd 1a6b 263e
000003c0: 81e5 babd b03f 03bc ed29 70bd ce95 2cbd
000003d0: 7f9f 10be 7f00 6a3d 571e 6ebd 03b8 7d3d
000003e0: a080 223b cfbb 29ba c069 9a3d ee58 9bbd
000003f0: a0d7 3c3c c80d 473d a948 223c cdb7 2c3d
-0.053760115 -0.08658819 0.00042964375 -0.01752248 0.02560972 -0.03412194 0.10518797 -0.091495275
-0.04505853 -0.060782034 -0.051617723 -0.037995644 -0.093977846 0.06383309 0.010064332 0.021747736
0.011912591 -0.21705194 -0.105499335 0.04005921 0.009341524 0.005126836 -0.011477603 -0.1597211
-0.11269289 0.014233661 0.18334062 -0.025099972 0.0027069966 0.016412877 -0.02109083 -0.014638324
-0.04048033 -0.033939734 0.21409558 -0.07677397 0.014857482 -0.047309916 0.020305179 -0.039093826
-0.06675557 0.040531386 -0.10031063 0.20031123 0.06671814 0.03545213 -0.057567503 0.18243681
0.05651174 -0.0018033955 0.17524265 -0.09038 -0.097991765 -0.0050625834 -0.032105442 0.0029266411
-0.005639324 -0.029935984 0.29617244 -0.07795961 0.048574235 0.049325004 0.0016159115 -0.008654139
-0.0354892 0.07346441 -0.013333208 -0.064590745 -0.0035805714 0.023184754 0.051244788 -0.02846304
0.031078096 -0.033735223 -0.10478915 -0.06428745 -0.032530542 -0.049739625 0.09025974 -0.015768304
-0.006773633 -0.27552328 -0.08825172 0.07461563 0.021726845 -0.08919868 0.04549091 -0.05535933
-0.06189391 0.027067821 -0.06864378 -0.05038044 -0.01711091 -0.10440679 -0.004912751 0.04775997
-0.061984424 0.040528543 -0.06682786 0.059349824 -0.02670313 -0.026184076 0.053321097 0.022449521
-0.030625656 -0.015719468 0.015716963 0.0047446797 -0.00660495 0.12608136 -0.09001827 0.09279859
-0.019362979 -0.03157943 -0.069812655 -0.20870167 -0.007923239 -0.035069827 0.00061824574 -0.12817554
-0.028388787 -0.04166151 0.010534169 -0.13956033 0.00654675 0.1462299 0.010240034 -0.030500798
-0.09800463 -0.035909902 -0.05748045 0.042160098 0.06247175 -0.010912279 0.15406072 -0.12178058
-0.009718756 -0.000731996 -0.080589704 -0.047137707 -0.0119703235 -0.04071991 0.01881283 0.006750928
0.011873234 -0.13221873 -0.057827607 0.039181974 0.12923677 -0.07588916 0.006586236 0.032990456
-0.06486833 0.06987713 0.0342501 0.035228435 0.012611383 -0.092501074 -0.032017276 -0.042205293
-0.032781355 -0.021398362 -0.026187653 -0.025180032 0.03743873 -0.024537615 0.023813834 -0.076934606
-0.049130827 0.037199214 0.122948475 0.07845169 0.022546763 -0.03495991 -0.05297539 0.17493305
-0.0012720407 -0.00906289 0.01274876 -0.04739361 -0.14803629 0.027529534 -0.013792839 -0.062830254
0.009074895 -0.018890431 -0.07349864 -0.06502136 -0.045387954 0.08036578 0.058797933 -0.055147313
-0.10323307 -0.058806524 -0.01868736 -0.104465134 0.062249217 0.013861408 0.10801567 -0.13400689
-0.0025593215 0.05758378 -0.08195744 -0.042853303 -0.026505586 -0.034691453 0.0541222 -0.010946418
-0.028968506 -0.18899837 -0.054865975 0.03767916 0.030950937 -0.030505575 0.015245295 0.04780579
-0.036093652 0.013180182 0.0898211 0.0031489173 0.034148358 -0.010970415 -0.043612394 -0.04454616
-0.020379247 -0.033692826 0.059406087 0.020890377 0.009468002 0.012468655 0.055380933 0.14093898
-0.07942671 0.044656966 0.073892295 0.13063775 -0.059263993 0.003064623 -0.049519915 0.16251794
-0.09125806 -0.00801079 -0.058633734 -0.042135052 -0.14123343 0.05712938 -0.058134403 0.061943065
0.0024795905 -0.0006474824 0.075397015 -0.07585321 0.011526018 0.048597127 0.009905019 0.042167474

fc.5.bias f4 [4]
00000000: 1374 383d 0eb5 c33c 9a4c 093d 1fbd 0c3d
0.045032572 0.023890045 0.03352032 0.034360047
