best_model_0.pth (torch, 140113 bytes, 6 tensors)

fc.1.weight f4 [128, 200]
0.008724481 -0.031198457 -0.010554716 -0.044065423 0.06014069 -0.0061216354 0.043386176 -0.07014897
0.021998547 0.033929557 -0.038450975 -0.005903291 -0.08029772 -0.06720817 -0.020909349 -0.040787436
-0.049945854 0.014309339 0.04104752 -0.049379975 0.011072608 -0.0020081182 -0.07823516 -0.10430045
-0.07219411 -0.19247939 -0.09397491 0.03758268 -0.034529902 0.0059111565 -0.019558711 0.13335171
0.18773998 0.06309762 0.052256145 -0.007891241 -0.08571909 -0.11180613 0.03433133 -0.030309234
-0.029842444 0.15260884 -0.041725535 -0.065114446 -0.1405222 -0.1126463 -0.037526276 -0.048256937
-0.06608274 -0.042919684 0.03056191 0.15468228 0.11805151 -0.11313489 -0.08000968 0.026433181
-0.013388611 0.072151706 -0.06735218 -0.06609345 -0.0027829735 -0.10096877 -0.15444474 -0.100285806
-0.16744825 0.029715585 -0.073559634 -0.0076672635 -0.13450015 -0.055400617 -0.31611693 -0.11035966
-0.032633428 -0.17181112 -0.02442723 -0.07472626 -0.06508185 -0.08566573 -0.01582595 -0.12936164
-0.13121518 0.021999339 -0.0072886064 0.014710315 0.05742132 0.025872083 -0.025146851 -0.05356157
0.08877595 0.0072318977 -0.020146513 0.061161146 -0.059153717 -0.10913347 -0.14552903 -0.00024107698
0.23028184 -0.021448828 0.06633438 0.11380837 -0.5035357 -0.15502541 -0.039900426 -0.18854487
-0.1371919 -0.0021369616 -0.058423765 -0.02192687 -0.18758018 -0.24299772 0.11449572 0.029405925
0.029481312 -0.24163441 0.1819174 -0.18491909 0.06803025 0.015888844 -0.08697757 -0.10833585
0.10242546 -0.012702819 0.008048949 0.114149295 0.083063036 -0.039420422 -0.09455302 0.064977005
-0.03705243 -0.043206487 -0.054415353 -0.034240916 0.084142484 0.056671813 -0.14463823 -0.0714718
0.013450722 0.078351684 0.018376932 0.10624096 -0.048488688 0.23733455 0.2120724 0.018432666
-0.03188377 -0.08573002 -0.05336988 0.11141457 -0.07033887 0.075539306 -0.17144892 0.045018584
0.21220228 0.13869567 -0.0073755635 -0.037988678 0.097221 0.021912178 -0.0071388795 -0.03831186
-0.11109782 -0.046442963 -0.1399064 0.05127442 -0.017678598 -0.051385432 0.007729712 -0.00955531
0.035853174 0.031500217 0.0028976507 0.02992952 0.04401994 -0.048326764 -0.031748943 -0.027503962
-0.13674647 0.03190247 0.12988932 0.12295623 0.059054032 0.06838841 0.034648724 0.0029568607
-0.0030878293 0.0013774544 0.0018228882 -0.008760409 0.009719645 0.07675977 -0.029449817 0.03556883
-0.09601288 -0.074632816 -0.114459366 -0.07289836 0.059071194 -0.04306156 -0.07937663 -0.11802672
0.011146858 0.044989623 -0.025785856 0.04657291 0.022467308 0.057906903 -0.04282307 -0.010413811
0.04550167 -0.05597417 0.009626754 -0.06575467 -0.09119218 -0.07329366 -0.11225957 -0.0124132335
0.022250853 0.037327997 -0.06446563 -0.0071467683 -0.2086169 -0.2872359 -0.22320974 -0.18223774
-0.23039654 -0.119351044 -0.21363166 -0.19067198 0.068373166 -0.056113575 0.0820053 -0.11017869
0.098401986 -0.13904805 -0.24944425 -0.2587392 -0.18205772 -0.13319096 -0.024433231 -0.14478493
0.092514805 0.092940964 -0.05095593 -0.34472805 -0.2966512 0.122478165 0.07162227 0.034895718
-0.1098583 0.0634592 0.12176827 0.08370439 -0.036374267 -0.261346 -0.113167785 0.12392092
00000000: 20f1 0e3c e893 ffbc b0ed 2cbc f27d 34bd
00000010: 1656 763d 0098 c8bb b4b5 313d 43aa 8fbd
00000020: 4c36 b43c b8f9 0a3d c57e 1dbd 6570 c1bb
00000030: 2273 a4bd 70a4 89bd 154a abbc ba10 27bd
00000040: 0694 4cbd b871 6a3c 7221 283d a842 4abd
00000050: e269 353c a29a 03bb c139 a0bd 799b d5bd
00000060: 81da 93bd 5119 45be eb75 c0bd 4cf0 193d
00000070: 3a6f 0dbd 60b2 c13b 9739 a0bc 5a8d 083e
00000080: e93e 403e 5339 813d 8a0a 563d 444a 01bc
00000090: 7e8d afbd 9dfa e4bd 029f 0c3d 124b f8bc
000000a0: 2478 f4bc 7e45 1c3e 65e8 2abd b95a 85bd
000000b0: 0de5 0fbe 1ab3 e6bd 27b5 19bd 11a9 45bd
000000c0: 6356 87bd 8dcc 2fbd f85c fa3c 0865 1e3e
000000d0: fdc4 f13d 44b3 e7bd 1ddc a3bd 668a d83c
000000e0: e85b 5bbc 46c4 933d f1ef 89bd 015c 87bd
000000f0: 8c62 36bb b7c8 cebd c326 1ebe a562 cdbd
00000100: 8e77 2bbe 196e f33c 6fa6 96bd ab3d fbbb
00000110: 68ba 09be c2eb 62bd 14da a1be 3f04 e2bd
00000120: a1aa 05bd 41ef 2fbe 9d1b c8bc 150a 99bd
00000130: a249 85bd 8471 afbd 6ca5 81bc 6177 04be
00000140: 465d 06be f537 b43c 43d5 eebb 8803 713c
00000150: 9e32 6b3d b1f1 d33c c500 cebc 6063 5bbd
00000160: 2ad0 b53d 8ef9 ec3b 4d0a a5bc 1c84 7a3d
00000170: 2b4b 72bd 5e81 dfbd 9005 15be 9cc9 7cb9
00000180: 01cf 6b3e 74b5 afbc 52da 873d 5d14 e93d
00000190: b7e7 00bf fbbe 1ebe a16e 23bd e811 41be
000001a0: 097c 0cbe 440c 0cbb c24d 6fbd fb9f b3bc
000001b0: 0515 40be 65d4 78be bb7c ea3d b2e4 f03c
000001c0: cb82 f13c 036f 77be 8e48 3a3e 6e5b 3dbe
000001d0: 7253 8b3d 5229 823c 4c21 b2bd 30df ddbd
000001e0: 71c4 d13d 7c1f 50bc bddf 033c 1bc7 e93d
000001f0: f41c aa3d 4f77 21bd 04a5 c1bd aa12 853d
00000200: 4ac4 17bd 49f9 30bd a2e2 5ebd 3440 0cbd
00000210: e552 ac3d b420 683d 0b1c 14be cf5f 92bd
00000220: 6b60 5c3c d976 a03d 388b 963c dc94 d93d
00000230: 139c 46bd d407 733e 8229 593e 1a00 973c
00000240: 8e98 02bd 3993 afbd 609a 5abd 522d e43d
00000250: d30d 90bd 5ab4 9a3d 4e90 2fbe 6865 383d
00000260: 8e4b 593e 3d06 0e3e b6ae f1bb 049a 1bbd
00000270: ce1b c73d 2b81 b33c 43ed e9bb e6ec 1cbd
00000280: 4187 e3bd fa3a 3ebd a043 0fbe 2005 523d
00000290: b5d2 90bc 8879 52bd 8649 fd3b e08d 1cbc
000002a0: c7da 123d 5f06 013d 83e6 3d3b c12e f53c
000002b0: 414e 343d 49f2 45bd 2e0b 02bd fd4f e1bc
000002c0: 4407 0cbe 2aac 023d b501 053e 7ad0 fb3d
000002d0: a4e2 713d 390f 8c3d d2eb 0d3d e4c7 413b
000002e0: 2e5d 4abb b38b b43a faed ee3a d287 0fbc
000002f0: 253f 1f3c 3a34 9d3d be40 f1bc 9fb0 113d
00000300: 67a2 c4bd 17d9 98bd ac69 eabd bc4b 95bd
00000310: a3f4 713d 5161 30bd 3790 a2bd feb7 f1bd
00000320: 50a1 363c 0a47 383d dc3c d3bc 3cc3 3e3d
00000330: 5c0d b83c ca2f 6d3d 3e67 2fbd b09e 2abc
00000340: f65f 3a3d 2c45 65bd 88b9 1d3c 62aa 86bd
00000350: f7c2 babd fd1a 96bd 58e8 e5bd e060 4bbc
00000360: 6c47 b63c 3ee5 183d 8e06 84bd 702f eabb
00000370: ab9f 55be 9510 93be 1891 64be 889c 3abe
00000380: 12ed 6bbe 526e f4bd 42c2 5abe 843f 43be
00000390: 3b07 8c3d 59d7 65bd 65f2 a73d 5da5 e1bd
000003a0: fb86 c93d 9d62 0ebe 506e 7fbe 7779 84be
000003b0: 576d 3abe 3663 08be 3328 c8bc 8042 14be
000003c0: 6778 bd3d d557 be3d 2ab7 50bd 3280 b0be
000003d0: abe2 97be d5d5 fa3d b2ae 923d d0ee 0e3d
000003e0: 63fd e0bd e6f6 813d a561 f93d 356d ab3d
000003f0: 2ffd 14bd 25cf 85be 83c4 e7bd 40ca fd3d

fc.1.bias f4 [128]
0.015621822 -0.032771807 -0.07818925 0.04333459 -0.03913561 -0.098016135 -0.005051236 0.031484917
-0.080063164 -0.017964143 0.058068253 0.020798823 -0.0022859327 -0.07412406 0.031399164 0.040275082
-0.017016286 0.021858986 -0.027837723 0.0416424 -0.09828271 -0.080068834 0.035036117 0.014458163
-0.007995128 -0.028515304 -0.05034189 -0.0737614 -0.07773417 -0.08261216 -0.012785134 -0.03302741
0.047975145 -0.04046988 -0.08209244 -0.06672175 -0.05783361 -0.031364933 -0.011075063 -0.015445035
0.03108022 0.04130362 0.024112595 -0.068257414 0.014582686 -0.05532357 -0.013277001 -0.06000874
-0.025316834 -0.006742852 0.04404632 -0.120911956 -0.0034263073 -0.0151379295 -0.0748322 -0.10850574
-0.022892667 -0.06141739 -0.061695244 -0.06509096 -0.04053332 0.010667898 0.050389655 0.032261636
-0.075626865 -0.062349528 -0.1184981 0.047545727 -0.0035795935 -0.06358192 0.024413735 -0.08919416
-0.060361218 0.004333564 -0.06460844 -0.040995363 -0.038321618 -0.07182806 0.0016918662 -0.0023139117
0.01939053 -0.07376349 -0.008923987 -0.069551416 0.008782308 -0.094749406 -0.08112479 0.088811114
-0.045331597 -0.04151953 0.055816866 -0.09467654 -0.06741585 -0.048680924 0.013531053 -0.11780099
0.02757521 -0.06848417 -0.0022641702 -0.057819974 -0.11215662 0.08082706 0.033859074 -0.13535897
-0.03925902 -0.07355848 -0.112081975 -0.054644234 -0.009648275 -0.025161708 -0.046591572 -0.09242509
-0.045957897 -0.045123626 -0.029567411 -0.03510825 0.010871552 -0.07890426 0.02955561 -0.045936327
0.03198913 0.026613042 -0.12525898 0.018598568 -0.008230522 -0.0048225247 -0.059109345 -0.001372477
00000000: acf2 7f3c bb3b 06bd af21 a0bd 9c7f 313d
00000010: a94c 20bd afbc c8bd d784 a5bb 54f6 003d
00000020: 28f8 a3bd 8a29 93bc fad8 6d3d 4b62 aa3c
00000030: 96cf 15bb 5bce 97bd 699c 003d 7cf7 243d
00000040: bd65 8bbc 9e11 b33c f00b e4bc 3991 2a3d
00000050: 7248 c9bd 21fb a3bd 0882 0f3d eee1 6c3c
00000060: fffd 02bc ed98 e9bc 4c33 4ebd 3810 97bd
00000070: 1833 9fbd 9030 a9bd bd78 51bc c047 07bd
00000080: 9681 443d bfc3 25bd 1520 a8bd 6aa5 88bd
00000090: efe2 6cbd 8478 00bd 2e74 35bc 2c0d 7dbc
000000a0: f29b fe3c fc2d 293d c787 c53c 8bca 8bbd
000000b0: 38ec 6e3c f89a 62bd c787 59bc b9cb 75bd
000000c0: 4065 cfbc 24f3 dcbb ea69 343d b0a0 f7bd
000000d0: e68b 60bb 1405 78bc a041 99bd 4238 debd
000000e0: 6789 bbbc cd90 7bbd 27b4 7cbd 694e 85bd
000000f0: 4406 26bd 68c8 2e3c 6265 4e3d c724 043d
00000100: 42e2 9abd 3862 7fbd 22af f2bd 4fbf 423d
00000110: 9d97 6abb 3d37 82bd 50ff c73c 6eab b6bd
00000120: 533d 77bd 9200 8e3b 6e51 84bd c1ea 27bd
00000130: 21f7 1cbd 971a 93bd 9cc1 dd3a ffa4 17bb
00000140: e4d8 9e3c 5011 97bd ea35 12bc f970 8ebd
00000150: abe3 0f3c fa0b c2bd c124 a6bd 9ae2 b53d
00000160: a0ad 39bd 6210 2abd 3aa0 643d c6e5 c1bd
00000170: 5211 8abd a665 47bd 5ab1 5d3c a541 f1bd
00000180: 68e5 e13c 6e41 8cbd 7962 14bb a3d4 6cbd
00000190: 5fb2 e5bd a888 a53d d0af 0a3d 8b9b 0abe
000001a0: 11ce 20bd d4a5 96bd 3c8b e5bd a2d2 5fbd
000001b0: cc13 1ebc ed1f cebc ced6 3ebd 5e49 bdbd
000001c0: 593e 3cbd 8dd3 38bd 5b37 f2bc abcd 0fbd
000001d0: 981e 323c 8f98 a1bd 9b1e f23c bb27 3cbd
000001e0: 0907 033d 9803 da3c e443 00be 065c 983c
000001f0: 50d9 06bc 4506 9ebb a41c 72bd b0e4 b3ba

fc.3.weight f4 [64, 128]
0.0023668117 0.006200235 0.006906548 -0.013381322 -0.038535945 -0.040470745 -0.06915924 -0.0005467549
0.013156461 0.050964262 0.08880593 -0.040342234 -0.0031615233 -0.06805786 -0.011519647 -0.062109586
-0.005563715 -0.007195463 -0.011457619 -0.03681373 -0.07307644 -0.014048685 0.036732648 0.025792368
-0.03174794 0.029618954 0.07556355 0.018513842 0.011024046 -0.049802765 0.11029116 0.067522794
0.0018138228 -0.024429109 -0.019664356 0.036111947 -0.023896325 0.07504007 0.05799777 -0.08786676
0.032562118 -0.069493495 0.011263013 0.06759989 -0.0499832 0.05646124 0.04226063 0.06564328
-0.026838735 -0.017651316 0.070202544 -0.02010129 -0.06432356 -0.004018775 0.045702774 -0.010089281
-0.043656584 -0.02067942 0.059347127 -0.010328591 0.07418047 -0.025053568 -0.0040352014 0.017787514
0.021130953 -0.08921046 -0.015843857 0.04711752 -0.061205093 -0.07440096 -0.029576268 0.053813223
-0.030249199 -0.013060714 -0.03177096 0.031984836 -0.09077528 -0.04093418 -0.038199678 -0.039736964
0.023702655 0.056889333 0.044117656 0.09372289 0.031610563 -0.079513244 -0.008538706 0.090351224
-0.096553355 0.078455195 0.046800442 -0.083307885 0.045921013 0.10171313 0.06453363 -0.06989224
-0.01770234 0.06031312 0.017795408 0.00015122765 0.07852029 -0.060100008 0.03398952 0.009653017
0.06928647 0.071558826 -0.046794288 0.0019170274 0.002132287 0.014853332 0.05785753 0.07496296
-0.020165492 -0.07092035 0.01866462 -0.03480108 0.043508887 -0.012011635 0.01475239 0.037136827
0.03680704 -0.040130377 -0.04753075 0.063429184 0.08386943 -0.06568209 0.0148284 -0.018585367
-0.0034307241 0.07377474 -0.02139788 -0.071137846 -0.08968116 -0.059722792 -0.08038087 0.006759935
-0.01674547 0.03734212 0.01693768 -0.0122657865 0.026867812 -0.064706646 -0.028306859 0.031812582
-0.05042246 0.012290012 -0.05821281 -0.037270345 -0.09818429 -0.0044064764 -0.026649805 0.054644153
0.034729246 -0.07150537 0.09691448 -0.039837986 -0.025246132 0.05844331 0.011566638 -0.05161412
-0.012866953 -0.03191657 -0.062683806 0.1311779 -0.019560808 -0.019696997 0.044728175 0.08274447
0.12298404 -0.012232986 0.08869728 -0.00067521306 -0.014559631 0.027986951 -0.052713256 0.06701642
0.076442756 -0.07949156 0.109656386 -0.03851478 -0.00792262 0.10970543 -0.016589979 0.0046630893
0.08470181 0.1244484 0.04652896 -0.08518022 0.071369424 0.046707653 0.027485283 0.059985735
-0.02163701 0.07197934 0.063823216 0.011944091 -0.015100437 0.0040315306 0.014170364 0.010641954
0.106442176 0.04659205 0.044130206 -0.049779214 0.051830735 0.059980035 -0.049505793 -0.03914532
-0.03240613 0.009119512 0.06220974 0.020436455 0.04900806 0.06258509 0.050612204 0.046367668
-0.13171144 0.040283408 0.011062714 0.084888935 -0.040883917 -0.04243705 0.069731735 -0.03512308
0.076879814 -0.033830043 -0.0416954 -0.0151593005 0.011161946 0.05075209 0.033814363 -0.018406842
-0.11521981 0.085574105 -0.021118654 -0.07874283 0.039974477 0.03724109 0.011240713 0.08637644
0.025261572 -0.04503204 -0.0032773404 0.020456977 0.08805274 0.042338885 -0.005289695 -0.03665346
-0.03354247 -0.0017519825 0.040811438 0.07196874 0.052517947 -0.0803943 0.011050588 0.022221096
00000000: 831c 1b3b 572b cb3b 5350 e23b 553d 5bbc
00000010: ded7 1dbd a7c4 25bd 5ca3 8dbd 1a54 0fba
00000020: 328e 573c e7bf 503d e2df b53d e63d 25bd
00000030: 8f31 4fbb eb61 8bbd e7bc 3cbc 9f66 7ebd
00000040: d34f b6bb ebc7 ebbb bdb8 3bbc fec9 16bd
00000050: 1aa9 95bd 752c 66bc f974 163d 844a d33c
00000060: 210a 02bd 73a3 f23c 10c1 9a3d 57aa 973c
00000070: 339e 343c fcfd 4bbd 55e0 e13d 6449 8a3d
00000080: cbbd ed3a 8e1f c8bc 2517 a1bc 1fea 133d
00000090: 3ac2 c3bc 9cae 993d 128f 6d3d 7df3 b3bd
000000a0: db5f 053d 9b52 8ebd 8088 383c d071 8a3d
000000b0: 2fbb 4cbd e743 673d 7b19 2d3d fc6f 863d
000000c0: e8dc dbbc 7e99 90bc 5ac6 8f3d 76ab a4bc
000000d0: 12bc 83bd eeaf 83bb d532 3b3d 834d 25bc
000000e0: 3fd1 32bd e367 a9bc f915 733d 4039 29bc
000000f0: eeeb 973d 243d cdbc b939 84bb 1fb7 913c
00000100: d21a ad3c f9b3 b6bd faca 81bc 4dfe 403d
00000110: 31b2 7abd 885f 98bd ee49 f2bc 416b 5c3d
00000120: 2bcd f7bc 9bfc 55bc 4422 02bd 8802 033d
00000130: 64e8 b9bd 99aa 27bd 4477 1cbd 3ac3 22bd
00000140: 122c c23c ca04 693d b7b4 343d c9f1 bf3d
00000150: 147a 013d d7d7 a2bd eee5 0bbc 100a b93d
00000160: c4bd c5bd 1ead a03d d2b1 3f3d 539d aabd
00000170: ac17 3c3d f94e d03d 352a 843d aa23 8fbd
00000180: 7f04 91bc e40a 773d adc7 913c dd92 1e39
00000190: 3fcf a03d 6d2b 76bd 9838 0b3d b027 1e3c
000001a0: 11e6 8d3d 6f8d 923d 5eab 3fbd c444 fb3a
000001b0: d7bd 0b3b 645b 733c 04fc 6c3d 2e86 993d
000001c0: 1a32 a5bc b03e 91bd 8ce6 983c 948b 0ebd
000001d0: 6036 323d 73cc 44bc 02b4 713c c91c 183d
000001e0: fbc2 163d c05f 24bd 9baf 42bd 29e7 813d
000001f0: bcc3 ab3d 5584 86bd d1f2 723c 5740 98bc
00000200: 00d6 60bb 3617 973d 9b4a afbc b8b0 91bd
00000210: c2aa b7bd e39f 74bd ba9e a4bd 7282 dd3b
00000220: cc2d 89bc 0df4 183d e4c0 8a3c 70f6 48bc
00000230: e319 dc3c eb84 84bd c9e3 e7bc e94d 023d
00000240: c887 4ebd 0c5c 493c 8e70 6ebd caa8 18bd
00000250: d814 c9bd 3464 90bb b150 dabc 8cd2 5f3d
00000260: 4140 0e3d 6871 92bd 197b c63d 282d 23bd
00000270: fad0 cebc 4162 6f3d ff81 3d3c 5469 53bd
00000280: eacf 52bc f3ba 02bd 5e60 80bd 8053 063e
00000290: fd3d a0bc 995b a1bc e434 373d ef75 a93d
000002a0: 0edf fb3d dd6c 48bc eba6 b53d c800 31ba
000002b0: 858b 6ebc e444 e53c dbe9 57bd e83f 893d
000002c0: 058e 9c3d 79cc a2bd 8793 e03d adc1 1dbd
000002d0: e0cd 01bc 3ead e03d b5e7 87bc d4cc 983b
000002e0: 2478 ad3d cede fe3d 2795 3e3d f872 aebd
000002f0: 222a 923d 8650 3f3d d128 e13c 9ab3 753d
00000300: 1940 b1bc e769 933d bfb5 823d 26b1 433c
00000310: d367 77bc ee1a 843b d02a 683c 975b 2e3c
00000320: 5bfe d93d 4ed7 3e3d e0c1 343d 4ae5 4bbd
00000330: 774c 543d a0ad 753d 96c6 4abd d856 20bd
00000340: 4abc 04bd 016a 153c a4cf 7e3d 5a6a a73c
00000350: adbc 483d 9d2c 803d be4e 4f3d 06ec 3d3d
00000360: 5ddf 06be 3700 253d 6340 353c 40da ad3d
00000370: e575 27bd 79d2 2dbd 83cf 8e3d 38dd 0fbd
00000380: 2a73 9d3d 5f91 0abd ccc8 2abd b75e 78bc
00000390: 98e0 363c 6ce1 4f3d ee80 0a3d f2c9 96bc
000003a0: 5df8 ebbd 7a41 af3d 0701 adbc ec43 a1bd
000003b0: 47bc 233d 1d8a 183d f82a 383c 22e6 b03d
000003c0: 5bf1 ce3c 8473 38bd a6c8 56bb 6495 a73c
000003d0: ff54 b43d 8a6b 2d3d 2e55 adbb f021 16bd
000003e0: d463 09bd c7a2 e5ba e529 273d 5964 933d
000003f0: 0f1d 573d c4a5 a4bd 870d 353c 0409 b63c

fc.3.bias f4 [64]
0.11476847 -0.011425855 -0.08119064 0.075911246 0.09679363 -0.0013283754 0.016527202 -0.05190953
-0.02518371 -0.0012133559 0.10399779 -0.085169815 0.04834521 -0.0857926 0.044231102 -0.028048832
0.06661226 0.02895495 -0.1325501 -0.10341376 -0.06848863 -0.03586307 -0.10532741 -0.14004868
0.09515477 -0.11409226 -0.09443121 -0.009185766 0.06435977 -0.086974144 -0.1339931 -0.06599079
-0.048873384 -0.056982435 -0.11955036 0.05556301 -0.08632025 -0.08995609 -0.060209077 0.043243993
0.09018413 0.05269843 -0.0732627 -0.19576685 0.056951586 -0.065407135 0.08608519 0.003211395
-0.008823281 -0.13769661 0.057046127 -0.12948895 -0.11079826 -0.058039747 -0.03706686 -0.12916656
-0.115120806 0.0038020727 -0.10446077 -0.09969561 -0.027134214 0.02005215 -0.04358492 -0.07171297
00000000: bb0b eb3d 8233 3bbc 4747 a6bd 5b77 9b3d
00000010: bd3b c63d e21c aeba 0e64 873c 169f 54bd
00000020: 114e cebc 7809 9fba cbfc d43d 836d aebd
00000030: a005 463d 08b4 afbd ac2b 353d aac6 e5bc
00000040: 026c 883d ee32 ed3c 37bb 07be 98ca d3bd
00000050: c443 8cbd 28e5 12bd e6b5 d7bd ec68 0fbe
00000060: 81e0 c23d 34a9 e9bd 2665 c1bd e57f 16bc
00000070: 0ecf 833d 801f b2bd 7d35 09be 2e26 87bd
00000080: 752f 48bd 6a66 69bd d2d6 f4bd 0a96 633d
00000090: acc8 b0bd e63a b8bd cb9d 76bd 9d20 313d
000000a0: 75b2 b83d 4fda 573d c10a 96bd 1b77 48be
000000b0: 1146 693d 2df4 85bd 6f4d b03d 4476 523b
000000c0: 868f 10bc 5700 0dbe 33a9 693d c098 04be
000000d0: 33ea e2bd 16bb 6dbd 6bd3 17bd 3d44 04be
000000e0: 75c4 ebbd 322c 793b 87ef d5bd 362d ccbd
000000f0: 9248 debc 6844 a43c 1a86 32bd 40de 92bd

fc.5.weight f4 [4, 64]
0.08319974 0.059238743 -0.038679168 -0.008118006 -0.0066217724 0.095490746 -0.12090618 0.017182041
-0.04577481 -0.06545242 0.121842 -0.02683948 -0.020277036 -0.033610217 -0.03894377 0.04838946
-0.065743595 0.07458084 -0.043589264 -0.07294569 -0.05353709 0.22572093 -0.11293866 0.121286765
0.045605518 -0.107968904 0.022787934 -0.044879276 0.0052389787 -0.043562155 0.08926409 0.006192881
0.09591457 0.04186181 -0.030752866 0.082849614 -0.018196223 -0.06925887 0.048732758 0.049501956
-0.0005382658 0.039756484 0.012189115 -0.01456701 0.05053853 0.0108788125 -0.00151233 -0.07659814
0.020708924 0.032873306 0.0034533185 -0.116863385 -0.013755183 -0.04620486 0.041534837 0.039002143
-0.0049321135 0.023026068 -0.04691011 0.047013346 -0.12363131 -0.018892268 0.008510925 0.050824467
0.071315676 0.029347138 -0.07059219 0.04905848 -0.29849657 -0.04003747 -0.020726526 0.048611816
0.013407128 0.08735875 0.10392903 0.11248484 0.000554898 0.015800094 -0.15273517 -0.05835554
0.057216767 0.055305954 -0.0014511786 -0.03549178 -0.02122128 0.009208932 -0.012732543 -0.017771363
0.07810204 0.06315752 0.015444807 0.07705306 0.040205006 0.020596663 0.07654383 -0.09695547
-0.05426665 -0.021381745 -0.08374439 -0.15939012 0.15791862 0.0049363356 0.035461333 -0.1451518
0.09967141 0.01673197 -0.020877905 -0.047745243 -0.0015130949 -0.055766314 0.097227365 -0.01933431
0.0020046681 0.05114969 -0.15908885 -0.072405756 -0.0011074311 -0.1138203 -0.027209025 -0.06416256
0.054658096 0.08050236 0.028193556 0.004199132 -0.13742006 -0.005539746 0.009465906 0.051245593
0.016127475 0.05704934 -0.063591465 -0.021851283 0.14144073 0.0072574643 -0.03928201 -0.0030531788
0.005066058 -0.022085795 0.08988311 0.106757164 0.030447427 -0.022879587 0.117398486 -0.1425669
-0.22136179 0.048823304 -0.04435602 0.0481909 0.022726005 0.008344453 -0.043383583 0.059492324
0.05552784 -0.16475278 0.004972376 0.0109952595 -0.037843876 0.04771832 -0.030220572 -0.051324986
-0.024582854 -0.058155242 0.030903585 -0.019664532 -0.071881734 -0.114537016 -0.00713084 -0.14129283
0.041845486 -0.05933251 0.049602564 0.066865124 -0.03286893 0.061874546 -0.007925365 -0.109371796
0.08045189 0.008624762 -0.09300621 0.026660273 -0.06368148 -0.0027281465 0.008902036 0.047537606
-0.024677945 0.06985068 0.07558404 -0.04805425 -0.05856267 0.013398072 -0.026247498 0.04816594
0.104360126 0.017674645 -0.012702974 0.0143249165 0.11201994 -0.07644772 -0.10469825 -0.08731221
0.03539893 -0.091273494 0.030696634 0.021735996 0.08968006 -0.02292632 -0.07464365 -0.011561172
-0.12387246 0.04821321 -0.049183134 -0.0015732164 -0.010877709 0.053494655 -0.11384151 0.08410574
0.07742525 -0.18025836 -0.02371278 -0.0022276798 0.014915127 -0.021733673 0.08122886 0.054553147
-0.022926383 0.0188215 0.1301906 -0.02314797 0.05383517 0.007404867 0.042285234 -0.045684226
0.08897485 0.01068028 -0.017348045 0.06357797 0.085742116 -0.037895676 0.09905318 -0.07293535
-0.0630166 0.109668344 -0.034589708 -0.09387242 -0.009257653 -0.044965744 -0.07560455 0.101995654
0.096523464 -0.022856796 0.0599267 -0.05015807 -0.013770054 0.050229188 -0.05804893 -0.033281155
00000000: a064 aa3d 53a4 723d 0c6e 1ebd 6301 05bc
00000010: 74fb d8bb a790 c33d a99d f7bd 5ac1 8c3c
00000020: 5e7e 3bbd eb0b 86bd 4c88 f93d 78de dbbc
00000030: 071c a6bc deaa 09bd 8183 1fbd 0734 463d
00000040: 94a4 86bd d7bd 983d a88a 32bd 8d64 95bd
00000050: b549 5bbd 6323 673e 624c e7bd 3265 f83d
00000060: dacc 3a3d cd1e ddbd c3ad ba3c 55d3 37bd
00000070: bdab ab3b 3b6e 32bd 17d0 b63d a7ed ca3b
00000080: dc6e c43d 4a77 2b3d 6fed fbbc 0fad a93d
00000090: 3f10 95bc 98d7 8dbd 009c 473d 90c2 4a3d
000000a0: 681a 0dba b2d7 223d dbb4 473c 78aa 6ebc
000000b0: 7d01 4f3d 0c3d 323c 6039 c6ba 7cdf 9cbd
000000c0: c3a5 a93c 29a6 063d 1251 623b 1256 efbd
000000d0: 6b5d 61bc 4f41 3dbd 6f20 2a3d b6c0 1f3d
000000e0: 919d a1bb 2aa1 bc3c d124 40bd 1191 403d
000000f0: 6a32 fdbd f5c3 9abc 6871 0b3c 512d 503d
00000100: f40d 923d 6969 f03c a392 90bd 8bf1 483d
00000110: 8bd4 98be 55fe 23bd adca a9bc 2f1d 473d
00000120: 92a9 5b3c 25e9 b23d bed8 d43d 745e e63d
00000130: 9376 113a 336f 813c 9c66 1cbe 3806 6fbd
00000140: 215c 6a3d 7f88 623d 7935 beba d45f 11bd
00000150: 40d8 adbc 0fe1 163c 289c 50bc 4095 91bc
00000160: f6f3 9f3d bb58 813d 370c 7d3c ffcd 9d3d
00000170: 01ae 243d 55ba a83c 03c3 9c3d 9790 c6bd
00000180: b546 5ebd c528 afbc 2e82 abbd 2a37 23be
00000190: 6bb5 213e fcc0 a13b e73f 113d aca2 14be
000001a0: 8620 cc3d 7c11 893c 2408 abbc 8490 43bd
000001b0: 0a53 c6ba 386b 64bd 241f c73d fd62 9ebc
000001c0: c060 033b 5682 513d 30e8 22be 7849 94bd
000001d0: 3927 91ba 9e1a e9bd 76e5 debc a967 83bd
000001e0: 2be1 5f3d 6cde a43d 2cf6 e63c df98 893b
000001f0: d8b7 0cbe c286 b5bb e316 1b3c e6e6 513d
00000200: c41d 843c 92ac 693d 3e3c 82bd 7601 b3bc
00000210: d7d5 103e 06d0 ed3b 2ce6 20bd d717 48bb
00000220: 2d01 a63b 45ed b4bc a314 b83d 80a3 da3d
00000230: e26c f93c f96d bbbc 9e6e f03d 0ffd 11be
00000240: aaac 62be f2fa 473d a8ae 35bd d263 453d
00000250: e32b ba3c 2cb7 083c fcb2 31bd 39ae 733d
00000260: 2971 633d f4b4 28be 50ef a23b 7625 343c
00000270: 2e02 1bbd 4974 433d 2291 f7bc 263a 52bd
00000280: fb61 c9bc 3134 6ebd 8429 fd3c 8317 a1bc
00000290: bb36 93bd 6292 eabd d2a9 e9bb 11af 10be
000002a0: 2c66 2b3d a506 73bd 0f2c 4b3d 95f0 883d
000002b0: 92a1 06bd 2a70 7d3d 64d9 01bc 52fe dfbd
000002c0: f6c3 a43d e04e 0d3c 0a7a bebd a566 da3c
000002d0: 706b 82bd b4ca 32bb d8d9 113c cbb6 423d
000002e0: 6729 cabc e00d 8f3d cecb 9a3d 89d4 44bd
000002f0: 69df 6fbd 9683 5b3c fe04 d7bc a649 453d
00000300: c3ba d53d 6bca 903c 2220 50bc 0eb3 6a3c
00000310: b66a e53d 9f90 9cbd 096c d6bd bed0 b2bd
00000320: 78fe 103d 99ed babd 8277 fb3c b00f b23c
00000330: 2eaa b73d facf bbbc c5de 98bd 126b 3dbc
00000340: d8b0 fdbd 377b 453d 4174 49bd 6234 ceba
00000350: 6b38 32bc 361d 5b3d bd25 e9bd a13f ac3d
00000360: 2191 9e3d a695 38be 4e41 c2bc 44fe 11bb
00000370: 945e 743c d10a b2bc 515b a63d 1f73 5f3d
00000380: 1cd0 bbbc 8c2f 9a3c af50 053e d0a0 bdbc
00000390: 4482 5c3d 87a4 f23b 4833 2d3d 621f 3bbd
000003a0: 7238 b63d 57fc 2e3c 7d1d 8ebc 2b35 823d
000003b0: 9099 af3d 7f38 1bbd 65dc ca3d 215f 95bd
000003c0: d90e 81bd cc99 e03d f0ad 0dbd 2f40 c0bd
000003d0: 69ad 17bc 002e 38bd 8fd6 9abd 19e3 d03d
000003e0: 18ae c53d 2d3e bbbc b375 753d 8c72 4dbd
000003f0: cb9b 61bc 1fbd 4d3d b7c4 6dbd d251 08bd

fc.5.bias f4 [4]
0.098063126 0.085154176 0.11491922 0.07782034
00000000: 52d5 c83d 5065 ae3d c55a eb3d 4560 9f3d
