best_model_2.pth (torch, 140113 bytes, 6 tensors)

fc.1.weight f4 [128, 200]
0.061504804 -0.000111967325 0.06132213 -0.06699954 -0.008182989 -0.021723844 -0.02310963 -0.10158995
0.054832615 -0.025431704 -0.016142014 0.091038264 -0.22963212 -0.21704939 -0.080076374 -0.1312328
0.18719184 0.31891295 0.052541897 -0.0379117 -0.12084354 0.12906538 0.10404754 0.09265391
-0.5502664 0.08009312 0.5920739 0.3179477 0.11034146 0.19333145 0.15449382 0.06726819
-0.25443387 -0.23818654 -0.09959791 0.1796638 0.10200981 0.2396961 0.1887192 0.19384266
-0.2103165 0.19280046 0.06079031 -0.0846892 0.23403428 0.108364955 0.06145844 0.14286612
-0.04343777 -0.092294484 -0.13076855 0.021899477 0.07517383 -0.057845 0.37678498 0.16784747
0.23360078 -0.06124945 0.114025526 -0.05723541 -0.1664345 -0.10688802 -0.23232287 0.027084239
0.19602682 0.27141184 0.3015325 0.081198916 0.023719631 0.01570532 -0.11512847 -0.094366506
-0.14716233 -0.22201568 -0.096612796 0.037002854 0.011380661 -0.07934476 -0.042049192 0.005616604
-0.048944145 0.024394495 -0.16477783 -0.10026095 0.002981763 -0.09636307 0.088249475 -0.07403523
-0.027563533 -0.04254175 -0.070922494 0.02545206 -0.18223888 -0.18832919 -0.059858225 0.14542773
0.046080116 -0.12786898 -0.17902754 -0.09047548 -0.12710059 -0.11676036 0.006531881 -0.09734473
-0.10054831 0.22075593 -0.091069505 -0.0071600676 -0.124344304 0.06219852 -0.11993916 -0.11353011
-0.076130986 -0.08718777 0.09040156 -0.13470106 -0.16343452 -0.13119781 -0.10614031 -0.009332864
0.07653392 -0.09250988 -0.1716626 -0.1625491 -0.088969074 -0.21096694 -0.22079112 -0.009922295
0.003021324 -0.038747508 0.09917246 0.040485255 -0.0807017 -0.31040227 -0.05476729 -0.1288052
-0.103420354 0.02256166 -0.12657794 -0.05194775 -0.1746428 -0.049789183 -0.0036093341 -0.02056792
0.1057826 -0.01681572 -0.120653786 -0.2131202 -0.09707977 -0.06165293 -0.16945152 -0.1475281
-0.20551404 -0.109231345 -0.036116697 -0.05460203 -0.14240713 -0.036682606 0.027132189 0.052068047
-0.08718726 0.05570136 -0.17341341 -0.0732778 -3.937841e-05 -0.13967668 -0.15744191 0.026742898
-0.017774474 -0.018953577 -0.044981044 -0.12265581 -0.01918988 -0.15585053 -0.11768461 -0.11229811
-0.04919372 -0.012541643 -0.03912721 -0.08491059 -0.102232285 -0.09140938 -0.167645 -0.14100984
-0.15011767 -0.0010796476 -0.15123652 -0.24415937 -0.10761417 -0.149455 -0.16070114 -0.14008032
-0.21545808 -0.011400322 -0.24274424 -0.157162 -0.15538502 -0.12736417 -0.1574405 -0.27992874
-0.03816071 -0.007480569 0.026245713 0.023507707 0.005382605 -0.05121848 0.01380603 -0.046747953
0.024039447 0.0019829422 -0.058880456 0.029598251 0.06684136 -0.0133400075 -0.0013698041 0.024453945
-0.030434672 -0.006447457 -0.000477843 0.025478072 -0.02686071 -0.006767459 -0.02975012 -0.027411647
-0.01806226 -0.023236375 -0.05645939 0.03220938 -0.050084934 0.059954964 0.0005455166 0.03879579
-0.024153754 0.00064041466 0.035751496 -0.03478855 -0.030454446 0.05319772 0.040831633 0.033608988
-0.02254897 -0.018165268 0.06588986 -0.016667824 -0.0052489657 0.018299865 -0.04169383 -0.005505599
-0.0137723945 0.06714893 0.009546816 -0.056697004 0.0045514554 -0.024395786 -0.04765393 0.06428199
00000000: 76ec 7b3d 00d0 eab8 ea2c 7b3d 0e37 89bd
00000010: f211 06bc 34f6 b1bc 6850 bdbc 640e d0bd
00000020: 2a98 603d 2656 d0bc 423c 84bc 4572 ba3d
00000030: af24 6bbe 3242 5ebe 15ff a3bd e461 06be
00000040: 38af 3f3e 8f48 a33e 2c36 573d 4c49 1bbd
00000050: d17c f7bd b729 043e e016 d53d 55c1 bd3d
00000060: 42de 0cbf dd07 a43d 2892 173f 0aca a23e
00000070: b4fa e13d aef8 453e a133 1e3e e8c3 893d
00000080: 2845 82be 2ce7 73be fdf9 cbbd caf9 373e
00000090: 85ea d03d e572 753e 9b3f 413e b17e 463e
000000a0: 355d 57be 7c6d 453e 43ff 783d 8871 adbd
000000b0: afa6 6f3e 72ee dd3d d8bb 7b3d 7f4b 123e
000000c0: ceeb 31bd e404 bdbd 31e8 05be 8866 b33c
000000d0: bdf4 993d e1ee 6cbd f6e9 c03e 35e0 2b3e
000000e0: 0b35 6f3e b4e0 7abd 3786 e93d ad6f 6abd
000000f0: ce6d 2abe 1be8 dabd 0ce6 6dbe c4df dd3c
00000100: 41bb 483e 7ef6 8a3e 7862 9a3e 9e4b a63d
00000110: ac4f c23c 71a8 803c 7ac8 ebbd 3a43 c1bd
00000120: b9b1 16be 1458 63be eedc c5bd 4e90 173d
00000130: f475 3a3c 817f a2bd c63b 2cbd 7d0b b83b
00000140: a879 48bd f7d6 c73c 85bb 28be 9d55 cdbd
00000150: af69 433b 005a c5bd 24bc b43d c89f 97bd
00000160: ebcc e1bc 4240 2ebd d03f 91bd d780 d03c
00000170: d49c 3abe 5ed9 40be e62d 75bd 02eb 143e
00000180: 81be 3c3d 16f0 02be ff52 37be 354b b9bd
00000190: a826 02be 0e20 efbd 6409 d63b ac5c c7bd
000001a0: 46ec cdbd d80d 623e a682 babd 009f eabb
000001b0: 3aa8 febd e0c3 7e3d aaa2 f5bd 7982 e8bd
000001c0: 90ea 9bbd 808f b2bd 7424 b93d 13ef 09be
000001d0: 615b 27be b858 06be 1760 d9bd dee8 18bc
000001e0: d1bd 9c3d d275 bdbd 52c8 2fbe 4573 26be
000001f0: 6b35 b6bd b807 58be 1117 62be 1f91 22bc
00000200: 6801 463b b5b5 1ebd ee1a cb3d ded3 253d
00000210: ef46 a5bd 0ced 9ebe aa53 60bd 83e5 03be
00000220: 0dce d3bd 3bd3 b83c a69d 01be 2ac7 54bd
00000230: 90d5 32be beef 4bbd 948a 6cbb 0e7e a8bc
00000240: 8ca4 d83d 1fc1 89bc 5519 f7bd 2f3c 5abe
00000250: c2d1 c6bd c887 7cbd b384 2dbe 9b11 17be
00000260: 4672 52be afb4 dfbd 1aef 13bd 61a6 5fbd
00000270: 2dd3 11be 8040 16bd 5344 de3c 4e45 553d
00000280: 3c8f b2bd 1c27 643d 4993 31be ac12 96bd
00000290: 3f2a 25b8 6707 0fbe 7438 21be ec13 db3c
000002a0: c69b 91bc 8844 9bbc 0b3e 38bd f832 fbbd
000002b0: 1834 9dbc 4897 1fbe a104 f1bd 8dfc e5bd
000002c0: 5b7f 49bd 777b 4dbc da43 20bd 9ae5 adbd
000002d0: 295f d1bd d734 bbbd 22ab 2bbe e264 10be
000002e0: 72b8 19be f682 8dba bfdd 1abe ea04 7abe
000002f0: d164 dcbd bb0a 19be d78e 24be 3771 0fbe
00000300: 0ba1 5cbe 6bc8 3abc f291 78be 13ef 20be
00000310: 401d 1fbe c16b 02be 1538 21be d252 8fbe
00000320: 684e 1cbd 901f f5bb 4001 d73c 3c93 c03c
00000330: 9060 b03b 78ca 51bd b032 623c c87a 3fbd
00000340: 60ee c43c 40f4 013b a22c 71bd 0878 f23c
00000350: 1fe4 883d 0c90 5abc 008b b3ba a453 c83c
00000360: 2252 f9bc 3045 d3bb 0087 fab9 64b7 d03c
00000370: fe0a dcbc 90c1 ddbb 86b6 f3bc 648e e0bc
00000380: 4ef7 93bc 365a bebc f641 67bd fced 033d
00000390: dc25 4dbd 5693 753d 0001 0f3a 56e8 1e3d
000003a0: 18de c5bc 80e1 273a 2970 123d 707e 0ebd
000003b0: 9a7b f9bc dae5 593d 123f 273d 94a9 093d
000003c0: 9eb8 b8bc 54cf 94bc 43f1 863d f68a 88bc
000003d0: 84ff abbb 99e9 953c 26c7 2abd 5068 b4bb
000003e0: 9ca5 61bc 6185 893d 406a 1c3c 1e3b 68bd
000003f0: 6024 953b acd9 c7bc c430 43bd 47a6 833d

fc.1.bias f4 [128]
-0.17871144 -0.050285347 -0.13226597 -0.10565117 -0.08335702 -0.049379304 -0.022695662 -0.12323005
-0.030447233 -0.09300682 -0.33150232 -0.012088934 -0.06880452 -0.17277034 0.034937445 -0.081530645
-0.08233432 -0.03082863 -0.047426667 -0.106892385 -0.0717492 -0.0010648713 -0.12885351 -0.062314156
-0.06450848 -0.15124011 0.13868105 -0.0056810114 -0.04530475 -0.01458795 -0.076155625 -0.061831843
0.16151316 -0.11754717 -0.14364924 -0.13481937 -0.11776905 -0.124453954 -0.17357434 -0.09045229
0.04539146 -0.12819661 -0.088817686 0.072270244 -0.10131328 -0.08177765 -0.08720017 -0.24890025
-0.058007427 -0.098188035 -0.10591864 -0.08206704 -0.09649267 -0.10500889 -0.3854346 0.06813354
-0.012627171 -0.07128593 -0.17781557 0.2413422 -0.1038145 -0.06392522 -0.10202151 -0.078529805
-0.11484827 -0.11413854 -0.040619537 0.048687186 -0.13036256 -0.030777277 -0.17319264 -0.1102835
0.024401838 -0.14121501 -0.029724794 -0.10622238 -0.06169837 -0.124621235 -0.1540482 -0.108674936
-0.17086655 -0.21399434 0.0031219986 -0.0064124567 -0.07104457 -0.07515278 -0.08583509 -0.1487227
-0.04331966 -0.23078936 -0.09552613 0.0536353 -0.11497013 -0.017850725 -0.13273141 0.019056186
-0.030492283 -0.12901781 -0.35720092 -0.09954372 -0.20211491 -0.13785677 -0.102024056 -0.17339428
-0.18145438 -0.16266021 -0.001393683 -0.13642146 -0.10620687 -0.1096712 -0.014651048 -0.06832219
-0.10129193 -0.062483095 -0.11192894 -0.10406895 -0.22937135 -0.058696594 -0.11359557 -0.07452906
-0.08454019 -0.079841614 -0.13078453 -0.05436402 -0.019433035 -0.051574703 -0.09053987 -0.022211345
00000000: 2200 37be 02f8 4dbd bb70 07be a45f d8bd
00000010: 16b7 aabd f441 4abd 41ec b9bc 0960 fcbd
00000020: 7a6c f9bc 5c7a bebd acba a9be aa10 46bc
00000030: 62e9 8cbd b5ea 30be 911a 0f3d 8af9 a6bd
00000040: e59e a8bd 538c fcbc 7742 42bd 65ea dabd
00000050: 3ff1 92bd 2793 8bba 2df2 03be 213d 7fbd
00000060: 061d 84bd b0de 1abe 6802 0e3e c727 babb
00000070: 7991 39bd 4c02 6fbc 7bf7 9bbd 6343 7dbd
00000080: b563 253e 92bc f0bd c918 13be 170e 0abe
00000090: e630 f1bd b7e1 febd 79bd 31be 0d3f b9bd
000000a0: 65ec 393d f945 03be 0ce6 b5bd 6c02 943d
000000b0: 567d cfbd 0a7b a7bd 0196 b2bd b5df 7ebe
000000c0: 3299 6dbd cf16 c9bd dfeb d8bd c412 a8bd
000000d0: f39d c5bd e70e d7bd af57 c5be 9989 8b3d
000000e0: 32e2 4ebc 5cfe 91bd 4915 36be 6922 773e
000000f0: b29c d4bd 3aeb 82bd a7f0 d0bd 3cd4 a0bd
00000100: 9235 ebbd 78c1 e9bd ac60 26bd 376c 473d
00000110: c37d 05be a120 fcbc 6959 31be 51dc e1bd
00000120: 5de6 c73c ab9a 10be 6981 f3bc 1f8b d9bd
00000130: 6eb7 7cbd 6b39 ffbd d0be 1dbe f790 debd
00000140: a4f7 2ebe 5521 5bbe 729a 4c3b 961f d2bb
00000150: d17f 91bd b3e9 99bd 4fca afbd c34a 18be
00000160: f56f 31bd 0c54 6cbe 34a3 c3bd b0b0 5b3d
00000170: 7675 ebbd af3b 92bc beea 07be b81b 9c3c
00000180: f4ca f9bc 3f1d 04be 0ae3 b6be 94dd cbbd
00000190: 36f7 4ebe 532a 0dbe fdf1 d0bd 458e 31be
000001a0: 2dcf 39be 6690 26be 3eac b6ba 11b2 0bbe
000001b0: fd82 d9bd 4b9b e0bd f30a 70bc 81ec 8bbd
000001c0: 2572 cfbd 46ee 7fbd 003b e5bd 1a22 d5bd
000001d0: 53e0 6abe d76b 70bd cba4 e8bd b1a2 98bd
000001e0: 6823 adbd 0084 a3bd 61ec 05be ceac 5ebd
000001f0: 0732 9fbc ff3f 53bd f86c b9bd 91f4 b5bc

fc.3.weight f4 [64, 128]
0.008245215 0.011422333 -0.0006614551 -0.0048603234 -0.1111421 -0.12044522 -0.025211774 -0.03844401
0.02817134 -0.00473794 0.05547507 0.059765816 -0.0046933144 0.07806996 -0.037188616 0.06731839
-0.007180321 0.05473685 0.0058055697 -0.108445734 0.012235549 0.006938018 0.083587065 0.03727489
0.07118431 0.13989168 -0.06729848 -0.06607062 -0.014109191 -0.056866053 -0.015407135 0.010115246
-0.2026838 0.037245307 -0.071520224 -0.074695304 0.088232085 0.06814592 -0.10382414 -0.075394936
-0.0028590043 0.019239862 -0.05520837 0.042402554 0.030174153 0.02645779 -0.043834005 -0.05283904
0.033429597 -0.040826946 0.066526614 0.07586732 0.060752872 -0.05204473 -0.035823476 -0.21300378
-0.16131945 0.07561781 -0.045159657 -0.108367056 -0.01799808 -0.07309939 -0.06718982 -0.048535466
-0.0040779714 0.017492913 -0.061355013 -0.15292713 0.0867089 0.077885844 -0.15256709 -0.07820827
-0.07644996 -0.26298124 0.03634621 0.013131752 0.03367165 -0.063199915 -0.031152759 0.07419901
-0.2541895 0.0029187344 -0.041557264 0.13315786 -0.14317138 0.060791932 0.03708899 -0.085532516
0.046202898 -0.057914745 -0.027349655 -0.22778435 -0.08416795 0.07682562 -0.052325595 -0.09441679
0.032219555 0.01113445 -0.060408354 0.0091515165 -0.060692053 -0.04316163 0.063414246 -0.12450151
-0.27704152 -0.006484146 0.0018781974 -0.14968127 -0.13135263 -0.07124067 -0.0228935 -0.03865266
-0.073283345 -0.077148974 0.14965789 -0.083141156 -0.13339104 -0.024104932 -0.08755382 -0.12261859
0.009822948 0.0335096 -0.11544582 0.009338543 -0.08901937 -0.0034325272 0.053642616 -0.026650928
-0.055258274 0.0870493 0.060541876 -0.07832749 -0.013267546 -0.053993154 0.06180006 0.044068154
0.04248178 -0.09244083 -0.010436068 -0.045073967 0.044098638 0.022840917 0.031950355 -0.05374552
0.06385176 0.047405384 0.07547126 0.039610915 -0.080871716 -0.017117038 -0.04052816 -0.06665557
0.0075695217 -0.013837964 -0.04432777 0.01678376 -0.024381034 -0.013060555 -0.002697651 0.03987735
-0.14117013 0.03688427 0.07503313 0.062016375 0.08304753 0.060445838 0.0161763 -0.08092893
0.057470217 -0.054249894 0.042756833 -0.07114488 0.008673067 0.04031799 -0.020156775 0.047264166
0.010624648 0.058002256 -0.01910548 0.079881705 0.03402421 -0.054717906 -0.00623095 0.04460889
0.016688608 -0.07006779 -0.0072955014 0.07574832 -0.063703924 -0.011745571 -0.057658434 0.02671644
-0.0048713563 -0.043599956 0.030569743 -0.077868074 -0.047866028 -0.09636367 0.039229568 0.03152018
-0.07431839 -0.058780737 0.08060967 -0.047815114 0.06274996 -0.016726084 -0.0022558658 -0.03687505
-0.049204476 -0.07994328 0.0072788396 0.051093798 -0.09536151 -0.043785296 -0.0442267 -0.06372349
-0.025229275 -0.022337092 0.024779955 -0.072188444 -0.028328761 -0.060431626 -0.06346724 -0.06543655
-0.08714449 -0.03987946 -0.056264315 -0.026954938 0.017005267 -0.03610356 -0.08193472 -0.03990667
-0.088229254 0.0635267 0.084096335 0.06150066 0.05595181 -0.019879146 0.054404676 -0.07818667
0.024854075 -0.028602047 0.0005404502 -0.062049717 -0.045596015 -0.017427117 -0.034581825 -0.04744632
-0.016753249 -0.011325344 -0.08727934 -0.06640381 -0.074361816 -0.09603549 0.05406506 -0.03684412
00000000: f016 073c bd24 3b3c 8065 2dba 5943 9fbb
00000010: 789e e3bd fcab f6bd ec88 cebc 7777 1dbd
00000020: 95c7 e63c b940 9bbb d439 633d 00cd 743d
00000030: 60ca 99bb 25e3 9f3d 1753 18bd 39de 893d
00000040: e648 ebbb bf33 603d a63c be3b cc18 debd
00000050: 9d77 483c 5058 e33b b22f ab3d 8ead 183d
00000060: 14c9 913d c43f 0f3e c9d3 89bd 0950 87bd
00000070: 3c2a 67bc 61ec 68bd 356e 7cbc 6bba 253c
00000080: 588c 4fbe 898e 183d 3279 92bd daf9 98bd
00000090: 06b3 b43d 1790 8b3d c0a1 d4bd a968 9abd
000000a0: 225e 3bbb ea9c 9d3c 2c22 62bd 4dae 2d3d
000000b0: c92f f73c 02be d83c 498b 33bd c06d 58bd
000000c0: 79ed 083d 283a 27bd 1b3f 883d 5360 9b3d
000000d0: 01d8 783d db2c 55bd a3bb 12bd aa1d 5abe
000000e0: ed30 25be 83dd 9a3d 55f9 38bd 8cef ddbd
000000f0: b670 93bc 22b5 95bd d19a 89bd 20cd 46bd
00000100: 81a0 85bb 4c4d 8f3c 654f 7bbd ee98 1cbe
00000110: 7094 b13d 9d82 9f3d 8c3a 1cbe a82b a0bd
00000120: cc91 9cbd 7aa5 86be c3df 143d 8f26 573c
00000130: 49eb 093d f56e 81bd 1234 ffbc a7f5 973d
00000140: 2025 82be 3d48 3f3b f337 2abd 895a 083e
00000150: 859b 12be f600 793d a0ea 173d ac2b afbd
00000160: 403f 3d3d 0338 6dbd 620c e0bc 4d40 69be
00000170: 3f60 acbd c056 9d3d 5d53 56bd 975d c1bd
00000180: a7f8 033d 456d 363c c06e 77bd 3ef0 153c
00000190: 3b98 78bd 40ca 30bd 54df 813d a6fa febd
000001a0: 63d8 8dbe f678 d4bb d92d f63a 0c46 19be
000001b0: 4e81 06be a1e6 91bd 268b bbbc 4052 1ebd
000001c0: 9415 96bd 4800 9ebd eb3f 193e e945 aabd
000001d0: a997 08be b577 c5bc 6b4f b3bd 751f fbbd
000001e0: 6ef0 203c 5d41 093d dc6e ecbd b000 193c
000001f0: ca4f b6bd 40f4 60bb 5cb8 5b3d 0c53 dabc
00000200: 8056 62bd e746 b23d c2fa 773d 2a6a a0bd
00000210: 1f60 59bc ed27 5dbd 0f22 7d3d cf80 343d
00000220: 6001 2e3d 9e51 bdbd 0bfc 2abc 7b9f 38bd
00000230: c6a0 343d e01c bb3c 60de 023d 4324 5cbd
00000240: b6c4 823d 262c 423d ad90 9a3d 0e3f 223d
00000250: 12a0 a5bd 0839 8cbc db00 26bd b782 88bd
00000260: c009 f83b a1b8 62bc 0991 35bd 197e 893c
00000270: bcba c7bc f0fb 55bc 13cb 30bb 6f56 233d
00000280: e78e 10be f613 173d f8aa 993d e204 7e3d
00000290: d314 aa3d 0e96 773d 2984 843c 11be a5bd
000002a0: e465 6b3d 2335 5ebd ca21 2f3d 68b4 91bd
000002b0: 7b19 0e3c 7a24 253d d21f a5bc 1298 413d
000002c0: 0113 2e3c c693 6d3d 1883 9cbc 0599 a33d
000002d0: f85c 0b3d e21f 60bd ff2c ccbb d0b7 363d
000002e0: 8cb6 883c b47f 8fbd 1a0f efbb ef21 9b3d
000002f0: 3477 82bd 7f70 40bc 402b 6cbd 70dc da3c
00000300: e69f 9fbb de95 32bd 666d fa3c 4c79 9fbd
00000310: 2b0f 44bd 515a c5bd 2faf 203d 4e1b 013d
00000320: 3d34 98bd 12c4 70bd af16 a53d c8d9 43bd
00000330: 0d83 803d 2405 89bc 26d7 13bb 4b0a 17bd
00000340: a28a 49bd 4db9 a3bd 5583 ee3b bb47 513d
00000350: e54c c3bd 3658 33bd 0e27 35bd 7681 82bd
00000360: a0ad cebc 47fc b6bc 55ff ca3c 89d7 93bd
00000370: b811 e8bc 2787 77bd 1dfb 81bd 9903 86bd
00000380: cf78 b2bd a558 23bd 6975 66bd 9ad0 dcbc
00000390: a14e 8b3c 54e1 13bd 64cd a7bd 2d75 23bd
000003a0: 8ab1 b4bd 491a 823d b33a ac3d 1ee8 7b3d
000003b0: ba2d 653d 97d9 a2bc 70d7 5e3d 5520 a0bd
000003c0: c69a cb3c d74e eabc 00ad 0d3a d827 7ebd
000003d0: e3c2 3abd 50c3 8ebc aca5 0dbd 1357 42bd
000003e0: 1c3e 89bc f08d 39bc 83bf b2bd b9fe 87bd
000003f0: 024b 98bd 41ae c4bd 5373 5d3d dce9 16bd

fc.3.bias f4 [64]
-0.12357137 -0.21409567 -0.11253099 -0.25186127 0.08669316 -0.09879854 -0.22385035 -0.13132243
-0.14224061 -0.17896236 -0.13839439 -0.14567597 0.11542707 -0.20711978 -0.08840719 -0.17342567
-0.010785135 -0.014741965 -0.11929225 -0.17495117 -0.04883685 -0.17455116 0.008882048 -0.04080808
-0.0028339732 0.0033789405 -0.07376557 0.057813324 -0.3510252 -0.10197894 0.15041523 0.10065294
-0.101417854 -0.19322376 -0.12056923 0.024897253 0.06730463 -0.09461183 -0.13646522 -0.19514948
0.056618508 0.06404934 -0.16399325 -0.15048206 0.11902666 -0.072185315 -0.05037453 -0.015110993
-0.11281671 -0.21386972 -0.16721503 -0.23404239 -0.13058749 -0.28669468 -0.08030304 -0.16793507
-0.13877003 -0.13789971 -0.036998596 -0.17366318 -0.09258133 -0.12088908 -0.096755005 -0.16501021
00000000: fd12 fdbd e53b 5bbe a676 e6bd f6f3 80be
00000010: 2f8c b13d e456 cabd 0739 65be 6379 06be
00000020: 86a7 11be e941 37be 42b7 0dbe 152c 15be
00000030: 0765 ec3d 3517 54be d40e b5bd 8096 31be
00000040: 23b4 30bc 4888 71bc 7f4f f4bd 6626 33be
00000050: 2609 48bd 8abd 32be 0286 113c 6026 27bd
00000060: 2eba 39bb 3771 5d3b 6712 97bd aacd 6c3d
00000070: 93b9 b3be 56da d0bd 7306 1a3e 2123 ce3d
00000080: 2ab4 cfbd 73dc 45be 00ed f6bd 53f5 cb3c
00000090: 03d7 893d d9c3 c1bd 8abd 0bbe 44d5 47be
000000a0: cfe8 673d 4d2c 833d d9ed 27be f817 1abe
000000b0: 40c4 f33d e5d5 93bd 8655 4ebd 1994 77bc
000000c0: 720c e7bd aa00 5bbe 6b3a 2bbe cfa8 6fbe
000000d0: bab8 05be a5c9 92be ec75 a4bd 2cf7 2bbe
000000e0: bb19 0ebe 9535 0dbe d78b 17bd c3d4 31be
000000f0: 489b bdbd b294 f7bd 7d27 c6bd 70f8 28be

fc.5.weight f4 [4, 64]
0.1190663 0.019418951 -0.18837045 0.009940658 0.08520781 0.0047489502 0.043237038 -0.044464435
-0.10940507 0.021373384 0.075823404 -0.028804455 -0.06498521 0.0146713555 -0.082450986 0.00030423727
0.018923348 -0.12986463 0.044486627 -0.005410307 0.047712944 0.07266358 -0.15956771 0.1196124
-0.12864824 0.05292514 -0.042658444 -0.19716243 0.0005598788 -0.1059814 0.012991186 -0.16625732
-0.042416126 -0.0010893435 -0.022608679 -0.10266802 -0.059087746 0.08644258 0.017419567 -0.01628487
-0.21058439 -0.1441461 -0.052539293 -0.052084997 -0.1460326 -0.07922434 -0.0061833486 0.0976187
0.0339157 0.0024623908 0.08841365 0.018036965 0.05331512 0.0811355 -0.031768467 0.04285094
0.0075446167 -0.03179578 -0.046978068 -0.042516194 -0.0039246674 0.16776729 0.109229416 0.012279268
-0.02578543 -0.016508957 0.024158686 -0.009559502 0.08579699 0.09760949 0.039865877 0.10453979
-0.05935115 -0.0503194 -0.25526088 0.008196181 -0.0659084 0.015957875 -0.117161065 -0.017832862
0.024207639 -0.07779552 -0.20716563 -0.064057656 0.06630236 0.06476449 0.010860897 0.08051214
0.029271288 0.044233944 -0.037819013 0.22230633 -0.061563518 -0.0253318 -0.08336477 0.14850423
-0.021994445 -0.0018457681 0.057405222 -0.032208845 -0.09223208 -0.049484137 0.004510576 -0.0037382701
0.10521386 0.1093145 0.021345044 -0.09497172 -0.06236883 -0.009198473 -0.011836801 0.10323903
0.01452466 0.013534659 -0.045553703 -0.0596245 -0.023409624 0.016085805 0.06819946 -0.028064644
0.015981764 0.010279636 -0.12570806 -0.049187694 0.030703299 -0.038309623 -0.05674098 -0.03105389
-0.024517253 0.0022934272 0.01118014 0.058326304 0.09885933 0.0235065 0.072498016 -0.004472203
-2.1215708e-05 0.009616204 -0.061033323 0.029363137 -0.06661524 0.008083074 0.010073861 0.0030984797
0.028139653 -0.07419885 -0.20228592 0.00668521 0.041134264 0.06134636 0.014873994 0.10074352
0.06883575 0.040470693 -0.035621412 0.1691569 -0.22725986 -0.0015794461 -0.08745206 0.1451636
-0.030668484 0.006668576 0.020083645 0.07324583 -0.058239184 -0.013499002 -0.0055725775 0.011490377
0.13006333 0.018718835 -0.0014562401 0.047831275 -0.10974924 0.04609287 0.027074963 0.05210758
-0.116900094 0.04409743 -0.15510136 -0.11585504 -0.0016652459 -0.10905593 0.05880771 -0.006523501
0.03198472 0.047842342 -0.067110956 0.02579097 0.0564849 -0.06610283 0.027014064 0.037365768
-0.011992035 -0.057020206 0.058416557 -0.11060587 0.08967473 0.11720219 0.072112896 -0.01668993
-0.010726491 0.016813101 -0.024568243 -0.044060525 -0.07576845 0.033710517 0.00040592233 0.001165788
0.017410364 -0.11090035 -0.20226687 0.03788857 0.07086007 0.0024230417 -0.1499788 0.10270996
0.033146665 0.050735675 0.08549297 0.1713368 -0.052589234 -0.04183997 0.031118667 0.097928755
-0.00287561 -0.008304413 0.036920477 -0.053613253 -0.17403449 0.028245864 0.046536196 0.051263645
-0.21410294 0.16036876 -0.038183313 0.070245534 -0.090988524 -0.04022016 0.02707959 -0.0011514577
-0.003739065 0.008016997 -0.07238655 0.11817884 0.12775493 0.0012959559 0.038356975 0.0081161
-0.025559695 -0.16693981 0.011444625 -0.013232311 0.014463729 0.02299319 0.04708579 -0.016281934
00000000: 08d9 f33d 7e14 9f3c 2fe4 40be 24de 223c
00000010: 6f81 ae3d 159d 9b3b 5219 313d 5720 36bd
00000020: c40f e0bd 3c17 af3c 4d49 9b3d 52f7 ebbc
00000030: f716 85bd 2060 703c 10dc a8bd 0982 9f39
00000040: 2305 9b3c 3cfb 04be 9c37 363d f248 b1bb
00000050: a66e 433d a5d0 943d b865 23be 59f7 f43d
00000060: 5dbc 03be 08c8 583d 9fba 2ebd f3e4 49be
00000070: d5c4 123a c70c d9bd fcd8 543c 5c3f 2abe
00000080: 88bc 2dbd 4dc8 8eba d635 b9bc 9c43 d2bd
00000090: fe05 72bd cf08 b13d 7bb3 8e3c d967 85bc
000000a0: 6fa3 57be 099b 13be 7133 57bd 1457 55bd
000000b0: 9289 15be 5f40 a2bd b09d cabb 50ec c73d
000000c0: 30eb 0a3d 1060 213b 3712 b53d 42c2 933c
000000d0: f560 5a3d 5e2a a63d a71f 02bd 7884 2f3d
000000e0: d538 f73b 4b3c 02bd 136c 40bd 7625 2ebd
000000f0: 7f9a 80bb 30cb 2b3e acb3 df3d fc2e 493c
00000100: f73b d3bc cb3d 87bc 70e8 c53c 759f 1cbc
00000110: 55b6 af3d 7ce7 c73d 674a 233d f518 d63d
00000120: 311a 73bd b71b 4ebd 8eb1 82be 4649 063c
00000130: fcfa 86bd 17ba 823c 24f2 efbd 3916 92bc
00000140: 194f c63c 4253 9fbd 3a23 54be a930 83bd
00000150: 88c9 873d 3fa3 843d e7f1 313c 8de3 a43d
00000160: 57ca ef3c a72e 353d 1ce8 1abd 45a4 633e
00000170: 072a 7cbd a384 cfbc 26bb aabd 7e11 183e
00000180: b22d b4bc b3ed f1ba bd21 6b3d 6ced 03bd
00000190: 2ce4 bcbd e1af 4abd 74cd 933b c4fd 74bb
000001a0: 5d7a d73d 48e0 df3d cddb ae3c 8880 c2bd
000001b0: 7576 7fbd 31b5 16bc 24ef 41bc fc6e d33d
000001c0: d7f8 6d3c 79c0 5d3c 8596 3abd d238 74bd
000001d0: 8ac5 bfbc 61c6 833c 29ac 8b3d d3e7 e5bc
000001e0: 30ec 823c eb6b 283c 9db9 00be 0979 49bd
000001f0: 7c85 fb3c 8dea 1cbd 3b69 68bd ba64 febc
00000200: 68d8 c8bc 534d 163b e82c 373c 90e7 6e3d
00000210: c376 ca3d b490 c03c d779 943d 8f8b 92bb
00000220: 63f8 b1b7 488d 1d3c 14fe 79bd f68a f03c
00000230: 926d 88bd df6e 043c d60c 253c dd0f 4b3b
00000240: 2185 e63c 91f5 97bd 0a24 4fbe 9b0f db3b
00000250: 677c 283d 5246 7b3d 0db2 733c 9e52 ce3d
00000260: c2f9 8c3d 99c4 253d c2e7 11bd 7737 2d3e
00000270: cfb6 68be 6b05 cfba 111a b3bd c4a5 143e
00000280: 793c fbbc 1284 da3b 7586 a43c e901 963d
00000290: 368c 6ebd eb2a 5dbc 2b9a b6bb 2242 3c3c
000002a0: 522f 053e 3e58 993c 4fdf beba baea 433d
000002b0: 36c4 e0bd e1cb 3c3d 50cc dd3c c26e 553d
000002c0: 5169 efbd 829f 343d e4d2 1ebe 6845 edbd
000002d0: 6144 daba b758 dfbd 5ae0 703d 18c3 d5bb
000002e0: 6902 033d 55f6 433d 7871 89bd 9647 d33c
000002f0: b65c 673d ec60 87bd 994c dd3c d90c 193d
00000300: 3e7a 44bc 058e 69bd 3346 6f3d 5585 e2bd
00000310: 63a7 b73d b407 f03d edaf 933d 52b9 88bc
00000320: 2abe 2fbc a1bb 893c 5743 c9bc cf78 34bd
00000330: 7d2c 9bbd 0a14 0a3d f9d1 d439 5bcd 983a
00000340: 2ea0 8e3c b91f e3bd 0c1f 4fbe 0c31 1b3d
00000350: 161f 913d e5cb 1e3b 0b94 19be 9959 d23d
00000360: ccc4 073d 36d0 4f3d f016 af3d ea72 2f3e
00000370: cf67 57bd 6360 2bbd 93ec fe3c df8e c83d
00000380: bb74 3cbb 3c0f 08bc ed39 173d 9299 5bbd
00000390: 1936 32be df63 e73c bd9c 3e3d d4f9 513d
000003a0: cd3d 5bbe b537 243e 1b66 1cbd e4dc 8f3d
000003b0: 3158 babd e5bd 24bd 04d6 dd3c 82ec 96ba
000003c0: 1a0b 75bb b959 033c 663f 94bd bf07 f23d
000003d0: 30d2 023e 10dd a93a 341c 1d3d 64f9 043c
000003e0: 9162 d1bc 45f2 2abe 3d82 3b3c 56cc 58bc
000003f0: 47f9 6c3c 375c bc3c 08dd 403d b161 85bc

fc.5.bias f4 [4]
0.072533436 0.072850436 0.07403361 0.07145784
00000000: 698c 943d 9c32 953d ef9e 973d 7d58 923d
