best_model_0.pth (torch, 140113 bytes, 6 tensors)

fc.1.weight f4 [128, 200]
00000000: 20f1 0e3c e893 ffbc b0ed 2cbc f27d 34bd
00000010: 1656 763d 0098 c8bb b4b5 313d 43aa 8fbd
00000020: 4c36 b43c b8f9 0a3d c57e 1dbd 6570 c1bb
00000030: 58e3 14be 70a4 89bd 154a abbc ba10 27bd
00000040: b645 d6bd f15a 25bd 7221 283d a842 4abd
00000050: d83a c1bc 1101 d1bd 3a0e 1dbe 5892 55be
00000060: aa6a 29be 51b8 b4be 6018 8dbe ad29 843e
00000070: 1935 8f3e e8ea cfbc e884 0bbd 0947 d03d
00000080: 9b16 283e f4a1 b13c 22d5 93bd 4012 13be
00000090: e15e 3b3e c6d7 253e aa29 fb3d 985e 073e
000000a0: 3b9f 99bd 319c dc3d 28af 09be de4a 883d
000000b0: 3ed2 89bc cdc7 71be 2378 213e f02c 253d
000000c0: 45e7 3a3c e264 063d 94d9 6dbd 4471 233e
000000d0: 103c f63d 0a42 89bd 7858 223e 4a28 a1ba
000000e0: 8f01 4b3d fa70 093e e660 99bc 0e76 203e
000000f0: aff3 92bd dfcf 1ebe 4eb0 84be a56e 10be
00000100: 9034 a53d 63e2 893d e7f3 81be 6aad c6bb
00000110: 5175 f2bd 1493 16bd ea69 97be 5ace 34be
00000120: ce68 e1bd 0255 343d f868 0b3e f3b4 bd3d
00000130: 11ca 383e e1a4 09be 66df 34bd 1cca 0bbe
00000140: 5a37 43be 69c5 60bc 0196 27bd 6242 fdbc
00000150: f1a4 ac3d 9e93 ee3c 3593 8bbc f78b 81bd
00000160: b060 ce3c 99ff 58bd 8628 b3bd e7f3 05be
00000170: 41c2 d6bd 0507 19be a767 44be 138d eebc
00000180: 5774 693e 7571 b0bd c4b7 d9bc 1d54 363d
00000190: 34fe 49bf 8a12 1e3e 0a15 02be daeb 9ebe
000001a0: 0b86 86be f897 55bd e610 e0bd 9749 343c
000001b0: 2c3d 5ebe c8a6 96be bef2 cb3e 5a84 523e
000001c0: 2370 b0bc 9200 babe 287b 2f3d 4767 b7be
000001d0: 4cc8 303d 887d a23d 9f2e f7bb 4530 43bd
000001e0: 03bb b23e cd17 fabe aa06 00bd 8ea2 98bc
000001f0: 7a86 ca3d e268 253e f0a6 d3bc ef8e 1f3c
00000200: ba8a 18bd ea00 83bd 00eb 0c3d c1c8 0e3e
00000210: 2256 6c3e 640a 833e 71b2 97be 30aa 3dbd
00000220: e6c0 e93d 4f43 e43d b3d4 bd3c da10 073e
00000230: 67c0 99bd 7441 2a3e c29b 173e f6af 99be
00000240: 07f4 913b f021 643b 717d 453d 635c 883d
00000250: efce 60be 4407 d33c a269 eebd 88b8 6d3c
00000260: 7f94 c93d 3f97 283e 8dd9 c1bc e730 91bd
00000270: a8ba d33d f116 02bd bfd6 a4bd 682b bcbe
00000280: 37fc bbbd c67f 1fbe 4355 cabe e897 a83d
00000290: 801a 64bd 7cd6 f1bb ea31 1ebc f601 1c3c
000002a0: cc26 89bb a098 20be 651f 77bd ba0e 41be
000002b0: a245 c7bd ca6d aebd 940b b4bd 6939 edbd
000002c0: 97a0 38be 2902 c23d 9d85 113e a4d1 a4ba
000002d0: 47f7 ac3b 03bf 4ebd 3b3e fcbd 0b06 26bd
000002e0: b458 6bbd 18f9 e3bd 9218 7dbd bc79 1dbd
000002f0: ec3c b0be 51e0 4dbe 599a 0ebe 8133 b0bd
00000300: e48b 32be 26f7 12bd 5036 cebe 222e 9fbe
00000310: cf29 153d d139 8fbe 4a53 4ebe 7c26 c1be
00000320: 50a1 363c 0a47 383d dc3c d3bc 3cc3 3e3d
00000330: 5c0d b83c ca2f 6d3d 3e67 2fbd b09e 2abc
00000340: f65f 3a3d 2c45 65bd 88b9 1d3c e6bf e5bd
00000350: b88c 90be 9859 b1bc 1a74 fdbd 4f62 f6bc
00000360: ff49 5ebe a540 46be 8e06 84bd 702f eabb
00000370: 6fe6 2a3e 79a9 c9be 1ded 80be e457 06bf
00000380: 4467 cabe ecb0 02bf fffc 15bf e9a7 d1be
00000390: 5f8f 09be 9231 60be 1175 f0bd e645 3bbe
000003a0: c754 e83d e401 8abe b259 bcbe 5a4e 89be
000003b0: 0b1a 1ebe c061 70be f2a0 3abe 7936 58be
000003c0: b1e6 d7bd eb6b 55be e480 37be 8e12 00bf
000003d0: 5c12 dbbe 6ba3 c63d 27c0 df3c dcac 07be
000003e0: b6b9 13be f5b2 0b3e 4da6 323d 704e 853c
000003f0: 1c3a 56be 5bbe edbe 2a6e 593c 91d9 873e
0.008724481 -0.031198457 -0.010554716 -0.044065423 0.06014069 -0.0061216354 0.043386176 -0.07014897
0.021998547 0.033929557 -0.038450975 -0.005903291 -0.1453985 -0.06720817 -0.020909349 -0.040787436
-0.10462515 -0.04036993 0.04104752 -0.049379975 -0.02358763 -0.102052815 -0.15337458 -0.20856607
-0.16544595 -0.35296872 -0.2755766 0.25813046 0.27970198 -0.025380567 -0.034062296 0.10169799
0.16414873 0.02168367 -0.07218386 -0.1436243 0.18297912 0.16195592 0.12263806 0.13219678
-0.07501074 0.10771979 -0.13445723 0.06654905 -0.016823884 -0.23611374 0.15768485 0.04032606
0.011407678 0.032811053 -0.058068827 0.15961176 0.12023175 -0.06702049 0.1585406 -0.0012295332
0.049562033 0.13422003 -0.018722963 0.15670034 -0.07175385 -0.15508984 -0.2591576 -0.14104708
0.08066666 0.06732633 -0.25381395 -0.006063153 -0.118387826 -0.03676136 -0.29572994 -0.17656842
-0.11006318 0.044026382 0.13614261 0.09263029 0.18045832 -0.13441803 -0.04415836 -0.13651317
-0.19064084 -0.013718941 -0.04091454 -0.030915443 0.084298976 0.029123124 -0.017037967 -0.06325524
0.025192589 -0.052978132 -0.087479636 -0.13081323 -0.1048627 -0.14944084 -0.19180165 -0.029120004
0.22798286 -0.0861539 -0.026576884 0.04451381 -0.7890351 0.1543676 -0.12703338 -0.31039315
-0.26274142 -0.05214688 -0.10940723 0.011003873 -0.21703023 -0.2942412 0.39833635 0.205583
-0.021537846 -0.3632856 0.04284206 -0.35820982 0.043159768 0.079340994 -0.0075433995 -0.047653455
0.34908304 -0.48846284 -0.031256355 -0.0186322 0.098889306 0.16153291 -0.025836438 0.009738668
-0.037241675 -0.06396659 0.0344038 0.13943769 0.23079732 0.25593865 -0.29628327 -0.04630488
0.114137456 0.111456506 0.023172712 0.13190022 -0.07507401 0.16626531 0.1480551 -0.3001706
0.004454139 0.0034810267 0.048215333 0.06658246 -0.21953939 0.0257603 -0.116412416 0.014509328
0.098427765 0.16463946 -0.023663307 -0.070894055 0.10338336 -0.03176016 -0.08048772 -0.36751866
-0.091789655 -0.15576085 -0.39518175 0.08232099 -0.055689335 -0.007380305 -0.009655455 0.009521952
-0.004185533 -0.15683222 -0.060332675 -0.18853274 -0.09730078 -0.08517034 -0.08791271 -0.11583216
-0.1803001 0.09473068 0.14211126 -0.0012574685 0.005278501 -0.05047513 -0.12316557 -0.040533107
-0.05745764 -0.11131495 -0.06179101 -0.038446173 -0.3442148 -0.20105101 -0.13926066 -0.086035736
-0.17436177 -0.03588023 -0.40275812 -0.31089884 0.036416825 -0.27973798 -0.2014896 -0.37724674
0.011146858 0.044989623 -0.025785856 0.04657291 0.022467308 0.057906903 -0.04282307 -0.010413811
0.04550167 -0.05597417 0.009626754 -0.11218242 -0.2823236 -0.021649167 -0.1237566 -0.030076174
-0.21707915 -0.19360597 -0.06446563 -0.0071467683 0.16689466 -0.3938711 -0.25180903 -0.5247786
-0.3953191 -0.5105121 -0.58589166 -0.40948418 -0.13433598 -0.2189391 -0.11741079 -0.18288383
0.11344295 -0.26954567 -0.36787182 -0.2681759 -0.15439622 -0.23474789 -0.18225458 -0.2111453
-0.10542048 -0.20841949 -0.17920262 -0.5002831 -0.42787445 0.09699138 0.027313305 -0.13249534
-0.14426312 0.13642485 0.043615628 0.016272753 -0.20920604 -0.46434292 0.013270894 0.26533177

fc.1.bias f4 [128]
00000000: 287a fdbd 5ed6 513d aa5e e5bd 0826 943c
00000010: 1fc0 99bd 4050 03be 97bb b6bd 46f6 9abd
00000020: 248c c0bd 8125 d7bd f6d9 92bc 0897 41bb
00000030: bc50 95bd 28d1 cebd 6365 62bd 8700 02be
00000040: 42a3 86bd 23bc e2bd 6a97 34bd 7fba fbbb
00000050: 962d 50be 21fb a3bd 930b a03c ccf4 0ebd
00000060: e34c 75bc 4de5 2d3d 4ba1 bebd ceb5 1ebe
00000070: 1833 9fbd 77af 0bbe 859f 0cbe 3b4f 57be
00000080: 395a 043e 7f39 64bd 1520 a8bd 6f21 05be
00000090: 8f93 29be b376 cfbd 6a8c e1bc 3231 e8bd
000000a0: 98e7 f0bd 766f 9e3d ac39 7bbd 8bca 8bbd
000000b0: b35f 05be d5fe b6bd 184e 33be 311e dbbd
000000c0: c2b5 12be 1d12 40be edef 29bc b0a0 f7bd
000000d0: 0714 2ebc 7b36 10be 0e3c d0bd 51e2 02be
000000e0: ffa2 0ebe f8c0 2fbe 3b9c cabd 796d c2bd
000000f0: 49fc 32be fb0e abbd 319f b83d 4646 91bd
00000100: e894 f8bd 1672 07be 3d0f 27be 07d8 06be
00000110: a24b 00be c75e d6bb 618f b6bc 8890 e9bd
00000120: 4f2e ddbd 3430 ccbc 4447 ddbd eaf4 3cbe
00000130: 337c f0bd 0cc9 99bd c988 7dbe 114c 0cbc
00000140: 2e44 3bbe b3db b3bd f8a3 05be f970 8ebd
00000150: ef93 7cbd fa0b c2bd c124 a6bd fdf2 073e
00000160: 4e57 06be e0a8 fcbd 7f6e a53d 4441 f1bd
00000170: 0f3f 62be cbfe 9bbd 6b61 ddbd 52f5 c8be
00000180: d16b 893d 25bd 92bd 65b6 c2bc 9e82 dcbd
00000190: b591 17be 85e7 b9bd fb26 19be ac69 90be
000001a0: bb57 85bd 43de 0ebe 7359 8cbe 1cf9 13be
000001b0: b3da a5bc 5206 44be 06c4 2ebe 3377 2dbe
000001c0: a0c1 88bd 802e 53be 4609 d3bd dbe9 78be
000001d0: 5896 1cbd d146 ccbd bb36 09bc 4fbd 9abd
000001e0: 91bb fcbc 8717 02bb c337 1dbe e3bf d6bd
000001f0: b191 91be 45ad c9bd dea4 b0bd c281 3ebd
-0.12376815 0.051229827 -0.11199696 0.018084541 -0.07507347 -0.12823582 -0.08922499 -0.07566504
-0.0940173 -0.105052 -0.017926197 -0.0029539485 -0.072907895 -0.10098487 -0.05527247 -0.12695514
-0.06574108 -0.110710405 -0.044089712 -0.007682144 -0.2032989 -0.080068834 0.019536769 -0.034901425
-0.0149719445 0.042455006 -0.09308108 -0.1549904 -0.07773417 -0.13641153 -0.13732727 -0.21026318
0.12925042 -0.055718895 -0.08209244 -0.13001035 -0.16560195 -0.10130062 -0.027532775 -0.11337508
-0.11762923 0.07736103 -0.061334297 -0.068257414 -0.13024788 -0.08935324 -0.17510259 -0.10699118
-0.14327148 -0.1875691 -0.010372144 -0.120911956 -0.010624892 -0.14083283 -0.101677045 -0.12781645
-0.13929366 -0.17163455 -0.0989308 -0.094935365 -0.17479052 -0.08352467 0.09014738 -0.07093482
-0.121377766 -0.13227114 -0.16314407 -0.13168345 -0.12528852 -0.00654206 -0.022285165 -0.1140452
-0.10799848 -0.024925329 -0.108046085 -0.18452802 -0.11742439 -0.0750905 -0.2475921 -0.0085630575
-0.18287727 -0.08782139 -0.1305083 -0.069551416 -0.061664518 -0.094749406 -0.08112479 0.13276286
-0.13119242 -0.12336898 0.08077716 -0.117800266 -0.22094367 -0.07616957 -0.10809597 -0.39249665
0.067100175 -0.07164983 -0.023768613 -0.10767101 -0.14801677 -0.09077362 -0.14956276 -0.2820562
-0.06510874 -0.13951974 -0.27411994 -0.14450496 -0.020245885 -0.19143036 -0.17066965 -0.16940002
-0.06677556 -0.20623207 -0.10304503 -0.24307959 -0.038229316 -0.09974445 -0.008374865 -0.07555639
-0.030851157 -0.001985045 -0.15353303 -0.10485818 -0.28431466 -0.09847502 -0.08625196 -0.046510465

fc.3.weight f4 [64, 128]
00000000: c9c0 26be 46a2 703d 902e d1bc f487 a0ba
00000010: a2e4 eabc ed02 0abd 3e6f aa3c 00d9 283e
00000020: a38c 333c 4b2b 893d 184f 1d3d 4635 c83c
00000030: 0007 fe3c badf 30bd 2c5c 973b 7553 93bd
00000040: 8c42 66bc 1fd0 b53d 8179 bf3c 3dbd 483d
00000050: b376 77bd 752c 66bc 8945 46bd 0f78 e5bc
00000060: 3a68 7dbc 5452 76bd ef9c 9e3d 7cba eb3b
00000070: 339e 343c e1cc c93d 4938 da3c 98e8 323d
00000080: d550 2b3d a60d 21bc 2517 a1bc 81c2 8d3a
00000090: d430 d13d f063 613a 43a8 733d 645b fc3d
000000a0: 6f77 823e fde3 433d c68f 403d d071 8a3d
000000b0: 70ac 72bd bc09 8d3d e93a 98bd 5c6e 97bd
000000c0: c1e6 b03d 0aeb 5bbd cde0 1b3d 76ab a4bc
000000d0: 65d6 693c 45b3 d73c 7cad 223d 0b7b fabc
000000e0: f827 903d 2c9b 5f3d 1cbd 653d 542e b4ba
000000f0: c8f3 c63d dada d43d 7886 99bd 0601 143e
00000100: 59a6 2f3c db97 05bd 54ac d8ba e347 d33d
00000110: 89ec 003d 4295 a3bc 1d67 86bc 8764 8e3d
00000120: b189 2dbd 97ed a7bd 4f04 d23b 2c0b a23d
00000130: cd78 72bd d3c9 26bd 9c77 44bd 0bb1 3dbd
00000140: 9bbd e7bd c71c aabd 47d0 d13d c9f1 bf3d
00000150: edec 19bd d7d7 a2bd eee5 0bbc d47e 903d
00000160: df36 cfbd aec3 81bd 6781 653d c115 74bd
00000170: 237d 89bd 167f 053e 54e0 743c d07d b3bd
00000180: adca d83d 9691 763d 375c 673c 3eb5 8a3d
00000190: 4eda 643d 7b5f 743d dbc4 e7bd 0814 a6bd
000001a0: f726 2dbd 9f14 ca3b 944f 3bbd 1a62 203d
000001b0: f7c1 85bd 9df8 8d3d a2df c33d c582 c93d
000001c0: 4810 3abd 8b65 04be cf1d b7bd 427a 353e
000001d0: 5a8b f93c a7e6 2abd ba23 6d3d 8714 4b3b
000001e0: 7357 d73c c759 55ba c11a 3dbd 1dcb 8cbb
000001f0: 8c47 8e3d a8ba d6ba aae6 43bb ffb9 2e3c
00000200: 6875 393d f625 42bd 6b88 1abd 970f 18bd
00000210: ddd2 c9bd 65ca 28bd 97df 12be 7245 e63b
00000220: 6c41 94bc 69cd d0bd 86e6 c7bd 02d4 aabc
00000230: 6f92 f23c 5f44 18bb 921c 88bc 3672 633d
00000240: cf99 b3bd e604 b4bd 81ba 09be 143e adbd
00000250: 6b00 a9bd 3464 90bb 9efa 96bd fafe 26bd
00000260: d4ae 473d ed7e bdbd e06d 183e ecec 14be
00000270: fad0 cebc 4c7f debc 7462 113e e6fb 2abe
00000280: 547d c4bb f3ba 02bd 5e60 80bd d507 1a3e
00000290: 54eb 4b3d 78e4 e5bb cc10 503d d730 683d
000002a0: 3f46 fe3d d119 83be 3860 c93d c800 31ba
000002b0: b05a 8dbe 5343 ca3c 5cbb 67bd 1bd0 303d
000002c0: 3f77 2bbd 7bfc b0be dcd5 2abe adc1 1dbd
000002d0: 27d1 20bc 249d 6d3d 6eb8 a8bc d4cc 983b
000002e0: deae ef3b 8994 9b3d 2795 3e3d f872 aebd
000002f0: 50ca 193d 4d71 a4bc 86c5 853c bcd4 6a3c
00000300: 3712 84bd 8501 5dbd 27ef 1f3e aa66 d5bd
00000310: 4866 97bd ee1a 843b 536b b43b 5bc9 063c
00000320: a80b 943d 1db0 543c 53b3 0f3c 5c12 203e
00000330: f7df 5f3d 31f3 733d 1324 10bd 1c7f 1dbd
00000340: b83a cabc 28e8 17bd 39d6 543d 5a6a a73c
00000350: 616c 683d 9d2c 803d be4e 4f3d ec35 aebd
00000360: 3368 41be 67ec ddbd 7bc6 eabd 784e 023e
00000370: 2d7e cebd 79d2 2dbd c7a7 3e3d 5139 a0bd
00000380: 573c babb 32e0 0bbd 7b79 2dbd 49d9 a3bd
00000390: 15c0 e7bc 9c23 15bd 43ea 803c 0e34 31be
000003a0: eb07 68be 6a51 d73d 8207 20be 47de 0dbe
000003b0: 05a4 c5bc b534 cbbd d917 48bd 3779 2b3d
000003c0: 1c51 3d3c a60a 8ebc 1854 44bd d4c6 11bd
000003d0: ec55 fb3d ac80 2e3d d19b 11be b7e1 82bd
000003e0: 9017 54be 0c34 00bd cb77 0a3d a255 1c3d
000003f0: b3e7 8cbd 8e47 a9bd 870d 353c c866 0f3d
-0.16284479 0.058748506 -0.025534898 -0.0012247548 -0.028673474 -0.033694196 0.020804998 0.16489029
0.010958823 0.066977106 0.038405508 0.024439465 0.031009197 -0.043182112 0.004619142 -0.071936525
-0.014053952 0.088775866 0.023373367 0.049008597 -0.060415935 -0.014048685 -0.048406158 -0.02801135
-0.015466744 -0.060137108 0.077447765 0.0071938615 0.011024046 0.09853531 0.026638167 0.04367885
0.041825134 -0.009829914 -0.019664356 0.0010815413 0.10214391 0.00085979607 0.05948664 0.12322119
0.25481746 0.04782485 0.047012113 0.06759989 -0.05924648 0.06886622 -0.07433111 -0.07394096
0.08637763 -0.053690948 0.038056184 -0.02010129 0.014272307 0.0263306 0.03971623 -0.03057625
0.070388734 0.054591343 0.056088552 -0.0013746717 0.09714466 0.10393305 -0.07496351 0.14453515
0.010720813 -0.032615524 -0.001653085 0.10316446 0.031475578 -0.019968633 -0.01640659 0.06952768
-0.04236764 -0.081996135 0.006409205 0.07912287 -0.059197236 -0.04071982 -0.04796563 -0.04631142
-0.11315461 -0.0830627 0.10244804 0.09372289 -0.037579466 -0.079513244 -0.008538706 0.070554405
-0.10117888 -0.06336151 0.05603161 -0.05959106 -0.06713321 0.1303676 0.014946062 -0.08764231
0.10585532 0.060197435 0.014121107 0.067728505 0.055872254 0.05966137 -0.11316844 -0.081092894
-0.042273488 0.006167009 -0.04573019 0.039156057 -0.065311365 0.06932185 0.09564139 0.098393954
-0.045425683 -0.1292936 -0.089412324 0.17722419 0.030461956 -0.041723873 0.0578954 0.0030987577
0.026286816 -0.0008138683 -0.046168093 -0.004296674 0.0694724 -0.0016382532 -0.0029892125 0.010664462
0.045277983 -0.047399484 -0.037727755 -0.037124243 -0.09854672 -0.041208643 -0.14343105 0.0070273215
-0.018097602 -0.10195429 -0.09760766 -0.020853046 0.02961084 -0.0023234112 -0.016615186 0.055528842
-0.08769571 -0.08789997 -0.13450052 -0.08459106 -0.08252033 -0.0044064764 -0.0737202 -0.04077051
0.048750713 -0.09252725 0.14885664 -0.14543504 -0.025246132 -0.02716031 0.14197713 -0.16697654
-0.0059963856 -0.03191657 -0.062683806 0.1504205 0.049784973 -0.007015761 0.05079727 0.056687202
0.12415742 -0.25605634 0.098328054 -0.00067521306 -0.27608252 0.024690306 -0.056575164 0.043167215
-0.04186177 -0.34567627 -0.16683143 -0.03851478 -0.009815491 0.05801119 -0.020595755 0.0046630893
0.007314547 0.0759669 0.04652896 -0.08518022 0.037546456 -0.020073557 0.016329538 0.014332946
-0.06448787 -0.053956527 0.15618573 -0.10419972 -0.073925555 0.0040315306 0.005505958 0.008226718
0.07228786 0.012981442 0.008770782 0.15632004 0.05465695 0.059558097 -0.035190653 -0.0384513
-0.024686202 -0.037086636 0.05196211 0.020436455 0.056743983 0.06258509 0.050612204 -0.085063785
-0.18887405 -0.10836106 -0.114636384 0.12725246 -0.1008266 -0.04243705 0.046546724 -0.07823432
-0.0056834626 -0.034149356 -0.04235218 -0.08000428 -0.028289834 -0.036410913 0.015736705 -0.17305014
-0.2265927 0.105135754 -0.15627864 -0.13854323 -0.024126062 -0.099221624 -0.048850868 0.041863646
0.0115549825 -0.017339062 -0.04793176 -0.035590008 0.12272248 0.04260318 -0.14219595 -0.06390708
-0.20712113 -0.031299636 0.03380565 0.038167603 -0.068801306 -0.08265601 0.011050588 0.03501013

fc.3.bias f4 [64]
00000000: d06c 2c3e a17c 4ebe 33f0 73be d15d 1cbd
00000010: e16a 163e 4389 00be a81b 163e b39e 26be
00000020: 17e8 53bd d72f a9bd 8931 133e 93ff e7bd
00000030: 6d04 56be faa2 edbd f88a 91bd bae8 d3bd
00000040: e424 a33d dae7 61be 2cd8 3bbe 4aa8 91bd
00000050: a775 83be 79d1 eebd 91f8 5f3e caaa 44be
00000060: 99b9 93bc eedd 8abe aa5d 73be c653 debd
00000070: 6ee4 13be 1bbb 39be 684f 2cbe e560 43be
00000080: 6a68 f6bd 380f e0bd 3db4 07be 08b1 fbbc
00000090: 83bc 31be a887 4ebe 1500 1bbe 67a1 f5bc
000000a0: ffe3 58bd 4742 4abe 709d 9fbe 0137 7bbe
000000b0: 75b8 55be 30d0 babd 55ef 6dbe 1b34 253d
000000c0: 4a7a 37be 943c 98bd cf63 773e 2b07 9bbd
000000d0: 3cbd 81be e9b7 b2bd 44e4 10be 176e 3ebe
000000e0: 9a5a f3bd 7a7d 6a3d 4861 4dbe d1e9 52be
000000f0: f36f 05bd f6bc 39be 9dec 57be 63a5 11be
0.16838384 -0.2016473 -0.23822097 -0.038175408 0.14689209 -0.12552361 0.14658988 -0.16271476
-0.05173501 -0.08261078 0.14374365 -0.11328044 -0.20900126 -0.11603351 -0.07106584 -0.103471234
0.07966021 -0.220611 -0.18344182 -0.07112177 -0.256757 -0.116610475 0.21872164 -0.19205776
-0.018032836 -0.27122444 -0.23766199 -0.10855822 -0.14442608 -0.18137781 -0.16827166 -0.19079931
-0.12031634 -0.10940403 -0.13252349 -0.030724064 -0.17357068 -0.20168936 -0.1513675 -0.02998419
-0.05295181 -0.19751845 -0.31174803 -0.24532701 -0.20871146 -0.0912174 -0.23235829 0.040332895
-0.17917743 -0.07433429 0.24159168 -0.075697266 -0.25339687 -0.08726484 -0.14149576 -0.18596683
-0.11882515 0.05724857 -0.20056641 -0.20597006 -0.032577466 -0.18138489 -0.21086355 -0.14223246

fc.5.weight f4 [4, 64]
00000000: 1083 b93d b68a 9c3c f64c 0dbd 5733 23bd
00000010: 8db6 27be a1e1 c7bc a831 a2be 5404 28bb
00000020: 488c 6abd 384b 11bd 60af 5d3d 9d34 0dbd
00000030: 9a70 c0bd b5e5 70bb 8454 0c3e 58af 333d
00000040: fcdf 6e3d a9c6 40bc 13c0 3fbd 447f 38be
00000050: 8a0d dabc 7c1a f13d 8850 27be 3def b53d
00000060: cf14 0a3d 7190 fbbd 1d06 ad3d edd8 e93b
00000070: 33fa aabe 42ed e53c 09f8 8c3d 8e04 9cbd
00000080: 0108 e53c a455 19bd 4f1e 88bc d3e8 ac3d
00000090: 3ce1 b2bd 9bee 20bd 0db9 dfbc 7cd8 70bd
000000a0: ab4a 653c 258d dfbc 82cd 1a3c fe1f 4e3c
000000b0: f46f f93c d4d1 b43c c99c 633d a0e1 ddbd
000000c0: ecc3 883b 744a 7b3d 744f 24be e13b 49be
000000d0: 66ad 253c 3909 18be 90af 0abd 1ee8 b23d
000000e0: 8730 253d 701c b63d 8658 f33d 751e bd3a
000000f0: c52f 2bbd df3f 303d bb91 08be 0942 403d
00000100: a9b0 503d 04a3 073d 8e03 0f3d 2ef1 32bc
00000110: e2b5 b9be 2ce3 efbd 3481 41be 9404 003d
00000120: 1365 88bd a746 d9bc d80f a63d 48da 213d
00000130: 9a77 82bc 336f 813c f732 d2bc 19b5 a83c
00000140: 6056 9b3d 7c2f 523d 0e28 403c 4c1e 153c
00000150: f2fa 9bbd 446e 0e3e 9078 5cbe f0c1 12bc
00000160: 07b2 be3a 2938 73bd 9563 c4bd b3b4 0e3d
00000170: 3d99 e03b 6035 843c 03c3 9c3d 7fa7 42bd
00000180: 4966 f8bc 7d7b b139 32a9 a4bd f407 2c3e
00000190: 94ef 253d fcc0 a13b a732 63bd 4bfe 46bd
000001a0: fbac f83b cf9a 3d3c c0a5 09bc a32f 83bc
000001b0: 38b7 b03c 386b 64bd cb87 1c3d 1bbf 6d3c
000001c0: ca74 0bbd 052f a43d 4671 30be f6e3 1cbc
000001d0: 66cf 63bc 4d7a 06be 91e6 b5bc a22a 43be
000001e0: fe63 2a3e 771a c73d 65db b23c 1e1f 2ebd
000001f0: 00da 7ebe f431 13be 9aa7 e7bd ab3b 223c
00000200: e697 02ba 50e6 b03d 445a 2bbc 4251 f23b
00000210: bf7c ab3e 8454 7ebd 18a9 b93d d22a 17bc
00000220: 3051 91bd dcbf 66bd fa8e f33d 6ce7 8cbd
00000230: 1d75 9bbc f96d bbbc ed69 433d a798 07be
00000240: fa05 debd acd7 21bd 470b 06bd de5a dabc
00000250: 2895 09bd acfa ce3d 2206 21be 39ae 733d
00000260: c0d6 f93c 4680 a7bd 2f3b c4ba 32b6 4e3b
00000270: e6ac 0b3e ddcd abbc 2291 f7bc df3c 8abd
00000280: e68e 283d 221c 69bd 0753 58bc 3339 2c3e
00000290: 877e 033e 3680 cabd 1683 4e3c 664a 27be
000002a0: 6ed7 313d 072b b9bd 31ed 063d 3722 253d
000002b0: 61a1 0dbd 2a70 7d3d 5cbd 873c 83b9 dfbd
000002c0: ac8a 423d 4242 90bd b569 09be 87d8 4c3d
000002d0: 33cf 88bc 4e86 c7bc d042 febc e8bf 45bd
000002e0: 38e6 c53d de10 a63d 9bb4 5bbc deae cbbc
000002f0: 93f8 b1bc cd92 4cbd e5cc fd3d 3f7d 373c
00000300: 9a62 7e3d d340 6cbc e1c0 073e 0dea 06be
00000310: 132c 123e 1757 91bc 544f 03bd 9a3e 75bd
00000320: 3bad e9bd 64f5 28bd 9b1d 9b3d d2d6 073b
00000330: 4c00 75bc 9ff9 90bb 3786 37bd f7f5 b03b
00000340: 3e9f 56be 43f7 01be ed81 eebc 14f2 3ebc
00000350: 993a a0bd 5cef f43d 3526 503e a13f ac3d
00000360: c0cc 1b3d e91f d4bd 10fa 2abd cfa7 3abc
00000370: 0c99 14bd 0f7f dbbc 515b a63d 424d ddbb
00000380: 4ab4 453d 8d15 d4bc af50 053e f910 1d3d
00000390: e483 0b3e dcf6 29bc 4fe8 21bb 68de 18bc
000003a0: 6144 623c f80b f33c 294a a73d 15fa 973d
000003b0: 5135 7c3d 7f38 1bbd 8404 2d3d d7fb 5abd
000003c0: a11b 0dbe 18c7 453d 7dad e6bd 1492 07be
000003d0: 4c66 d73a f747 ab3d 286b cfbd 4a9f 51bc
000003e0: 88dd bb3d 6447 903e 77d2 0b3e 1822 acbd
000003f0: 3cc5 d23c 1443 273d 1918 a1bd 95d1 c9bc
0.09058201 0.019109111 -0.034497224 -0.039843883 -0.16378231 -0.02439958 -0.3167851 -0.0025637345
-0.05726269 -0.035472125 0.05412233 -0.034474004 -0.09396477 -0.003675801 0.13704115 0.043868393
0.058319077 -0.011766114 -0.046814036 -0.18017298 -0.026617784 0.117726296 -0.16339314 0.08883522
0.03371125 -0.122834094 0.08448432 0.0071364553 -0.33394012 0.028067235 0.068832465 -0.07618056
0.027957918 -0.03743519 -0.016616015 0.08442845 -0.08734366 -0.039290052 -0.027309919 -0.058800206
0.013994853 -0.027288983 0.009448411 0.01258087 0.030448891 0.02207271 0.055569444 -0.1083405
0.0041737463 0.0613503 -0.16045934 -0.19651748 0.010112142 -0.14847268 -0.033858836 0.08735679
0.040329482 0.08892143 0.11882119 0.0014428633 -0.041793603 0.043029662 -0.13336842 0.046937976
0.050949726 0.03311445 0.0349155 -0.0109217595 -0.36271578 -0.117132515 -0.18896943 0.031254366
-0.066599034 -0.026522947 0.08108491 0.03951481 -0.015926171 0.015800094 -0.025659068 0.020594167
0.07584834 0.051314816 0.0117283 0.009101462 -0.076162234 0.1390925 -0.21530366 -0.008957371
0.0014548906 -0.05937973 -0.09589306 0.034840297 0.006854205 0.016138732 0.07654383 -0.047523018
-0.03032221 0.00033852077 -0.08040084 0.16799909 0.040511683 0.0049363356 -0.055468228 -0.048582356
0.0075889803 0.011572554 -0.008401334 -0.016013926 0.02157174 -0.055766314 0.03821544 0.014510895
-0.034046926 0.08016781 -0.1723071 -0.0095758345 -0.013904428 -0.13132592 -0.02220467 -0.19059232
0.16639706 0.09721845 0.021833131 -0.042510144 -0.24887848 -0.14374524 -0.11311264 0.009901921
-0.0004981741 0.086376786 -0.010458533 0.0073949406 0.3349361 -0.06209232 0.09065455 -0.009226518
-0.070955634 -0.056335315 0.11892505 -0.06880078 -0.018976742 -0.022879587 0.04770844 -0.13241826
-0.10840984 -0.03951232 -0.0327256 -0.026654657 -0.033589512 0.101064056 -0.15724996 0.059492324
0.030497909 -0.08178763 -0.0014971251 0.0031541702 0.13640174 -0.020972187 -0.030220572 -0.067498915
0.041151904 -0.056911595 -0.013203389 0.16818695 0.12841235 -0.098877355 0.0126044955 -0.16336975
0.04341834 -0.0904141 0.032941047 0.040315833 -0.03457773 0.061874546 0.016569786 -0.109240554
0.04749553 -0.07043888 -0.1341923 0.050011184 -0.016700363 -0.024356034 -0.031037718 -0.04827872
0.09663051 0.08108686 -0.013409759 -0.024863657 -0.021724975 -0.049944688 0.12392596 0.011199295
0.062105753 -0.014419752 0.13257171 -0.13175221 0.14274625 -0.017741723 -0.032058075 -0.059874155
-0.11409994 -0.041249648 0.07574006 0.0020727408 -0.014953684 -0.0044242884 -0.04480573 0.005400415
-0.20959184 -0.12691979 -0.029114688 -0.011654396 -0.078236766 0.11959717 0.20327075 0.08410574
0.03803706 -0.10357649 -0.041742384 -0.011392548 -0.03627877 -0.026793985 0.08122886 -0.0067535946
0.04826764 -0.025889182 0.1301906 0.038346265 0.13624531 -0.010373797 -0.0024705117 -0.0093303695
0.013810248 0.029668793 0.08168442 0.07420746 0.061574284 -0.037895676 0.042240635 -0.05346283
-0.13780071 0.048285574 -0.11263559 -0.13239318 0.0016433685 0.083633356 -0.1012786 -0.012794325
0.09173113 0.28179467 0.13654505 -0.0840494 0.025728814 0.040835455 -0.078659244 -0.02463607

fc.5.bias f4 [4]
00000000: b245 ea3d c450 ec3d 2abd f33d 31e1 ea3d
0.114390746 0.11538842 0.119013146 0.11468733
