best_model_3.pth (torch, 140113 bytes, 6 tensors)

fc.1.weight f4 [128, 200]
00000000: 6c9d 923c 7a19 7a3d 90b6 e33c 060c 0e3d
00000010: 9ed6 7b3d 96bc 6dbd 8f3e 803d 7add 84bd
00000020: 80a0 34bc cd62 6fbd ce84 62bd 2a5a 03bd
00000030: 487a 3d3c 7208 46bd edfd 823d 2ced 933c
00000040: 1499 573d ae40 783d c2dd 57bd fc2a c8bc
00000050: dc02 71bc 3b82 823d 288d 183c 19af 6dbd
00000060: 9235 a4bc c6a3 0f3d 3173 89bc 2f58 06bd
00000070: 548e a43c 504e 17bd 2875 afbc 685f 36bd
00000080: 28fc 6ebd 80d0 bcbb 6261 ebbc 8c77 4dbd
00000090: 9bae a03c f7f0 03bd 97bf dc3a 6adc b03c
000000a0: ce87 9fbc 2881 febc 04de 81bd 2ef4 6c3d
000000b0: cafa 0b3d 14a3 cfbc e22b 623d 1789 a3bd
000000c0: 5851 4bbb e0c5 bf3b 3adb b5bc ec34 d73c
000000d0: 383b 72bd 9ee7 293d 20a1 a73b 7031 503d
000000e0: 8ae1 193d 29bd e4bb 824a 693d 18c5 e1bc
000000f0: 327f 90bd 8081 6ebd 2a2e 6c3d 2404 85bc
00000100: 8047 313c e03c 99bc 2ab0 50bd 8e62 df3c
00000110: c719 93bb 0446 3bbd 6d3f 8bbd 068a 0e3d
00000120: 913f 84bd 9a5c 293d d002 ccbb 024a 6c3d
00000130: bc5e c83c d6dd 08bd ba72 11bd d8f5 81bd
00000140: c463 29bd 4494 48bd 3922 0cbc 42cf 023d
00000150: 2649 f9bc aee1 bcbc edd8 74bd 902d a13c
00000160: 2f6d 523c e850 0fbd 7e13 b236 ca84 2c3d
00000170: 74a1 7dbc e02a d4bc 4219 613d 36bf 2dbd
00000180: 28d7 5d3d c7b7 fc3c 3d98 9abd 0078 5538
00000190: 8817 213d 4780 98bb f7b9 903c 3dd1 46bd
000001a0: 0a7c 46bd 700b b4bb 66f6 6b3d 4431 f43c
000001b0: fb2a adbd 587e 253c 5c1f 1fbc 0d61 92bd
000001c0: af9d 8e3c ee48 263c 7402 24bc a97e 23bd
000001d0: e0c1 753b 32f3 e6bc aa73 a3bd 0a2f 193d
000001e0: d8bc 1abc c5d2 b2bd b061 73bc cdbb a5bc
000001f0: 2dd7 7dbd a676 71bd 1ec8 733d b368 00bd
00000200: 363b ebbc 9aec b5bd 429f 83bd c037 60bd
00000210: 02f9 aebb a2d6 663c a43f 0fbd 360e f7bc
00000220: 101d aebc a8ad 9d3c 80a2 643b dc88 76bd
00000230: 92f6 a1bd 48ba 39bc 82ee 0ebd cad5 8cbd
00000240: 0079 31bd 4fb6 e43c 36ad 72bd 7aff 22bd
00000250: e933 dabb 7214 38bd b0ba 233d da7e b6bd
00000260: 0b27 20bc 857c 28bd a5c4 9d3c 6476 07bd
00000270: 0098 2f3d 3268 54bd 8471 42bd 7e80 4ebd
00000280: 2a77 adbc 1eb8 06bd b534 2ebd 0ae4 23bd
00000290: 2d00 a83c 1070 383c c0b0 163b 3451 69bc
000002a0: f69c ad3c f3af 82bd f46a 27bc 35e0 d9bc
000002b0: cc34 5abd 7b63 a0bd cf42 b9bd ae3f 88bd
000002c0: 00bb b43b 76e9 84bd 0e6d 79bd 6fac daba
000002d0: 8892 bcbc 204e efbb 7576 2bbd e3ac c3ba
000002e0: d6d3 1dbd 6791 75bd 9631 f73b c6ba c1bb
000002f0: 573e f53b 34e2 37bd e368 babd 599d 3bbd
00000300: bdfd 1bbc 2dbb 02be 0230 553c e073 2abc
00000310: 3d24 b5bc 1bd3 813c cd5c f7bd 99c0 813b
00000320: 7bc2 843d 6888 5cbd 283b 103d 2448 023d
00000330: 81d0 8d3d 0a70 633d 009d 4cba 30b5 043c
00000340: c077 eabc f611 743d da70 0f3d 210e 4fbd
00000350: 90e5 9d3b 206d 4a3d a93a 30bd ef14 08bd
00000360: 6bd9 833d d62c 173d 3e84 3a3d d085 bb3b
00000370: f1e9 833c a9df e03c f971 02bd be54 b4bb
00000380: f8e2 1ebc 65c4 27bd 6693 32bd 48ce 07bc
00000390: 2beb 0abd 714a 77bd 5977 723c 0b22 043d
000003a0: 13b1 e1bc beb1 643d 81de 3dbd 2885 123d
000003b0: f857 1bbc 221d 36bd fc3c 4e3d 4635 6a3d
000003c0: 9be1 a23c 06f2 b9bc 027f 00bd a4db 34bd
000003d0: 4e21 2bbd c066 8f3b cc5f 85bd f605 673d
000003e0: 3c23 6bbd 5cb0 d7bc 6608 16bd 975a a43c
000003f0: 65fb 8d3c 1244 463d ed9d 84bd 1e6a 86bc
0.01789733 0.061059453 0.027797014 0.034679435 0.06148397 -0.058041178 0.06261932 -0.06487556
-0.011024594 -0.058443833 -0.055302434 -0.03206841 0.011564799 -0.048347898 0.06396089 0.018057428
0.05263622 0.06060856 -0.05270172 -0.024434559 -0.014710154 0.06372496 0.009310998 -0.058028314
-0.020045076 0.035068296 -0.01677856 -0.032798942 0.020087399 -0.03693992 -0.02141817 -0.04452458
-0.058345944 -0.00576216 -0.02873296 -0.050162837 0.019614508 -0.032212224 0.0016841766 0.021589477
-0.019473936 -0.031067446 -0.06341174 0.057850055 0.034174718 -0.025346316 0.05521763 -0.07985132
-0.0031023826 0.005852446 -0.022199262 0.026270352 -0.059138507 0.041480653 0.005115643 0.050828397
0.037568606 -0.0069805575 0.05695582 -0.027559802 -0.070555106 -0.05822897 0.057661213 -0.016237326
0.01082027 -0.018705785 -0.050949253 0.027268674 -0.004489157 -0.04572107 -0.06799207 0.0347996
-0.06457437 0.041348077 -0.006225921 0.057687767 0.024459235 -0.033414684 -0.035509802 -0.06345719
-0.04135491 -0.048969522 -0.008553081 0.031935938 -0.030430388 -0.023056831 -0.05977719 0.019675046
0.012843414 -0.034989268 5.3070826e-06 0.042118825 -0.015480388 -0.02589935 0.05495573 -0.04241868
0.054160267 0.03084935 -0.075485684 5.0894916e-05 0.03932908 -0.0046539637 0.0176668 -0.04853939
-0.048458137 -0.0054945275 0.05760803 0.029808648 -0.084554635 0.0101009235 -0.0097120665 -0.07147417
0.017409174 0.010149224 -0.0100103505 -0.039915714 0.0037499592 -0.028192136 -0.079810455 0.037398376
-0.009444438 -0.08731607 -0.0148548335 -0.020231152 -0.061972786 -0.058951043 0.05951702 -0.03134985
-0.028714757 -0.08883019 -0.064268604 -0.054740667 -0.0053397426 0.014089258 -0.0349728 -0.030158143
-0.021254092 0.019247845 0.0034886897 -0.060189113 -0.07908358 -0.011335917 -0.034895428 -0.068767145
-0.043328285 0.027918963 -0.059247218 -0.039794423 -0.00665902 -0.044941373 0.03997296 -0.08910914
-0.009774934 -0.041134376 0.019258806 -0.03307189 0.042869568 -0.05185718 -0.04747154 -0.05041551
-0.021174986 -0.03289043 -0.042530734 -0.040012397 0.020507896 0.0112571865 0.0022993535 -0.014240552
0.021193009 -0.06381216 -0.010218371 -0.026596168 -0.053273007 -0.078314744 -0.09045946 -0.06652771
0.005515456 -0.06489842 -0.06089502 -0.0016683469 -0.02301909 -0.0073030144 -0.041861016 -0.0014928844
-0.0385321 -0.05995312 0.007543753 -0.0059121577 0.007484238 -0.04489346 -0.09102037 -0.045804355
-0.009520945 -0.12766714 0.013011934 -0.010403603 -0.022112006 0.015847733 -0.12078247 0.003959727
0.06482407 -0.053841025 0.035212666 0.03180708 0.069245346 0.05552677 -0.0007805377 0.008099839
-0.028621554 0.05958744 0.035019733 -0.050550584 0.0048186257 0.049420476 -0.043024693 -0.03322309
0.064379536 0.036907993 0.045536272 0.005722739 0.016102763 0.0274504 -0.031846974 -0.005503266
-0.009697668 -0.04095878 -0.0435976 -0.008288927 -0.03391568 -0.060373727 0.0147989625 0.03225903
-0.027550256 0.05583357 -0.046354774 0.03577152 -0.009481423 -0.044461377 0.050351128 0.05717971
0.019882968 -0.022698414 -0.031371124 -0.044154778 -0.04177981 0.0043762624 -0.065124124 0.05640217
-0.05740665 -0.026329212 -0.036629103 0.020062728 0.017331788 0.04840476 -0.064754345 -0.016408022

fc.1.bias f4 [128]
00000000: 4a84 03bd 3bdc cfbd 0b9a 37bd ec9b 2fbe
00000010: e68f 5fbe 282f 8ebe c742 e7bd fba4 02be
00000020: 6e08 80bd 8bc9 0dbc b497 c0bc 8cc2 f7bd
00000030: db4a fbbd 6245 10be 7164 08bd a9cc d6bd
00000040: 52a0 bbbc 29f7 2ebe 42e4 02be ab86 14be
00000050: c571 12be 9a7c d4bd 4470 20be 43b2 8fbe
00000060: 867e 0bbe 506d c1bd c675 9ebd 0fdc dbbc
00000070: 5db2 b9bd 0b4c acbd c06e 36be 88c4 c4bd
00000080: db4a 8bbd 1a06 063e 6666 56be 4af2 31be
00000090: d302 c3bd 8f45 2c3e a854 b7bd 158d adbd
000000a0: 8529 0dbe fe49 54be 27e3 cabd f866 21be
000000b0: e208 c83c b54b 0bbd f1b8 79be b8cf 6dbd
000000c0: f8dc b6bc 63c4 84bd 38c1 02be 937f 3ebd
000000d0: e03f 0e3e 5675 7ebd f151 d9bd 4864 3ebe
000000e0: ed54 e4bd c09a 9ebd 08f3 ccbd 3edb cabd
000000f0: 5186 e4bd 63da 2f3e 8cab 2fbd 9d21 8bbd
00000100: 984e d3bd 86ec d5bd e158 60be f58e afbd
00000110: 2eab a1bd 80db 373e d447 4a3e aa9d 96be
00000120: 255a 43bd f0d4 22be f401 30bd 6586 353e
00000130: e8be 91bd 3340 50be 5517 90bd dd2f 37bd
00000140: 6c58 e93d aac6 c7bb 0f77 bf3d 4bea b0bc
00000150: 9872 5dbe 171e 1fbe fd01 a7bd 71c3 23be
00000160: 7fa7 01be d8ab 3f3d 6e34 40be 8c20 b5bd
00000170: 7697 56be 1b77 2abe 5117 5cbe 51b2 9dbd
00000180: 62e8 83be 7baf 8ebc 812e 1cbe 2444 70be
00000190: fdba dfbd f8de 6cbe 37dc 71bd cdde fabd
000001a0: e5a9 8abd c775 293e 0f25 423c 8670 d4bd
000001b0: 0e08 adbd 2268 bdbd 51ab 7b3d ad08 01bd
000001c0: d486 aabd 2931 c93d e6dc c03d 505d 68be
000001d0: 0503 88bd 1c6b 05be c022 e1bd f67e 11be
000001e0: e906 533e a5bd 9fbd db05 debd 9b56 9abe
000001f0: f1d7 09be e5c7 e1bd 296e 0dbe 712f 1abe
-0.032108583 -0.101494275 -0.04482464 -0.17149323 -0.21832237 -0.27770352 -0.11292034 -0.12758248
-0.06251608 -0.008654009 -0.023509838 -0.12097654 -0.12270137 -0.14088967 -0.033298913 -0.104882546
-0.022903595 -0.17086472 -0.12782386 -0.14504497 -0.14301212 -0.10375328 -0.15667826 -0.2806569
-0.13622484 -0.09444678 -0.07737307 -0.02683833 -0.09067223 -0.084129415 -0.17815685 -0.09607798
-0.06801387 0.13088265 -0.209375 -0.17377582 -0.09522023 0.1682341 -0.08951694 -0.08474175
-0.1378537 -0.20731351 -0.09906607 -0.15761936 0.024418298 -0.034007747 -0.24386956 -0.058059424
-0.022322163 -0.0648277 -0.1276902 -0.046508383 0.13891554 -0.06212362 -0.10611332 -0.18592942
-0.11149011 -0.0774436 -0.10007292 -0.099050984 -0.11158431 0.17173152 -0.04288821 -0.067935206
-0.10317725 -0.10445504 -0.21908905 -0.08572189 -0.07893978 0.17954826 0.19753963 -0.29417163
-0.04769339 -0.15901542 -0.042970613 0.17727049 -0.071164906 -0.2033699 -0.070357 -0.04472338
0.11393818 -0.0060966806 0.093488805 -0.021596095 -0.21625745 -0.15538822 -0.08154676 -0.15992524
-0.12661551 0.046794742 -0.1877 -0.088440984 -0.20956215 -0.16646998 -0.2149327 -0.07700027
-0.25763232 -0.01741766 -0.15252115 -0.23463494 -0.10924337 -0.23131931 -0.059047904 -0.12249527
-0.06770686 0.16548835 0.011849656 -0.10373025 -0.08448802 -0.092483774 0.061442677 -0.031502414
-0.08326498 0.0982383 0.09417133 -0.22691846 -0.06641201 -0.1302914 -0.10992956 -0.14208588
0.20608105 -0.07799844 -0.108409606 -0.301442 -0.13461281 -0.11024455 -0.13811554 -0.1505716

fc.3.weight f4 [64, 128]
00000000: 728e 483d 3ca7 92bc 6797 973c 3806 8bbc
00000010: 2db0 99bd 94fc a43d a0c3 d2bd 25b2 9bbd
00000020: 90c9 cd3b a09d 97bc 0863 7b3d 2892 89bc
00000030: a2a9 06bd 6422 6bbd cb9a 603d 58dc c2bc
00000040: b4bc e4bc 6a23 a9bd c5f6 8dbd 7eb1 27be
00000050: b9b3 a7bd 0c70 743d 7e34 1a3a 4588 9fbd
00000060: a3da 433d 0ed7 3cbe e2c5 2e3d f6d1 2fbe
00000070: cb98 8ebd 00a1 0f3d 1eba 92bd 8de4 8ebd
00000080: dfb4 c83a 0deb ccbd 3afa 7cbd 7ae4 60bd
00000090: 1abe a4bd 2e85 c5bd 74c3 803d 105a c23b
000000a0: bbf6 b8bd 7805 e0bd 932a b33d 3e62 debb
000000b0: 74c1 0fbe a8ea 09bd ea4d c4bd 0d85 bcbc
000000c0: 693f 8a3d c51a 833d efbd aa3d b28c 75bd
000000d0: c7f9 21bf 10f0 7abc 746e 053d a2a9 5abe
000000e0: 649c 48bd 6c06 f03c 4dd2 edbd b8e5 87bc
000000f0: 72b0 50bd 7690 9bbd 2330 60bd 9472 b2bc
00000100: 7e28 42bd e02b 833d aae3 0dbe a84d 57bd
00000110: 5b99 80be 6396 b73b 0d19 a7bc 8e69 693a
00000120: 01d5 aebc e076 123c 8ce6 aabc e784 8ebc
00000130: 5d23 7dbd 9def 343d 840c d3bc d71f 19bd
00000140: 9bae debd 3d83 a6bc 2143 95bd 69fe 84bc
00000150: 5302 30bc c243 3bbd aa88 9cbd 3a60 29be
00000160: 6a73 8d3d 5830 793d a6c8 d2bd ad4e 8e3d
00000170: 96b4 94bd 0776 8dbc 8d08 d43c b940 d63d
00000180: 73ef 49be c0aa 1abd 04c0 84bd f41f 3fbd
00000190: 075d 24bd 2d6f 31bc bf1a a43c ecc9 b3bd
000001a0: c86b 92bc aaf5 31bc 1506 9ebb 5c36 dfbc
000001b0: 5cc5 67bd a15f 13be 8ca1 72be 184b 623d
000001c0: f608 233d b0ee 81bd fe86 80bd 26e7 9abd
000001d0: 26d6 0ebe d8f1 0abc 01dc d3bd e95d 70be
000001e0: 8a8b c1bd 6575 a33d 5deb 1f3e 0220 523d
000001f0: 9526 fcbd d54f cabd 65bd 0fbd c911 cd3d
00000200: b9ab 9b3c 807a 73bc 8549 df3c 2751 40bd
00000210: 160f d13d c1e2 9fbd 3591 5abc 31f4 223d
00000220: f16d 16bd 8b95 bc3b 9966 f6be 89cb ea3b
00000230: f6ed 4bbd cedc e9bd 5bd4 00bd 2c34 17bd
00000240: 4175 643d dfd7 84bd 10fc c73c 4e8d 99bd
00000250: a98c 48bd 7eb2 5bbe 4e2c 28be ec46 0dbe
00000260: 62ad 52bd be8a 38bc a064 40bb 950b 8dbb
00000270: 81ea e6bd 008b 71ba 5aa9 3e3d 7cc6 7abe
00000280: cc68 03bc f5fe 14be 4ee9 b13d 306a a23c
00000290: 14a0 8b3c 16d2 05bd abb0 8abe 3eb3 613d
000002a0: c3e7 13bc 7ec0 88be 9e63 bbbc 5c74 9dbe
000002b0: 88d8 9cbe 871d ecbc 759f d2bd b575 a9bd
000002c0: 4e84 223c 746a cc3c 765f 7abd 9c1f 13bd
000002d0: 694b eebc 708d 14bc c057 d0bd b550 d2bd
000002e0: 27cc bfbd 349d 863d a72a c93c 711b 9fbd
000002f0: 195d dcbd 0d69 f4bd 6ce9 68be c65a 9abe
00000300: a5bb a1bd 15a9 e0bd 6a80 ddbd 542e 80bd
00000310: a43e fd3c 22f3 b3bc f8d9 b4bd 63d8 39bd
00000320: 62de 75bc 5045 36bd f30e b8bd 2bb3 17bd
00000330: a026 b63b e5e2 0bbe bd16 1dbe df3a 79bd
00000340: f4fc f5bc f419 283d 172b fd3d f2fd babd
00000350: 8388 b6bc 467c 20bc d549 94bd 2eea 84be
00000360: 8bde 55bd 9641 a6bb 17b7 bdbd 0329 8f3d
00000370: 1a54 8dbd 0233 22bd 397c e1bd d06d aabb
00000380: a008 19be d953 64be ac6d c23c ffee f6bd
00000390: ba55 1b3d f4cf 84bd 0d74 763b 00e5 c1bd
000003a0: da56 b4bd 4af8 373d bf82 d4bd 1032 8e3b
000003b0: cdca 7dbd 6005 9cbd 4f4a eabc 426b 81b9
000003c0: e359 40bc 4cdf babd 2eca 553c cf5c 2ebc
000003d0: 743a d0bd c0d4 53bb 5aaf 8bbd 442b 5bbe
000003e0: 859d 2abb 8270 3a3d 0691 68be 9d17 abbd
000003f0: 0caa b1be ba39 4dbd 707a c2bd 821a 7cbd
0.04896397 -0.01790201 0.018504811 -0.016970739 -0.07504306 0.08055988 -0.10291219 -0.07602338
0.0062801316 -0.018507779 0.06137374 -0.016793326 -0.03287662 -0.057405844 0.054835122 -0.023786709
-0.027922012 -0.08258708 -0.06931833 -0.16376302 -0.08188576 0.05967717 0.0005882456 -0.07789663
0.04781593 -0.18441412 0.042669185 -0.17169937 -0.06962737 0.03506565 -0.07164405 -0.06977186
0.0015312693 -0.1000577 -0.061762072 -0.054905392 -0.080440715 -0.09644543 0.0628728 0.0059311464
-0.09031435 -0.10938543 0.08748355 -0.0067866137 -0.1403864 -0.03367105 -0.095851734 -0.023012662
0.06750376 0.0640159 0.08337008 -0.05994863 -0.63271755 -0.015316024 0.03257604 -0.21353772
-0.04897727 0.029299937 -0.11612377 -0.01658903 -0.05094952 -0.07595913 -0.054733407 -0.02178315
-0.047401898 0.06404853 -0.13856378 -0.052564293 -0.25117 0.0056026443 -0.020397687 0.00089039735
-0.021341803 0.008939475 -0.020861886 -0.017397357 -0.061801303 0.044173826 -0.025762804 -0.03738388
-0.10873147 -0.020326251 -0.072881944 -0.016234593 -0.010742742 -0.045718916 -0.07643254 -0.16540614
0.06906779 0.06083712 -0.10292177 0.069486 -0.072610065 -0.017268194 0.025882984 0.104615636
-0.19720249 -0.037760496 -0.064819366 -0.046661332 -0.04012778 -0.010829729 0.020032285 -0.08778748
-0.01787366 -0.0108617935 -0.0048225024 -0.0272476 -0.0565847 -0.14391948 -0.23694438 0.055247396
0.039803468 -0.06344354 -0.06275748 -0.07563619 -0.13948879 -0.008480512 -0.10344697 -0.23473324
-0.09450443 0.079813756 0.15617128 0.051300056 -0.123120464 -0.09878508 -0.03509273 0.10013158
0.019002782 -0.014860749 0.027256737 -0.046952393 0.102079555 -0.07806922 -0.013340284 0.03978366
-0.036725942 0.0057551316 -0.4812515 0.0071653766 -0.049787484 -0.11419068 -0.031452518 -0.03691499
0.055775885 -0.06486487 0.024412185 -0.07497655 -0.04896227 -0.21454808 -0.16423151 -0.13796586
-0.051434882 -0.011263547 -0.0029356852 -0.004304359 -0.11275197 -0.0009214133 0.046548225 -0.24489778
-0.008020591 -0.14550383 0.086870775 0.019826025 0.017044105 -0.032671057 -0.27087912 0.05510258
-0.009027424 -0.2670936 -0.02287465 -0.30752838 -0.3063395 -0.028822673 -0.1028432 -0.08274404
0.009919239 0.024953105 -0.061126195 -0.035918817 -0.029088693 -0.009066924 -0.10172987 -0.102693
-0.09365111 0.06572953 0.024556471 -0.07768906 -0.107599445 -0.11934099 -0.22745293 -0.3014738
-0.078971185 -0.1096975 -0.10815509 -0.062588364 0.030913658 -0.02196652 -0.08830637 -0.045372378
-0.0150066335 -0.044499695 -0.08987226 -0.037036102 0.0055588037 -0.13660772 -0.15340705 -0.06084716
-0.030027844 0.041040376 0.12361734 -0.091304675 -0.02228189 -0.009795254 -0.07240645 -0.25959915
-0.052214187 -0.0050737364 -0.09263437 0.06990244 -0.06900807 -0.039599426 -0.11010022 -0.005201079
-0.14944696 -0.2229761 0.023733936 -0.12057304 0.037923552 -0.064849764 0.0037605793 -0.094675064
-0.08805628 0.04491452 -0.103765 0.004339464 -0.061960984 -0.07618213 -0.028599886 -0.0002468471
-0.011740181 -0.09124622 0.013048692 -0.0106422445 -0.10167399 -0.0032322854 -0.06820555 -0.21403223
-0.002603383 0.045517452 -0.22711572 -0.08354113 -0.34700048 -0.05010388 -0.09496009 -0.061548717

fc.3.bias f4 [64]
00000000: d7b6 093d c3ff a4bd ea98 343e 6ad6 37bd
00000010: d468 d3bd bae5 c9bd e9ed 38be 8ca7 2fbe
00000020: 9f51 a4bd 0b5b 823d 3f10 4ebd 7d9c 53bd
00000030: 88bd f0bd 978a 82bd e2eb 0d3e d2ba 3cbe
00000040: c0f9 903d 6193 37be eb1f 283e 1d00 b3bd
00000050: 4af9 75bc c17f a7bd 72cc 883d 13bf 11be
00000060: 8b41 65be 9ca9 77be 271a 7f3d d14f 38be
00000070: 304f 9abd a9f4 9dbd ac00 28be 8a7a 87be
00000080: 8c4b f4bd 331c 5fbe d4f9 09be 0e69 11bd
00000090: a335 b5ba e591 26be fff5 30be 090b 46be
000000a0: 2c33 293e 25b1 88bd 7edc 0ebe 8636 3ebe
000000b0: 4d68 2fbe f093 09be 76f1 c8bd 683f e2bd
000000c0: b160 75bd 70e3 4dbe 17e8 20be 37b9 913d
000000d0: 5b08 24bd d9d3 35be 70ee 89be 7507 edbd
000000e0: 6bd9 cbbd 7114 3abe 36b6 82bc da2e 72be
000000f0: 0c1f d23a f206 4ebe 2fb8 42be d2cd 0fbe
0.033621635 -0.08056595 0.17636457 -0.044882216 -0.10322729 -0.0985827 -0.18059506 -0.17153758
-0.080233805 0.06365021 -0.050308462 -0.05166291 -0.117549 -0.0637409 0.13859513 -0.18430641
0.07078886 -0.17927314 0.16418426 -0.08740256 -0.015013048 -0.08178664 0.0667962 -0.14233045
-0.22388284 -0.24185795 0.0622808 -0.17999198 -0.07534635 -0.07712681 -0.16406506 -0.26460677
-0.11928472 -0.21788101 -0.13474208 -0.03550058 -0.0013825189 -0.16266592 -0.1728134 -0.19340147
0.16523427 -0.06674413 -0.13951299 -0.18575487 -0.17129631 -0.1343534 -0.0981168 -0.1104725
-0.059906665 -0.20106292 -0.15713535 0.07115405 -0.04004703 -0.17756595 -0.26939726 -0.11573688
-0.099535786 -0.1817186 -0.015956026 -0.23650685 0.0016030981 -0.20119837 -0.19015573 -0.14043358

fc.5.weight f4 [4, 64]
00000000: 0e5c d83c ed2c af3b 4554 bbbd acfd a23d
00000010: 64bb 093c 0a7e a53c 8289 f73a d100 163c
00000020: d333 593d ab45 61bd d6d6 98bd 59ed a63c
00000030: 24ef 13bc d50a 253d fae3 75bd 26f1 3bbc
00000040: e9e5 8f3d 5a30 b63d eb49 bf3c 3bd2 533c
00000050: e295 7bbe f1cc e8bd 1add 00be 5a61 303c
00000060: ed7f 193c ca4c 8a3d 96bf 103c 7cff d3bc
00000070: d176 c6ba af28 883d dd15 72bc 372e 033d
00000080: aadd 633b 9018 39bc 600c 2d3d 1344 213d
00000090: 313f 343d 93fb 34bc 167e 253d cdf0 9e3c
000000a0: 6926 043d df4c 1dbd c89e 83bd b98f 403a
000000b0: 29c4 af3c 5705 ce3c 46f8 313d db62 613d
000000c0: 2ed3 dabc 4cf3 59ba 83be 5a3d adab c6bd
000000d0: 76da 743c 5864 073d 1a42 433d fc18 90bd
000000e0: 3768 8bbb 510b 063e f9b8 843d 1afa debc
000000f0: 8fb7 f1bc fd5a ddbc f0da ff3b d048 b4bc
00000100: 647e 663d b95b 533d 2a36 6f3d 796a 0a3c
00000110: c39e f4bc 0ac8 aabc 1c54 833c b8dd b83a
00000120: 6fec e53a bbf5 88bd 1ccb 3dbd 9f7d 0d3d
00000130: 1ab6 4c3c a220 723d ca1d 0fbd d6a9 843c
00000140: 541a b3bd 873d 8b3c efb9 2dbe 32fd e83d
00000150: 7089 2a3d 24a8 6cbd 645f b73c 9a9a fbbd
00000160: c766 8fbc 2a5b 29bd e48d 76bd 595b a93d
00000170: 6012 013d 8650 dabb af4a 1d3c b375 46bd
00000180: e913 a6bc a8f3 aebd 6103 333c c3cd 02be
00000190: e42d 493d 28dd b0bc 237c 4f3c 000e 16bb
000001a0: 8697 e8bd 3b8d 2a3d 4b38 d53d 9da9 d2bb
000001b0: 2beb 263d b79e a23c 0ee8 283d 5269 dabc
000001c0: 5d14 f1bc 2c65 2b3b d3cb a3bd 508c c3bd
000001d0: f75a a13d 1524 d6bb a9bd bc3c 128e 3b3d
000001e0: 8327 cb3d 07b3 dfbc f892 803d ee03 e23c
000001f0: 2bd0 193d d489 bcbc 4b19 9bbd a699 81bb
00000200: 0f56 793d 680f 8a3d b51a f3bd 8509 5abe
00000210: b273 12bd eb88 05be 166d 3c3d 67eb 0cbd
00000220: 3569 27bc 43aa 5dbd d27f 543d f7e7 333d
00000230: bdcf 11bc 47db f2bd 2f52 38be 723b 79bd
00000240: 52ae 9c3d 5543 debc fd15 8d3d 6e95 293d
00000250: e5c2 87bd 163a 973b 5527 17bc 2c7c 043d
00000260: cf4f 5a3d 1156 af3d a99c 993c 5b69 353c
00000270: b857 b23d 86e1 a63c 540f 9abb 8acb 0b3c
00000280: b61e 083d 7819 783d 9b54 46bd 7cfb 893c
00000290: b0de 433d 5a44 71bb 6f79 823c c431 82bc
000002a0: fb34 043d b669 243c 9416 923c 59b5 a43b
000002b0: 4062 05bc 732c b23c 9fb7 1d3d 303c d9bc
000002c0: 069c c3bc 3e43 2b3d c4a6 75bc fdeb 5bbd
000002d0: 0b4c 20bd 0a02 21bd b915 cd3c e21d 153d
000002e0: 44ae 91bd ea57 5dbd e73a 833d 3247 56bb
000002f0: 7bd1 2bbe 7f06 23bd f41e aabd cf0f 193c
00000300: 8c8f 73bd e30c a7bd e361 7fbc 2092 b93c
00000310: 04f1 573d 7537 95bd 7e5b e8bc 0d7f 4c3c
00000320: 2410 043d e79d abbd d8fb 663c 62bc 6a3d
00000330: 48aa aebc dd02 6c3d 0a55 aebd 5024 313d
00000340: 91a4 aabc 4b0b b0bc db33 093d 1f1f e63b
00000350: 2ec2 14be 7d24 503b 9581 093c 131b ad3c
00000360: 2ed3 54bb c784 943d 5e00 64bd 5891 67bd
00000370: 626f 57bc bf4d 10bd 3949 c6bb ec07 a2b9
00000380: e76e 01bd 9eca 5f3d af7b fabd 8b14 10bd
00000390: 7309 8ebb eea7 e0bd 093c 4e3d b62f b73d
000003a0: 4ea5 1dbd c9b6 973b 3821 eb3c 8f65 94bc
000003b0: 2e3a 74bd 0cc0 35bd 7d55 193d 6234 6dbc
000003c0: 3e29 403e 3fd5 11ba 0c02 1bbe 3bd1 14bd
000003d0: 1b88 5ebc 2e76 f1bb 5e8f a33c d569 ffbc
000003e0: 656f b33c 2ad0 15be 1391 813d bdae e33b
000003f0: 4c8c dd3d b16a a43c f1c8 f43c be4b de3c
0.026411083 0.0053459317 -0.091469325 0.0795854 0.008406494 0.020201702 0.0018885585 0.009155468
0.05302794 -0.05499808 -0.07462852 0.020376848 -0.009029184 0.040293533 -0.06003187 -0.0114710685
0.07026274 0.08895941 0.023350677 0.012928541 -0.24568895 -0.113672145 -0.12584344 0.010765398
0.009368879 0.067529276 0.00883474 -0.02587866 -0.0015141611 0.06648385 -0.01477572 0.032026496
0.0034769573 -0.01129736 0.04224813 0.03937156 0.044005577 -0.011046308 0.040403448 0.019401932
0.032263193 -0.038403388 -0.064267695 0.0007345635 0.021455841 0.02514903 0.043449663 0.055025917
-0.026712026 -0.0008314147 0.053404342 -0.09700713 0.014944663 0.03305468 0.04767046 -0.070360154
-0.0042543667 0.13090254 0.06480593 -0.027218867 -0.029506473 -0.027020926 0.007808082 -0.022007376
0.05627288 0.051601145 0.058401264 0.008448237 -0.02986086 -0.02084734 0.016031317 0.0014104163
0.0017541776 -0.06687494 -0.04633628 0.03454363 0.012494588 0.059113152 -0.03494052 0.016194265
-0.08745256 0.016997112 -0.1696546 0.11376418 0.041634977 -0.05777754 0.022384353 -0.12285347
-0.017505063 -0.041346706 -0.06019391 0.08269376 0.031511664 -0.006662431 0.0096003255 -0.04845209
-0.020273166 -0.085425675 0.010926099 -0.12773804 0.04911603 -0.02158983 0.012663874 -0.0022896528
-0.11357026 0.041638594 0.10411128 -0.006428911 0.040751617 0.019851072 0.04123693 -0.026661549
-0.029428655 0.0026152832 -0.07997861 -0.09548247 0.07878678 -0.006535063 0.023039656 0.045789786
0.09919646 -0.027307047 0.06278032 0.027589764 0.03755204 -0.02301494 -0.075731836 -0.003955084
0.060873087 0.0674122 -0.11870328 -0.21292694 -0.035754867 -0.13040511 0.04600247 -0.034404185
-0.010217954 -0.054117452 0.05187971 0.04392239 -0.008899626 -0.1185823 -0.180001 -0.060847707
0.076504365 -0.027131716 0.068889596 0.041402273 -0.0662897 0.0046150787 -0.009225686 0.032344982
0.053298768 0.08561338 0.01875146 0.011072482 0.08708137 0.02037121 -0.0047015343 0.008532414
0.033232413 0.060571164 -0.04842053 0.01684355 0.047819793 -0.0036814422 0.015927045 -0.01589287
0.03227709 0.010034969 0.017833032 0.005026501 -0.0081411 0.02174971 0.038505193 -0.026517957
-0.023878109 0.041812174 -0.014993373 -0.053691853 -0.03913502 -0.039308585 0.025034772 0.03640545
-0.07113317 -0.05403892 0.06407719 -0.0032696244 -0.16779129 -0.039801117 -0.08306685 0.009342148
-0.05946307 -0.08156755 -0.015587303 0.022652686 0.052720085 -0.07285968 -0.02836394 0.012481463
0.032241955 -0.08379727 0.01409813 0.057308562 -0.02132143 0.05761992 -0.08512314 0.04324752
-0.020830425 -0.02148976 0.03349672 0.007022753 -0.14527199 0.003176003 0.008392711 0.021131074
-0.0032474506 0.07251888 -0.055664413 -0.056535095 -0.013149114 -0.035230394 -0.0060512093 -0.0003090495
-0.031599905 0.05463659 -0.12230622 -0.03517584 -0.0043346225 -0.1096953 0.050350223 0.08944647
-0.038487725 0.004629944 0.028702363 -0.018114833 -0.059625797 -0.044372603 0.037435044 -0.014477821
0.18765733 -0.0005563087 -0.151375 -0.03633235 -0.013582255 -0.0073688244 0.019965824 -0.031178394
0.021903703 -0.1463019 0.06326499 0.0069483207 0.10817775 0.020070406 0.029880973 0.027135726

fc.5.bias f4 [4]
00000000: 7b1a ba3d 376d bb3d cf48 bb3d 37f3 bb3d
0.09087082 0.091516905 0.091447465 0.09177249
