best_model_3.pth (torch, 140113 bytes, 6 tensors)

fc.1.weight f4 [128, 200]
0.01789733 0.061059453 0.027797014 0.034679435 0.06148397 -0.058041178 0.06261932 -0.06487556
-0.011024594 -0.058443833 -0.055302434 -0.03206841 0.011564799 -0.048347898 0.06396089 0.018057428
0.05263622 0.06060856 -0.05270172 -0.024434559 -0.014710154 0.06372496 0.009310998 -0.058028314
-0.020045076 0.035068296 -0.01677856 -0.032798942 0.020087399 -0.03693992 -0.02141817 -0.04452458
-0.058345944 -0.00576216 -0.02873296 -0.050162837 0.019614508 -0.032212224 0.0016841766 0.021589477
-0.019473936 -0.031067446 -0.06341174 0.057850055 0.034174718 -0.025346316 0.05521763 -0.07985132
-0.0031023826 0.005852446 -0.022199262 0.026270352 -0.059138507 0.041480653 0.005115643 0.050828397
0.037568606 -0.0069805575 0.05695582 -0.027559802 -0.070555106 -0.05822897 0.057661213 -0.016237326
0.01082027 -0.018705785 -0.050949253 0.027268674 -0.004489157 -0.04572107 -0.06799207 0.0347996
-0.06457437 0.041348077 -0.006225921 0.057687767 0.024459235 -0.033414684 -0.035509802 -0.06345719
-0.04135491 -0.048969522 -0.008553081 0.031935938 -0.030430388 -0.023056831 -0.05977719 0.019675046
0.012843414 -0.034989268 5.3070826e-06 0.042118825 -0.015480388 -0.02589935 0.05495573 -0.04241868
0.054160267 0.03084935 -0.075485684 5.0894916e-05 0.03932908 -0.0046539637 0.0176668 -0.04853939
-0.048458137 -0.0054945275 0.05760803 0.029808648 -0.084554635 0.0101009235 -0.0097120665 -0.07147417
0.017409174 0.010149224 -0.0100103505 -0.039915714 0.0037499592 -0.028192136 -0.079810455 0.037398376
-0.009444438 -0.08731607 -0.0148548335 -0.020231152 -0.061972786 -0.058951043 0.05951702 -0.03134985
-0.028714757 -0.08883019 -0.064268604 -0.054740667 -0.0053397426 0.014089258 -0.0349728 -0.030158143
-0.021254092 0.019247845 0.0034886897 -0.060189113 -0.07908358 -0.011335917 -0.034895428 -0.068767145
-0.043328285 0.027918963 -0.059247218 -0.039794423 -0.00665902 -0.044941373 0.03997296 -0.08910914
-0.009774934 -0.041134376 0.019258806 -0.03307189 0.042869568 -0.05185718 -0.04747154 -0.05041551
-0.021174986 -0.03289043 -0.042530734 -0.040012397 0.020507896 0.0112571865 0.0022993535 -0.014240552
0.021193009 -0.06381216 -0.010218371 -0.026596168 -0.053273007 -0.078314744 -0.09045946 -0.06652771
0.005515456 -0.06489842 -0.06089502 -0.0016683469 -0.02301909 -0.0073030144 -0.041861016 -0.0014928844
-0.0385321 -0.05995312 0.007543753 -0.0059121577 0.007484238 -0.04489346 -0.09102037 -0.045804355
-0.009520945 -0.12766714 0.013011934 -0.010403603 -0.022112006 0.015847733 -0.12078247 0.003959727
0.06482407 -0.053841025 0.035212666 0.03180708 0.069245346 0.05552677 -0.0007805377 0.008099839
-0.028621554 0.05958744 0.035019733 -0.050550584 0.0048186257 0.049420476 -0.043024693 -0.03322309
0.064379536 0.036907993 0.045536272 0.005722739 0.016102763 0.0274504 -0.031846974 -0.005503266
-0.009697668 -0.04095878 -0.0435976 -0.008288927 -0.03391568 -0.060373727 0.0147989625 0.03225903
-0.027550256 0.05583357 -0.046354774 0.03577152 -0.009481423 -0.044461377 0.050351128 0.05717971
0.019882968 -0.022698414 -0.031371124 -0.044154778 -0.04177981 0.0043762624 -0.065124124 0.05640217
-0.05740665 -0.026329212 -0.036629103 0.020062728 0.017331788 0.04840476 -0.064754345 -0.016408022
00000000: 6c9d 923c 7a19 7a3d 90b6 e33c 060c 0e3d
00000010: 9ed6 7b3d 96bc 6dbd 8f3e 803d 7add 84bd
00000020: 80a0 34bc cd62 6fbd ce84 62bd 2a5a 03bd
00000030: 487a 3d3c 7208 46bd edfd 823d 2ced 933c
00000040: 1499 573d ae40 783d c2dd 57bd fc2a c8bc
00000050: dc02 71bc 3b82 823d 288d 183c 19af 6dbd
00000060: 9235 a4bc c6a3 0f3d 3173 89bc 2f58 06bd
00000070: 548e a43c 504e 17bd 2875 afbc 685f 36bd
00000080: 28fc 6ebd 80d0 bcbb 6261 ebbc 8c77 4dbd
00000090: 9bae a03c f7f0 03bd 97bf dc3a 6adc b03c
000000a0: ce87 9fbc 2881 febc 04de 81bd 2ef4 6c3d
000000b0: cafa 0b3d 14a3 cfbc e22b 623d 1789 a3bd
000000c0: 5851 4bbb e0c5 bf3b 3adb b5bc ec34 d73c
000000d0: 383b 72bd 9ee7 293d 20a1 a73b 7031 503d
000000e0: 8ae1 193d 29bd e4bb 824a 693d 18c5 e1bc
000000f0: 327f 90bd 8081 6ebd 2a2e 6c3d 2404 85bc
00000100: 8047 313c e03c 99bc 2ab0 50bd 8e62 df3c
00000110: c719 93bb 0446 3bbd 6d3f 8bbd 068a 0e3d
00000120: 913f 84bd 9a5c 293d d002 ccbb 024a 6c3d
00000130: bc5e c83c d6dd 08bd ba72 11bd d8f5 81bd
00000140: c463 29bd 4494 48bd 3922 0cbc 42cf 023d
00000150: 2649 f9bc aee1 bcbc edd8 74bd 902d a13c
00000160: 2f6d 523c e850 0fbd 7e13 b236 ca84 2c3d
00000170: 74a1 7dbc e02a d4bc 4219 613d 36bf 2dbd
00000180: 28d7 5d3d c7b7 fc3c 3d98 9abd 0078 5538
00000190: 8817 213d 4780 98bb f7b9 903c 3dd1 46bd
000001a0: 0a7c 46bd 700b b4bb 66f6 6b3d 4431 f43c
000001b0: fb2a adbd 587e 253c 5c1f 1fbc 0d61 92bd
000001c0: af9d 8e3c ee48 263c 7402 24bc a97e 23bd
000001d0: e0c1 753b 32f3 e6bc aa73 a3bd 0a2f 193d
000001e0: d8bc 1abc c5d2 b2bd b061 73bc cdbb a5bc
000001f0: 2dd7 7dbd a676 71bd 1ec8 733d b368 00bd
00000200: 363b ebbc 9aec b5bd 429f 83bd c037 60bd
00000210: 02f9 aebb a2d6 663c a43f 0fbd 360e f7bc
00000220: 101d aebc a8ad 9d3c 80a2 643b dc88 76bd
00000230: 92f6 a1bd 48ba 39bc 82ee 0ebd cad5 8cbd
00000240: 0079 31bd 4fb6 e43c 36ad 72bd 7aff 22bd
00000250: e933 dabb 7214 38bd b0ba 233d da7e b6bd
00000260: 0b27 20bc 857c 28bd a5c4 9d3c 6476 07bd
00000270: 0098 2f3d 3268 54bd 8471 42bd 7e80 4ebd
00000280: 2a77 adbc 1eb8 06bd b534 2ebd 0ae4 23bd
00000290: 2d00 a83c 1070 383c c0b0 163b 3451 69bc
000002a0: f69c ad3c f3af 82bd f46a 27bc 35e0 d9bc
000002b0: cc34 5abd 7b63 a0bd cf42 b9bd ae3f 88bd
000002c0: 00bb b43b 76e9 84bd 0e6d 79bd 6fac daba
000002d0: 8892 bcbc 204e efbb 7576 2bbd e3ac c3ba
000002e0: d6d3 1dbd 6791 75bd 9631 f73b c6ba c1bb
000002f0: 573e f53b 34e2 37bd e368 babd 599d 3bbd
00000300: bdfd 1bbc 2dbb 02be 0230 553c e073 2abc
00000310: 3d24 b5bc 1bd3 813c cd5c f7bd 99c0 813b
00000320: 7bc2 843d 6888 5cbd 283b 103d 2448 023d
00000330: 81d0 8d3d 0a70 633d 009d 4cba 30b5 043c
00000340: c077 eabc f611 743d da70 0f3d 210e 4fbd
00000350: 90e5 9d3b 206d 4a3d a93a 30bd ef14 08bd
00000360: 6bd9 833d d62c 173d 3e84 3a3d d085 bb3b
00000370: f1e9 833c a9df e03c f971 02bd be54 b4bb
00000380: f8e2 1ebc 65c4 27bd 6693 32bd 48ce 07bc
00000390: 2beb 0abd 714a 77bd 5977 723c 0b22 043d
000003a0: 13b1 e1bc beb1 643d 81de 3dbd 2885 123d
000003b0: f857 1bbc 221d 36bd fc3c 4e3d 4635 6a3d
000003c0: 9be1 a23c 06f2 b9bc 027f 00bd a4db 34bd
000003d0: 4e21 2bbd c066 8f3b cc5f 85bd f605 673d
000003e0: 3c23 6bbd 5cb0 d7bc 6608 16bd 975a a43c
000003f0: 65fb 8d3c 1244 463d ed9d 84bd 1e6a 86bc

fc.1.bias f4 [128]
-0.032108583 -0.101494275 -0.04482464 -0.17149323 -0.21832237 -0.23340352 -0.06469714 -0.10302082
-0.06251608 0.053129725 -0.034292046 -0.12097654 -0.08029554 -0.13325113 -0.061201185 -0.08210338
-0.014075453 -0.18192439 -0.09098337 -0.124033615 -0.14301212 -0.05795784 -0.16230574 -0.24643031
-0.18943486 -0.054255947 -0.07737307 -0.063841835 -0.05449819 -0.084129415 -0.13742214 -0.04193599
-0.06801387 0.19213328 -0.224543 -0.16701403 -0.09522023 0.13675827 -0.09904081 -0.08474175
-0.1378537 -0.22531925 -0.07620496 -0.13959108 0.06934216 -0.034007747 -0.16836517 -0.008333536
-0.009863786 -0.0648277 -0.12343348 -0.03036889 0.116507486 -0.06212362 -0.06184675 -0.15308532
-0.11149011 -0.0774436 -0.085037865 -0.099050984 -0.11158431 0.1417627 -0.07145253 -0.09756951
-0.0673799 -0.106973596 -0.1832981 -0.08572189 -0.055423256 0.12408962 0.15012603 -0.2006669
-0.07257943 -0.047835838 -0.042970613 0.14334588 -0.071164906 -0.1848821 -0.10848046 -0.04472338
0.113861345 -0.0060966806 0.10289947 -0.05955 -0.20514324 -0.15783814 -0.08154676 -0.12967134
-0.102981135 0.05289509 -0.16574158 -0.088440984 -0.18013911 -0.16646998 -0.14203733 -0.07700027
-0.2097426 -0.024182796 -0.09893674 -0.18355636 -0.10924337 -0.17910269 -0.059047904 -0.12249527
-0.06258666 0.13368484 0.01686204 -0.10373025 -0.08448802 -0.059707344 0.07577929 -0.031502414
-0.08326498 -0.013426702 0.12550107 -0.1709413 -0.039867844 -0.1302914 -0.058586974 -0.15763754
0.1513273 -0.07799844 -0.103378415 -0.24177606 -0.076391086 -0.09299404 -0.13811554 -0.1505716
00000000: 4a84 03bd 3bdc cfbd 0b9a 37bd ec9b 2fbe
00000010: e68f 5fbe 5501 6fbe ef7f 84bd 94fc d2bd
00000020: 6e08 80bd 8e9e 593d d175 0cbd 8cc2 f7bd
00000030: fd71 a4bd fc72 08be 18ae 7abd d125 a8bd
00000040: bb9c 66bc 634a 3abe 7d55 babd 5605 febd
00000050: c571 12be 3365 6dbd 7a33 26be 3a58 7cbe
00000060: 36fb 41be 7c3b 5ebd c675 9ebd 82bf 82bd
00000070: 7e39 5fbd 0b4c acbd 64b8 0cbe 13c5 2bbd
00000080: db4a 8bbd 96be 443e 9aee 65be ba05 2bbe
00000090: d302 c3bd 5c0a 0c3e e8d5 cabd 158d adbd
000000a0: 8529 0dbe 17ba 66be 5911 9cbd f7f0 0ebe
000000b0: 4303 8e3d b54b 0bbd eb67 2cbe 6289 08bc
000000c0: b89b 21bc 63c4 84bd b1ca fcbd 2ec8 f8bc
000000d0: 7a9b ee3d 5675 7ebd 0553 7dbd 66c2 1cbe
000000e0: ed54 e4bd c09a 9ebd 5528 aebd 3edb cabd
000000f0: 5186 e4bd 3e2a 113e b455 92bd 86d2 c7bd
00000100: 79fe 89bd f914 dbbd 7fb2 3bbe f58e afbd
00000110: 7f03 63bd b322 fe3d a3ba 193e a07b 4dbe
00000120: 86a4 94bd 83ef 43bd f401 30bd 43c9 123e
00000130: e8be 91bd bc51 3dbe 012b debd dd2f 37bd
00000140: 2330 e93d aac6 c7bb f5bc d23d b3ea 73bd
00000150: 1211 52be 52a0 21be fd01 a7bd 90c8 04be
00000160: c6e7 d2bd 86a8 583d 29b8 29be 8c20 b5bd
00000170: 6376 38be 1b77 2abe 3c72 11be 51b2 9dbd
00000180: c4c6 56be 001b c6bc 589f cabd 33f6 3bbe
00000190: fdba dfbd b266 37be 37dc 71bd cdde fabd
000001a0: 6f2d 80bd aee4 083e 4322 8a3c 8670 d4bd
000001b0: 0e08 adbd b08f 74bd 2c32 9b3d ad08 01bd
000001c0: d486 aabd abfb 5bbc 5a83 003e 3c0b 2fbe
000001d0: 774c 23bd 1c6b 05be e5f8 6fbd bc6b 21be
000001e0: 8bf5 1a3e a5bd 9fbd 10b8 d3bd 2594 77be
000001f0: ee72 9cbd a973 bebd 296e 0dbe 712f 1abe

fc.3.weight f4 [64, 128]
0.04896397 -0.01790201 0.018504811 -0.016970739 -0.07504306 0.08055988 -0.10291219 -0.07602338
0.0062801316 -0.018507779 -0.05284967 -0.016793326 -0.03287662 0.012879857 0.054835122 -0.023786709
-0.027922012 -0.08258708 -0.06931833 -0.16376302 -0.08188576 0.14522122 0.0005882456 -0.07789663
0.04781593 -0.18441412 0.042669185 -0.2250311 -0.06962737 0.03506565 -0.07164405 -0.06105624
0.0015312693 -0.10968194 -0.09345199 -0.0070685954 -0.080440715 -0.09644543 0.08620762 0.0059311464
-0.09031435 -0.11258203 0.11155518 0.07432337 -0.17492759 -0.03367105 -0.095851734 -0.023012662
0.06750376 0.0640159 0.08337008 -0.05994863 -0.43843904 -0.015316024 0.03257604 -0.21353772
-0.04897727 0.029299937 -0.1364192 -0.01658903 -0.05094952 -0.07595913 -0.11129745 0.01695882
-0.047401898 0.077912554 -0.031009015 -0.052564293 -0.15249112 0.0056026443 -0.020397687 0.00089039735
-0.021341803 0.008939475 -0.020861886 -0.017397357 -0.061801303 0.044173826 -0.025762804 -0.03738388
-0.10873147 -0.020326251 -0.032028392 -0.016234593 -0.010742742 -0.045718916 -0.07643254 -0.21455541
0.06906779 0.06887271 -0.10292177 0.069486 -0.072610065 -0.017268194 -0.16665968 0.104615636
-0.14594136 -0.012963216 -0.068478025 -0.046661332 -0.04012778 0.014564858 0.020032285 -0.08778748
-0.01787366 -0.0108617935 -0.04186523 -0.0272476 -0.0565847 -0.11223644 -0.23694438 0.055247396
0.039803468 -0.06344354 -0.06275748 -0.018882211 -0.13948879 -0.008480512 -0.10344697 -0.1928578
-0.09450443 0.079813756 0.10505063 -0.0015985627 -0.15591735 -0.09878508 -0.03509273 0.10013158
0.019002782 -0.014860749 0.027256737 -0.046952393 0.102079555 -0.07806922 -0.013340284 0.03978366
-0.036725942 0.0057551316 -0.3668451 0.0071653766 -0.049787484 -0.0040724203 -0.031452518 -0.03691499
0.055775885 -0.06486487 0.024412185 -0.07497655 -0.04896227 -0.21454808 -0.16423151 -0.13796586
-0.051434882 -0.011263547 -0.0029356852 0.045488495 -0.11275197 -0.0009214133 0.046548225 -0.24489778
-0.008020591 -0.11569763 0.07076847 0.019826025 0.017044105 -0.032671057 -0.27087912 0.05510258
-0.009027424 -0.24582738 0.015859006 -0.3253159 -0.20296627 -0.028822673 -0.1028432 -0.08274404
0.009919239 0.024953105 -0.061126195 -0.035918817 -0.12791517 -0.009066924 -0.10172987 -0.102693
-0.09365111 0.06572953 0.045573246 -0.07768906 -0.107599445 -0.11934099 -0.2195832 -0.21822576
-0.078971185 -0.10366956 -0.12622264 -0.062588364 0.10368349 -0.02196652 -0.08830637 -0.045372378
-0.0150066335 -0.044499695 -0.08987226 -0.037036102 0.0055588037 -0.13660772 -0.15340705 -0.06084716
-0.030027844 0.041040376 0.1381453 -0.091304675 -0.02228189 -0.009795254 -0.07240645 -0.25959915
-0.052214187 -0.05004587 -0.09263437 0.06990244 -0.06900807 -0.039599426 -0.11010022 -0.005201079
-0.17887029 -0.19870694 -0.0062964414 -0.12057304 0.037923552 -0.064849764 0.0037605793 -0.094675064
-0.08805628 0.04491452 -0.103765 0.004339464 -0.061960984 -0.07618213 -0.028599886 -0.0002468471
-0.011740181 -0.09124622 -0.009853623 0.005228035 -0.10167399 -0.0032322854 -0.06820555 -0.21403223
-0.002603383 0.045517452 -0.1515336 -0.08354113 -0.3048218 -0.05010388 -0.09496009 -0.061548717
00000000: 728e 483d 3ca7 92bc 6797 973c 3806 8bbc
00000010: 2db0 99bd 94fc a43d a0c3 d2bd 25b2 9bbd
00000020: 90c9 cd3b a09d 97bc e578 58bd 2892 89bc
00000030: a2a9 06bd 0906 533c cb9a 603d 58dc c2bc
00000040: b4bc e4bc 6a23 a9bd c5f6 8dbd 7eb1 27be
00000050: b9b3 a7bd dfb4 143e 7e34 1a3a 4588 9fbd
00000060: a3da 433d 0ed7 3cbe e2c5 2e3d 8d6e 66be
00000070: cb98 8ebd 00a1 0f3d 1eba 92bd 1c16 7abd
00000080: dfb4 c83a eda0 e0bd c263 bfbd ad9f e7bb
00000090: 1abe a4bd 2e85 c5bd 9f8d b03d 105a c23b
000000a0: bbf6 b8bd 6891 e6bd 0b77 e43d da36 983d
000000b0: 3820 33be a8ea 09bd ea4d c4bd 0d85 bcbc
000000c0: 693f 8a3d c51a 833d efbd aa3d b28c 75bd
000000d0: 157b e0be 10f0 7abc 746e 053d a2a9 5abe
000000e0: 649c 48bd 6c06 f03c 7ab1 0bbe b8e5 87bc
000000f0: 72b0 50bd 7690 9bbd ebef e3bd 39ed 8a3c
00000100: 7e28 42bd 9e90 9f3d 9e06 febc a84d 57bd
00000110: a226 1cbe 6396 b73b 0d19 a7bc 8e69 693a
00000120: 01d5 aebc e076 123c 8ce6 aabc e784 8ebc
00000130: 5d23 7dbd 9def 343d 840c d3bc d71f 19bd
00000140: 9bae debd 3d83 a6bc 3430 03bd 69fe 84bc
00000150: 5302 30bc c243 3bbd aa88 9cbd 6ab4 5bbe
00000160: 6a73 8d3d 230d 8d3d a6c8 d2bd ad4e 8e3d
00000170: 96b4 94bd 0776 8dbc d6a8 2abe b940 d63d
00000180: a771 15be ab63 54bc 353e 8cbd f41f 3fbd
00000190: 075d 24bd 71a1 6e3c bf1a a43c ecc9 b3bd
000001a0: c86b 92bc aaf5 31bc e07a 2bbd 5c36 dfbc
000001b0: 5cc5 67bd 38dc e5bd 8ca1 72be 184b 623d
000001c0: f608 233d b0ee 81bd fe86 80bd deae 9abc
000001d0: 26d6 0ebe d8f1 0abc 01dc d3bd 847c 45be
000001e0: 8a8b c1bd 6575 a33d c924 d73d dd86 d1ba
000001f0: cca8 1fbe d54f cabd 65bd 0fbd c911 cd3d
00000200: b9ab 9b3c 807a 73bc 8549 df3c 2751 40bd
00000210: 160f d13d c1e2 9fbd 3591 5abc 31f4 223d
00000220: f16d 16bd 8b95 bc3b 1fd3 bbbe 89cb ea3b
00000230: f6ed 4bbd f071 85bb 5bd4 00bd 2c34 17bd
00000240: 4175 643d dfd7 84bd 10fc c73c 4e8d 99bd
00000250: a98c 48bd 7eb2 5bbe 4e2c 28be ec46 0dbe
00000260: 62ad 52bd be8a 38bc a064 40bb 2552 3a3d
00000270: 81ea e6bd 008b 71ba 5aa9 3e3d 7cc6 7abe
00000280: cc68 03bc e1f2 ecbd 0fef 903d 306a a23c
00000290: 14a0 8b3c 16d2 05bd abb0 8abe 3eb3 613d
000002a0: c3e7 13bc 2cba 7bbe bfea 813c ce8f a6be
000002b0: 64d6 4fbe 871d ecbc 759f d2bd b575 a9bd
000002c0: 4e84 223c 746a cc3c 765f 7abd 9c1f 13bd
000002d0: 32fc 02be 708d 14bc c057 d0bd b550 d2bd
000002e0: 27cc bfbd 349d 863d 03ab 3a3d 711b 9fbd
000002f0: 195d dcbd 0d69 f4bd 6bda 60be 9376 5fbe
00000300: a5bb a1bd b550 d4bd 8240 01be 542e 80bd
00000310: 0258 d43d 22f3 b3bc f8d9 b4bd 63d8 39bd
00000320: 62de 75bc 5045 36bd f30e b8bd 2bb3 17bd
00000330: a026 b63b e5e2 0bbe bd16 1dbe df3a 79bd
00000340: f4fc f5bc f419 283d f675 0d3e f2fd babd
00000350: 8388 b6bc 467c 20bc d549 94bd 2eea 84be
00000360: 8bde 55bd e6fc 4cbd 17b7 bdbd 0329 8f3d
00000370: 1a54 8dbd 0233 22bd 397c e1bd d06d aabb
00000380: c629 37be d579 4bbe 6152 cebb ffee f6bd
00000390: ba55 1b3d f4cf 84bd 0d74 763b 00e5 c1bd
000003a0: da56 b4bd 4af8 373d bf82 d4bd 1032 8e3b
000003b0: cdca 7dbd 6005 9cbd 4f4a eabc 426b 81b9
000003c0: e359 40bc 4cdf babd 1771 21bc f04f ab3b
000003d0: 743a d0bd c0d4 53bb 5aaf 8bbd 442b 5bbe
000003e0: 859d 2abb 8270 3a3d a02b 1bbe 9d17 abbd
000003f0: 9a11 9cbe ba39 4dbd 707a c2bd 821a 7cbd

fc.3.bias f4 [64]
0.012317376 -0.06734159 0.12932174 0.012260187 -0.10322729 -0.051748127 -0.15780368 -0.15568304
-0.05018418 0.03004163 -0.013909191 -0.032910362 -0.11706657 -0.0637409 0.12230021 -0.15398729
0.07267422 -0.17927314 0.18792672 -0.08740256 -0.058880623 -0.0684519 0.034928937 -0.1986766
-0.22388284 -0.17830919 0.04812345 -0.17999198 -0.07829073 -0.09554013 -0.15554935 -0.20093894
-0.11928472 -0.20141166 -0.13474208 -0.03550058 0.05189502 -0.16266592 -0.1728134 -0.19340147
0.22224198 -0.051692847 -0.13951299 -0.16833894 -0.17129631 -0.113615975 -0.053091563 -0.1104725
-0.097546406 -0.1450152 -0.15997848 0.0030887169 -0.030090185 -0.15795979 -0.2135223 -0.11573688
-0.08580102 -0.15267573 0.020924704 -0.23650685 0.019035872 -0.16947924 -0.19015573 -0.102811135
00000000: d2ce 493c 63ea 89bd eb6c 043e f4de 483c
00000010: d468 d3bd d8f5 53bd 4a97 21be 606b 1fbe
00000020: ed8d 4dbd dd19 f63c 60e3 63bc 04cd 06bd
00000030: 99c0 efbd 978a 82bd 8878 fa3d d8ae 1dbe
00000040: 39d6 943d 6193 37be dd6f 403e 1d00 b3bd
00000050: cf2c 71bd 8230 8cbd a511 0f3d e171 4bbe
00000060: 8b41 65be af96 36be 181d 453d d14f 38be
00000070: e456 a0bd 8baa c3bd 5448 1fbe f0c2 4dbe
00000080: 8c4b f4bd dc3e 4ebe d4f9 09be 0e69 11bd
00000090: df8f 543d e591 26be fff5 30be 090b 46be
000000a0: 6793 633e e1bb 53bd 7edc 0ebe 0b61 2cbe
000000b0: 4d68 2fbe 7eaf e8bd 8a76 59bd 683f e2bd
000000c0: 69c6 c7bd dd7e 14be 66d1 23be 126c 4a3b
000000d0: b17f f6bc 36c0 21be 97a5 5abe 7507 edbd
000000e0: 72b8 afbd 0757 1cbe 496a ab3c da2e 72be
000000f0: 1ef1 9b3c f78b 2dbe 2fb8 42be a58e d2bd

fc.5.weight f4 [4, 64]
0.009003068 -0.038907006 -0.0661141 0.08732802 0.008406494 0.053186525 0.0018885585 0.009155468
0.068901144 -0.08633667 -0.1449834 0.04902535 -0.009029184 0.040293533 -0.092574336 -0.0114710685
0.15144531 0.08895941 0.020676568 0.012928541 -0.185387 -0.10546201 -0.101122305 -0.015829787
0.009368879 0.06214674 -0.008035459 -0.02587866 -0.048421215 0.05849394 -0.01477572 0.026621033
0.0034769573 0.010621058 0.04224813 0.03937156 0.03264765 -0.011046308 0.040403448 0.019401932
0.055071197 -0.086381 -0.064267695 -0.0009054712 0.021455841 0.013228135 0.07328801 0.055025917
0.039258573 -0.011995661 0.036628485 -0.107779115 0.056287955 0.03305468 0.04767046 -0.070360154
-0.046685413 0.121890396 0.07824953 -0.027218867 -0.16025431 -0.05874387 0.007808082 -0.022007376
0.05299252 -0.018401554 -0.079732105 -0.0035465816 -0.02986086 0.04677504 -0.0009880839 -0.026778735
0.0020447336 -0.054246925 0.012221996 0.053962305 0.012494588 0.059113152 -0.056331825 0.016194265
-0.15561377 0.016997112 -0.2583869 0.11376418 0.021808477 0.008188544 0.048187897 -0.011998551
-0.017505063 -0.0044605047 -0.04876387 0.08269376 0.031511664 0.00032572343 -0.010323889 0.015060373
-0.020273166 -0.106051005 0.010926099 -0.12773804 0.022966633 -0.02158983 0.012663874 -0.0022896528
-0.15466873 0.030143267 0.10411128 -0.006428911 0.040751617 0.032454852 0.027397452 -0.026661549
0.035984293 0.025857596 -0.07997861 -0.12540525 0.030319463 -0.037798174 0.056121018 0.045789786
-0.009417791 0.0016392181 0.07842531 0.027589764 0.030451331 -0.02301494 -0.075731836 0.011843891
0.008141346 0.03576276 -0.07059682 -0.24472405 -0.035754867 -0.1073598 0.04600247 -0.06014254
-0.010217954 -0.032378428 0.017694376 0.044826023 -0.027338382 -0.1185823 -0.15305357 -0.06929223
-0.04107914 -0.027131716 0.030986328 0.041402273 -0.14218493 0.029436952 0.042013958 0.04608399
0.053298768 0.08283732 0.0077702366 0.011072482 0.060664583 0.09323993 0.004985378 0.00030569365
0.033232413 0.060571164 -0.04842053 0.01684355 0.021744339 -0.0036814422 0.015927045 -0.01589287
0.019151675 0.030798692 0.017833032 0.02068545 -0.0081411 0.02174971 0.040449727 -0.026517957
0.03145451 0.073483564 0.033165377 -0.1987654 -0.046008244 -0.014797627 0.025034772 0.03640545
0.02534925 -0.05403892 0.07587588 -0.0032696244 -0.25043118 -0.039801117 -0.08306685 0.009342148
-0.06560976 -0.107422985 0.08145759 0.053322636 0.052720085 -0.080948435 -0.02836394 0.012481463
0.0023114686 -0.06155063 -0.006529576 0.05931829 -0.017839635 0.05761992 -0.040431596 0.04324752
-0.07052161 -0.02148976 0.026434058 0.007022753 -0.20333561 0.011295263 0.0055046133 0.006491922
-0.0032474506 0.06438359 -0.09264208 -0.056535095 0.018512132 -0.081681766 -0.012776113 -0.052672084
-0.031599905 0.05604355 -0.12230622 -0.03517584 0.027958546 -0.1096953 0.050350223 0.08944647
-0.098252706 0.0069557745 0.028702363 -0.018114833 -0.059625797 -0.044372603 0.019530933 -0.014477821
0.042784944 -0.029851606 -0.15468904 -0.07173199 0.054047365 -0.03023604 -0.0073907487 -0.031178394
-0.029785685 -0.1788576 0.07759429 0.0069483207 0.07141044 0.020070406 0.029880973 0.044443224
00000000: 9b81 133c f45c 1fbd d466 87bd 08d9 b23d
00000010: 64bb 093c 1dda 593d 8289 f73a d100 163c
00000020: 0b1c 8d3d 48d1 b0bd 8776 14be cece 483d
00000030: 24ef 13bc d50a 253d 9d97 bdbd 26f1 3bbc
00000040: 7b14 1b3e 5a30 b63d e861 a93c 3bd2 533c
00000050: 17d6 3dbe 77fc d7bd 3619 cfbd 78ad 81bc
00000060: ed7f 193c 948d 7e3d 28a7 03bc 7cff d3bc
00000070: 5355 46bd 5797 6f3d dd15 72bc 5a14 da3c
00000080: aadd 633b f203 2e3c 600c 2d3d 1344 213d
00000090: 8bb9 053d 93fb 34bc 167e 253d cdf0 9e3c
000000a0: 5692 613d 86e8 b0bd c89e 83bd 255d 6dba
000000b0: 29c4 af3c d2ba 583c 0618 963d db62 613d
000000c0: 99cd 203d 7389 44bc c007 163d 4cbb dcbd
000000d0: 338e 663d 5864 073d 1a42 433d fc18 90bd
000000e0: 3439 3fbd aca1 f93d 4a41 a03d 1afa debc
000000f0: b519 24be 6a9d 70bd f0da ff3b d048 b4bc
00000100: af0e 593d dbbe 96bc 964a a3bd c46d 68bb
00000110: c39e f4bc 2f97 3f3d 9882 81ba 145f dbbc
00000120: f000 063b 0632 5ebd c43e 483c 9407 5d3d
00000130: 1ab6 4c3c a220 723d 33bc 66bd d6a9 843c
00000140: 3759 1fbe 873d 8b3c 4a4b 84be 32fd e83d
00000150: b1a7 b23c 3e29 063c ac60 453d 9295 44bc
00000160: c766 8fbc 6d29 92bb a0bc 47bd 595b a93d
00000170: 6012 013d dcc5 aa39 8725 29bc c8bf 763c
00000180: e913 a6bc 4531 d9bd 6103 333c c3cd 02be
00000190: 8524 bc3c 28dd b0bc 237c 4f3c 000e 16bb
000001a0: 7b61 1ebe 03ef f63c 4b38 d53d 9da9 d2bb
000001b0: 2beb 263d 61ef 043d 9f70 e03c 5269 dabc
000001c0: 4464 133d 4fd3 d33c d3cb a3bd 3c6a 00be
000001d0: 8660 f83c 42d2 1abd 27df 653d 128e 3b3d
000001e0: 144d 1abc 08db d63a 739d a03d ee03 e23c
000001f0: 1275 f93c d489 bcbc 4b19 9bbd e10c 423c
00000200: 4863 053c f97b 123d 1195 90bd f198 7abe
00000210: b273 12bd 74df dbbd 166d 3c3d 0658 76bd
00000220: 3569 27bc 3e9f 04bd ccf3 903c 7e9b 373d
00000230: bef4 dfbc 47db f2bd 13ba 1cbe 16e9 8dbd
00000240: 9a42 28bd 5543 debc 0ad7 fd3c 6e95 293d
00000250: ed98 11be c325 f13c d416 2c3d 91c2 3c3d
00000260: cf4f 5a3d 9da6 a93d 789d fe3b 5b69 353c
00000270: 6d7b 783d 94f4 be3d 625c a33b 8245 a039
00000280: b61e 083d 7819 783d 9b54 46bd 7cfb 893c
00000290: 2f21 b23c 5a44 71bb 6f79 823c c431 82bc
000002a0: f9e3 9c3c 8a4d fc3c 9416 923c 8874 a93c
000002b0: 4062 05bc 732c b23c 9dae 253d 303c d9bc
000002c0: 72d6 003d 8d7e 963d 6bd8 073d 2889 4bbe
000002d0: 2473 3cbd bf71 72bc b915 cd3c e21d 153d
000002e0: 3ba9 cf3c ea57 5dbd d064 9b3d 3247 56bb
000002f0: 8438 80be 7f06 23bd f41e aabd cf0f 193c
00000300: 695e 86bd 9500 dcbd 3dd3 a63d d668 5a3d
00000310: 04f1 573d 4bc8 a5bd 7e5b e8bc 0d7f 4c3c
00000320: 027c 173b 831c 7cbd 0ef6 d5bb bcf7 723d
00000330: 6d24 92bc dd02 6c3d 9a9b 25bd 5024 313d
00000340: a26d 90bd 4b0b b0bc 3d8c d83c 1f1f e63b
00000350: 3637 50be c40f 393c 0b60 b43b 30ba d43b
00000360: 2ed3 54bb 8bdb 833d 21bb bdbd 5891 67bd
00000370: c1a6 973c c548 a7bd e752 51bc afbe 57bd
00000380: e76e 01bd ec8d 653d af7b fabd 8b14 10bd
00000390: 5209 e53c eea7 e0bd 093c 4e3d b62f b73d
000003a0: b738 c9bd 44ed e33b 3821 eb3c 8f65 94bc
000003b0: 2e3a 74bd 0cc0 35bd 56ff 9f3c 6234 6dbc
000003c0: 443f 2f3d 5b8b f4bc ce66 1ebe 39e8 92bd
000003d0: c560 5d3d 92b1 f7bc 182e f2bb d569 ffbc
000003e0: 1c01 f4bc 7226 37be c1e9 9e3d bdae e33b
000003f0: a33f 923d b16a a43c f1c8 f43c 190a 363d

fc.5.bias f4 [4]
0.089425944 0.08954659 0.09025882 0.090371646
00000000: f324 b73d 3464 b73d 9ed9 b83d c514 b93d
