best_model_2.pth (torch, 140113 bytes, 6 tensors)

fc.1.weight f4 [128, 200]
00000000: 76ec 7b3d 00d0 eab8 ea2c 7b3d 0e37 89bd
00000010: 7a24 453d e0ad 0d3d c600 083d d573 39bd
00000020: 2a98 603d 2656 d0bc 423c 84bc f9cf 34bd
00000030: 65ce bebc 9a81 53bd f297 46bd 0a15 41bd
00000040: e153 0d3e 54b8 3b3e 2c36 573d 4c49 1bbd
00000050: 8824 65bd 804c 0a3d e301 e13c b2c6 db3c
00000060: a647 d2bd 2605 e73d ea73 8d3d 97ab 153d
00000070: e527 89bd 9e52 90bc 6e46 cdbc d003 52bc
00000080: ac3c 95bd ae22 94bd 8153 92bd 232f 573d
00000090: 6903 aabc 6aae e93c e4eb ec3c 0202 7f3d
000000a0: 8e76 97bd 3239 763c 8f9b 48bd 717f 6b3c
000000b0: 0a3f 603e 6db3 b93c 91a1 54bd 9adb c33c
000000c0: 8c40 ee3c 0e4d 1abd dbf3 36bd f313 523d
000000d0: 727d 053d 8cd4 6abc 46c2 013e 5b1d 1f3e
000000e0: 8001 093e 16a6 5e3d 3e0e 733d 9821 81bd
000000f0: 732d 8d3c 976c 423d a3fc 2f3c e7df 423d
00000100: 69d5 e33c 7ef8 8f3d 1bc9 ce3d 3043 013e
00000110: 341a b43c 20f4 6abc c7eb 653c cb23 85bd
00000120: 8487 18bd cc1f d0bd 388e 26bd 3cab 8e3d
00000130: 7064 97bd f1d6 683a 6cfa c3bd 9a9d 10bd
00000140: fde7 dbbc 20d1 f83c fcd4 5abc 4ba2 5e3d
00000150: 7ea2 e73c 59a2 81bd b836 8b3d a83a a43b
00000160: 558b b73c 5370 76bc af14 d43c 37fd 663d
00000170: 7a24 eebc 6c54 62bb b185 1cbd 96b9 033d
00000180: db83 cc3c 3371 babd 4388 b3bb 36c1 6cbd
00000190: 80ff d03c 5799 8dbd aa2a 403d dfb4 fbbc
000001a0: f1cd 31bd 98ec c13d efd4 f6bd 50a1 2cbd
000001b0: 4a5f 20bd 00c6 a7bb 4534 cfbc 7f00 69bd
000001c0: f67c dabc 3306 9c3b c947 ee3c f75d 36be
000001d0: a049 94bd 8029 6b3b 7632 5ebd 8411 1dbd
000001e0: ff99 913d 2104 37bd 0f1d 61bd 7314 d6bd
000001f0: 546a 8dbd 70be 59be 4f00 17be ca01 2a3d
00000200: 718d a13c 89ca 9abd 45f7 a93d 1bdf ca3c
00000210: 0d93 edbc 4372 35be bb30 73bc dbe9 d1bd
00000220: 98ba e7bc 92f7 023c e00b 803b af90 0bbd
00000230: d64e f5bc b0dd 413d 1aee bdbc 0adb f1bc
00000240: f463 283c 55d7 f33b 9c8e f3bc 6f93 bbbd
00000250: f3bd f0bc fa18 8b3d c6f3 acbd 490f 67bc
00000260: de06 b23a f1b3 acbc dd05 d13c 9d7c 9e3c
00000270: 816a c1bc 4f26 35bc b353 213d 5208 093e
00000280: 5083 90bd dd09 903d f100 70bb 490d 95bc
00000290: 9d98 993d 65bb 01bd f6b5 003d 1dc4 283e
000002a0: 08b5 943d ceec 1e3d 1a22 f73c 9d32 0dbc
000002b0: 470b 723d ca23 04be e830 9fbc 176f fbbc
000002c0: 2510 163d 32ae d33c 2e77 9bbb d29f fc3c
000002d0: 2572 f7bb f924 72bd ffb0 0ebd 8b6d 76bd
000002e0: a5ef 9cbd 2dc3 8a3c 9656 d5bd fbc1 25bd
000002f0: a6f5 64bc 2a30 0e3c 6366 63bd d47f 96bc
00000300: 2110 843c c13d a0bc 64da a9bd 40f6 87bd
00000310: 5beb 6ebd ba73 a53c 0abb 483c fafd 69bd
00000320: 684e 1cbd 901f f5bb 4001 d73c 3c93 c03c
00000330: 9060 b03b 78ca 51bd b032 623c c87a 3fbd
00000340: 60ee c43c 40f4 013b a22c 71bd 0878 f23c
00000350: 1fe4 883d 0c90 5abc 008b b3ba a453 c83c
00000360: 2252 f9bc 3045 d3bb 0087 fab9 64b7 d03c
00000370: fe0a dcbc 90c1 ddbb 86b6 f3bc 648e e0bc
00000380: 4ef7 93bc 365a bebc f641 67bd fced 033d
00000390: dc25 4dbd 5693 753d 0001 0f3a 56e8 1e3d
000003a0: 18de c5bc 80e1 273a 2970 123d 707e 0ebd
000003b0: 9a7b f9bc dae5 593d 123f 273d 94a9 093d
000003c0: 9eb8 b8bc 54cf 94bc 43f1 863d 984f 09bd
000003d0: 1314 b5bc 99e9 953c 26c7 2abd 5068 b4bb
000003e0: 9ca5 61bc 6185 893d 406a 1c3c 1e3b 68bd
000003f0: 6024 953b acd9 c7bc a0d6 84bd 6134 413d
0.061504804 -0.000111967325 0.06132213 -0.06699954 0.04813049 0.03458965 0.033203863 -0.04527648
0.054832615 -0.025431704 -0.016142014 -0.04414365 -0.023291776 -0.05163727 -0.04848475 -0.047139205
0.13801529 0.18332034 0.052541897 -0.0379117 -0.055943042 0.033764362 0.02746672 0.026828144
-0.10267572 0.11280279 0.069068745 0.036540594 -0.066970624 -0.01761752 -0.025057998 -0.012818292
-0.07286963 -0.07233177 -0.07144833 0.052535187 -0.02075358 0.02852555 0.028921075 0.062257774
-0.073956594 0.015028285 -0.048976477 0.014373646 0.21899047 0.022668565 -0.051911894 0.023908425
0.029083513 -0.03767114 -0.044666152 0.051288556 0.032590337 -0.014332902 0.12671766 0.15538542
0.13379478 0.05435761 0.059339754 -0.063052356 0.017233586 0.04746684 0.010741386 0.04757681
0.027811723 0.07029818 0.100969516 0.12623286 0.02198515 -0.0143404305 0.0140332645 -0.065009676
-0.037238613 -0.10162315 -0.040662974 0.06966254 -0.07392204 0.00088821264 -0.095692486 -0.03530655
-0.02684402 0.030373156 -0.0133564435 0.054353993 0.028275725 -0.063297935 0.06797546 0.005011875
0.022405306 -0.015041429 0.025888769 0.05639383 -0.029070128 -0.0034535183 -0.038213436 0.03215941
0.024965217 -0.09103622 -0.00547889 -0.057801448 0.025512457 -0.06914013 0.046915688 -0.030725894
-0.04340929 0.09468955 -0.120523326 -0.042146027 -0.039153375 -0.005120039 -0.025293479 -0.05688524
-0.026670914 0.004761481 0.029086964 -0.17809282 -0.07240605 0.003588289 -0.054247342 -0.038346782
0.071094505 -0.044681672 -0.054959353 -0.10453119 -0.06905046 -0.21264052 -0.14746211 0.041505612
0.019720765 -0.07558162 0.08299116 0.024764588 -0.029000783 -0.17719369 -0.014843161 -0.102496825
-0.028287217 0.007993596 0.0039076656 -0.034073528 -0.029944818 0.04733056 -0.023184825 -0.029523391
0.010277737 0.007441441 -0.029731087 -0.0915898 -0.02938745 0.06791873 -0.084449336 -0.014102765
0.0013582369 -0.021081896 0.025515491 0.01934653 -0.023610355 -0.011056497 0.039386462 0.1338208
-0.07056296 0.07033131 -0.0036621655 -0.018194811 0.07499812 -0.031672854 0.03142353 0.16481061
0.072610915 0.038800053 0.030167628 -0.008618024 0.059092786 -0.12904277 -0.0194325 -0.03069262
0.03663649 0.025839899 -0.004744432 0.030837927 -0.007551449 -0.05911729 -0.034836765 -0.060163062
-0.07662896 0.01693877 -0.104169056 -0.040468197 -0.013974583 0.008678475 -0.055517565 -0.0183715
0.016120972 -0.019560697 -0.08293608 -0.06638765 -0.05832992 0.020196784 0.012251625 -0.057126977
-0.03816071 -0.007480569 0.026245713 0.023507707 0.005382605 -0.05121848 0.01380603 -0.046747953
0.024039447 0.0019829422 -0.058880456 0.029598251 0.06684136 -0.0133400075 -0.0013698041 0.024453945
-0.030434672 -0.006447457 -0.000477843 0.025478072 -0.02686071 -0.006767459 -0.02975012 -0.027411647
-0.01806226 -0.023236375 -0.05645939 0.03220938 -0.050084934 0.059954964 0.0005455166 0.03879579
-0.024153754 0.00064041466 0.035751496 -0.03478855 -0.030454446 0.05319772 0.040831633 0.033608988
-0.02254897 -0.018165268 0.06588986 -0.033523172 -0.022104299 0.018299865 -0.04169383 -0.005505599
-0.0137723945 0.06714893 0.009546816 -0.056697004 0.0045514554 -0.024395786 -0.06486249 0.047169093

fc.1.bias f4 [128]
00000000: 7ccf 073d c60b d2bb 6b2d dbbd f7f9 463d
00000010: 88d5 853d dc93 8dbb 9521 6b3c c083 043c
00000020: ed6d f43a 282a 16bd 0891 cebd 9f66 7ebb
00000030: caab ccbc 8730 94bd 4f99 3f3d 7d07 8c3d
00000040: 65d8 293d 5341 a43b 3192 56bb daca b2bd
00000050: b83a 0fbc cb3b 1f3d 5747 4ebc 794c a7bc
00000060: 81eb 3c3d 604a 193c a4ce e23d 1c65 113d
00000070: 0597 9b3c 4cfd 0d3d 06d9 81bd 42f0 683d
00000080: 71e3 703d ccfb b7bd d61e 2cbb a21f 25bc
00000090: 5196 363c 3e55 93bd 5bb8 923d f7a2 593d
000000a0: 50bc 183c d826 84bc 0ed6 96bd 8b38 583d
000000b0: 3493 8bba 1d00 66bd c9d3 593d d9ea adbd
000000c0: 3299 6dbd cd66 8bbd bf85 8fbd a01b 71bd
000000d0: 5018 1fbd f200 4f3c b213 71bd c634 473d
000000e0: 56f2 6a3d c3b6 fc3c 10b1 49bd b239 923d
000000f0: ca34 8fbc e565 6fbd 7f69 4bbd 01aa 83bd
00000100: e092 99bd 78c1 e9bd 8d41 b83c bd8d 203d
00000110: 3ce0 703d bf7f 2d3d 0029 5f3d f971 a9bd
00000120: 328e f5bc c848 853d bde8 093d d66a 76bd
00000130: cdf6 02bc 0a75 003d 7906 b0bd 44f8 b8bd
00000140: bafd 34bd b164 83bd 96db 933d 337f 9e3d
00000150: d013 27ba 9013 83bd 753e 593c debd b1bb
00000160: 373e a73b cef3 e43c 0a22 84bd 6612 843d
00000170: e483 aebd b6a9 083d f683 bfbd 167f c33d
00000180: 624b a13b ed97 403d d93b ffbd 3ce1 41bd
00000190: a67b 2cbd 1dbe c5bd 3670 91bd 9af6 d93b
000001a0: 0719 0bbc 6bdc 9fbd 7f69 883d 4462 a03d
000001b0: 5416 c6bc 31d7 1ebd c95e 203d 8922 3bbd
000001c0: 2572 cfbd d9eb 8d3c 15f5 a5bd 4fbd 6bbd
000001d0: 5006 babb 2081 253d dfb6 c5bd bfc9 713c
000001e0: b47a 21bd 0ef5 413c f38d 303d c429 12bd
000001f0: b57d 5b3d 500e 3b3d a3a3 8b3c 74e5 1fbc
0.033156857 -0.006410095 -0.10702022 0.04857823 0.065348685 -0.0043206047 0.014351268 0.008088052
0.0018648483 -0.036661297 -0.10086256 -0.003881849 -0.02498426 -0.07235818 0.046777066 0.06837366
0.041466136 0.00501267 -0.0032740945 -0.08730097 -0.008742027 0.038875382 -0.012590251 -0.020422207
0.04612303 0.009356111 0.1107457 0.035496816 0.01899291 0.03466539 -0.06340222 0.056869753
0.058810655 -0.08983573 -0.0026263497 -0.010078343 0.011144237 -0.07193993 0.07164069 0.05313393
0.009322241 -0.016131803 -0.073650464 0.0527883 -0.0010648728 -0.05615245 0.05318049 -0.08492059
-0.058007427 -0.06806717 -0.07007932 -0.058864236 -0.038841546 0.012634503 -0.058856674 0.048634313
0.057360016 0.030848866 -0.049241126 0.07139911 -0.017481226 -0.058446784 -0.049661156 -0.0642891
-0.07498717 -0.11413854 0.022492195 0.039197672 0.058807597 0.042358156 0.05448246 -0.08273692
-0.02997503 0.065080225 0.033669222 -0.06016048 -0.007993412 0.031361617 -0.085949846 -0.09031728
-0.044187285 -0.0641569 0.07219617 0.07739105 -0.0006373497 -0.064002156 0.01325952 -0.0054242453
0.005103852 0.027948286 -0.06451805 0.06448822 -0.0852125 0.033364974 -0.093513414 0.09545724
0.0049223164 0.047019888 -0.12462587 -0.04733394 -0.042110108 -0.09655402 -0.07101481 0.0066517117
-0.008489854 -0.07805713 0.06660747 0.07831243 -0.024180569 -0.03877944 0.039152894 -0.045687232
-0.10129193 0.017324375 -0.08103386 -0.057553586 -0.005677022 0.040406346 -0.096540205 0.014757573
-0.03942366 0.011838211 0.043104123 -0.035684362 0.05358668 0.045667946 0.017045802 -0.009759296

fc.3.weight f4 [64, 128]
00000000: 71cd 163d bd24 3b3c 8065 2dba 4e7d 0e3b
00000010: 44bc a7bd b547 c6bd ec88 cebc b0dd 1ebd
00000020: 95c7 e63c fda6 583d 34a6 f53d 00cd 743d
00000030: 60ca 99bb 25e3 9f3d 2c75 253c da3f 12bd
00000040: e648 ebbb bf33 603d a63c be3b cc18 debd
00000050: 9d77 483c 5058 e33b 81fd 813d 8ead 183d
00000060: 14c9 913d bd72 a13c 25d2 c43c 2855 98bd
00000070: 816f 9c3b 61ec 68bd 356e 7cbc 1415 233d
00000080: ea71 8dbc 898e 183d 2cb2 ffbc 0ba8 9abc
00000090: e52a 5c3d 1790 8b3d dd7a 79bd d71b bbbd
000000a0: 225e 3bbb ea9c 9d3c 2c22 62bd 5737 403d
000000b0: 6afe 2a3d 02be d83c 5845 9dbd e36f f6bc
000000c0: 79ed 083d 283a 27bd ea61 8b3d 5360 9b3d
000000d0: a190 8c3d 18e3 c1bc fffc 1c3d 818d 50bd
000000e0: 6a94 6fbd 875d 5f3c 8ae5 89bd 2aab 9bbd
000000f0: b5d0 67bc 22b5 95bd d19a 89bd 20cd 46bd
00000100: b72c a7bd 4c4d 8f3c ac66 95bd 1bf8 89bd
00000110: 4050 313d 9d82 9f3d bb6d d23c a82b a0bd
00000120: 16ee 80bd 6686 6dbd c3df 143d 2e0a 0a3d
00000130: 3545 d73c 4a80 fdbd 6591 16bd a7f5 973d
00000140: 488c 04be 52fb ce3d fb14 1fbd ba10 e73d
00000150: f909 f8bd f600 793d a0ea 173d ac2b afbd
00000160: 4ff9 843d 5cf4 63bb 620c e0bc 0bf2 e3bd
00000170: 3f60 acbd c056 9d3d 5d53 56bd a21a 183d
00000180: a7f8 033d 2da9 c13b c06e 77bd 3ef0 153c
00000190: 7f5d 8fbd 948c 44bd 23c8 813d c955 94bd
000001a0: 9261 87bd 000d 66bd b04a c2bb 3cb8 aabc
000001b0: 808d 02be a1e6 91bd 1707 9e3c f67a 4cbd
000001c0: 9415 96bd a4dd 35bd e738 ac3d bdda b4bd
000001d0: d307 99bd 03ee a03c 6b4f b3bd 40ec bbbd
000001e0: 6ef0 203c 5d41 093d 9f19 ddbd b000 193c
000001f0: dc3f 55bd 40f4 60bb 47f0 6c3d 0c53 dabc
00000200: 2113 bfbc e746 b23d c2fa 773d c822 90bd
00000210: 36bc 483d ed27 5dbd facc 773d cf80 343d
00000220: 89df 3a3d 9e51 bdbd 0bfc 2abc 7b9f 38bd
00000230: c6a0 343d e01c bb3c 0085 393d 3d77 2abd
00000240: fd0b a83d 262c 423d ad90 9a3d 0e3f 223d
00000250: 12a0 a5bd 0839 8cbc db00 26bd b782 88bd
00000260: c009 f83b ce13 3abc 1144 01bd 435b 1d3d
00000270: 73fc 65bb f0fb 55bc 13cb 30bb 6f56 233d
00000280: 1135 67ba f613 173d 6d77 8b3d e204 7e3d
00000290: d314 aa3d 0e96 773d 1f48 efbb 11be a5bd
000002a0: 2157 653d 2335 5ebd ca21 2f3d 68b4 91bd
000002b0: 7b19 0e3c 7a24 253d d21f a5bc 1298 413d
000002c0: 0113 2e3c c693 6d3d 1883 9cbc 0599 a33d
000002d0: f85c 0b3d b954 09bd 17cd fd3c 90e5 873d
000002e0: bfee 2b3d b47f 8fbd 1a0f efbb 2c61 523d
000002f0: 3477 82bd 9e9a 503c 402b 6cbd 70dc da3c
00000300: e69f 9fbb de95 32bd 7005 053d b754 01bd
00000310: 2b0f 44bd 515a c5bd f6ad 943d 4e1b 013d
00000320: 3d34 98bd e9c0 21bd af16 a53d c8d9 43bd
00000330: 0fc0 8c3d 06fe a43d fdfb 96bb 4b0a 17bd
00000340: a8b6 29bc 4db9 a3bd b9da 153d afe8 9d3d
00000350: 2642 40bd 3658 33bd 0e27 35bd 7681 82bd
00000360: a0ad cebc 47fc b6bc 55ff ca3c 9a65 09bd
00000370: b811 e8bc 2787 77bd 1dfb 81bd 557f 25bd
00000380: cf78 b2bd a558 23bd 6975 66bd 9ad0 dcbc
00000390: 53c8 873c 54e1 13bd 64cd a7bd 8bb7 71bd
000003a0: a1bf 52bd 491a 823d b33a ac3d 1ee8 7b3d
000003b0: ba2d 653d 8075 943a 70d7 5e3d 5520 a0bd
000003c0: c69a cb3c 75ae 603b 00ad 0d3a d827 7ebd
000003d0: e6c8 9fbc 50c3 8ebc aca5 0dbd 02b0 59bd
000003e0: 1c3e 89bc f08d 39bc 31a5 b9bd b9fe 87bd
000003f0: 786f 9bbd 41ae c4bd 201c 273d dce9 16bd
0.036817018 0.011422333 -0.0006614551 0.0021742168 -0.08190206 -0.09681646 -0.025211774 -0.038785636
0.02817134 0.052893627 0.11994591 0.059765816 -0.0046933144 0.07806996 0.010098737 -0.035705425
-0.007180321 0.05473685 0.0058055697 -0.108445734 0.012235549 0.006938018 0.0634718 0.03727489
0.07118431 0.019708032 0.024025986 -0.07438117 0.0047740345 -0.056866053 -0.015407135 0.039815024
-0.017266233 0.037245307 -0.031212889 -0.018878957 0.053751845 0.06814592 -0.060908187 -0.091361694
-0.0028590043 0.019239862 -0.05520837 0.046927776 0.041746534 0.02645779 -0.07679242 -0.030082649
0.033429597 -0.040826946 0.06805785 0.07586732 0.06863523 -0.023667857 0.038327213 -0.0509162
-0.058491148 0.0136331385 -0.06733234 -0.07601006 -0.014148881 -0.07309939 -0.06718982 -0.048535466
-0.081628256 0.017492913 -0.07294974 -0.067367755 0.043289423 0.077885844 0.02568709 -0.07820827
-0.06295411 -0.0579895 0.03634621 0.033701114 0.026278118 -0.12377985 -0.036759753 0.07419901
-0.12944138 0.10106529 -0.038838368 0.11282487 -0.12111277 0.060791932 0.03708899 -0.085532516
0.06492864 -0.00347831 -0.027349655 -0.111301504 -0.08416795 0.07682562 -0.052325595 0.037134774
0.032219555 0.00591006 -0.060408354 0.0091515165 -0.07000255 -0.04798563 0.06337001 -0.07242925
-0.06610407 -0.05616474 -0.0059293136 -0.020839803 -0.1274929 -0.07124067 0.01929049 -0.049921952
-0.073283345 -0.044400826 0.08409291 -0.088307835 -0.074721955 0.019644743 -0.08755382 -0.091759205
0.009822948 0.0335096 -0.107959025 0.009338543 -0.052062854 -0.0034325272 0.057846334 -0.026650928
-0.023324551 0.0870493 0.060541876 -0.07037884 0.049007617 -0.053993154 0.060498215 0.044068154
0.045623336 -0.09244083 -0.010436068 -0.045073967 0.044098638 0.022840917 0.045292854 -0.04161762
0.082054116 0.047405384 0.07547126 0.039610915 -0.080871716 -0.017117038 -0.04052816 -0.06665557
0.0075695217 -0.011357261 -0.031559054 0.038417112 -0.0035093098 -0.013060555 -0.002697651 0.03987735
-0.0008819858 0.03688427 0.06809888 0.062016375 0.08304753 0.060445838 -0.0073022987 -0.08092893
0.055991296 -0.054249894 0.042756833 -0.07114488 0.008673067 0.04031799 -0.020156775 0.047264166
0.010624648 0.058002256 -0.01910548 0.079881705 0.03402421 -0.033528063 0.030981584 0.066355824
0.041975733 -0.07006779 -0.0072955014 0.0513622 -0.063703924 0.012732176 -0.057658434 0.02671644
-0.0048713563 -0.043599956 0.03247589 -0.03157493 -0.047866028 -0.09636367 0.07259743 0.03152018
-0.07431839 -0.039490614 0.08060967 -0.047815114 0.0687257 0.080562636 -0.004607676 -0.03687505
-0.01035849 -0.07994328 0.036585543 0.077103965 -0.046938084 -0.043785296 -0.0442267 -0.06372349
-0.025229275 -0.022337092 0.024779955 -0.03354416 -0.028328761 -0.060431626 -0.06346724 -0.040404636
-0.08714449 -0.03987946 -0.056264315 -0.026954938 0.016575014 -0.03610356 -0.08193472 -0.05901293
-0.051452283 0.0635267 0.084096335 0.06150066 0.05595181 0.0011326522 0.054404676 -0.07818667
0.024854075 0.0034283672 0.0005404502 -0.062049717 -0.019504976 -0.017427117 -0.034581825 -0.05314637
-0.016753249 -0.011325344 -0.09064711 -0.06640381 -0.0758962 -0.09603549 0.040798306 -0.03684412

fc.3.bias f4 [64]
00000000: 16fa c0bc a13b b3bd 8f1f b03c ddc7 26bd
00000010: 74e7 c13d a3e6 0dbd 5960 fb3c 9d24 5abd
00000020: 079c 59bd b797 013d d774 90bd a571 31bd
00000030: edd8 a63d ce8c 44bd 751a 7bbc 53ec 213d
00000040: b86d bb3d 6cfa 05bd 3006 4fbd d99c 91bd
00000050: 12c8 8e3c 3a5e 713d 8c42 9b3c 742e f73d
00000060: d1d7 ac3d 1939 dd3d af3b 973c 8796 4a3d
00000070: 4a37 acbd 263a f13c 7431 abbd b32f 37bc
00000080: 5915 413d e796 2cbd 101a 363d 2a99 e7bc
00000090: 1daa 203d e338 a3bc 93c6 5c3c 0760 9abd
000000a0: 27bf 203d 7c9b f0bc 446d dcbc f136 cebd
000000b0: 6d2e ab3d 4ffe 59bc 051f e33d 01cd e73c
000000c0: 53cb ea3c 3341 03bd 5a97 5e3d 2063 82bd
000000d0: a2a8 5a3b 46c2 bcbd c579 d73d 7ffd 4dbd
000000e0: 52fd 933d d699 84bd 8b9c e23c b6a2 5a3b
000000f0: 5735 24bc 6ee4 8c3c 44a6 62bd 25e2 b2bd
-0.02355675 -0.08751608 0.021499423 -0.04071795 0.09467974 -0.03464378 0.03068559 -0.053257573
-0.053127315 0.031638827 -0.070535354 -0.04332127 0.08146844 -0.047985844 -0.015326132 0.039532017
0.091517866 -0.032709524 -0.05054301 -0.071099944 0.017429385 0.058927752 0.01895263 0.12069407
0.08439601 0.10801906 0.018461077 0.04945996 -0.08408983 0.029446673 -0.08359042 -0.011180806
0.0471395 -0.0421361 0.04445845 -0.028271277 0.039224733 -0.019924587 0.013475078 -0.07537847
0.039244797 -0.029371016 -0.02690757 -0.10069073 0.083584644 -0.013305261 0.11089901 0.028295996
0.028661406 -0.0320446 0.05434356 -0.06366563 0.0033364673 -0.09216742 0.105212726 -0.05029058
0.072260514 -0.064746544 0.027662536 0.0033361143 -0.010022483 0.017198768 -0.055334345 -0.0873454

fc.5.weight f4 [4, 64]
00000000: efef c3bc 7b00 1e3d 3ffa 3fbe c7b5 c6bb
00000010: 52bc ad3d a24e fd3a 6e5a 813c a241 7f3c
00000020: c40f e0bd e295 563c 03e5 36bd 039b c9bd
00000030: 93fe 833d cd1e 85bd 5450 5dbd 2928 c0bd
00000040: 6980 dd3b 3c49 e7bd 603d a23c 34dc 9d3d
00000050: 7339 213c d2a0 b63d b3f4 6fbb 6e81 633d
00000060: 55b3 93bd 2d02 a13c 957c 26bc fb26 eebc
00000070: 48c8 093d 0dee 3dbd 3e7a c63a 3320 e2bd
00000080: 82ab 3b3c 9509 723d 4e04 88bc 3ce2 e3bd
00000090: 4a24 81bc 6a97 913d 6135 843d 1784 663c
000000a0: 58fc ea3c 406a d5bd e2f8 a8bd 1457 55bd
000000b0: 51a3 84bd edbc dbbd b5fb 343c d2d6 afbd
000000c0: b8bf c13d 66fa 7ebd fb71 c53d 430b 95bc
000000d0: dd3b 2ebc 9a0d 213c 858c 473d 7f44 983d
000000e0: 5950 a13c c207 42bd 7626 95bc 6eeb 77bc
000000f0: c4c8 3a3d edfc a23d f59a e53d 780a 643c
00000100: 20e5 d4bc d5e7 d7bd e0a7 e73c fab7 3bbd
00000110: 4d50 513d 2d9c 543c 4ff3 7a3c 290d 933d
00000120: 311a 73bd 7907 413d 36b7 6e3d a91a 553c
00000130: 3874 633d e7a7 503c 91b4 debd 5d59 4c3c
00000140: 5b94 543d 3793 573c 110f 86bd 1e66 fdbd
00000150: 93c2 d1bd a801 a43d c25c 223d 3c74 c93d
00000160: 2682 f63d 85f6 713d ecf4 8bbd 6a33 0a3d
00000170: dab7 87bd d21a b43c 2bb4 f6bc c8e1 42bd
00000180: e618 e43c 44a0 bdbd 40e7 563d e990 c4bc
00000190: 9bb9 a6bd 2f86 03bd 7ae4 e7bb 0b48 febc
000001a0: aec2 a7bd 94cf debc b924 86bc 966f fdbd
000001b0: 425d 053e e8bc 20be 6a7c ed3d 067a f83b
000001c0: 5684 c03d f34d 36bc 894f b63c 7011 babb
000001d0: dbb4 8dbd 239f 9dbd 0fe9 0c3d dd00 8ebd
000001e0: 627a eb3c 748a 0cbd 7873 1fbd a429 8c3c
000001f0: c9e7 29bd b012 38bd de65 b3bd 4da3 4b3c
00000200: 4f1f a0bd 82fa cabd d1a5 8fbd 74e6 1d3d
00000210: 1773 ab3c 1fc1 1a3d 78cd 4a3d c55a c43d
00000220: 785c 3e3d 5c54 233d a014 323c 0414 293c
00000230: 304d 93bd 10b9 aa3d 5692 aa3d a17b a53d
00000240: 999b e33c 1580 2abd f2c4 c1bd 9b0f db3b
00000250: f70c 823d 6efc 8e3d 2b15 05bd 4f2a af3d
00000260: d50f b73c 3b7a 643d b41b 493b 1120 d5bd
00000270: b1dc 4dbd 30b7 5abd 8f32 bc3c eff7 98bc
00000280: 3fb6 13bd 3709 053d a0d7 cfbc 5e14 90bc
00000290: 9e94 98bd 80f6 bcbd 97bc aabb 9dd6 dbbc
000002a0: c0c7 46bd 0ddb babd a76b c9bd 62bf 9a3d
000002b0: b199 adbd 600c 2ebc 83a7 28bd f1b6 9d3d
000002c0: 96d2 8e3c 2a0f 783d 6c96 353d 9641 72bd
000002d0: b619 6a3c 40d1 253c f067 c13d 4189 39bc
000002e0: 6050 47bd 1c15 213d a19b 31bd 4e14 273d
000002f0: c3bd e33b 24fb 8e3c 994c dd3c 75e6 363d
00000300: 853e a8bd eebc e5bc b7ac 2b3d 2921 5c3c
00000310: 2f32 c23d 1145 3c3d d3e6 393d 76fa b13d
00000320: 20c9 da3c 3e71 a53d 137a 8d3d cf78 34bd
00000330: b7e1 8abb 03b2 5d39 3a5d 5a3d 32e5 d83d
00000340: 7639 01bc 90c0 443d 433b 12be 466f d93d
00000350: 392f 86bd 4bcd 48bc 8e24 33bc 9946 abbd
00000360: 3a83 173c f1ce 6c3d 499b d0bd 60ff ee3a
00000370: 1215 1c3c d8c7 3abd 8a5e 1e3c ed7a e6bd
00000380: 243d 59bc 53de 163c 0b80 d0bc 07f0 c5bd
00000390: 14b0 afbc b3a1 cdbd feeb 6c3d 8072 903d
000003a0: 0af7 a83d db05 c8bc 4f74 babb e4dc 8f3d
000003b0: 719c 22bd 0196 adbd e50d 03bd 55cc a3bd
000003c0: 6112 0f3d 565a 053d 4ed1 e33c 9d57 10be
000003d0: e5d7 883c 9cc3 88bc e2c0 93bc 6a5e 863c
000003e0: 8f93 f73c 549b 9fbd 8290 4cbc 7993 8bbd
000003f0: ff88 7e3c 18bd 743d f322 b73d 98e4 27bd
-0.02391812 0.038574677 -0.18747805 -0.00606415 0.08483185 0.0019325803 0.01579019 0.015579613
-0.10940507 0.013097258 -0.044651996 -0.09844019 0.064450406 -0.065000154 -0.054031685 -0.0938266
0.0067596924 -0.11293265 0.019804657 0.07708016 0.009840357 0.08917393 -0.0036614358 0.055543356
-0.07211939 0.019654358 -0.010161539 -0.029071322 0.03363827 -0.0463696 0.0015142632 -0.11041298
0.011454465 0.05909117 -0.016603615 -0.11127135 -0.015764374 0.07108958 0.06455494 0.014069579
0.02868478 -0.10420656 -0.08250596 -0.052084997 -0.06476463 -0.10729394 0.01104634 -0.085858956
0.094603956 -0.062250517 0.09640881 -0.018193847 -0.01063439 0.009829903 0.048717994 0.074349396
0.019691633 -0.04737068 -0.018206816 -0.015131814 0.04560162 0.07958398 0.11211196 0.013918512
-0.025988162 -0.10542265 0.028278291 -0.04582975 0.05110197 0.012976688 0.015316798 0.071802445
-0.05935115 0.047126267 0.058280192 0.013006845 0.055530757 0.012735344 -0.10874284 0.012472478
0.051899295 0.013157657 -0.065458424 -0.12372993 -0.1024219 0.080081284 0.039639242 0.09836623
0.120365426 0.05907299 -0.068338245 0.03374044 -0.06626864 0.021985445 -0.030115208 -0.047578603
0.027843904 -0.09259084 0.05246663 -0.02399488 -0.0814087 -0.03211039 -0.007076797 -0.031040212
-0.08191429 -0.02719859 -0.016374933 -0.12374799 0.13023856 -0.15697062 0.11595996 0.0075829057
0.09400241 -0.011126983 0.022254722 -0.0056783482 -0.06919261 -0.076963685 0.03440195 -0.069337584
0.02874488 -0.034311727 -0.03892848 0.0171097 -0.041480813 -0.044939697 -0.08759664 0.012429071
-0.07818472 -0.09911062 -0.07014049 0.038549855 0.020928903 0.03778183 0.049512357 0.095876254
0.046474904 0.039875373 0.010869175 0.0103197135 -0.07192457 0.08336079 0.083286926 0.08080221
0.027784156 -0.041626055 -0.094613925 0.00668521 0.06350129 0.06981741 -0.03249089 0.085529916
0.022346416 0.05578063 0.0030686678 -0.10406507 -0.050259296 -0.053397357 0.022973327 -0.018672911
-0.036062475 0.03247949 -0.025371373 -0.017587837 -0.074502215 -0.09226704 -0.00521047 -0.026835734
-0.04853034 -0.09123812 -0.09834986 0.075560346 -0.0847658 -0.010623068 -0.041175377 0.07700909
0.0174344 0.060561337 0.044332907 -0.05914458 0.0142883565 0.01012069 0.09443653 -0.011324228
-0.048660636 0.039326772 -0.04336131 0.04079085 0.0069501116 0.017453738 0.027014064 0.044653375
-0.0821505 -0.02804419 0.04191276 0.01343564 0.09482228 0.045964304 0.045386147 0.0869035
0.026707232 0.0807824 0.069080494 -0.044060525 -0.004238333 0.00021142517 0.053311564 0.105905905
-0.007887235 0.048035204 -0.14280419 0.10616927 -0.06551976 -0.012255977 -0.010934008 -0.08363075
0.009247595 0.057814542 -0.10185868 0.0018234067 0.009526508 -0.045600742 0.009666095 -0.11253915
-0.013259206 0.00920828 -0.02545168 -0.09664922 -0.021446265 -0.10040607 0.057842247 0.07053089
0.08250244 -0.024416855 -0.0056901346 0.070245534 -0.039699975 -0.084758766 -0.031995673 -0.079979576
0.034929637 0.032556854 0.027809765 -0.14095922 0.016704509 -0.016694836 -0.01803631 0.016402442
0.030221729 -0.07793298 -0.012485625 -0.068152376 0.015535592 0.059750646 0.08942213 -0.04098949

fc.5.bias f4 [4]
00000000: 46f1 f83c a3fd d1bc 7efb 463d 1082 8c3d
0.030388486 -0.025633639 0.048579685 0.06860745
