best_model_1.pth (torch, 140113 bytes, 6 tensors)

fc.1.weight f4 [128, 200]
0	0x3d855263	0.06509855
1	0x3c8b5024	0.017005987
2	0x3d00be0a	0.031431235
3	0xbd6dc763	-0.058051478
4	0xbd0db8c4	-0.034600034
5	0xbd4b9ed4	-0.049712017
6	0x3c03f310	0.008053556
7	0x3d8bc0e1	0.06823898
8	0x3c286d58	0.010279976
9	0x3d1d1d46	0.038357995
10	0xbd48fc16	-0.049068533
11	0xbe4b4fce	-0.19854662
12	0x3d209a83	0.039209854
13	0x3d0b4488	0.034000903
14	0xbd95c607	-0.07313161
15	0xbf0ba13c	-0.545429
16	0x3f129a1c	0.572664
17	0x3ed0367d	0.4066657
18	0xbe94e171	-0.29078248
19	0x3ce648cc	0.028110884
20	0x3e41fe94	0.1894477
21	0xbe138507	-0.14406215
22	0xbdabae0d	-0.08382807
23	0xbf3f5421	-0.74737746
24	0xbf2515ad	-0.644862
25	0xbf36098a	-0.71108305
26	0xbf657edf	-0.89646715
27	0xbf162526	-0.58650434
28	0xbd0b4d41	-0.034009222
29	0xbe764bc5	-0.24052341
30	0x3e62c1aa	0.2214419
31	0xbdaf2abb	-0.08553072
32	0x3bfd1be7	0.0077242735
33	0xbebf200d	-0.3732914
34	0xbf65e091	-0.89795786
35	0xbf3962b9	-0.72416264
36	0xbe78d063	-0.24298243
37	0xbee714c5	-0.45133033
38	0xbe1ae6fe	-0.15127179
39	0x3e4afafa	0.19822302
40	0x3e90f843	0.2831441
41	0x3e65277f	0.22378348
42	0xbdaa8932	-0.08326949
43	0xbdb549d4	-0.08851972
44	0xbf20bffe	-0.62792957
45	0xbd79676f	-0.060889658
46	0xbeadb57c	-0.33927524
47	0xbe20530a	-0.15656677
48	0x3b5abd79	0.0033377095
49	0x3e61f48e	0.22065946
50	0x3dfca7fa	0.123367265
51	0xbda1b3d6	-0.07895629
52	0x3d1aa09d	0.03775083
53	0x3e029283	0.12751202
54	0xbe0f3609	-0.13985457
55	0xbd846aa6	-0.06465654
56	0x3dcd7769	0.10032541
57	0xbc9d2a36	-0.019185167
58	0x3cc87461	0.024469556
59	0xbd5114cf	-0.051045235
60	0xbd9045c2	-0.07044555
61	0xbd973b05	-0.07384304
62	0x3e7b5277	0.24543177
63	0xbe24a107	-0.16077052
64	0x3c8c15e8	0.01710029
65	0xbeca79a4	-0.3954593
66	0x3e821f5f	0.2541456
67	0xbcebc4d3	-0.028780377
68	0x3e0dfc58	0.13865793
69	0x3e8f372c	0.2797178
70	0xbe587b2a	-0.21140733
71	0x3e4422af	0.19153856
72	0x3e053a9e	0.13010642
73	0x3c7cf324	0.015438829
74	0xbd9ad6ae	-0.07560478
75	0x3bbc39d8	0.0057442
76	0x3e3df6ab	0.18551128
77	0x3e26e437	0.16297995
78	0xbe7a654e	-0.24452707
79	0x3d93de90	0.07220185
80	0x3de98bfd	0.11403654
81	0xbdc00e26	-0.093776986
82	0x3e196a24	0.14981896
83	0xbe61d4be	-0.22053811
84	0x3cea83e5	0.028627345
85	0xbdff909b	-0.12478753
86	0x3ea39674	0.31950724
87	0xbd260110	-0.040528357
88	0xbd34ec71	-0.0441708
89	0xbcbe3972	-0.023220751
90	0xbd48b523	-0.04900087
91	0xbdf01dcf	-0.117244355
92	0x3d048386	0.032351993
93	0xbcff6c0a	-0.031179447
94	0x3e50b6d4	0.20382243
95	0x3e2b2090	0.1671164
96	0xbdaac3e1	-0.08338142
97	0xbd544a3f	-0.05182862
98	0xbdd97f53	-0.10619988
99	0xbe364d2d	-0.17802878
100	0x3e818321	0.25295356
101	0x3d449f33	0.048003387
102	0xbd8a13f6	-0.067420885
103	0xbd923c87	-0.07140451
104	0xbe095a78	-0.13413417
105	0xbe7b937d	-0.24567981
106	0xbb7df80a	-0.003875258
107	0x3dcba06b	0.09942707
108	0x3e80d367	0.25161287
109	0x3e11790a	0.14206329
110	0x3d771cae	0.060330085
111	0xbcff0a6b	-0.031132897
112	0xbdd847e9	-0.10560591
113	0xbeb626cc	-0.35576475
114	0x3d4a19bf	0.04934096
115	0x3b9843fc	0.0046467762
116	0x3dddde0c	0.10833368
117	0xbe257591	-0.1615813
118	0x3da88036	0.08227579
119	0x3ec7e45f	0.3904142
120	0xbed96937	-0.42463085
121	0xbbcf0b07	-0.0063184532
122	0x3df1523e	0.117832646
123	0x3def015c	0.11670181
124	0x3e1030fa	0.14081183
125	0x3e4c643d	0.19960113
126	0xbe90d6e2	-0.28288943
127	0xbc955c0b	-0.018232366
128	0x3e93750b	0.28800234
129	0xbdf8a088	-0.12139994
130	0x3d7ea705	0.062171
131	0x3dfacd8e	0.12246238
132	0xbc159183	-0.009128931
133	0xbd1e763e	-0.038686983
134	0x3d426abe	0.04746508
135	0xbc441dd3	-0.011970001
136	0xbd3a2538	-0.04544565
137	0x3d2078b6	0.03917762
138	0x3ebcb501	0.36856845
139	0x3c52ce23	0.01286653
140	0x3da7e385	0.08197693
141	0x3e153a6b	0.14573066
142	0x3eb1ff6a	0.34765178
143	0x3e8f04fb	0.27933487
144	0xbc82af0d	-0.015952611
145	0x3e18fb10	0.14939523
146	0xbe601021	-0.21881153
147	0xbe9f9624	-0.31169236
148	0x3e69794c	0.22800177
149	0x3e8286d9	0.25493506
150	0x3c15bbff	0.00913906
151	0x3c211062	0.009830566
152	0x3de64b4a	0.11244829
153	0xbdb23959	-0.087023444
154	0x3dca0720	0.0986464
155	0x3cb2d9a7	0.0218323
156	0x3e91d946	0.2848608
157	0xbcd29bc0	-0.025709033
158	0xbddd980d	-0.10820017
159	0x3dbc53d5	0.09195677
160	0x3daae63d	0.08344696
161	0xbd8cf948	-0.06883484
162	0xbd9cab40	-0.07649851
163	0x3d303cfd	0.043026913
164	0xbce89081	-0.028389217
165	0xbe234824	-0.15945488
166	0x3e3502cb	0.17676847
167	0x3e24a74d	0.16079445
168	0xbd547af0	-0.051875055
169	0x3e10c2e0	0.14136839
170	0x3d413c3c	0.047176585
171	0xbcc5c2d0	-0.024140745
172	0x3d4e01b5	0.050294597
173	0xbd4495cd	-0.047994424
174	0x3d33269b	0.04373799
175	0xbdd74113	-0.10510459
176	0xbca197c9	-0.019725697
177	0xbe22165e	-0.15828845
178	0x3e071196	0.13190302
179	0xbdfac835	-0.12245218
180	0x3c9d006e	0.019165244
181	0xbdb1db6d	-0.0868443
182	0x3da4a06d	0.08038411
183	0xbe655ccd	-0.22398682
184	0x3dab9c22	0.08379389
185	0x3d0804ad	0.033207584
186	0xbd59e1ed	-0.053193975
187	0xbd9d4644	-0.07679418
188	0x3e813e7d	0.25242987
189	0xbdc01ebb	-0.09380861
190	0x3df0f1d8	0.11764878
191	0xbdf854ac	-0.12125525
192	0x3df41cd7	0.11919563
193	0xbe50402b	-0.20336978
194	0x3e3b560c	0.18294543
195	0xbe372214	-0.17884094
196	0xbdb09f5c	-0.086241454
197	0xbaeeb6d0	-0.0018212441
198	0x3cda88b1	0.026676508
199	0x3d8b78e2	0.06810166
200	0xbd7bbb4d	-0.06145792
201	0xbd7d093c	-0.061776385
202	0x3c18ff38	0.009338193
203	0xbd795941	-0.060876135
204	0x3bb07cad	0.0053859563
205	0x3d008ffa	0.031387307
206	0xbccfe196	-0.025376122
207	0xbd50e1a1	-0.050996426
208	0x3d5ec1e2	0.05438412
209	0x3c67c568	0.014146186
210	0xbd348d6a	-0.044080175
211	0xbcfe739a	-0.031060982
212	0xbd90247a	-0.07038207
213	0x3c2bde20	0.01048997
214	0x3c3e0772	0.011598455
215	0x3e28a735	0.16470034
216	0xbc4833a2	-0.0122193415
217	0x3ec16a5b	0.37776455
218	0xbd05e549	-0.032689366
219	0xbd902030	-0.07037389
220	0x3d87c45d	0.0662925
221	0xbd314334	-0.04327698
222	0xbcbfe756	-0.02342574
223	0x3e92c766	0.28667754
224	0x3e4a0179	0.19727124
225	0x3e8ab778	0.270931
226	0x3ea84417	0.32864448
227	0x3ea02df6	0.31285065
228	0x3d07a07e	0.03311204
229	0xbc8d8946	-0.017277371
230	0xbde60db2	-0.11233081
231	0xbe2da369	-0.16956867
232	0xbd8cb5b4	-0.068705946
233	0xbe9c91e9	-0.3058007
234	0x3e537ba6	0.20652637
235	0x3ebe9088	0.37219644
236	0x3cd53f30	0.026031107
237	0x3d549114	0.05189617
238	0x3c7f5780	0.0155848265
239	0xbd925b15	-0.07146279
240	0xbe07a941	-0.13248159
241	0xbe5d8995	-0.21634515
242	0xbd3f0dad	-0.0466439
243	0xbebc4414	-0.3677069
244	0xbec535bd	-0.38517562
245	0x3e0e60d3	0.13904123
246	0x3e753130	0.23944545
247	0xbe19def6	-0.15026459
248	0x3e0c1e61	0.13683464
249	0x3bd632a7	0.0065368
250	0xbd5ff689	-0.054678474
251	0xbd5ca22d	-0.0538656
252	0xbd065a8a	-0.03280119
253	0x3e8c8268	0.27443242
254	0xbe519991	-0.20468737
255	0x3e9a90bf	0.30188558

fc.1.bias f4 [128]
0	0xbe4dc26c	-0.20093697
1	0x3d28d770	0.041221082
2	0xbde5afb6	-0.11215155
3	0xbe549874	-0.20761281
4	0xbe190238	-0.14942253
5	0xbe8e7f0d	-0.27831307
6	0xbe2188ce	-0.15774843
7	0xbaa05464	-0.0012232182
8	0xbde3747d	-0.11106203
9	0xbdf941a5	-0.12170724
10	0xbe5b2988	-0.21402562
11	0xbdafaba0	-0.08577657
12	0xbe456c84	-0.19279677
13	0xbddc0a37	-0.10744136
14	0xbd1d940c	-0.038471267
15	0xbddd6a01	-0.10811234
16	0xbda435ed	-0.08018098
17	0x3cdfbe48	0.027312413
18	0xbe28ae77	-0.16472803
19	0xbe470075	-0.19433768
20	0xbd85b938	-0.06529468
21	0xbd67d6b4	-0.05660124
22	0xbe0bee3a	-0.13665095
23	0xbc9b2e51	-0.018942984
24	0xbdd0daa9	-0.10197956
25	0xbd1f93f0	-0.038959444
26	0xbba2ffcc	-0.004974341
27	0x3e06e61c	0.13173717
28	0xbe0f3dd0	-0.13988423
29	0xbd816b9b	-0.06319352
30	0xbea0b91b	-0.31391224
31	0xbdab82f6	-0.08374588
32	0xbd85c213	-0.06531157
33	0xbd14a1b8	-0.03628704
34	0xbe722241	-0.2364588
35	0xbe28e00d	-0.16491719
36	0xbee0a7be	-0.43877977
37	0xba007061	-0.0004899558
38	0xbe12f60a	-0.14351669
39	0xbe823b76	-0.2543599
40	0xbe065634	-0.13118821
41	0xbd88520c	-0.06656274
42	0xbde0ddc2	-0.10979797
43	0xbd25b707	-0.04045775
44	0xbdb53b78	-0.088492334
45	0xbe5a9933	-0.21347503
46	0xbd8dc51b	-0.069223605
47	0xbca72095	-0.020401279
48	0xbd8522c1	-0.065007694
49	0xbd018ac5	-0.03162648
50	0xbd962256	-0.07330768
51	0xbdc9b2c7	-0.09848552
52	0xbe12364a	-0.14278522
53	0xbe38844d	-0.18019219
54	0xbb44d4a7	-0.0030033977
55	0xbdb4846b	-0.08814319
56	0xbdd173db	-0.10227176
57	0xbe851fbc	-0.26000774
58	0xbd5dc355	-0.05414136
59	0xbdb64889	-0.08900554
60	0xbd9edd3d	-0.077570416
61	0xbc7debcc	-0.015498113
62	0xbd12410a	-0.035706557
63	0xbdc10d02	-0.09426309
64	0xbddfd79e	-0.109297976
65	0xbdc2fd88	-0.095210135
66	0xbdcb0fdc	-0.09915134
67	0xbdf4388f	-0.1192485
68	0xbdc500c9	-0.096192904
69	0xbde8766f	-0.113507144
70	0xbe9f4e93	-0.31114635
71	0xbe76c843	-0.24099831
72	0xbd977e32	-0.07397117
73	0xbb3b6958	-0.0028596725
74	0xbdd3d89d	-0.1034405
75	0xbd9c7a0a	-0.076404646
76	0xbde352b7	-0.11099761
77	0xbda6706b	-0.08126911
78	0xbd83c538	-0.06434101
79	0x3e0d3cbc	0.137927
80	0xbe08bffc	-0.13354486
81	0xbe716349	-0.2357303
82	0xbd923ac8	-0.07140118
83	0xbb011e53	-0.0019701913
84	0xbd31b93e	-0.04338955
85	0xbdb019c3	-0.08598664
86	0xbe7303bc	-0.23731893
87	0xbd4a70cc	-0.049423978
88	0x3cd5edd8	0.02611439
89	0xbdb5ff44	-0.08886579
90	0xbdf693f6	-0.1203994
91	0xbe3f25d9	-0.18666781
92	0x3d95d1d8	0.07315415
93	0x3e0c5c87	0.13707171
94	0xbdf5f73b	-0.12010046
95	0xbdaaab6d	-0.08333478
96	0xbd63a115	-0.05557354
97	0xbe4d73d2	-0.20063713
98	0xbde96890	-0.11396897
99	0xbde3dfd3	-0.111266755
100	0xbe3cd7c7	-0.18441688
101	0xbdd630e4	-0.10458544
102	0xbdbe6e21	-0.09298349
103	0xbe44fa9e	-0.19236228
104	0xbddb1a70	-0.10698402
105	0xbd5ca095	-0.05386408
106	0xbe0e073b	-0.13869946
107	0xbe463ce5	-0.19359167
108	0xbe6d42fb	-0.23170082
109	0xbd830a25	-0.06398419
110	0xbe89fd8e	-0.2695126
111	0xbeb148d1	-0.34625867
112	0xbe233483	-0.15938
113	0xbdc8bb0f	-0.098013036
114	0xbdc7bb90	-0.097525716
115	0xbe4da61f	-0.20082901
116	0xbd532495	-0.05154856
117	0xbe3e8c2c	-0.18608159
118	0xbda76468	-0.08173448
119	0xbe0f1bb7	-0.13975416
120	0xbe3d9e77	-0.18517481
121	0xbd64974d	-0.055808354
122	0xbe4cbb73	-0.19993381
123	0xbd94e0de	-0.072694525
124	0xbe1ba0de	-0.15198085
125	0xbe259a2e	-0.16172096
126	0xbd9fa6e1	-0.077955015
127	0xbde77998	-0.11302489

fc.3.weight f4 [64, 128]
0	0xbe09c05a	-0.13452283
1	0x3c60cee6	0.013721203
2	0x3d073fcf	0.033019837
3	0xbcc15746	-0.023601186
4	0xbe155716	-0.14584002
5	0xbe2c6acc	-0.16837615
6	0xbd4caebc	-0.049971327
7	0xbd845cb9	-0.06462998
8	0x3d88edf1	0.06686009
9	0xbcb9d812	-0.022686038
10	0xbd3731ff	-0.044725414
11	0xbc91b908	-0.017788425
12	0xbc861342	-0.016366605
13	0x3d6b734e	0.05748301
14	0x3d7bed83	0.061505806
15	0xbdcaed92	-0.09908594
16	0xbd148c5f	-0.03626668
17	0x3e42f7ef	0.19039892
18	0xbe22170d	-0.15829106
19	0xbddfc511	-0.10926259
20	0xbc656f2a	-0.014003554
21	0x3d84c9ef	0.06483828
22	0xbd4039fc	-0.0469303
23	0x3bc90e54	0.0061357412
24	0xbbded5cb	-0.0068003885
25	0x3d4c3269	0.049852762
26	0xbd78fc2c	-0.060787365
27	0xbd5b7fb3	-0.05358858
28	0xbbba3d30	-0.0056835636
29	0x3da12426	0.07868223
30	0xbdb98329	-0.0905822
31	0x3c917813	0.017757451
32	0x3d74de84	0.05978252
33	0xbd70c461	-0.05878103
34	0x3ddf9168	0.10916406
35	0x3c6f216f	0.0145953735
36	0xbe798584	-0.24367338
37	0xbd81af15	-0.06332222
38	0xbad2ecfb	-0.0016092354
39	0xbd6d92ee	-0.05800145
40	0xbb2276dc	-0.0024790084
41	0xbd557853	-0.052116703
42	0xbe06a07e	-0.1314716
43	0x3dcb3e85	0.09924034
44	0xbd83d6c3	-0.06437447
45	0x3d8e46d3	0.069471024
46	0x3c01d017	0.007923148
47	0xbd1cc653	-0.038275074
48	0xbc2f61ad	-0.01070444
49	0x3bb9f7f0	0.0056753084
50	0x3da3a8d2	0.07991184
51	0xbdac322d	-0.08408008
52	0x3d3c1d7d	0.04592656
53	0x3bfd8670	0.0077369735
54	0x3c569898	0.013097905
55	0xbdf71548	-0.12064606
56	0xbddbd519	-0.107340045
57	0x3bc82247	0.006107602
58	0xbd414c6a	-0.047192015
59	0xbd83aa60	-0.06428981
60	0x3c248a96	0.010042807
61	0x3d5d4f44	0.05403067
62	0xbdb50193	-0.08838191
63	0xbd4a57d4	-0.049400166
64	0x3bb4d0f6	0.005518074
65	0xbdaac5cf	-0.0833851
66	0x3da58142	0.080812946
67	0xbd60a8f0	-0.05484861
68	0x3d083b65	0.033259768
69	0xbcab64fe	-0.02092218
70	0x3d945fc3	0.072448276
71	0xbe76c816	-0.24099764
72	0x3c856357	0.01628272
73	0x3d2a7213	0.041612696
74	0xbc583e51	-0.013198451
75	0x3d5478e6	0.05187311
76	0x3d9a7447	0.075417094
77	0x3e04e8b9	0.12979402
78	0x3c21bb80	0.009871364
79	0xbd710dcc	-0.05885105
80	0xbce616ae	-0.028086986
81	0xbed20497	-0.41019127
82	0xbd556c1b	-0.05210505
83	0x3bb37915	0.0054770806
84	0x3d9d953d	0.076944806
85	0xbe11b5d3	-0.14229517
86	0xbe16afa7	-0.14715444
87	0xbd574a17	-0.052560892
88	0x3d004898	0.03131923
89	0xbd968408	-0.07349402
90	0xbc2ac988	-0.010424025
91	0xbd30f3b8	-0.04320118
92	0xbdc30624	-0.095226556
93	0x3e04cc70	0.12968612
94	0xbd2c1555	-0.04201253
95	0xbd8e3fc2	-0.069457546
96	0xbbbb91e0	-0.0057241768
97	0xbd58b0a2	-0.052902825
98	0xbbec068a	-0.007202928
99	0xbca81d3d	-0.020521754
100	0x3d354f18	0.044264883
101	0xbc64c228	-0.013962306
102	0xbda99202	-0.08279802
103	0x3cf4a614	0.029864348
104	0xbd5cffb3	-0.05395479
105	0x3d3dfe4a	0.046385087
106	0xbe050935	-0.12991793
107	0x3e18edde	0.14934489
108	0xbdd9d548	-0.10636383
109	0xbc847f13	-0.016173875
110	0xbdf51117	-0.1196615
111	0x3c8f4bdc	0.017492227
112	0xbe703635	-0.23458178
113	0xbd5a7650	-0.053335488
114	0xbc9032a8	-0.01760228
115	0xbd6c173e	-0.057639353
116	0x3d05ad93	0.032636236
117	0x3db670a3	0.089082025
118	0x3cfb35e7	0.030665351
119	0x3cec4902	0.028843407
120	0xbdf0e032	-0.11761512
121	0xbbc748c7	-0.006081674
122	0xbde90c23	-0.11379268
123	0x3db2d48e	0.08731948
124	0x3c3d32e2	0.011547776
125	0xbd8768d5	-0.06611792
126	0xbd4e6e58	-0.0503982
127	0x3e5db218	0.21649969
128	0xbe37185b	-0.17880385
129	0xbe20e864	-0.1571365
130	0xbd9c5bdf	-0.076347105
131	0xbcc2e806	-0.023792278
132	0x3c701b09	0.014654883
133	0xbd8b3d93	-0.06798854
134	0xbd8df525	-0.06931523
135	0x3bb0f1e0	0.0053999275
136	0x3d135f2f	0.035979446
137	0xbc2a4f67	-0.010394908
138	0xbd88125d	-0.066441275
139	0x3d74e53e	0.059788935
140	0xbcc25fc1	-0.0237273
141	0xbdb07e87	-0.08617883
142	0x3d94511f	0.07242035
143	0x3c0178fa	0.007902378
144	0xbd360d80	-0.04444647
145	0xbe2d0c71	-0.16899277
146	0x3d940399	0.07227249
147	0xbd842e03	-0.064540885
148	0x3d5b4c4c	0.05353956
149	0x3d8b4c64	0.0680168
150	0xbd3ccfff	-0.046096798
151	0x3cda59a8	0.02665408
152	0xbd6f8e4b	-0.05848531
153	0xbcd713b6	-0.026254516
154	0x3d0f3d90	0.03497082
155	0xbdf01c18	-0.117241085
156	0xbcb3143c	-0.021860234
157	0xbe6372d1	-0.22211768
158	0x3cbd3d2f	0.023100464
159	0xbc22b06b	-0.009929757
160	0x3d2e19e7	0.04250517
161	0xbdf96109	-0.12176711
162	0x3d21822e	0.03943079
163	0xbd20460e	-0.03912931
164	0xbe9a255e	-0.30106634
165	0xbda188a9	-0.07887394
166	0x3d4f8adc	0.050669536
167	0x3c0bcab5	0.008532216
168	0x3c155438	0.009114318
169	0xbe815201	-0.25257877
170	0xbd3722fe	-0.044711106
171	0x3d81a780	0.06330776
172	0x3aa8be1d	0.0012874041
173	0xbcb8d885	-0.022564182
174	0xbd550953	-0.052010845
175	0xbba0624f	-0.004894532
176	0x3b853b00	0.0040658712
177	0xbc8a7f74	-0.016906478
178	0x3d534625	0.051580567
179	0xbda977b1	-0.082747824
180	0xbe8978a1	-0.26849845
181	0x3cb90f28	0.022590235
182	0xbd4f9729	-0.050681267
183	0xbd7ad13a	-0.06123469
184	0xbd205636	-0.039144717
185	0xbd970cce	-0.07375489
186	0x3c6e55c9	0.01454682
187	0x3d2f5d92	0.042813845
188	0x3d37ec04	0.044902816
189	0xbda52f9b	-0.08065721
190	0x3cf26a5e	0.029591735
191	0xbde2d83e	-0.11076401
192	0x3ae4a0a5	0.0017442895
193	0xbcbb91db	-0.022896698
194	0x3b7e9b45	0.0038849872
195	0xbd08fadc	-0.033442363
196	0x3d007f0e	0.03137117
197	0x3d132f1f	0.03593361
198	0x3cd1d952	0.025616322
199	0xbdecfd2c	-0.11571726
200	0x3c845ddd	0.016158039
201	0xbd95e0d1	-0.07318271
202	0xbdf19b47	-0.11797195
203	0xbc8f197c	-0.017468207
204	0xbca23a30	-0.019803137
205	0xbdafb544	-0.085794955
206	0x3c344704	0.01100326
207	0xbb9b957f	-0.004748046
208	0x3c8e6cea	0.017385919
209	0xbdf37b7b	-0.118887864
210	0xbddf2bd2	-0.1089703
211	0xbce57a52	-0.028012428
212	0xbd06f04c	-0.03294401
213	0xbd7d3175	-0.061814744
214	0x3c0b2902	0.008493664
215	0x3cc88c6b	0.024481019
216	0xbbde1787	-0.006777707
217	0x3d85d881	0.065354355
218	0x3d8d3ae3	0.068959974
219	0xbe4f42ff	-0.202404
220	0x3da9e1f8	0.08295053
221	0xbd59a4a7	-0.05313554
222	0x3dc4adf1	0.09603489
223	0x3dbfc842	0.09364368
224	0xbd02a5b0	-0.031896293
225	0xbdf7cee5	-0.12100009
226	0xbd0392a5	-0.032122273
227	0x3d2ba103	0.0419016
228	0xbe1ed13d	-0.15509506
229	0xbc8d1c54	-0.017225422
230	0x3d969053	0.073517464
231	0x3d06264e	0.032751374
232	0x3d0a0a36	0.033701144
233	0x3cb7bc37	0.022428615
234	0xbd01aa58	-0.031656593
235	0xbd925d3d	-0.0714669
236	0x3d3ecb49	0.046580587
237	0xbd079fc6	-0.033111356
238	0xbe3aeaa0	-0.18253565
239	0xbd8473bf	-0.06467389
240	0xbd85b209	-0.06528098
241	0xbc96eb04	-0.018422611
242	0x3d160fcf	0.03663617
243	0xbda6572d	-0.08122096
244	0xbd5e3bbd	-0.05425619
245	0xbd4131a2	-0.047166474
246	0x3ab0e3e6	0.0013495653
247	0xbd660f47	-0.056166913
248	0x3d5304ff	0.051518437
249	0xbd468033	-0.048462104
250	0x3e8831ee	0.26600593
251	0x3ceb0a58	0.028691456
252	0xbe9dd7c1	-0.3082867
253	0x3daee99f	0.085406534
254	0x3d16da4a	0.03682927
255	0xbc8109d6	-0.01575176

fc.3.bias f4 [64]
0	0xbe705045	-0.2346812
1	0xbdc653cc	-0.09683952
2	0x3e7cb8b6	0.24679837
3	0xbe3207b3	-0.1738575
4	0x3b92b441	0.0044770543
5	0xbe80c73b	-0.25152
6	0xbe6adc5b	-0.22935621
7	0xbe4a548c	-0.19758815
8	0xbe104b5a	-0.14091244
9	0xbe0bc898	-0.13650739
10	0xbe8b370c	-0.27190435
11	0xbe3bae9d	-0.18328328
12	0xbe2f852d	-0.17140646
13	0xbca02f4a	-0.0195538
14	0xbe278308	-0.16358578
15	0xbe73bd02	-0.2380257
16	0xbe2ea149	-0.17053713
17	0xbe108eab	-0.14116924
18	0x3dd0a321	0.10187364
19	0x3dba1f0c	0.09087953
20	0xbe3ebece	-0.18627474
21	0xbe4e39e6	-0.20139274
22	0xbe83790a	-0.25678283
23	0xbe0143fc	-0.1262359
24	0xbe6af1ae	-0.22943756
25	0xbd90375c	-0.07041809
26	0xbe5e55a9	-0.21712364
27	0xbc0c4efe	-0.008563755
28	0xbe4cc5c0	-0.1999731
29	0xbe596959	-0.21231593
30	0xbe2f0a63	-0.17093806
31	0xbd9d660d	-0.0768548
32	0xbe3649db	-0.17801611
33	0xbe80e829	-0.25177124
34	0x3e48c440	0.19606113
35	0xbdd56e8b	-0.10421475
36	0xbe225a01	-0.15854646
37	0xbe7b824a	-0.2456142
38	0xbe5ddf85	-0.21667297
39	0xbe18c9d0	-0.14920735
40	0xbe5d8ca9	-0.21635689
41	0xbe8cee50	-0.27525568
42	0xbe8894b9	-0.26675966
43	0xbe442f06	-0.19158563
44	0xbe363271	-0.1779268
45	0xbe8877d1	-0.26653913
46	0xbde9af1f	-0.11410355
47	0xbea113ba	-0.31460363
48	0xbdf8f5dc	-0.12156269
49	0xbe2c3d2b	-0.16820209
50	0xbe0dfd8d	-0.13866253
51	0xbe895af3	-0.268272
52	0xbdfccc9c	-0.12343714
53	0xbe445fd3	-0.19177179
54	0xbe9e64fa	-0.30936414
55	0xbe125fe9	-0.142944
56	0xbe2071d4	-0.15668422
57	0xbe410ed1	-0.18853308
58	0xbe0145ed	-0.12624331
59	0xbe093ac3	-0.13401322
60	0xbe465613	-0.19368772
61	0xbe501006	-0.20318612
62	0x3db7878e	0.08961402
63	0xbdfa4bbd	-0.12221477

fc.5.weight f4 [4, 64]
0	0x3cb6ac75	0.02229903
1	0x3d49d820	0.04927838
2	0xbd782b42	-0.06058813
3	0x3ca63e62	0.020293418
4	0x3ccee78b	0.025256893
5	0x3da2d8c4	0.07951501
6	0x3b8b7827	0.0042562666
7	0x3c1138c9	0.008863636
8	0xbd85126c	-0.06497654
9	0xbc47176b	-0.012151579
10	0x3db72e9e	0.089444384
11	0xbbd1e2ce	-0.006405211
12	0x3b818bb7	0.003953423
13	0xbc088d76	-0.008334508
14	0x3d4b0ef8	0.049574822
15	0xbc0e2d38	-0.008677773
16	0x3d91dcdb	0.07122203
17	0xbce1a1ec	-0.02754303
18	0x3e8e6de9	0.2781823
19	0xbd5bd2a9	-0.053667698
20	0x3d18f8af	0.03734654
21	0x3b627369	0.0034553653
22	0x3d04f118	0.032456487
23	0x3d04c097	0.03241023
24	0x3c917c1f	0.01775938
25	0x3c8d1a27	0.017224384
26	0xbd139bda	-0.036037304
27	0x3d893d19	0.067011066
28	0x3d58033a	0.052737452
29	0xbd1c64c4	-0.038182035
30	0xbd678dc2	-0.056531675
31	0xbbfaa19e	-0.007648661
32	0x3c94c33e	0.018159505
33	0xbd15dcac	-0.036587402
34	0xbde719c6	-0.11284213
35	0xbde76fff	-0.113006584
36	0xbb9f091b	-0.0048533804
37	0xbd81aacc	-0.06331405
38	0x3bb226c9	0.0054367525
39	0x3d2e85a8	0.042607933
40	0xbb492c23	-0.0030696474
41	0xbc733685	-0.014844541
42	0xbd6e0fd1	-0.058120552
43	0xbc25c4cc	-0.010117721
44	0x3d2b7063	0.041855227
45	0x3da8ca2b	0.082416855
46	0xbdf75531	-0.12076796
47	0xbd128024	-0.035766736
48	0x3da88d39	0.08230061
49	0x3d59a9e7	0.053140547
50	0xbca23623	-0.019801205
51	0xbacd5b4c	-0.0015667467
52	0xbd84d92f	-0.06486737
53	0x3cfa2721	0.030536236
54	0xbe35575c	-0.17709106
55	0x3ba1622c	0.004925033
56	0xbdde9c36	-0.108696386
57	0x3bb30795	0.0054635503
58	0x3d09a80d	0.03360753
59	0xbdeb1187	-0.114779525
60	0x3d822fcf	0.06356775
61	0xbd8bcc31	-0.06826056
62	0x3e7798b9	0.24179353
63	0x3c800cc7	0.015631093
64	0x3d50efa4	0.05100979
65	0xbddbb4f6	-0.10727875
66	0xbd7f78d3	-0.062371086
67	0x3b201535	0.0024426703
68	0x3cbe017f	0.023194073
69	0xbd675c54	-0.056484535
70	0x3c70e43e	0.014702855
71	0x3ca2051c	0.019777827
72	0xbdb790c9	-0.089631625
73	0xbd6c8ea1	-0.05775321
74	0x3ccef400	0.025262833
75	0xbd4cad86	-0.049970172
76	0xbcbad02b	-0.02280434
77	0xbc9f6ab1	-0.019460054
78	0x3d4067a3	0.046973836
79	0x3d3fce77	0.04682776
80	0x3d51f479	0.051258538
81	0xbd56d786	-0.052451633
82	0x3e9c2a6c	0.30501115
83	0xbd6cb549	-0.057790074
84	0x3c9d572e	0.01920661
85	0xbd31bc9e	-0.04339277
86	0x3da91f28	0.08257896
87	0x3c91c5e2	0.017794553
88	0x3de22f7d	0.11044214
89	0xbe1da19d	-0.15393682
90	0x3c172e84	0.009227399
91	0x3d87bb70	0.06627548
92	0x3d1182ee	0.035525255
93	0x3d46d2dc	0.048540935
94	0xbd88537e	-0.0665655
95	0xbd9952ca	-0.07486494
96	0xbc11d279	-0.008900278
97	0xba4a49ae	-0.00077166676
98	0xbdea0e39	-0.11428494
99	0xbb9d1125	-0.0047933036
100	0x3d39658f	0.04526287
101	0xbd4c7abe	-0.049921744
102	0xbabe5a71	-0.0014522803
103	0xbd975a91	-0.07390321
104	0x3c38223d	0.011238632
105	0xbca4d2ba	-0.020120014
106	0x3da34606	0.0797234
107	0xbd36c358	-0.044619888
108	0x3cdc0649	0.026858466
109	0xbda14cff	-0.07876014
110	0x3d4ea722	0.05045236
111	0x3c1137a5	0.008863364
112	0xbd6a7266	-0.057238005
113	0x3d7ad688	0.06123975
114	0xbe20eba2	-0.15714887
115	0x3d8daafd	0.06917379
116	0xbd5a1206	-0.053239845
117	0xbe2a2556	-0.16615805
118	0xbe237a77	-0.15964685
119	0x3d39db20	0.04537499
120	0x3dc0e433	0.094185255
121	0x3c2865d2	0.010278182
122	0x3c2901c3	0.010315361
123	0x3dee909b	0.11648675
124	0xbd341357	-0.043963756
125	0xbb140a7c	-0.0022589257
126	0x3db8c55f	0.090220205
127	0x3c5b2727	0.013376034
128	0x3d522837	0.051307883
129	0x3d8472a5	0.06467179
130	0xbd814a99	-0.063130565
131	0x3c41a56f	0.011819228
132	0xb8e86a3c	-0.0001108241
133	0xbd3b4ca0	-0.045727372
134	0x3d1c900a	0.038223304
135	0xb99caece	-0.00029884878
136	0xbdc85d0b	-0.097833715
137	0x3cde45fb	0.027132979
138	0x3d3b42d1	0.045718018
139	0xbc6de58c	-0.01452006
140	0x3c6cbe02	0.014449598
141	0x3cd8690d	0.02641728
142	0x3d4a54af	0.049397167
143	0x3cc967f4	0.024585702
144	0x3cda3aca	0.026639361
145	0xbccdc85e	-0.025119957
146	0x3d147d5f	0.036252376
147	0xbd566e0b	-0.05235104
148	0xbcbe98df	-0.023266254
149	0xbd02f290	-0.031969607
150	0x3da82bd9	0.08211488
151	0xbc7797d9	-0.015111887
152	0x3db60834	0.08888283
153	0xbe77eaf7	-0.24210726
154	0xbb139994	-0.002252196
155	0x3da8f347	0.082495265
156	0x3d0a53b7	0.033771243
157	0x3be4512a	0.0069676833
158	0xbce3554d	-0.027750636
159	0xbcf50b6a	-0.02991267
160	0x3cba649b	0.02275305
161	0x3d1e97f4	0.038719133
162	0xbde2ea51	-0.110798486
163	0x3e0e80bd	0.13916297
164	0xbdc0cf53	-0.09414544
165	0xbcb114e8	-0.021616414
166	0x3d41eb8b	0.047343772
167	0x3be6f138	0.0070477985
168	0xbd91bc98	-0.071160495
169	0xbe31f81b	-0.17379801
170	0x3c069eb5	0.00821655
171	0x3d1001e7	0.035158064
172	0x3d916660	0.070996046
173	0xbd0b465a	-0.03400264
174	0xbdccfc36	-0.10009043
175	0xbd83cfec	-0.06436142
176	0xbca3c253	-0.019990122
177	0x3d613164	0.054978743
178	0x3da11182	0.078646675
179	0x3d6053a4	0.054767266
180	0xbd49ecf9	-0.04929826
181	0x3baa79f4	0.005202526
182	0xbe2afb02	-0.16697314
183	0x3cca88f8	0.024723515
184	0xbd14fd76	-0.03637453
185	0x3ce996ce	0.028514292
186	0x3bb4f2a2	0.005522088
187	0xbe01ff55	-0.12695058
188	0x3c56f7fa	0.013120646
189	0x3c5a4e84	0.013324384
190	0x3e51f3af	0.20503114
191	0xbc8ed57a	-0.017435778
192	0x3d2bc841	0.041939024
193	0xbe261f0d	-0.16222782
194	0xbd6f1bd3	-0.058376145
195	0xbcfb9c52	-0.030714188
196	0x3d094135	0.033509452
197	0x3aae713c	0.0013308893
198	0x3ddf30c4	0.10897973
199	0x3c19d662	0.009389492
200	0x3d936d0d	0.07198534
201	0xbd820619	-0.06348819
202	0x3d7090e8	0.058731943
203	0x3cce3179	0.025170075
204	0x3dd6530e	0.1046506
205	0xbd8f4847	-0.06996208
206	0x3de64ee0	0.11245513
207	0x3d08fe94	0.03344591
208	0x3d949704	0.072553664
209	0xbcf9d022	-0.030494753
210	0x3eb5c725	0.35503498
211	0xbd54d05e	-0.051956527
212	0x3d0c7448	0.034290582
213	0x3d7c24e0	0.061558604
214	0x3d93cd9a	0.0721695
215	0x3c7e3714	0.015516061
216	0x3ca52b5f	0.020162283
217	0xbe036d51	-0.1283467
218	0x3c2efbfa	0.010680193
219	0x3d815620	0.06315255
220	0x3caae9b6	0.020863395
221	0xbd819687	-0.06327539
222	0xbd5dec90	-0.05418068
223	0x3ca83cb7	0.020536764
224	0x3c6ed60a	0.014577398
225	0x3b0788b4	0.0020680847
226	0xbdb065e7	-0.08613186
227	0x3d9ab164	0.07553366
228	0x3d83a463	0.06427839
229	0xbd97895d	-0.07399247
230	0xbd27f727	-0.041007187
231	0x3c8de5e1	0.017321529
232	0xbc0736b2	-0.0082527865
233	0xbd2ecce6	-0.042675875
234	0xbd19e0e7	-0.037568
235	0xbd57bf62	-0.05267275
236	0x3d4f7d23	0.05065645
237	0xbb9d7233	-0.0048048734
238	0xbd332286	-0.043734096
239	0xbd289189	-0.04115442
240	0x3ccf7af7	0.025327189
241	0x3d701af9	0.058619473
242	0xbd664b59	-0.0562242
243	0x3d3d1e82	0.046171673
244	0xbda284c1	-0.07935477
245	0x3c092788	0.008371241
246	0xbe3756cf	-0.17904209
247	0xbd094d00	-0.0335207
248	0xbd339016	-0.043838583
249	0xbd74f831	-0.059807006
250	0xbdae6d74	-0.0851697
251	0xbe15ae11	-0.14617182
252	0x3da1ce67	0.07900696
253	0xbce11495	-0.027475635
254	0x3e57b42e	0.21064827
255	0xba97f4ff	-0.00115934

fc.5.bias f4 [4]
0	0x3d9c3a92	0.07628359
1	0x3da13c3f	0.07872819
2	0x3d9de7b3	0.07710209
3	0x3d9fbf75	0.078001894
