best_model_0.pth (torch, 140113 bytes, 6 tensors)

fc.1.weight f4 [128, 200]
00000000: 20f1 0e3c e893 ffbc b0ed 2cbc f27d 34bd
00000010: 1656 763d 0098 c8bb b4b5 313d 43aa 8fbd
00000020: 4c36 b43c b8f9 0a3d c57e 1dbd 6570 c1bb
00000030: 58e3 14be 70a4 89bd 154a abbc ba10 27bd
00000040: b645 d6bd f15a 25bd 7221 283d a842 4abd
00000050: d83a c1bc 1101 d1bd 3a0e 1dbe 5892 55be
00000060: bba3 dabd 6cda 96be 4cb7 5ebe 46a6 893e
00000070: b3a6 943e e8ea cfbc e884 0bbd 0947 d03d
00000080: 9b16 283e f4a1 b13c e34a 72bc fc4f 13be
00000090: 90fd 3d3e 2940 273e 0632 043e 985e 073e
000000a0: 3b9f 99bd 319c dc3d 28af 09be 8069 88bd
000000b0: c99e 19be 881a 72be 5849 1c3e 11fd 313d
000000c0: 7b96 c33c 3971 1c3d 94d9 6dbd 4471 233e
000000d0: 103c f63d 6160 97bd fe90 b93c bd53 a13c
000000e0: 8ed5 a53d 74fc 0b3e 230a abbb d7dd 163e
000000f0: aff3 92bd dfcf 1ebe 4eb0 84be a56e 10be
00000100: 95a7 5ebd 75cc 803d 8904 70be 9a12 9f3a
00000110: 72a6 d6bd 9de7 b5bc ea69 97be 5ace 34be
00000120: ce68 e1bd 12ef d63c 62c9 033e fbac ae3d
00000130: 9519 293e 2196 11be 4b56 15bd fdbc f6bd
00000140: 5a37 43be 69c5 60bc 0196 27bd 6242 fdbc
00000150: 15e5 b03d 22b5 1d3d f9ad 4bbc bb83 4cbd
00000160: 9e91 233d 247f f8bc 8628 b3bd e7f3 05be
00000170: 41c2 d6bd 0507 19be 9af4 36be 06ca aabc
00000180: 9a20 6e3e 6c50 a0bd 092d 54bc 3179 663d
00000190: 34fe 49bf ca35 d63c 7a3e f8bd bddb 8cbe
000001a0: 0b86 86be f827 72bd 9831 72bd 9801 6b3b
000001b0: c47d 4fbe 8bcb 9abe d7dd 8c3e 1347 b23d
000001c0: 8eea 43bc de28 a9be 5c81 8f3d 2e00 b1be
000001d0: 34ba 643d c8f9 ca3d 09a1 493c c54c cbbd
000001e0: b46f 713e 98e2 85be ff0d 8dbc f2f7 093e
000001f0: efba 273e dff6 123e 6812 34bd 1aa3 9d3d
00000200: a96c d53c ea00 83bd c05e 69bd 0434 a13d
00000210: 0790 ff3d 0958 253e c486 5ebe 39a1 6abd
00000220: d55a d33d b597 373e 0b03 9d3d b4b8 3d3e
00000230: 9295 3abd 6d9b 523e cb16 3b3e 18a2 61bd
00000240: 0979 c5bb b3ca 913b 7c3e 543d d9fc 8c3d
00000250: 3c6f 2abe 5960 9d3d 9106 e5bd 6b42 653d
00000260: 1d95 0f3e 6b00 283e 9277 90bc 4047 8dbd
00000270: 1889 da3d 0b1a d1b9 7559 16bd a4c9 55be
00000280: a46c 75bd bb77 00be 9d13 83be de29 b93d
00000290: 0c57 4bbd 1256 d3ba fa69 cfbb 4919 c839
000002a0: be20 66bc 0616 fbbd c415 e1bc c075 c0bd
000002b0: 6b16 afbd f53d 97bd 89bb a7bd 5128 b9bd
000002c0: 7266 38be 8a17 bb3d 8722 0d3e eee1 b83d
000002d0: e2d9 d73b e726 4dbc 45d0 eabd f39a 21bd
000002e0: 52b7 52bd 7c1f a7bd 9624 7cbd 6a6c 08bd
000002f0: 08c3 29be bc46 b2bc 2c6f 09be 39a8 183c
00000300: 98af 32be 2da6 d6bc 40e8 57be ac5f 53be
00000310: 47ee 253d 8055 2cbe 08cb 2fbe 3359 40be
00000320: 50a1 363c 0a47 383d dc3c d3bc 3cc3 3e3d
00000330: 5c0d b83c ca2f 6d3d 3e67 2fbd b09e 2abc
00000340: f65f 3a3d 2c45 65bd 88b9 1d3c 249f 3fbe
00000350: 9e48 9cbe 9859 b1bc 1a74 fdbd dd9c 243c
00000360: 27c1 08be 4c15 09be 8e06 84bd 702f eabb
00000370: bda4 e6bd 2226 9bbe 942f b6be 0f9e 97be
00000380: dcc0 82be 59ed 89be baa4 e4be 72ea 9fbe
00000390: 0abb e3bc 9231 60be 6ffb 0a3e 5348 abbd
000003a0: 0e50 183e 14f7 33be 6633 abbe 9792 76be
000003b0: 5bf6 28be 6b32 24be cb34 28be d005 a1be
000003c0: fab2 413d e09c 683c d029 2bbe b360 e0be
000003d0: b5fb d1be 1e83 b13d 351a cc3d 10c4 a13d
000003e0: 51c2 d8bd de19 df3d 445f 3b3e b21c f53d
000003f0: af50 663c 8042 98be 6d8d a8bd f49f 053e
0.008724481 -0.031198457 -0.010554716 -0.044065423 0.06014069 -0.0061216354 0.043386176 -0.07014897
0.021998547 0.033929557 -0.038450975 -0.005903291 -0.1453985 -0.06720817 -0.020909349 -0.040787436
-0.10462515 -0.04036993 0.04104752 -0.049379975 -0.02358763 -0.102052815 -0.15337458 -0.20856607
-0.1067576 -0.29463518 -0.2174961 0.2688467 0.2903343 -0.025380567 -0.034062296 0.10169799
0.16414873 0.02168367 -0.014788362 -0.1438598 0.18553758 0.16333069 0.12909707 0.13219678
-0.07501074 0.10771979 -0.13445723 -0.066607475 -0.15001978 -0.23642933 0.15262353 0.043454234
0.023875466 0.038193915 -0.058068827 0.15961176 0.12023175 -0.0739143 0.022652145 0.01969325
0.08097373 0.13670522 -0.0052197143 0.14733063 -0.07175385 -0.15508984 -0.2591576 -0.14104708
-0.054359037 0.06288997 -0.2343923 0.0012136281 -0.10480966 -0.022205168 -0.29572994 -0.17656842
-0.11006318 0.026237044 0.1286979 0.08529087 0.16513665 -0.14217426 -0.03645925 -0.120477654
-0.19064084 -0.013718941 -0.04091454 -0.030915443 0.08637444 0.03850282 -0.012431615 -0.049930315
0.039933793 -0.030334063 -0.087479636 -0.13081323 -0.1048627 -0.14944084 -0.17866746 -0.020848285
0.23254624 -0.07827839 -0.01295019 0.05626792 -0.7890351 0.026148695 -0.121212915 -0.27511397
-0.26274142 -0.05912015 -0.059129328 0.0035859104 -0.2026282 -0.30233416 0.27513 0.087049626
-0.011957778 -0.33038992 0.07007095 -0.3457045 0.05584164 0.09910923 0.01230646 -0.09926752
0.23577768 -0.2614944 -0.017218588 0.1347349 0.16379903 0.14351986 -0.043962866 0.07697125
0.02605279 -0.06396659 -0.056975126 0.07871249 0.12478643 0.16146864 -0.21731097 -0.05728266
0.10320059 0.17928965 0.07666596 0.1852749 -0.045552798 0.20567103 0.18270414 -0.055086225
-0.0060263914 0.0044492125 0.051817402 0.06884164 -0.16643995 0.076843925 -0.11182893 0.055971544
0.14021726 0.1640641 -0.01763514 -0.068983555 0.1067068 -0.0003988299 -0.036706407 -0.20877701
-0.05991806 -0.12545674 -0.256009 0.09041189 -0.04964356 -0.0016123673 -0.006329772 0.00038165812
-0.014045892 -0.1226006 -0.027476199 -0.09397459 -0.08549198 -0.07384864 -0.08190066 -0.09040893
-0.1800783 0.09135349 0.13782702 0.09027468 0.006587253 -0.012521482 -0.114655055 -0.03945441
-0.05144436 -0.08160302 -0.06155833 -0.033306517 -0.16578305 -0.021762244 -0.13421315 0.009317451
-0.17449796 -0.026202286 -0.2108469 -0.20641965 0.040510442 -0.1682949 -0.17167294 -0.18784027
0.011146858 0.044989623 -0.025785856 0.04657291 0.022467308 0.057906903 -0.04282307 -0.010413811
0.04550167 -0.05597417 0.009626754 -0.18713051 -0.30524153 -0.021649167 -0.1237566 0.010047165
-0.13354932 -0.1338703 -0.06446563 -0.0071467683 -0.1126189 -0.3030253 -0.35583174 -0.29612777
-0.25537765 -0.26938894 -0.44656926 -0.31233555 -0.027799148 -0.2189391 0.13572477 -0.08363404
0.14874288 -0.17574722 -0.3343765 -0.24079357 -0.16500227 -0.16034858 -0.16426389 -0.31449747
0.047289826 0.014197558 -0.16715169 -0.43823776 -0.4101235 0.08667587 0.09965936 0.07898724
-0.10583938 0.10893606 0.1829806 0.11968364 0.014057322 -0.29738235 -0.082301 0.13049299

fc.1.bias f4 [128]
00000000: 2f53 a2bd 0f68 91bc aa5e e5bd a988 5c3d
00000010: b61b 52bd 4050 03be 07ef 49bd 6dc2 d8bb
00000020: 248c c0bd e49b a4bd e205 bb3c 1766 003d
00000030: e602 16bd 28d1 cebd b0e8 24bd 3ca2 e6bc
00000040: af1e 7bbd 378d dcbc 555b 04bd 8125 1e3d
00000050: 6afb 14be 21fb a3bd 95ad 833d 4f8d 67bc
00000060: e34c 75bc 1129 57bd 547c 403d 7446 9ebd
00000070: 1833 9fbd 8bb1 ffbd 52d9 ebbc 8343 21be
00000080: f3ee b13d bfc3 25bd 1520 a8bd 4ffd 70bd
00000090: a340 f8bd 2031 acbd 6a8c e1bc e57c a8bd
000000a0: 727f 1ebd 2d22 0f3d ac39 7bbd 8bca 8bbd
000000b0: 570a b0bc 6114 8ebd 0b0e c9bc 191d 99bd
000000c0: 2923 88bd 2f56 72bd 6a6d 1dbc b0a0 f7bd
000000d0: 18d6 27bc 26d6 acbd 0e3c d0bd 4238 debd
000000e0: ad00 b1bd eae8 40bd 27b4 7cbd 796d c2bd
000000f0: dd48 34bd 05f8 16bd c072 043d eadc b0bb
00000100: e894 f8bd 6f25 f0bd 6cf4 1dbe 0261 913d
00000110: b941 80bd 165f f0bb b141 dabc 8890 e9bd
00000120: 8436 c6bd ed6c 47bd 4447 ddbd 4287 b9bd
00000130: 969f c3bd 0cc9 99bd a910 d5bd 935f 21bb
00000140: 4614 2fbd 7b4a 8ebd 583c 38bd f970 8ebd
00000150: 4ab2 fabc fa0b c2bd c124 a6bd 8886 c63d
00000160: 42f8 0fbd e5e0 adbd 64eb bf3d 4441 f1bd
00000170: e732 11be cbfe 9bbd e6a8 2bbd ce7b 5dbe
00000180: ded7 c33c 25bd 92bd 65b6 c2bc c414 b6bd
00000190: b591 17be 57ba 42bd 5c35 fbbb 2cf6 23be
000001a0: a9b9 5fbd ed10 e1bd 927b 3ebe e32a 10be
000001b0: dc96 67bc d8f1 afbd f5a0 fabd 896d fdbd
000001c0: a962 04bd 024d f9bd 486f 11bd ad77 61bd
000001d0: 8544 87bc d146 ccbd b783 a83c 4fbd 9abd
000001e0: a1bc 0e3d 8717 02bb f8e7 0fbe 005f b2bd
000001f0: 7421 4dbd 05b1 8cbd a41c 72bd bc38 25bd
-0.07926022 -0.017749814 -0.11199696 0.053841267 -0.05129596 -0.12823582 -0.04930022 -0.0066149742
-0.0940173 -0.08037546 0.022829954 0.03134736 -0.036623858 -0.10098487 -0.04026097 -0.028153531
-0.06130856 -0.026922805 -0.032313664 0.038609985 -0.14549032 -0.080068834 0.064295925 -0.014132812
-0.0149719445 -0.0525294 0.04699357 -0.077282816 -0.07773417 -0.124850355 -0.02879015 -0.1574841
0.08688154 -0.04046988 -0.08209244 -0.058835324 -0.121217035 -0.08407807 -0.027532775 -0.08226947
-0.03869576 0.034944702 -0.061334297 -0.068257414 -0.021489305 -0.06937481 -0.024542829 -0.07476253
-0.06647331 -0.059164222 -0.009608606 -0.120911956 -0.010243915 -0.08439283 -0.101677045 -0.10850574
-0.08642707 -0.047097124 -0.061695244 -0.094935365 -0.0440148 -0.036857624 0.032335997 -0.0053974288
-0.121377766 -0.1172589 -0.15425271 0.07098581 -0.062625356 -0.007335554 -0.026642652 -0.1140452
-0.09678367 -0.048687864 -0.108046085 -0.090590015 -0.09551923 -0.0750905 -0.10403568 -0.0024623617
-0.042743944 -0.069478 -0.044979423 -0.069551416 -0.030602593 -0.094749406 -0.08112479 0.096936285
-0.035148866 -0.08490161 0.09371069 -0.117800266 -0.14179574 -0.07616957 -0.04190912 -0.21629259
0.023906644 -0.07164983 -0.023768613 -0.088906795 -0.14801677 -0.04754099 -0.007666273 -0.16011876
-0.05462042 -0.109895565 -0.18601826 -0.1407886 -0.014135089 -0.0859105 -0.12237731 -0.12374408
-0.032320652 -0.12172891 -0.035506517 -0.055045772 -0.016512165 -0.09974445 0.020570619 -0.07555639
0.03484786 -0.001985045 -0.14053333 -0.08709526 -0.05008073 -0.06869701 -0.059109345 -0.04033731

fc.3.weight f4 [64, 128]
00000000: 344a bdbd c559 013b 902e d1bc 9106 673c
00000010: 7611 d5bc ed02 0abd da2a f3bd e630 2f3d
00000020: a38c 333c 7d65 893d 2249 8c3d 8e37 7e3d
00000030: c302 783d badf 30bd dd47 90bd bb2c acbd
00000040: b0be 893c 9b6f 8e3d bfb0 843d 6014 8b3d
00000050: 2cec d7bd 752c 66bc d20a 553c 5313 283c
00000060: 3a68 7dbc 1cdc acbc b210 5a3d 31a6 4abd
00000070: 339e 343c 7539 a23d 67c5 d53d c24c db3d
00000080: d3c3 da3b 8e1f c8bc 2517 a1bc 50f2 963d
00000090: ecb0 623d 016c fe3c 43a8 733d 7567 383d
000000a0: 4541 063e 7f13 5d3a c68f 403d d071 8a3d
000000b0: d145 bbbc 7db6 773d cb87 34bd 58cf 1d3d
000000c0: 3a71 bf3c 134b 7a3c 4309 823d 76ab a4bc
000000d0: 0231 78bd ee50 9b3d 7cad 223d 834d 25bc
000000e0: 940e f03d 9ea0 5fbc f915 733d 542e b4ba
000000f0: 60e8 8b3d 15f4 6b3c 4d06 793d 99ba c23c
00000100: 59a6 2f3c e174 ad3c e217 713b dc8f 323d
00000110: 7b0d cabc 1014 d9bd 0cde 53bd 8764 8e3d
00000120: a935 35bd 66f7 d93c 4f04 d23b f66e 753d
00000130: f0aa 38bd d3c9 26bd 355a 86bd afe3 25bd
00000140: 18b0 8cbd 60ec e33c 617a d43d c9f1 bf3d
00000150: c411 b33a d7d7 a2bd eee5 0bbc 14a9 ac3d
00000160: 6b1a e9bc 64f0 6f3d 117c ad3d c115 74bd
00000170: 7e58 1c3d 167f 053e b0a1 163d 3c0d a0bd
00000180: 039b 3ebd 9691 763d 375c 673c 82a2 533d
00000190: 4eda 643d 617f 8b3c 1d47 c8bb 2386 20bd
000001a0: eba1 853d 57ed b2bc 3db6 aabd e2f0 83bd
000001b0: d1ab d4bd 2168 be3c 756e 9a3d 451a a93d
000001c0: d334 893c 2833 06be ba67 ad3d e412 9fbc
000001d0: fcf0 423d a7e6 2abd ad53 0f3d 8714 4b3b
000001e0: d3b6 f03c c759 55ba e28a 63bd d546 60bd
000001f0: f8e2 d13d b755 21bd d1f2 723c 2877 6a3a
00000200: c7c0 383d a599 293d 6b88 1abd 970f 18bd
00000210: ddd2 c9bd 65ca 28bd 97df 12be 7245 e63b
00000220: 6c41 94bc 271b 23bd 6a3c eaba 02d4 aabc
00000230: 6f92 f23c 5f44 18bb d3af 87bc 5623 313d
00000240: cf99 b3bd f301 32bd fc3e fcbd 143e adbd
00000250: 6b00 a9bd 3464 90bb 6ee0 b4bc 3116 0c3c
00000260: d4ae 473d ed7e bdbd f16b 2a3e ecec 14be
00000270: fad0 cebc 4c7f debc d821 ad3d 17e9 aabd
00000280: a47a 25bd f3ba 02bd 5e60 80bd d507 1a3e
00000290: 28f7 173d 78e4 e5bb cc10 503d d730 683d
000002a0: 697b 2b3e 326f 1abe 3860 c93d c800 31ba
000002b0: 71c5 22be 5343 ca3c 5cbb 67bd 1bd0 303d
000002c0: 6445 2f3d 7bfc b0be ea2d 23bd adc1 1dbd
000002d0: 27d1 20bc 4b70 e93d 6eb8 a8bc d4cc 983b
000002e0: 3be7 313c d7b2 9c3d 2795 3e3d f872 aebd
000002f0: 50ca 193d 4d71 a4bc 6bd1 033d bcd4 6a3c
00000300: 3712 84bd 5eb6 15bd b2a3 383e 45a9 d3bd
00000310: 4866 97bd ee1a 843b 536b b43b 5bc9 063c
00000320: a80b 943d 1db0 543c 53b3 0f3c 721e f03d
00000330: 9f8e aa3d 31f3 733d d8f3 4fbd 1c7f 1dbd
00000340: c1cf b1bc 28e8 17bd 5b79 943d 5a6a a73c
00000350: 826e 7e3d 9d2c 803d be4e 4f3d 0281 49ba
00000360: 3368 41be 85f4 a3b9 3bca 1abd 784e 023e
00000370: 8b69 e33b 79d2 2dbd c7a7 3e3d 5139 a0bd
00000380: 7579 efba 32e0 0bbd 7b79 2dbd 49d9 a3bd
00000390: 15c0 e7bc 9c23 15bd 9c13 b83c 12b2 f6bd
000003a0: eb07 68be 8613 b13d 7cd0 10be 47de 0dbe
000003b0: 05a4 c5bc b4a4 d4bd a04a f8ba 774a 233e
000003c0: b9fd d33c b35e 4abd d197 ac3c 8acb 0ebd
000003d0: ec55 fb3d ac80 2e3d 4ba9 9bbd b7e1 82bd
000003e0: 6215 3ebe 0c34 00bd cb77 0a3d a255 1c3d
000003f0: 34eb 87bd 8e47 a9bd 870d 353c c866 0f3d
-0.09242669 0.0019737345 -0.025534898 0.014100687 -0.026009303 -0.033694196 -0.11873408 0.042771243
0.010958823 0.067088105 0.068498865 0.0620647 0.06054951 -0.043182112 -0.07044957 -0.08406969
0.01681456 0.06954881 0.06479024 0.067909956 -0.10543093 -0.014048685 0.013003068 0.0102585135
-0.015466744 -0.02110105 0.05323858 -0.0494749 0.011024046 0.07921115 0.10438042 0.10708
0.006676176 -0.024429109 -0.019664356 0.07370436 0.055344507 0.03105736 0.05948664 0.04502054
0.13110836 0.0008433386 0.047012113 0.06759989 -0.02286044 0.06047677 -0.044074815 0.038527817
0.02336942 0.015276688 0.06349423 -0.02010129 -0.060593612 0.075837955 0.03971623 -0.010089281
0.117215306 -0.013649134 0.059347127 -0.0013746717 0.068314314 0.014401455 0.060797025 0.023770617
0.010720813 0.021173896 0.0036787917 0.043594226 -0.024664631 -0.1059953 -0.051725432 0.06952768
-0.044240627 0.026607227 0.006409205 0.059920274 -0.045084894 -0.04071982 -0.065601744 -0.04050034
-0.06869525 0.027822673 0.103749044 0.09372289 0.0013661911 -0.079513244 -0.008538706 0.084306866
-0.02845498 0.058578864 0.084709294 -0.05959106 0.03817033 0.1303676 0.03677529 -0.07815024
-0.04653455 0.060197435 0.014121107 0.05166865 0.055872254 0.017028512 -0.006111993 -0.039190423
0.06525024 -0.021841688 -0.083355404 -0.06442429 -0.10384334 0.023243012 0.07540599 0.08256964
0.016748821 -0.13105452 0.0846705 -0.019418187 0.0475931 -0.041723873 0.03499191 0.0030987577
0.029384052 -0.0008138683 -0.05555237 -0.05475505 0.10248369 -0.039388385 0.0148284 0.0008944147
0.04510572 0.041406292 -0.037727755 -0.037124243 -0.09854672 -0.041208643 -0.14343105 0.0070273215
-0.018097602 -0.039820816 -0.0017870788 -0.020853046 0.02961084 -0.0023234112 -0.016563332 0.04324659
-0.08769571 -0.04345889 -0.12316701 -0.08459106 -0.08252033 -0.0044064764 -0.022079673 0.008550213
0.048750713 -0.09252725 0.16642739 -0.14543504 -0.025246132 -0.02716031 0.08453721 -0.083452396
-0.040400162 -0.03191657 -0.062683806 0.1504205 0.03710094 -0.007015761 0.05079727 0.056687202
0.16746296 -0.1508148 0.098328054 -0.00067521306 -0.1589563 0.024690306 -0.056575164 0.043167215
0.042790785 -0.34567627 -0.03983871 -0.03851478 -0.009815491 0.11398371 -0.020595755 0.0046630893
0.010858352 0.076512985 0.04652896 -0.08518022 0.037546456 -0.020073557 0.03218214 0.014332946
-0.06448787 -0.036550872 0.18031195 -0.1033502 -0.073925555 0.0040315306 0.005505958 0.008226718
0.07228786 0.012981442 0.008770782 0.11724557 0.08327984 0.059558097 -0.050769657 -0.0384513
-0.02170551 -0.037086636 0.07249709 0.020436455 0.062117107 0.06258509 0.050612204 -0.0007686765
-0.18887405 -0.00031271964 -0.03779052 0.12725246 0.006940072 -0.04243705 0.046546724 -0.07823432
-0.001827045 -0.034149356 -0.04235218 -0.08000428 -0.028289834 -0.036410913 0.022470288 -0.12045683
-0.2265927 0.08646302 -0.1414203 -0.13854323 -0.024126062 -0.10382977 -0.0018943138 0.15946375
0.02587782 -0.04940672 0.021068485 -0.03486208 0.12272248 0.04260318 -0.076006494 -0.06390708
-0.18562844 -0.031299636 0.03380565 0.038167603 -0.06636658 -0.08265601 0.011050588 0.03501013

fc.3.bias f4 [64]
00000000: 5279 9a3d 3e1b a6bd 9a4f bebd 4e09 a83d
00000010: 68da 6d3d 5201 04bd bffd 0c3d 879e cdbd
00000020: de7e 84bd 3018 14bd 53d2 cb3d 7001 a7bd
00000030: 2e9d d1bd 08b4 afbd 466e 563b bae8 d3bd
00000040: ddf0 3d3d 48ee dcbd 8946 22be 98ca d3bd
00000050: bf8b c8bd a98c bbbd ce47 d7bd fe44 15be
00000060: 8907 813d c564 1bbe 73e1 adbd 38bf 9fbd
00000070: 6d84 43bc fa84 14be 7d35 09be e7ca f0bd
00000080: 4179 8fbd e2df 8bbd 3db4 07be ea21 8eba
00000090: bdcc b7bd 6a55 1bbe c0f0 4dbd acf6 77bc
000000a0: 9a50 543d 48d7 47bd 2f7d 35be b592 5ebe
000000b0: 0de4 a1bd 30d0 babd 5a1d 82bc d26b 88bc
000000c0: 1370 a1bd 08c2 28be a10c e53d c098 04be
000000d0: df57 34be 7024 00be 81e8 e3bd b3b7 04be
000000e0: 3b5f 26be 01b5 e6bb 86a6 08be 17e6 1dbe
000000f0: bcce fbbc d48a 9abd 8326 b0bd d9d7 ecbd
0.07542671 -0.08110665 -0.092925265 0.082049 0.058069617 -0.03222782 0.03442168 -0.10040002
-0.064695105 -0.03615588 0.099522255 -0.08154571 -0.10235058 -0.0857926 0.0032719537 -0.103471234
0.046372283 -0.10787636 -0.1584722 -0.10341376 -0.097922795 -0.09157688 -0.105117425 -0.145771
0.06300265 -0.1517516 -0.08490267 -0.07800144 -0.011933428 -0.14503852 -0.1339931 -0.117574506
-0.07005549 -0.06829812 -0.13252349 -0.0010843847 -0.089745976 -0.15169302 -0.050278425 -0.015134495
0.05183468 -0.048789293 -0.17723535 -0.21735652 -0.07904825 -0.0912174 -0.015883137 -0.016652975
-0.078827046 -0.16480267 0.111840494 -0.12948895 -0.17611645 -0.125139 -0.11128331 -0.129607
-0.16247265 -0.0070406203 -0.13344774 -0.15419804 -0.030738227 -0.075460106 -0.086010955 -0.11564607

fc.5.weight f4 [4, 64]
00000000: ec1b a23d e242 933c 47aa bbbd 2ba6 9fbd
00000010: 92cd a93d d034 093e 2fdd 17be 792d ec3c
00000020: e66e 17bd 8233 aa3b 2073 b03d d122 6ebd
00000030: b0e1 27be deaa 09bd ac4a 923d 58af 333d
00000040: d8c3 abbd 6103 493d 13c0 3fbd 8d64 95bd
00000050: 1fea 90bd 4e9c 683e 9820 93bd 3265 f83d
00000060: 06f2 133c b3cc 4bb9 e9c2 913d edd8 e93b
00000070: 66a3 48be 7bed e53c 17d0 b63d 5e9e cabd
00000080: 96ad 113d 244c 8bbd 4f1e 88bc b0ee f03d
00000090: 42c7 babd 141a 8dbd 48e6 34bd b82b 1abd
000000a0: 9c65 e03c 053c 1c3b ba83 313d fe1f 4e3c
000000b0: a6da d6ba d4d1 b43c 97ab ea3c d31a 21bd
000000c0: 48c1 ef3c 29a6 063d 29fd 68bd 1256 efbd
000000d0: 1a5c 0dbd 4fd9 70bd 960b 41bd e9d7 1b3d
000000e0: 919d a1bb aea7 043e 80d1 433d b6c6 f23c
000000f0: 530d 4abe ccb7 05bd c237 3dbb b342 6c3d
00000100: e0fa 243d b940 f9bc 5082 fe3c 07ab d23d
00000110: efe5 88be 3863 b9bd 32ca 3b3d 9404 003d
00000120: 63d9 25be a3c1 633d b9a6 973d d19a 123d
00000130: 91ea 5ebc 336f 813c 4d0b d3bd 19b5 a83c
00000140: 97bf 073e 4cdf 6e3d e346 b3ba d45f 11bd
00000150: b231 8fbd a27b 953c 2e1e 803c b095 ba3b
00000160: 1e2f 8a3d 45d5 cc3c 6c24 27bd 89d4 3b3d
00000170: 5284 a03c a9ea 253d 03c3 9c3d c6a7 67bd
00000180: 4966 f8bc 181a 003d 32a9 a4bd 9981 2dbe
00000190: 91b0 64bc fcc0 a13b b1fb 95bd 5e84 dcbd
000001a0: 2b75 833d 2123 643a 45c0 8bbb a32f 83bc
000001b0: 9a4a e8b8 386b 64bd 187b e33c fc00 d63b
000001c0: 6cbd 40bc 159c 1b3d 558a 50be 7849 94bd
000001d0: 5dec 4a3c b824 1dbe 2bff 08bd ac53 b8bd
000001e0: 00f2 643d 724e 273d ddf1 4b3d 1edd 62bd
000001f0: ec9f 71be 77c6 0c3c 0ae6 6cbc ab3b 223c
00000200: ee08 a93b df4c 8b3d 229c 02be ed39 9cbd
00000210: e29d 133e 89de 17be bfa7 2cbd 718b b13c
00000220: 138a d03b 2100 113d 9271 f33d 019a 59bd
00000230: f3d8 1f3c f96d bbbc a307 b53d a798 07be
00000240: 4e64 43be 1675 043c 470b 06bd d263 453d
00000250: a3eb 41bd cd75 3d3c d62b f2bd 39ae 733d
00000260: 8e61 393d 9695 03be e274 673d 32b6 4e3b
00000270: 9ab8 aabc 61ee f33b 2291 f7bc 25e7 b9bd
00000280: e68e 283d f6a4 b1bd 0753 58bc 8f66 d73d
00000290: 55dc 9fbc 3680 cabd 78dc 863d 2cdb 35be
000002a0: 7359 743c 3112 92ba d9e2 ebb9 95f0 883d
000002b0: 0797 07be 2a70 7d3d f59c 28bd f161 5dbd
000002c0: 4a2f 223d e04e 0d3c 7228 86bd a566 da3c
000002d0: bb1a 7abb 18c6 173d d042 febc 013c 243d
000002e0: 6729 cabc 6601 343e e777 7cbc bec0 43bd
000002f0: e9c0 dcbc 31df da3c 537a 8f3d 3f7d 373c
00000300: caf0 7b3d 0a0c 7bbb 75fc 68bc ab9b e2bc
00000310: 206d 033d 35bf 7dbc d9c6 aebd 9a3e 75bd
00000320: 3ee9 a9bd c758 19bd 23bd 8f3d ab33 933d
00000330: 2756 92bc facf bbbc ffc5 fcbd f7f5 b03b
00000340: 0828 b5bd f09a 00be ed81 eebc 6234 ceba
00000350: dc1d 9bbd e673 af3d 6b70 6bbd a13f ac3d
00000360: 0e8f 593d 12ee 27be a022 d0bd cfa7 3abc
00000370: ad87 b33d 0f7f dbbc 515b a63d 3711 d0bc
00000380: c193 5e3d 7146 163d af50 053e ef3d 103c
00000390: 63f3 2d3e 87a4 f23b 8070 11bd 24e6 31bd
000003a0: 2f4d 353d 420a 7ebc 8494 f8bc 15fa 973d
000003b0: 2ed4 dd3c 7f38 1bbd 14a9 a63c decf ebbd
000003c0: 0d42 65be 571a a23d ba56 12be 2f40 c0bd
000003d0: 85ec 92bc 0c1b fc37 f2ec aebd 48c2 f33b
000003e0: 9696 343d 39d1 b33c 0dd0 823d d698 07bb
000003f0: fd57 243d 3df4 1b3d 97f0 4cbd d251 08bd
0.07915482 0.017976228 -0.09163337 -0.07795366 0.082911626 0.13399053 -0.14830469 0.028830277
-0.036970995 0.0051941285 0.08615708 -0.058138672 -0.16394687 -0.033610217 0.07143149 0.043868393
-0.083869636 0.049075488 -0.046814036 -0.07294569 -0.07075905 0.22715876 -0.07183951 0.121286765
0.009029871 -0.00019435845 0.07117254 0.0071364553 -0.19593582 0.028067341 0.08926409 -0.098934874
0.035565935 -0.06801632 -0.016616015 0.11764276 -0.09120037 -0.0688974 -0.044164926 -0.03763935
0.027392201 0.0023839485 0.043338515 0.01258087 -0.0016392067 0.02207271 0.028646274 -0.039332222
0.029266968 0.032873306 -0.056882057 -0.116863385 -0.034511663 -0.05880099 -0.04713019 0.038047705
-0.0049321135 0.1295459 0.047807217 0.029635768 -0.19731645 -0.032645985 -0.0028872346 0.057680797
0.040278316 -0.03042637 0.031067997 0.10286527 -0.26737925 -0.090521276 0.045847125 0.031254366
-0.16196208 0.05560459 0.07404847 0.035792176 -0.01360573 0.015800094 -0.1030489 0.020594167
0.1325668 0.05831842 -0.0013677742 -0.03549178 -0.069919005 0.01824743 0.01563939 0.0056941137
0.06747268 0.025004039 -0.04080622 0.045856986 0.019594345 0.040506992 0.07654383 -0.056556486
-0.03032221 0.031274885 -0.08040084 -0.16943969 -0.013958112 0.0049363356 -0.07323397 -0.107674345
0.064188324 0.00087027444 -0.0042648637 -0.016013926 -0.00011076518 -0.055766314 0.027768657 0.006530879
-0.011763912 0.03799065 -0.2036527 -0.072405756 0.012385455 -0.15346038 -0.033446472 -0.09000334
0.05589485 0.040846296 0.049791206 -0.055386655 -0.23596162 0.00859224 -0.014459142 0.009901921
0.005158535 0.068017714 -0.12754872 -0.07628236 0.14415696 -0.14830984 -0.042152163 0.021672936
0.006364116 0.035400514 0.11886896 -0.053125385 0.009756315 -0.022879587 0.08839347 -0.13241826
-0.19081232 0.008084556 -0.0327256 0.0481909 -0.04734386 0.01156373 -0.11824767 0.059492324
0.04525905 -0.12850031 0.056507953 0.0031541702 -0.020839978 0.0074441885 -0.030220572 -0.090772904
0.041151904 -0.08674042 -0.013203389 0.105176084 -0.019514242 -0.098877355 0.0658502 -0.17759389
0.0149139045 -0.0011144337 -0.00044991708 0.066865124 -0.13241206 0.061874546 -0.04116531 -0.054048482
0.03959588 0.008624762 -0.06550683 0.026660273 -0.0038162905 0.03705415 -0.031037718 0.040096287
-0.024677945 0.17578658 -0.015409446 -0.047791235 -0.026947455 0.026717754 0.07005753 0.011199295
0.06150893 -0.0038306736 -0.014220347 -0.027662119 0.03208649 -0.015487482 -0.08534021 -0.059874155
-0.082964405 -0.03743818 0.07018497 0.07187589 -0.017863346 -0.02292632 -0.12342452 0.005400415
-0.08845526 -0.12559104 -0.029114688 -0.0015732164 -0.075740546 0.08567028 -0.057480257 0.08410574
0.053114943 -0.1639941 -0.10162854 -0.011392548 0.087661125 -0.026793985 0.08122886 -0.025398834
0.054340128 0.036688272 0.1301906 0.008803829 0.16987376 0.007404867 -0.03550768 -0.04343237
0.04426306 -0.015505375 -0.030344255 0.07420746 0.027078714 -0.037895676 0.020344295 -0.11514257
-0.22388478 0.0791518 -0.14290896 -0.09387242 -0.017935047 3.0053336e-05 -0.085412875 0.0074389316
0.044088922 0.021950351 0.06387339 -0.0020690463 0.040122975 0.03807472 -0.05003413 -0.033281155

fc.5.bias f4 [4]
00000000: 0604 ef3d 6443 ed3d ce72 ee3d 3c48 f03d
0.11670689 0.11585119 0.11642991 0.117325276
