best_model.pth (torch, 140089 bytes, 6 tensors)

fc.1.weight f4 [128, 200]
00000000: 9cd8 e8bc d098 bc3c 1361 8d3d 709a 6c3c
00000010: b457 45bd 5034 90bc e055 49bb 2475 023d
00000020: 794e 6cbd 4ee4 5abd 4e56 74bd bc0e ffbc
00000030: 9968 71bd 78eb 153d 7abc 70bd d40b 2a3d
00000040: 0af2 d3bc c29a 85bd fe4e 4cbd 0260 65bd
00000050: 8c00 7dbc be6e ccbc beef 2d3d 88bf 6bbc
00000060: f09f a13c ef75 813d 8024 7c3a 8020 17bb
00000070: 20ec 813c ce84 733d 766d 7d3d 148a d1bc
00000080: ceed 48bd 5644 4b3d d195 3abd de21 82bd
00000090: 75d0 8d3d 00c0 10b8 249a bfbc 312e 1abd
000000a0: 86f2 6b3d fa1d a5bc 6b92 54bd 0708 81bd
000000b0: b01d dcbb 3817 6b3c 1f9f 48bd de7d b9bc
000000c0: 28b4 2b3c 357d 8dbd a29e 143d 6433 b73c
000000d0: 04ea a03c fad1 1e3d f6a5 6cbd 205b 90bd
000000e0: 28b2 6ebd 5258 8ebd 64ea bd3c 36b5 87bd
000000f0: 8258 7a3d ecb5 68bc 44bd 8f3c e31c 16bd
00000100: 005d ff3b 20e1 d03b 9cc1 83bd a8e0 263c
00000110: e0fd 0f3d dde1 1dbd 0af1 4a3d 5e91 f9bc
00000120: 183c 373c 3608 4dbd 9626 abbc ea63 273d
00000130: a0cb 363b 500f 28bd 9c25 a53c 36d2 8bbd
00000140: f420 e5bc 45f6 8f3d d0cd 6fbd 5aa7 82bc
00000150: 64a0 9e3c 10a7 53bd 032f 9cbd 6063 78bd
00000160: 214e 8a3d a873 c13c 56d3 37bd 8161 8e3d
00000170: f8dd 55bc 0461 b53c 4e35 bdbc 9f04 78bd
00000180: f11c 42bd 20f9 bc3b f807 ce3c 13a8 1fbd
00000190: ce44 103d 6885 35bd 8b9e 37bd 5e9f 75bd
000001a0: ed09 6d3d f6b8 a8bd dcdf 9bbc e086 0c3c
000001b0: 4070 de3a 3c6f 393d a8d6 8bbd 865e 753d
000001c0: d47e 95bc 30a2 82bb baee f03c fa5f a8bc
000001d0: dc02 e73c 926b 163d 7ad0 07bd 603b 36bb
000001e0: c69e 4cbd 70c6 383d f054 a93c e929 8abd
000001f0: b9d0 e73c 4edc 193d 020a 623d edf2 24bd
00000200: b03f e0bc b05b 7c3c 9a68 363d 4c30 d2bc
00000210: e560 8b3b e247 68bd 517b 0f3c acc9 e93c
00000220: 4df3 c43c 4078 113c 41a0 d63c acd4 4dbd
00000230: 94f5 2f3c 6b38 88bd 702d 72bd c1eb 38bc
00000240: eb76 f9bc 9ebe 49bb 1047 a5bd 5d86 abbd
00000250: 02d6 833c 207f 89bb d7f4 84bd 6aeb edbc
00000260: 70fa e7bc b7a3 a3bd 8153 1cbd cf9e 9ebd
00000270: f6fe f8bc 116c f03c 3b78 6bbc c4f1 87bc
00000280: 227e 2f3d fd58 843b aa7b 63bd 9c34 babd
00000290: 76fe e8bc f40e 1ebc 7823 4bbc 38a4 30bc
000002a0: 0b78 7ebd 2580 c0bc 2677 9fbd 4c4b 11bd
000002b0: 3cba bebd c20e 7fbd 7426 433d b207 24bd
000002c0: 7662 903c 3a06 4b3d f238 c8bc 9101 8dbd
000002d0: 8fdd 93bb 99e6 edbc 9eeb 1cbd 6dff 5cbd
000002e0: aaff 723b be47 75bc 70d8 84bd b68c a1bb
000002f0: 24eb 58bd e358 fbbb 7580 86bd 152b 973c
00000300: 925f 9dbd 3055 bcbc e4c5 25bd 9937 2fbd
00000310: 00c4 ad3a 5a98 283c d78c 64bd d9c4 81bd
00000320: cf8b 883d c6f0 4abd 78e6 c9bc d40f 303d
00000330: d80c c1bc 1c8d 6abc 8073 9d3b cdc1 8ebd
00000340: f8bf 513c 3a40 06bd cc14 ccbc f04a ea3b
00000350: ffd4 8dbd 0538 2ebd bc27 e2bc 10d9 a43b
00000360: 5c91 b6bc 9a43 acbc 1833 d23c ae13 83bd
00000370: c4a3 0e3d 3a54 34bd 7323 1cbd 666a 27bd
00000380: 038b 15bd a059 c33b c746 853d 24a5 d93c
00000390: 5adc 64bd f519 51bd 86f9 4b3d 201a 1abc
000003a0: dde6 76bd 94bc 64bc 6ace 283b 4bb5 783b
000003b0: cc15 1dbd 4037 8a3b 9024 2d3d 8085 573c
000003c0: a6a3 2d3d 59e7 2d3d 8df4 32bd 8a2f 6e3d
000003d0: 66dc 49bd 5c96 61bd e745 813c 6e00 8abd
000003e0: 1b2c 18bd 6469 33bd 8f02 693d e590 693d
000003f0: 3829 e6ba eed1 503d 04c1 a4bc bcd7 65bc
-0.0284236 0.023022085 0.06903281 0.014441118 -0.048179343 -0.01760307 -0.0030721352 0.031849995
-0.057692025 -0.053440385 -0.05965262 -0.031134956 -0.058937643 0.036601514 -0.058773495 0.041515186
-0.02587225 -0.06523658 -0.04988002 -0.055999763 -0.015442025 -0.02495515 0.042464964 -0.014388926
0.019729584 0.06321322 0.0009618476 -0.0023060143 0.015859663 0.059452824 0.06187197 -0.025578536
-0.049054913 0.049625717 -0.045553032 -0.06354116 0.06924526 -3.451109e-05 -0.02338893 -0.037641708
0.057604335 -0.020155896 -0.051897448 -0.06300359 -0.006717406 0.0143487975 -0.048979875 -0.022643026
0.010479964 -0.06908647 0.036284097 0.022363372 0.019642837 0.038774468 -0.05777546 -0.07048631
-0.05827537 -0.069504395 0.023183055 -0.0662636 0.061119564 -0.01420353 0.017546304 -0.036648642
0.007793069 0.0063744932 -0.064334124 0.010185398 0.035154223 -0.038545478 0.04954628 -0.030464824
0.011183761 -0.05005666 -0.020892423 0.04086677 0.0027892366 -0.04103023 0.020159535 -0.06827204
-0.027969815 0.07029394 -0.058545887 -0.01594894 0.01936359 -0.051672995 -0.07626154 -0.060641646
0.06753183 0.02361472 -0.04487928 0.06952191 -0.01305341 0.022140987 -0.023096707 -0.060551282
-0.047390882 0.0057670027 0.025150284 -0.038978647 0.035221867 -0.04431668 -0.044828933 -0.059966438
0.057870794 -0.082384035 -0.019027643 0.008577079 0.0016970709 0.045272097 -0.06828052 0.059904598
-0.018248953 -0.0039866194 0.029410709 -0.020553578 0.028199606 0.03672368 -0.033157803 -0.0027806386
-0.049956106 0.04511112 0.020670384 -0.06746275 0.028297769 0.037563615 0.055185325 -0.040270735
-0.027374119 0.015402719 0.04453335 -0.025657795 0.004253494 -0.056709178 0.008757428 0.028538547
0.024041796 0.0088787675 0.026199462 -0.050251648 0.010739703 -0.06651386 -0.059125364 -0.011286677
-0.030452212 -0.0030783783 -0.08070195 -0.08375237 0.016093258 -0.0041960627 -0.06492012 -0.029042918
-0.02831766 -0.079902105 -0.038165573 -0.07745134 -0.030395012 0.029348405 -0.014371927 -0.016594775
0.0428449 0.0040389285 -0.055537857 -0.09092066 -0.028441649 -0.00964712 -0.012398593 -0.01078134
-0.0621262 -0.023498604 -0.07786398 -0.0354722 -0.09312865 -0.062269934 0.047644094 -0.0400464
0.017625075 0.049566485 -0.024441216 -0.068850644 -0.004512496 -0.029040622 -0.03831064 -0.05395453
0.0037078657 -0.014970718 -0.06486595 -0.004930104 -0.052958623 -0.007670508 -0.0656747 0.01845316
-0.07684244 -0.02298984 -0.040471926 -0.04277763 0.0013257265 0.01029023 -0.055798378 -0.06336374
0.066672914 -0.049546026 -0.024646029 0.042983845 -0.023565695 -0.01431587 0.0048050284 -0.06970558
0.012802117 -0.032776095 -0.02491226 0.0071500465 -0.069253914 -0.042533893 -0.027606837 0.0050307587
-0.02228611 -0.021028329 0.025659129 -0.06400238 0.034824148 -0.044025637 -0.038119745 -0.040872954
-0.036509525 0.005961612 0.0650764 0.026568003 -0.055874206 -0.051050145 0.04979851 -0.009405643
-0.060278762 -0.013960976 0.0025757798 0.0037949856 -0.038350865 0.004218012 0.042271197 0.0131543875
0.042392395 0.04245696 -0.043690253 0.058150806 -0.049282454 -0.055075034 0.015780402 -0.06738363
-0.037151437 -0.04380168 0.056887206 0.057022948 -0.0017559892 0.050981455 -0.020111568 -0.014028486

fc.1.bias f4 [128]
00000000: 8cf6 afbd 89fb 22bc c292 97bd 34d0 8ebb
00000010: 376e 85bd a5c8 f6bd ab96 f4bd 6d2d 5ebd
00000020: ba39 6ebd fb7e 8fbd 065e 09be aa2e cbbd
00000030: 0134 84bd cee9 e2bd 6d4e e2bd 9948 20bd
00000040: be29 1abd e74d 02be d9f0 1f3d 4f07 9abd
00000050: dcfb 8f3d 66da bfbd 28b3 81bd 8b3a 00be
00000060: f482 9bbd 636e c7bd b5cc 4cbd 84d0 31bc
00000070: e41c 19bc 33bc 72bc b3bb 7dbd e118 3c3d
00000080: d6f1 20bc f563 77bd 2acd 36bc 6672 2dbd
00000090: 2d18 243e 369c 13be bcdc 63bb f264 86bd
000000a0: ae71 8fbd 00d8 4ebd faaa bcbd 41ee 96bd
000000b0: d20d 86bd 8768 83bc db34 ef3d a5db 95bd
000000c0: 26d9 283d 4c83 93bd b163 11bd 52e7 b3bd
000000d0: 10a3 bfbd 4cf8 c4bd 0dda 8fbb 67a5 bebd
000000e0: 2c56 3bbc 7889 e2bd 66de 09be cf9a 8cbd
000000f0: 3ac2 03be dde0 49bc 4f25 2b3c 673c 7a3d
00000100: 985a 64bd 908d 04be 34fb e43d 8c59 19be
00000110: 87ac 9ebc 926b 6abd 1f29 c2bd ee30 85bd
00000120: 50cb 2abc 2d95 f63d 879f 86bd 5f47 223d
00000130: 0130 d6bd da30 7fbe 482f 06bc 5f0d e5bd
00000140: 592c 83bd b4f3 8bbd 02e3 af3d 765c b8bd
00000150: c2b5 b6bd 7276 03be 2920 afbd 092b 1b3e
00000160: 0526 9bbd 3db7 60bd 1372 d4bd 4ead 1ebd
00000170: 5059 d7bd 1790 16bd 2ef6 c0bd b4e9 d13d
00000180: e6e5 9c3d c881 c7bd 1cbc ffbd 6946 b43d
00000190: 0d9e ccbd e9f9 12be 4527 7abd 616e 02be
000001a0: e601 f2bd 4914 20bd 8985 5cbc cf4a f4bd
000001b0: 1e44 dbbd 9612 07bd 210d 1f3d b457 a5bd
000001c0: e791 4dbd 74fb 22bd d673 08bd bdc8 d23d
000001d0: 6e9b 1fbe 6cba a3bd 6fcd c6bc f50e c0bd
000001e0: 07a5 bfbd 1205 b1bd a1fa 83bd 0f7f 183e
000001f0: 50a0 50bd 78c9 64bb 479e dfbd c388 35bd
-0.08591947 -0.009947666 -0.07401039 -0.004358316 -0.065151624 -0.12049989 -0.119428 -0.05424254
-0.05816052 -0.070066415 -0.13414773 -0.0992101 -0.064552315 -0.11079751 -0.11050115 -0.039131735
-0.037637465 -0.1272503 0.03904805 -0.07520925 0.0703046 -0.09367828 -0.063329995 -0.12522332
-0.07593337 -0.097378515 -0.04999991 -0.010852937 -0.009345267 -0.014815378 -0.061946582 0.045922164
-0.009823283 -0.06039806 -0.011157313 -0.042345427 0.16024847 -0.14415058 -0.003476902 -0.065622225
-0.070041046 -0.050498962 -0.09212299 -0.07369662 -0.06545605 -0.016041053 0.11680003 -0.073172845
0.041222714 -0.07202777 -0.035495464 -0.08784355 -0.093572736 -0.09617671 -0.0043900074 -0.09308892
-0.011434119 -0.11061376 -0.13463745 -0.06865465 -0.1286706 -0.012321678 0.010445907 0.06109276
-0.05575046 -0.12944627 0.11180726 -0.14975566 -0.019369377 -0.057231493 -0.094804995 -0.06503473
-0.01042445 0.12040172 -0.06573396 0.039618846 -0.10458375 -0.24920979 -0.008189984 -0.11184191
-0.06404943 -0.06833592 0.0858822 -0.090020105 -0.08921386 -0.12838152 -0.08551056 0.15153135
-0.07575611 -0.05486225 -0.103733204 -0.038739495 -0.10515082 -0.03675851 -0.09421955 0.102496535
0.07661037 -0.09741551 -0.12487051 0.08802492 -0.09991083 -0.14353146 -0.061072607 -0.12737419
-0.11816768 -0.039081845 -0.013459572 -0.11928331 -0.10706352 -0.03297671 0.03883088 -0.08073369
-0.05018797 -0.039790586 -0.033313595 0.10292194 -0.15586635 -0.079945415 -0.02426788 -0.09377853
-0.09357648 -0.08643545 -0.06444288 0.14892219 -0.050934136 -0.0034910124 -0.10918861 -0.04431988

fc.3.weight f4 [64, 128]
00000000: 5835 773c e5ff debb 982e a2be d3ed 6dbd
00000010: e775 f13c 8d8a 7b3a 848d 1fbd 6a54 94be
00000020: 464d 4fbd a58a 8e3c 6043 92bd ca0f 09bd
00000030: 75dd ac3d 936e 9c3d 6a1b e6bb 0453 e83d
00000040: b8fd e5bc 37fa bebc 06d2 053c 31c6 40bb
00000050: 51dc 29be 5b09 873d 456e b7bd 23f4 d3bd
00000060: a6e6 123d 6bba 87bd 1a4a 533d b09f b9bc
00000070: 9dfe 0bbe 8036 21bd fef1 db3d e091 8dbe
00000080: c441 64bd f460 30bd d1a2 d7bc cbef 003c
00000090: 566e 10be df5e 74ba 96ba db3c e82d 1dbe
000000a0: e998 88bd 659d 85bd 7c9b 09be 0dd4 043a
000000b0: 696c 803e 4d37 5f3e bd26 67be 2e84 cdbd
000000c0: 9529 a5be 18a9 a03b aaac a4bd 5940 10be
000000d0: b08a 643d b0d7 84bd 5f6e adbd 72f6 97bd
000000e0: eddf c7bc e100 9ebd 92ab f9bd ad35 2f3d
000000f0: b6e8 72bc b1b6 91bd ee78 533e f4b5 16be
00000100: 6dff be3d 0770 d53c 52e3 24bc 19a6 db3c
00000110: 848b 7a3d 679f b8bd cf03 863d 3f31 98bd
00000120: 16bd 8b3c ba71 583d ddaf e7bd 04bc 32bf
00000130: 3804 173c a9e8 bebe 402f 293e aeb3 113d
00000140: 7bb5 bc3d 7374 f83c e0ee 153c 11df afbe
00000150: 4a8c 2a3d 1a13 f23c e020 93be b2a3 57be
00000160: 7a68 d1bd 74a2 aabd 5dbd 593d b1cf a83d
00000170: d426 083d 7ef2 80be 8e84 b7bd 0b5a 9fbd
00000180: 995d a7bd 570c 813d 764a aabd 49d4 d1bd
00000190: 4d9d 6bbe da05 093d f615 d23d 3b82 8cbd
000001a0: e02a 7dbc cd2e 03be 48ab 96bd b7cc 283d
000001b0: faee b2bd 6dde e1bc c27a c83c 5626 263d
000001c0: 379b 3ebd 6bd7 70bd 7191 74be 9b45 f3bd
000001d0: 9fc4 433d a30a d2bd f777 afbc 587e 8b3d
000001e0: 9a80 92bd 475d bc3b f1a7 83bc 63d4 49be
000001f0: e109 0bbf 7d08 0f3d caf2 61bd efac a53d
00000200: f04a 05bd 7764 81bc cbf4 38be 4737 053d
00000210: 49a0 993c 9dfb 87bd 1147 243d d44e fcbc
00000220: 429c d03c 36cf c13c aaa7 213d 688a 2cbd
00000230: 48e7 abbd 01cd ddbd 8910 11bd d4fa 96bb
00000240: 1ddf a6bd aa36 8bbb 857e d0bb d2b3 ec3c
00000250: 992c 3ebe 2a6c f33c 7c44 83bc 33ca debc
00000260: 70af 0a3d f5af 2c3b 2e58 3bbd 8172 6a3d
00000270: ca42 0d3e a43d 07be aba2 7abd 4108 ffbd
00000280: 821e 683d 632c 033e eddb 18bc 41a5 003d
00000290: cc86 363d 3b24 9e3d 90fa f9bd a4f3 e6bd
000002a0: 0bc5 a7bc b59e 4cbc f35a cbbc e891 4d3c
000002b0: 03f0 45bd 4565 a6be 9c55 1fbe 4336 6ebc
000002c0: d14d e7bd 15b3 a5bd 88f1 94bd f5f9 9cbd
000002d0: 2f49 443d 8f6b 3c3d f30a 333d 7ffe 4c3d
000002e0: 0191 07bd 46fe c8bd b042 723c 752b 583d
000002f0: 0882 883a f0fe 2ebe b91b 82be cdcf 02be
00000300: 9182 edbe 99a8 973d 0cec 2bbe 9ff5 ebbd
00000310: affe 243d 9af2 f3bb e27f 50bd 5e60 0dbd
00000320: 1728 edbd 1df8 1cbe dcb5 42be 3761 97bd
00000330: 6dff 93bd 8364 3bbe 9f4e c53d ffdb c03d
00000340: 8fc9 8e3d a5da b33c 7b13 9d3a 8025 60bc
00000350: 722d c5bc e4d6 c83d 72bb 20be c303 10be
00000360: 6646 7bbd 81f3 513c 040c bb39 b8e0 21bd
00000370: 70ce 2e3b a340 a3be f708 21bd 1e19 b8bc
00000380: 71e1 49be b4d3 643e 7bd3 edbd ee72 34be
00000390: 47d4 92bd 18d6 53bd ddc2 113d a74e a4bc
000003a0: 9f9d 173d b802 383e e37b 4c3d 9e99 12bd
000003b0: 1ae8 94be 5b29 54bc b3be bf3c 61d2 383c
000003c0: a597 cf39 ce4d 8d3d 02b9 a3bd b1a6 513c
000003d0: 3855 45bd dc53 aa3d cedf bb3c 5eda bc3c
000003e0: 7513 92be 8f0f 8bbb ee71 a43d c687 42be
000003f0: 0777 613d 8319 0f3d 430c 34bd 4720 dbbc
0.015088402 -0.0068054073 -0.31676173 -0.058088135 0.029475166 0.0009595536 -0.03895332 -0.28970653
-0.050610803 0.017400095 -0.07141757 -0.033462323 0.08440677 0.07638278 -0.007022311 0.11343959
-0.028075084 -0.023312671 0.008167749 -0.0029415006 -0.1658795 0.06593581 -0.08956579 -0.103493
0.035864495 -0.06627353 0.05158434 -0.022659153 -0.13671346 -0.039358616 0.10739516 -0.27650356
-0.05572678 -0.04306121 -0.026322754 0.007869671 -0.1410459 -0.0009321998 0.02682237 -0.15349543
-0.0666979 -0.06524161 -0.13438219 0.00050669984 0.2508271 0.2179844 -0.22573371 -0.10034977
-0.32258287 0.00490297 -0.080407456 -0.14087047 0.055796325 -0.064864516 -0.08468317 -0.074200526
-0.024398768 -0.077150114 -0.121909276 0.0427758 -0.01482599 -0.07114924 0.206516 -0.14717847
0.09326062 0.026054395 -0.010063963 0.0268126 0.06116821 -0.090147786 0.06543695 -0.07431268
0.017057937 0.052842833 -0.1131284 -0.6981814 0.009217314 -0.3728688 0.1652193 0.035571747
0.09214302 0.030328965 0.0091511905 -0.34349874 0.041637696 0.029550124 -0.2873602 -0.21058539
-0.102250054 -0.08331767 0.053159107 0.08242739 0.033240154 -0.25185007 -0.0896083 -0.07780846
-0.08172149 0.06301182 -0.083149835 -0.10245568 -0.23009224 0.033452846 0.10258095 -0.06860777
-0.015452117 -0.12810822 -0.07356888 0.041210856 -0.087369874 -0.027571881 0.024472598 0.040563904
-0.046534743 -0.05879919 -0.23883606 -0.118785106 0.047794934 -0.10255935 -0.021419508 0.068112075
-0.07153435 0.005748424 -0.016071292 -0.19709925 -0.5431195 0.034920204 -0.055163182 0.08089625
-0.03254217 -0.015794976 -0.18062131 0.03252342 0.018753188 -0.06639788 0.040106837 -0.030799307
0.025465135 0.023658376 0.039466538 -0.042124182 -0.08393723 -0.10830117 -0.03541616 -0.0046075378
-0.08148024 -0.00424846 -0.0063627386 0.028894339 -0.185717 0.029714663 -0.016023867 -0.027196025
0.033858716 0.0026349996 -0.04573839 0.057238106 0.1379501 -0.13207108 -0.06119029 -0.12452746
0.05666972 0.12809901 -0.009329778 0.0314076 0.044562146 0.07721754 -0.12205994 -0.112769395
-0.0204797 -0.012489011 -0.024823641 0.012546994 -0.048324596 -0.32499138 -0.15560001 -0.014539304
-0.11294139 -0.08090798 -0.07272631 -0.07664863 0.047921356 0.046001013 0.043711614 0.050047394
-0.03309727 -0.09814124 0.014786407 0.05277582 0.0010414729 -0.17089438 -0.25411776 -0.12774582
-0.46388677 0.07405204 -0.16789263 -0.11521458 0.040281948 -0.007444692 -0.05090321 -0.03451573
-0.11579912 -0.15329023 -0.19014686 -0.07391589 -0.07226453 -0.18300061 0.096341364 0.09416961
0.06972038 0.021954844 0.0011983955 -0.013680816 -0.024069522 0.09806612 -0.15696505 -0.14063935
-0.061346434 0.0128144035 0.00035676372 -0.03952095 0.002667334 -0.3188525 -0.03931519 -0.022472914
-0.19714905 0.22346383 -0.11612602 -0.17621967 -0.07169395 -0.051717848 0.035586227 -0.020057036
0.037015554 0.17969787 0.049922835 -0.035791032 -0.2908333 -0.012949313 0.023406362 0.011280627
0.000395951 0.06899606 -0.07994272 0.01279609 -0.048176974 0.08316776 0.022933867 0.023053344
-0.2853047 -0.004243798 0.08029543 -0.18997106 0.055045154 0.03493644 -0.043957006 -0.02674879

fc.3.bias f4 [64]
00000000: 7277 c53b 1cfd 8e3c 002b 21be b984 d6bd
00000010: 2626 3ebd 2855 49be daa1 3cbe 1ad2 433e
00000020: bf26 e3bd e2ac 7cbe b7b7 aa3d 7e1e 713d
00000030: bea3 303d 8adf 9bbd 11a2 82be 6300 b6bd
00000040: 82a2 43bd 3c3d 983d 4d5d 4d3e fc56 0ebe
00000050: 954a fdbd a3bc e03d 713d ddbd 7e24 32be
00000060: dfd2 3b3d 8136 14be 501c 7cbd ac26 c7bd
00000070: 498e ebbd 3161 d8bd d96f f5bd 2900 06be
00000080: c53f 933d 48d8 b33c f1a6 ecbd e027 00be
00000090: 7246 52be fd02 95bd 6494 12be 978e cebd
000000a0: 3919 d23c 9d8a 04be 4b92 87be af68 153e
000000b0: 544d 30be 6f1e 56bc 20b1 b33c d32d 60be
000000c0: 34c0 e1bd bec0 28be f16b 373d 02cb 09be
000000d0: 4e66 24be eae4 f1bd 04ad 58be 410e c83d
000000e0: 188d 07be 65f2 02be cb7b 30be eaad cd3d
000000f0: 49b8 2dbe 7353 e63d 35e1 3abe 9d0c 20be
0.006026202 0.017454676 -0.1573906 -0.104745336 -0.0464231 -0.19661391 -0.18421116 0.19123116
-0.110913746 -0.24675325 0.08335822 0.05886697 0.043124907 -0.07610996 -0.25514272 -0.088867925
-0.0477624 0.074335545 0.20055123 -0.1390037 -0.12367741 0.109734796 -0.10802735 -0.17396733
0.0458554 -0.14473917 -0.06155044 -0.09724173 -0.11501748 -0.10565413 -0.11984224 -0.13085999
0.071898974 0.021953717 -0.11555279 -0.12515211 -0.20534685 -0.072759606 -0.14314419 -0.100857906
0.025646793 -0.12943502 -0.264788 0.14590715 -0.17216998 -0.013068779 0.021935046 -0.2189248
-0.11022988 -0.16479775 0.044780675 -0.13456348 -0.16054651 -0.1181124 -0.2115975 0.09768344
-0.13237417 -0.12787779 -0.17234723 0.10042937 -0.1696483 0.112463854 -0.18249972 -0.15629812

fc.5.weight f4 [4, 64]
00000000: 662b 5dbd 7922 b03c 4fa7 f0bc e6f7 92ba
00000010: 984a 5c3d 6151 10bb 8fa2 943d a1ea 16be
00000020: 467f 08bd 95f6 78bd d372 27bd 02d9 4ebd
00000030: 8bb3 d4bd ecba 823d 074b 7f3c 4f28 b23c
00000040: d409 cd3c fb54 6bbe e9c4 94bd d67f 983d
00000050: 310d 193c 6a3f 82bd 2c06 ee3c 0614 0abe
00000060: d2a4 3fbd 4d34 693c ce27 fa3d 759e cdbc
00000070: de67 313b 4c74 863c 642a 9b3d 80fc a4bd
00000080: 3036 82bd 9d79 f8bc c9a1 403e ac3b 9dbd
00000090: cc6c 733c e1a4 2cbd 2797 553d d920 20bd
000000a0: c646 62bd 6242 293d f7c7 debd 5494 513e
000000b0: 3096 313d fd87 2cbd be78 d6bc 1f79 8b3d
000000c0: 7a90 103d 26fe 233c 23af 6dbb 8a1c 753c
000000d0: bc63 c1bd 07e4 a5bb 3d4c 60bd cd7c 57bd
000000e0: dabc 36bc 2f87 46bd 4aef 823e 3ddc cfbd
000000f0: cfa8 bf3c 3c5c 933d 123d 54bc 99d4 00bd
00000100: 9468 64bd 88b3 733d 2901 143c e30d 30bd
00000110: c8df 843b 37e4 483c 69b2 7a3c da76 28be
00000120: 65e6 cbbc 87d0 6e3b 69ed 3abd f7b9 443c
00000130: 62a0 ecbd c7bb 4bbd a536 233d 882c 81bc
00000140: 38e6 763c ad1a 00be a40f 8ebd d8e5 813d
00000150: 01c6 9439 ed08 8bbd 4797 7d3d 2cd3 d43a
00000160: 3c86 76bd 3502 d83c 25da d43d b85b 4ebd
00000170: c94a 25bc 3ad3 d5bd 7c70 9dbc 77e7 333c
00000180: b24c 0dbd d8b7 2fbd df65 b1bc cd18 733d
00000190: 95b0 843c 7d4b d5bd 80b7 9a3d 0fe8 b73c
000001a0: e071 a1bd 487c 0c3e 3231 87bd 652e d03d
000001b0: 2b15 89bc bf14 993c f271 9abc d692 793d
000001c0: 1c9f 9ebc 419d 5139 6919 c83d 8d2f 01be
000001d0: deeb e6bb 61a5 0fbd 30a8 fa3b bf62 a83d
000001e0: ed4c 13bc e8a6 33bd 0b81 903b a022 66bd
000001f0: 1f86 d63b eec0 063e d1c5 273c 768f acbc
00000200: 658c 60bd c365 5a3d 9f70 6bbd 1172 1d3d
00000210: 5b3b 213d ef25 b9bc 2eb0 143e c400 04be
00000220: 6f42 00bd 8102 413d 1621 46bd 0cab 18bd
00000230: 4171 d7bd ecc9 26bd ab9e 593c e336 dd3b
00000240: d121 2ebd 404d 2abe 2db8 99bd b3c5 9d3d
00000250: a556 043e dc6c 7bbd 1066 a33c c52d 1abc
00000260: 8179 6bbd be1b 8f3d 2e66 673e b14b 103d
00000270: f99f 4e3c 3471 bdbd 74d5 f3bc 092d b53c
00000280: f7d9 51bc 891b 31bd 78d3 0bbd 139b 983b
00000290: 05ed f13b 0be7 9cbd 0f80 a73d e48f 9dbd
000002a0: eeb6 66bd 2bbf 073e d919 da3d 88f6 363e
000002b0: eaab 4b3d 0daa f43c 2580 cebc ebcc b73d
000002c0: 9aba a6ba 51ed bc3c aae3 f33c 8be2 4b3c
000002d0: 6480 0bbe 9e85 e13c 78bc e9bd f7e7 753e
000002e0: b7c6 3bbd 0a9f 14bd 4213 88bd 6e10 9bbd
000002f0: b8e8 39bd f8c7 a03d f281 193d 607e 57bd
00000300: 4fc1 37bd c848 f03b 3c16 99bc 3b0a ebbd
00000310: 6e1e 7c3d 3087 7bbc 80c1 d93d a3cb 0cbe
00000320: 6e43 e9bc fd91 2f3d e44d 61bd 63eb 09bd
00000330: a4ae aabd a018 0ebd 493e f13d 9b58 33bc
00000340: ecfa 05bd 984f 79be 3984 9cbd 040f 653d
00000350: d28c fd3c 9ef2 1fbd 5359 e73d ab89 fdbb
00000360: ba21 3ebd b1f1 573c cf47 4f3e 115e 4e3b
00000370: 26df 0b3d 32eb 163b f18e 85bd 866c 393d
00000380: 9f2a ddbc da11 b0bc 7ec4 ba3b 4c22 ab3c
00000390: ae1f 1b3c 0c87 21bd 709a 643d 4f52 103e
000003a0: df66 78bd e1a4 d43d 0f82 ad3d 871d 5d3e
000003b0: 6ddf b0bd 4c9f abbd 4d5e 8abc 510b a93d
000003c0: 81e5 babd d359 b6bc c062 dcbd 7dc2 9bbd
000003d0: 972f 8bbd 7f00 6a3d 7c57 3d3d 09a3 d83d
000003e0: 1423 3ebc 88f7 11bd 1feb 623d 1a98 bbbd
000003f0: a0d7 3c3c 4c52 9b3d a948 223c 5ab9 b13c
-0.053996466 0.021500813 -0.029376654 -0.0011212796 0.053782076 -0.0022021162 0.07257568 -0.14737941
-0.033324502 -0.060782034 -0.04088099 -0.050499924 -0.103858076 0.06383309 0.015581853 0.021747736
0.0250291 -0.22981636 -0.0726412 0.07446258 0.009341524 -0.063597515 0.029055677 -0.13484201
-0.046788044 0.014233661 0.122146234 -0.025099972 0.0027069966 0.016412877 0.07576445 -0.08055973
-0.06357992 -0.030331427 0.18811716 -0.07677397 0.014857482 -0.04214943 0.052146103 -0.039093826
-0.055243276 0.041323073 -0.10877984 0.20466739 0.04335612 -0.042121876 -0.026180621 0.068102114
0.035294034 0.010009324 -0.003626772 0.0149604175 -0.09442851 -0.0050625834 -0.054760206 -0.052609254
-0.011153424 -0.048468765 0.25573188 -0.10149429 0.023395924 0.07195327 -0.012954013 -0.03145275
-0.055763796 0.059497386 0.00903348 -0.042981993 0.004054997 0.012261442 0.015301325 -0.16451588
-0.024890134 0.003644021 -0.04563657 0.012007228 -0.11554028 -0.049739625 0.039847035 -0.015768304
0.015069537 -0.12510176 -0.06936577 0.06342667 0.00028376284 -0.06788812 0.061911847 0.001623725
-0.06018661 0.02636824 0.1039317 -0.05038044 -0.010088631 -0.10440679 -0.019218676 0.0109804785
-0.03449697 -0.042899936 -0.021655021 0.059349824 0.016197482 -0.10414789 0.07554531 0.022449521
-0.07883048 0.13719285 -0.0660118 0.10165099 -0.016733726 0.01868665 -0.018853161 0.06093105
-0.019362979 0.00019990375 0.097704716 -0.12615795 -0.0070471605 -0.035069827 0.007649444 0.08221959
-0.0089905085 -0.043860346 0.0044099144 -0.056185365 0.00654675 0.13159534 0.010240034 -0.021064501
-0.05482139 0.053319704 -0.05748045 0.03843886 0.039363246 -0.022601096 0.14520332 -0.12890917
-0.031313356 0.04712153 -0.048371397 -0.037272498 -0.10519648 -0.04071991 0.013282458 0.006750928
-0.04251272 -0.16631031 -0.07505832 0.07703724 0.12923677 -0.061383113 0.019946128 -0.009410326
-0.057488922 0.06987713 0.22597572 0.035228435 0.012611383 -0.092501074 -0.029764868 0.022116201
-0.0128083145 -0.04323915 -0.03413722 0.004657158 0.0073829913 -0.076612554 0.08178722 -0.076934606
-0.0563268 0.13256519 0.10649461 0.17867482 0.049724497 0.029866243 -0.025207588 0.08974632
-0.0012720407 0.02306238 0.029771645 0.012444149 -0.13623196 0.027529534 -0.11412901 0.24014269
-0.045843806 -0.036284484 -0.06644298 -0.07571493 -0.045387954 0.07850641 0.03747744 -0.052610755
-0.044862088 0.007332895 -0.01868736 -0.11476561 0.061552458 -0.015352055 0.1063261 -0.13749556
-0.028474536 0.042863835 -0.055005923 -0.033671748 -0.08334091 -0.034691453 0.11779458 -0.010946418
-0.03271 -0.24346769 -0.07642407 0.055922523 0.030950937 -0.039049737 0.11296334 -0.0077373586
-0.046418883 0.013180182 0.20242237 0.0031489173 0.034148358 0.002302837 -0.065214045 0.04526951
-0.026997862 -0.021492887 0.005699693 0.020890377 0.009468002 -0.03943543 0.055811346 0.14093898
-0.06064498 0.10383011 0.08472072 0.21593295 -0.08636365 -0.08379993 -0.01689067 0.082541116
-0.09125806 -0.022259628 -0.107610226 -0.07605455 -0.067961864 0.05712938 0.04622601 0.105779715
-0.011605043 -0.035636455 0.05540001 -0.091598704 0.011526018 0.07584056 0.009905019 0.021694828

fc.5.bias f4 [4]
00000000: 309a 113d 011c 083d 12aa 0a3d 2dd7 073d
0.035547435 0.03322983 0.033853598 0.033164192
