best_model_0.pth (torch, 140113 bytes, 6 tensors)

fc.1.weight f4 [128, 200]
0.008724481 -0.031198457 -0.010554716 -0.044065423 0.06014069 -0.0061216354 0.043386176 -0.07014897
0.021998547 0.033929557 -0.038450975 -0.005903291 -0.1453985 -0.06720817 -0.020909349 -0.040787436
-0.10462515 -0.04036993 0.04104752 -0.049379975 -0.02358763 -0.102052815 -0.15337458 -0.20856607
-0.16544595 -0.35296872 -0.2755766 0.25813046 0.27970198 -0.025380567 -0.034062296 0.10169799
0.16414873 0.02168367 -0.07218386 -0.1436243 0.18297912 0.16195592 0.12263806 0.13219678
-0.07501074 0.10771979 -0.13445723 0.06654905 -0.016823884 -0.23611374 0.15768485 0.04032606
0.011407678 0.032811053 -0.058068827 0.15961176 0.12023175 -0.06702049 0.1585406 -0.0012295332
0.049562033 0.13422003 -0.018722963 0.15670034 -0.07175385 -0.15508984 -0.2591576 -0.14104708
0.08066666 0.06732633 -0.25381395 -0.006063153 -0.118387826 -0.03676136 -0.29572994 -0.17656842
-0.11006318 0.044026382 0.13614261 0.09263029 0.18045832 -0.13441803 -0.04415836 -0.13651317
-0.19064084 -0.013718941 -0.04091454 -0.030915443 0.084298976 0.029123124 -0.017037967 -0.06325524
0.025192589 -0.052978132 -0.087479636 -0.13081323 -0.1048627 -0.14944084 -0.19180165 -0.029120004
0.22798286 -0.0861539 -0.026576884 0.04451381 -0.7890351 0.1543676 -0.12703338 -0.31039315
-0.26274142 -0.05214688 -0.10940723 0.011003873 -0.21703023 -0.2942412 0.367269 0.205583
-0.021537846 -0.3632856 0.04284206 -0.35820982 0.043159768 0.079340994 -0.0075433995 -0.047653455
0.3180157 -0.5195301 -0.062323913 -0.0186322 0.098889306 0.16153291 -0.025836438 0.009738668
-0.037241675 -0.06396659 -0.015408975 0.0929923 0.21204996 0.23729387 -0.29628327 -0.04630488
0.114137456 0.111456506 0.023172712 0.13190022 -0.10614148 0.11987556 0.1480551 -0.3001706
0.004454139 0.0034810267 0.048215333 0.06658246 -0.21953939 0.0257603 -0.166118 -0.031815004
0.098427765 0.16463946 -0.023663307 -0.070894055 0.10338336 -0.024978366 -0.08048772 -0.36751866
-0.122857116 -0.20208617 -0.39518175 0.08232099 -0.055689335 -0.007380305 -0.009655455 0.016303428
0.002595861 -0.15683222 -0.07559145 -0.23673032 -0.09730078 -0.08517034 -0.03511108 -0.11583216
-0.1803001 0.07868393 0.14889267 -0.0012574685 -0.025789032 -0.096799605 -0.12316557 0.012268502
-0.004656033 -0.11131495 -0.077837706 -0.05449281 -0.3442148 -0.20105101 -0.17032814 -0.103166066
-0.17436177 0.016921353 -0.40275812 -0.31089884 0.020370187 -0.27973798 -0.2014896 -0.37724674
0.011146858 0.044989623 -0.025785856 0.04657291 0.022467308 0.057906903 -0.04282307 -0.010413811
0.04550167 -0.05597417 0.009626754 -0.04888647 -0.2569813 -0.07341911 -0.17390199 -0.080221586
-0.30596805 -0.19360597 -0.06446563 -0.0071467683 -0.06215809 -0.50223565 -0.23181102 -0.7444856
-0.5183226 -0.5173836 -0.7344375 -0.28336596 -0.00510668 -0.2189391 -0.2511047 -0.45288268
-0.06024394 -0.4467859 -0.5296785 -0.5035754 -0.22598322 -0.25105217 -0.18249367 -0.26214826
-0.019204194 -0.18658195 -0.06703751 -0.5061797 -0.5327526 0.071938545 0.047527168 -0.14185911
-0.11177362 0.17804085 0.10137031 0.10129233 -0.043325163 -0.39148584 -0.018707225 0.087116845
00000000: 20f1 0e3c e893 ffbc b0ed 2cbc f27d 34bd
00000010: 1656 763d 0098 c8bb b4b5 313d 43aa 8fbd
00000020: 4c36 b43c b8f9 0a3d c57e 1dbd 6570 c1bb
00000030: 58e3 14be 70a4 89bd 154a abbc ba10 27bd
00000040: b645 d6bd f15a 25bd 7221 283d a842 4abd
00000050: d83a c1bc 1101 d1bd 3a0e 1dbe 5892 55be
00000060: aa6a 29be 51b8 b4be 6018 8dbe ad29 843e
00000070: 1935 8f3e e8ea cfbc e884 0bbd 0947 d03d
00000080: 9b16 283e f4a1 b13c 22d5 93bd 4012 13be
00000090: e15e 3b3e c6d7 253e aa29 fb3d 985e 073e
000000a0: 3b9f 99bd 319c dc3d 28af 09be de4a 883d
000000b0: 3ed2 89bc cdc7 71be 2378 213e f02c 253d
000000c0: 45e7 3a3c e264 063d 94d9 6dbd 4471 233e
000000d0: 103c f63d 0a42 89bd 7858 223e 4a28 a1ba
000000e0: 8f01 4b3d fa70 093e e660 99bc 0e76 203e
000000f0: aff3 92bd dfcf 1ebe 4eb0 84be a56e 10be
00000100: 9034 a53d 63e2 893d e7f3 81be 6aad c6bb
00000110: 5175 f2bd 1493 16bd ea69 97be 5ace 34be
00000120: ce68 e1bd 0255 343d f868 0b3e f3b4 bd3d
00000130: 11ca 383e e1a4 09be 66df 34bd 1cca 0bbe
00000140: 5a37 43be 69c5 60bc 0196 27bd 6242 fdbc
00000150: f1a4 ac3d 9e93 ee3c 3593 8bbc f78b 81bd
00000160: b060 ce3c 99ff 58bd 8628 b3bd e7f3 05be
00000170: 41c2 d6bd 0507 19be a767 44be 138d eebc
00000180: 5774 693e 7571 b0bd c4b7 d9bc 1d54 363d
00000190: 34fe 49bf 8a12 1e3e 0a15 02be daeb 9ebe
000001a0: 0b86 86be f897 55bd e610 e0bd 9749 343c
000001b0: 2c3d 5ebe c8a6 96be af0a bc3e 5a84 523e
000001c0: 2370 b0bc 9200 babe 287b 2f3d 4767 b7be
000001d0: 4cc8 303d 887d a23d 9f2e f7bb 4530 43bd
000001e0: f4d2 a23e edff 04bf 5c47 7fbd 8ea2 98bc
000001f0: 7a86 ca3d e268 253e f0a6 d3bc ef8e 1f3c
00000200: ba8a 18bd ea00 83bd ed75 7cbc bf72 be3d
00000210: a023 593e 2afd 723e 71b2 97be 30aa 3dbd
00000220: e6c0 e93d 4f43 e43d b3d4 bd3c da10 073e
00000230: b460 d9bd 5181 f53d c29b 173e f6af 99be
00000240: 07f4 913b f021 643b 717d 453d 635c 883d
00000250: efce 60be 4407 d33c d61a 2abe 7350 02bd
00000260: 7f94 c93d 3f97 283e 8dd9 c1bc e730 91bd
00000270: a8ba d33d 6e9f ccbc bfd6 a4bd 682b bcbe
00000280: 839c fbbd adef 4ebe 4355 cabe e897 a83d
00000290: 801a 64bd 7cd6 f1bb ea31 1ebc c48e 853c
000002a0: 521f 2a3b a098 20be b1cf 9abd 6f69 72be
000002b0: a245 c7bd ca6d aebd a3d0 0fbd 6939 edbd
000002c0: 97a0 38be 0a25 a13d 5277 183e a4d1 a4ba
000002d0: 8543 d3bc df3e c6bd 3b3e fcbd d401 493c
000002e0: a391 98bb 18f9 e3bd 6069 9fbd da33 5fbd
000002f0: ec3c b0be 51e0 4dbe 806a 2ebe bb48 d3bd
00000300: e48b 32be a69e 8a3c 5036 cebe 222e 9fbe
00000310: 61df a63c d139 8fbe 4a53 4ebe 7c26 c1be
00000320: 50a1 363c 0a47 383d dc3c d3bc 3cc3 3e3d
00000330: 5c0d b83c ca2f 6d3d 3e67 2fbd b09e 2abc
00000340: f65f 3a3d 2c45 65bd 88b9 1d3c 2e3d 48bd
00000350: 0e93 83be c25c 96bd 5d13 32be 374b a4bd
00000360: d8a7 9cbe a540 46be 8e06 84bd 702f eabb
00000370: 7b99 7ebd 8492 00bf de5f 6dbe 9c96 3ebf
00000380: cab0 04bf 4073 04bf 1904 3cbf 5815 91be
00000390: f055 a7bb 9231 60be cc90 80be 3de0 e7be
000003a0: 5ac2 76bd 1fc1 e4be 0399 07bf 51ea 00bf
000003b0: 2568 67be e989 80be 9fdf 3abe 4c38 86be
000003c0: 1d52 9dbc 570f 3fbe f64a 89bd fe94 01bf
000003d0: 7962 08bf 8454 933d d9ab 423d 8443 11be
000003e0: 91e9 e4bd 5750 363e 3d9b cf3d 5a72 cf3d
000003f0: ba75 31bd d570 c8be e53f 99bc 516a b23d

fc.1.bias f4 [128]
-0.15507044 0.10538553 -0.11199696 0.18180381 -0.08313686 -0.12823582 -0.10482943 -0.07566504
-0.0940173 -0.021698842 -0.020221615 -0.0029539485 -0.072907895 -0.10098487 -0.085703224 -0.02171218
-0.102770746 -0.12352916 -0.07931312 -0.007682144 -0.21606448 -0.080068834 -0.043321524 -0.071790256
-0.0149719445 -0.007678549 -0.09698144 -0.16473742 -0.07773417 -0.11225935 -0.13732727 -0.23712426
0.16487561 -0.055718895 -0.08209244 -0.13001035 -0.2434794 -0.10130062 -0.076297425 -0.09351089
-0.15539753 0.083397396 -0.061334297 -0.068257414 -0.17916489 -0.08935324 -0.26584333 -0.114379644
-0.12522872 -0.2362157 -0.02743582 -0.120911956 -0.010624892 -0.14354032 -0.101677045 -0.12781645
0.0013469574 -0.17163455 -0.0989308 -0.094935365 -0.1699733 -0.087060116 0.011351306 -0.067732595
-0.121377766 -0.16306105 -0.22397426 -0.22696513 -0.12528852 -0.011303304 -0.07138885 -0.1140452
-0.10799848 -0.06013312 -0.108046085 -0.17188288 -0.1422829 -0.0750905 -0.28142282 -0.0085630575
-0.2927573 -0.09210118 -0.14430422 -0.069551416 -0.14801203 -0.094749406 -0.111389585 0.14567994
-0.23345214 -0.1444593 0.1434609 -0.14387521 -0.25042272 -0.07616957 -0.1292182 -0.46974617
-0.023665018 -0.07164983 -0.023768613 -0.14592034 -0.14801677 -0.112292744 -0.14956276 -0.36615804
-0.083823904 -0.14212875 -0.2804319 -0.20924087 -0.11066591 -0.12835816 -0.18982646 -0.19137697
-0.06677556 -0.26044276 -0.118218504 -0.31452152 -0.038229316 -0.09974445 -0.013553409 -0.07555639
-0.033616755 -0.001985045 -0.15353303 -0.22829023 -0.2976548 -0.09847502 -0.08625196 -0.046510465
00000000: c9ca 1ebe 5ed4 d73d aa5e e5bd c72a 3a3e
00000010: a843 aabd 4050 03be d0b0 d6bd 46f6 9abd
00000020: 248c c0bd c5c1 b1bc cda7 a5bc 0897 41bb
00000030: bc50 95bd 28d1 cebd 2c85 afbd bedd b1bc
00000040: 7879 d2bd dbfc fcbd eb6e a2bd 7fba fbbb
00000050: 0240 5dbe 21fb a3bd e971 31bd c506 93bd
00000060: e34c 75bc 569c fbbb 359e c6bd edb0 28be
00000070: 1833 9fbd 3be8 e5bd 859f 0cbe b4d0 72be
00000080: 27d5 283e 7f39 64bd 1520 a8bd 6f21 05be
00000090: aa52 79be b376 cfbd d341 9cbd a382 bfbd
000000a0: 8820 1fbe 41cc aa3d ac39 7bbd 8bca 8bbd
000000b0: 0077 37be d5fe b6bd 9e1c 88be e03f eabd
000000c0: f53b 00be 87e2 71be 16c1 e0bc b0a0 f7bd
000000d0: 0714 2ebc 3cfc 12be 0e3c d0bd 51e2 02be
000000e0: 648c b03a f8c0 2fbe 3b9c cabd 796d c2bd
000000f0: 7b0d 2ebe 934c b2bd d4fa 393c 63b7 8abd
00000100: e894 f8bd 7af9 26be 8259 65be 8c69 68be
00000110: a24b 00be 7e31 39bc 5134 92bd 8890 e9bd
00000120: 4f2e ddbd 254e 76bd 4447 ddbd 1102 30be
00000130: 9cb2 11be 0cc9 99bd a716 90be 114c 0cbc
00000140: 49e4 95be 8b9f bcbd 7cc4 13be f970 8ebd
00000150: 7790 17be fa0b c2bd 3920 e4bd 1f2d 153e
00000160: 140e 6fbe 24ed 13be 6ae7 123e 0654 13be
00000170: 6837 80be cbfe 9bbd c751 04be 9282 f0be
00000180: 24dd c1bc 25bd 92bd 65b6 c2bc 246c 15be
00000190: b591 17be bdf9 e5bd fb26 19be 1179 bbbe
000001a0: deab abbd 338a 11be c594 8fbe 3d43 56be
000001b0: cfa4 e2bd 5270 03be de61 42be 53f8 43be
000001c0: a0c1 88bd c158 85be 8b1c f2bd f708 a1be
000001d0: 5896 1cbd d146 ccbd 1e0f 5ebc 4fbd 9abd
000001e0: b9b1 09bd 8717 02bb c337 1dbe eac4 69be
000001f0: 3666 98be 45ad c9bd dea4 b0bd c281 3ebd

fc.3.weight f4 [64, 128]
-0.14449936 -0.037096996 -0.025534898 -0.09350384 0.07440273 -0.033694196 0.020804998 0.16489029
0.010958823 -0.026535131 -0.029056443 0.024439465 0.031009197 -0.043182112 -0.00011082716 -0.25220108
-0.44878286 0.08604723 -0.03968492 0.049008597 -0.12710989 -0.014048685 -0.02826476 -0.08607281
-0.015466744 -0.13567118 -0.086033784 -0.053171143 0.011024046 0.13764049 0.026638167 0.19471157
-0.19841331 -0.009829914 -0.019664356 0.0010815413 0.057904486 0.00085979607 0.039269228 0.14700246
0.21346979 -0.008455916 0.047012113 0.06759989 -0.06728346 0.06886622 -0.10826607 -0.045219854
-0.06309897 -0.092309125 -0.026910128 -0.02010129 0.014272307 0.035661735 0.03971623 -0.03057625
-0.32818893 0.054591343 0.056088552 -0.0013746717 0.01691322 0.050251108 -0.038936086 0.063278824
0.010720813 0.18818256 0.012780889 0.10922286 0.031475578 -0.0065237596 -0.062003773 0.06952768
-0.04236764 -0.056272753 0.006409205 -0.119481534 -0.14241923 -0.04071982 -0.006041619 -0.04631142
-0.06650555 -0.09723253 0.13908212 0.09372289 -0.1410993 -0.079513244 0.019826952 0.010636755
-0.026976183 -0.0225381 -0.07926534 -0.03518317 -0.060715683 0.1303676 -0.014416584 -0.05999603
0.07924001 0.060197435 0.014121107 0.013741314 0.055872254 -0.011688541 -0.11316844 -0.05092831
-0.0072624926 -0.015194968 -0.05617503 0.014518432 -0.09529177 0.24989088 -0.00086200464 0.18446617
-0.045425683 -0.07139913 -0.13895525 0.009104632 0.030461956 -0.041723873 -0.02929043 0.0030987577
-0.071875736 -0.0008138683 -0.046168093 -0.033082683 0.087190725 -0.0016382532 -0.0029892125 0.010664462
0.045277983 -0.047399484 -0.037727755 -0.037124243 -0.09854672 -0.041208643 -0.14343105 0.0070273215
-0.018097602 -0.10195429 -0.09760766 -0.020853046 0.02961084 -0.0023234112 -0.016615186 0.055528842
-0.08769571 -0.08789997 -0.13450052 -0.08459106 -0.08252033 -0.0044064764 -0.0737202 -0.04077051
0.048750713 -0.09252725 0.14885664 -0.14543504 -0.025246132 -0.02716031 0.14197713 -0.16697654
-0.0059963856 -0.03191657 -0.062683806 0.1504205 0.049784973 -0.007015761 0.05079727 0.056687202
0.12415742 -0.25605634 0.098328054 -0.00067521306 -0.27608252 0.024690306 -0.056575164 0.043167215
-0.04186177 -0.34567627 -0.16683143 -0.03851478 -0.009815491 0.05801119 -0.020595755 0.0046630893
0.007314547 0.0759669 0.04652896 -0.08518022 0.037546456 -0.020073557 0.016329538 0.014332946
-0.06448787 -0.053956527 0.15618573 -0.10419972 -0.073925555 0.0040315306 0.005505958 0.008226718
0.07228786 0.012981442 0.008770782 0.15632004 0.05465695 0.059558097 -0.035190653 -0.0384513
-0.024686202 -0.037086636 0.05196211 0.020436455 0.056743983 0.06258509 0.050612204 -0.085063785
-0.18887405 -0.10836106 -0.114636384 0.12725246 -0.1008266 -0.04243705 0.046546724 -0.07823432
-0.0056834626 -0.034149356 -0.04235218 -0.08000428 -0.028289834 -0.036410913 0.015736705 -0.17305014
-0.2265927 0.105135754 -0.15627864 -0.13854323 -0.024126062 -0.099221624 -0.048850868 0.041863646
0.0115549825 -0.017339062 -0.04793176 -0.035590008 0.12272248 0.04260318 -0.14219595 -0.06390708
-0.20712113 -0.031299636 0.03380565 0.038167603 -0.068801306 -0.08265601 0.011050588 0.03501013
00000000: a4f7 13be 05f3 17bd 902e d1bc f17e bfbd
00000010: 7560 983d ed02 0abd 3e6f aa3c 00d9 283e
00000020: a38c 333c 3460 d9bc c707 eebc 4635 c83c
00000030: 0007 fe3c badf 30bd e16b e8b8 8020 81be
00000040: dec6 e5be 8839 b03d a88c 22bd 3dbd 483d
00000050: 1829 02be 752c 66bc 7f8b e7bc f146 b0bd
00000060: 3a68 7dbc 63ed 0abe 7b32 b0bd fcc9 59bd
00000070: 339e 343c a1f1 0c3e 4938 da3c 7862 473e
00000080: dc2c 4bbe a60d 21bc 2517 a1bc 81c2 8d3a
00000090: 412d 6d3d f063 613a c5d8 203d d087 163e
000000a0: d397 5a3e af8a 0abc c68f 403d d071 8a3d
000000b0: e9cb 89bd bc09 8d3d 9aba ddbd 7438 39bd
000000c0: 083a 81bd 910c bdbd a172 dcbc 76ab a4bc
000000d0: 65d6 693c 0a12 123d 7cad 223d 0b7b fabc
000000e0: 6108 a8be 2c9b 5f3d 1cbd 653d 542e b4ba
000000f0: 988d 8a3c 1bd4 4d3d 727b 1fbd 5498 813d
00000100: 59a6 2f3c eeb2 403e ef66 513c 3cb0 df3d
00000110: 89ec 003d 43c5 d5bb abf7 7dbd 8764 8e3d
00000120: b189 2dbd 427e 66bd 4f04 d23b bcb2 f4bd
00000130: 59d6 11be d3c9 26bd c6f8 c5bb 0bb1 3dbd
00000140: 1034 88bd d921 c7bd 8b6b 0e3e c9f1 bf3d
00000150: 567c 10be d7d7 a2bd 226c a23c c945 2e3c
00000160: 28fd dcbc d2a1 b8bc de55 a2bd 3a1c 10bd
00000170: 02b1 78bd 167f 053e 8933 6cbc 66be 75bd
00000180: 9648 a23d 9691 763d 375c 673c 4023 613c
00000190: 4eda 643d 4b81 3fbc dbc4 e7bd 349a 50bd
000001a0: 34fa edbb 51f4 78bc ca17 66bd b8de 6d3c
000001b0: 5528 c3bd 65e3 7f3e 27f8 61ba b3e4 3c3e
000001c0: 4810 3abd b539 92bd 494a 0ebe 982b 153c
000001d0: 5a8b f93c a7e6 2abd 7cf2 efbc 8714 4b3b
000001e0: 9633 93bd c759 55ba c11a 3dbd b581 07bd
000001f0: 0d91 b23d a8ba d6ba aae6 43bb ffb9 2e3c
00000200: 6875 393d f625 42bd 6b88 1abd 970f 18bd
00000210: ddd2 c9bd 65ca 28bd 97df 12be 7245 e63b
00000220: 6c41 94bc 69cd d0bd 86e6 c7bd 02d4 aabc
00000230: 6f92 f23c 5f44 18bb 921c 88bc 3672 633d
00000240: cf99 b3bd e604 b4bd 81ba 09be 143e adbd
00000250: 6b00 a9bd 3464 90bb 9efa 96bd fafe 26bd
00000260: d4ae 473d ed7e bdbd e06d 183e ecec 14be
00000270: fad0 cebc 4c7f debc 7462 113e e6fb 2abe
00000280: 547d c4bb f3ba 02bd 5e60 80bd d507 1a3e
00000290: 54eb 4b3d 78e4 e5bb cc10 503d d730 683d
000002a0: 3f46 fe3d d119 83be 3860 c93d c800 31ba
000002b0: b05a 8dbe 5343 ca3c 5cbb 67bd 1bd0 303d
000002c0: 3f77 2bbd 7bfc b0be dcd5 2abe adc1 1dbd
000002d0: 27d1 20bc 249d 6d3d 6eb8 a8bc d4cc 983b
000002e0: deae ef3b 8994 9b3d 2795 3e3d f872 aebd
000002f0: 50ca 193d 4d71 a4bc 86c5 853c bcd4 6a3c
00000300: 3712 84bd 8501 5dbd 27ef 1f3e aa66 d5bd
00000310: 4866 97bd ee1a 843b 536b b43b 5bc9 063c
00000320: a80b 943d 1db0 543c 53b3 0f3c 5c12 203e
00000330: f7df 5f3d 31f3 733d 1324 10bd 1c7f 1dbd
00000340: b83a cabc 28e8 17bd 39d6 543d 5a6a a73c
00000350: 616c 683d 9d2c 803d be4e 4f3d ec35 aebd
00000360: 3368 41be 67ec ddbd 7bc6 eabd 784e 023e
00000370: 2d7e cebd 79d2 2dbd c7a7 3e3d 5139 a0bd
00000380: 573c babb 32e0 0bbd 7b79 2dbd 49d9 a3bd
00000390: 15c0 e7bc 9c23 15bd 43ea 803c 0e34 31be
000003a0: eb07 68be 6a51 d73d 8207 20be 47de 0dbe
000003b0: 05a4 c5bc b534 cbbd d917 48bd 3779 2b3d
000003c0: 1c51 3d3c a60a 8ebc 1854 44bd d4c6 11bd
000003d0: ec55 fb3d ac80 2e3d d19b 11be b7e1 82bd
000003e0: 9017 54be 0c34 00bd cb77 0a3d a255 1c3d
000003f0: b3e7 8cbd 8e47 a9bd 870d 353c c866 0f3d

fc.3.bias f4 [64]
0.022271292 -0.2016473 -0.20062554 -0.1652853 0.17191733 -0.12552361 0.12861791 -0.18053691
0.038811725 -0.12284365 0.23398393 -0.13319717 -0.20900126 -0.10995385 -0.14659497 -0.103471234
0.055183984 -0.22140183 -0.21187584 -0.09168478 -0.26658058 -0.11374582 0.18156898 -0.19205776
-0.10663704 -0.2624475 -0.22039402 -0.10855822 -0.117970765 -0.18137781 -0.16827166 -0.23154911
-0.14055721 -0.15778536 -0.15611774 -0.040590864 -0.20337784 -0.20168936 -0.15518495 -0.076067306
-0.07673586 -0.22167918 -0.31174803 -0.24532701 -0.20871146 -0.106148995 -0.27213782 0.13929805
-0.21042566 -0.07286882 0.26882625 -0.075469986 -0.2594304 -0.058370437 -0.1731481 -0.19119184
-0.14487971 -0.038047567 -0.25338218 -0.20597006 -0.09156446 -0.1830655 -0.23663564 -0.14223246
00000000: 4972 b63c a17c 4ebe c870 4dbe 8d40 29be
00000010: 190b 303e 4389 00be 6ab4 033e abde 38be
00000020: 0bf9 1e3d 7495 fbbd 7c99 6f3e d764 08be
00000030: 6d04 56be 7c2f e1bd fe1c 16be bae8 d3bd
00000040: 9a08 623d 29b7 62be fbf5 58be 3bc5 bbbd
00000050: 407d 88be 92f3 e8bd 38ed 393e caaa 44be
00000060: 8564 dabd 855f 86be f8ae 61be c653 debd
00000070: a89a f1bd 1bbb 39be 684f 2cbe 361b 6dbe
00000080: 3bee 0fbe 7c92 21be 54dd 1fbe 9b42 26bd
00000090: 4842 50be a887 4ebe cee8 1ebe 2dc9 9bbd
000000a0: b127 9dbd deff 62be 709d 9fbe 0137 7bbe
000000b0: 75b8 55be a564 d9bd a655 8bbe 26a4 0e3e
000000c0: d379 57be 3f3c 95bd 98a3 893e 0290 9abd
000000d0: 10d4 84be d715 6fbd bc4d 31be cbc7 43be
000000e0: 595b 14be c4d7 1bbd 4fbb 81be d1e9 52be
000000f0: 2686 bbbd 8675 3bbe 9d50 72be 63a5 11be

fc.5.weight f4 [4, 64]
0.11283086 0.019109111 0.067939155 0.020227745 -0.19924903 -0.02439958 -0.35773438 -0.0022141205
-0.11354431 0.009492782 0.098111875 -0.034474004 -0.09396477 0.011723801 0.120234184 0.043868393
0.11473197 0.044255152 -0.046814036 -0.113849014 -0.026617784 0.12231915 -0.040732667 0.08883522
0.028692292 -0.11512387 0.07307303 0.0071364553 -0.3268233 0.028067235 0.068832465 -0.014355721
-0.03497465 -0.022512633 -0.012297449 0.009772772 -0.053523935 -0.039290052 0.018066958 -0.053866927
-0.0078014047 -0.027288983 0.009448411 0.01258087 0.030448891 0.02207271 0.035529003 -0.12571551
0.0041737463 0.039877422 -0.12435824 -0.13946138 0.010112142 -0.13121957 -0.033858836 0.014312003
0.08805978 0.07226471 0.06659084 0.0014428633 -0.07639171 0.034586135 -0.13336842 0.046937976
0.08818432 0.03311445 0.11407202 0.032461025 -0.27517787 -0.117132515 -0.0502476 0.031254366
-0.13100238 -0.12862813 0.088678844 0.03951481 -0.015926171 0.062974 0.06488003 0.020594167
0.08925346 0.020689417 0.0117283 0.070832774 -0.076162234 0.09511088 -0.13122252 -0.008957371
0.046157863 0.04151714 -0.062296085 0.034840297 -0.0044378694 0.016138732 0.07654383 0.020022864
-0.036694746 -0.06829642 -0.08040084 0.060837626 0.02936014 0.0049363356 0.09256259 -0.01610973
0.0075889803 -0.0117636295 -0.008401334 -0.016013926 0.02157174 -0.023320055 0.006294243 0.034889027
-0.034046926 0.030848764 -0.0799789 0.024047315 0.00097388215 -0.15732874 0.009458118 -0.19059232
0.08956693 0.10035398 0.03861018 -0.042510144 -0.10243062 0.04126644 -0.055984177 0.009901921
-0.05790169 0.086376786 -0.08849475 -0.043314587 0.18985231 -0.06209232 0.004487454 -0.009226518
-0.109301016 -0.1840289 0.10415659 -0.06880078 -0.018976742 -0.07030734 0.03691273 -0.13241826
0.011921391 -0.19145274 -0.0327256 -0.08595603 -0.033589512 0.13755623 -0.21190147 0.059492324
0.03904365 -0.08062341 0.05685864 0.0031541702 0.11086814 -0.020972187 -0.030220572 -0.0818105
-0.0128522245 -0.09128163 -0.013203389 0.07161176 0.11189214 -0.098877355 -0.021283366 -0.118024446
0.020028507 -0.0904141 0.032941047 0.040315833 -0.03457773 0.061874546 0.043377284 -0.15707971
0.04749553 0.13842827 -0.11416168 -0.13555789 -0.016700363 -0.042083956 -0.031037718 -0.08182988
-0.0037036394 0.08054766 0.026151838 -0.024863657 -0.010129913 -0.1603827 0.12394604 0.011199295
0.06654293 -0.014419752 0.14215447 0.0017487588 0.24090976 -0.017741723 0.10195643 -0.059874155
-0.09537188 -0.0010888332 0.10026111 -0.008759655 -0.014953684 -0.08389524 -0.021361375 0.005400415
-0.13204545 0.093055524 -0.00234445 -0.016188877 -0.07662981 0.13650364 0.1983091 0.08410574
0.038530927 -0.11810688 -0.085228525 -0.011392548 -0.09697267 -0.026793985 0.08122886 -0.031023214
0.04826764 -0.02702808 0.1301906 -0.14243412 0.09462664 -0.010373797 0.01688987 -0.022259934
0.049389113 0.029668793 0.08168442 0.07420746 0.061574284 -0.037895676 0.007123417 -0.07039147
-0.11536091 -0.08138663 -0.13168488 -0.16213785 0.0016433685 0.07561891 -0.1012786 0.012686605
0.10621787 0.21539792 0.05469036 -0.0840494 0.0017415303 0.035149556 0.005961566 -0.02463607
00000000: de13 e73d b68a 9c3c af23 8b3d a8b4 a53c
00000010: f007 4cbe a1e1 c7bc f628 b7be c71a 11bb
00000020: eb89 e8bd 9d87 1b3c e1ee c83d 9d34 0dbd
00000030: 9a70 c0bd 2f15 403c 573d f63d 58af 333d
00000040: 98f8 ea3d e444 353d 13c0 3fbd ac29 e9bd
00000050: 8a0d dabc 7682 fa3d 4cd7 26bd 3def b53d
00000060: 190c eb3c 10c6 ebbd 50a7 953d edd8 e93b
00000070: 6255 a7be 42ed e53c 09f8 8c3d 4234 6bbc
00000080: 9441 0fbd 6a6c b8bc 3d7b 49bc fa1d 203c
00000090: ea3b 5bbd 9bee 20bd 2801 943c 91a3 5cbd
000000a0: eda2 ffbb 258d dfbc 82cd 1a3c fe1f 4e3c
000000b0: f46f f93c d4d1 b43c dc86 113d 91bb 00be
000000c0: ecc3 883b 8256 233d 88af febd f7ce 0ebe
000000d0: 66ad 253c 6c5e 06be 90af 0abd e47c 6a3c
000000e0: b058 b43d 85ff 933d c760 883d 751e bd3a
000000f0: 4273 9cbd 31aa 0d3d bb91 08be 0942 403d
00000100: fb99 b43d 04a3 073d 979e e93d daf5 043d
00000110: 1de4 8cbe 2ce3 efbd 6dd0 4dbd 9404 003d
00000120: 7d25 06be 18b7 03be 419d b53d 48da 213d
00000130: 9a77 82bc 83f8 803d d2df 843d 19b5 a83c
00000140: 85ca b63d da7c a93c 0e28 403c c610 913d
00000150: f2fa 9bbd 7ec9 c23d 325f 06be f0c1 12bc
00000160: 0710 3d3d e00d 2a3d 2e2a 7fbd b3b4 0e3d
00000170: 8c6b 91bb 6035 843c 03c3 9c3d fd06 a43c
00000180: 3b4d 16bd fede 8bbd 32a9 a4bd e030 793d
00000190: ad84 f03c fcc0 a13b 7591 bd3d 8df8 83bc
000001a0: fbac f83b 3dbc 40bc c0a5 09bc a32f 83bc
000001b0: 38b7 b03c b309 bfbc f03f ce3b cce7 0e3d
000001c0: ca74 0bbd 8cb6 fc3c facb a3bd e0fe c43c
000001d0: 204c 7f3a c91a 21be 39f6 1a3c a22a 43be
000001e0: de6e b73d 6386 cd3d b525 1e3d 1e1f 2ebd
000001f0: 25c7 d1bd 0007 293d aa4f 65bd ab3b 223c
00000200: 532a 6dbd 50e6 b03d bc3c b5bd a36a 31bd
00000210: a568 423e 8454 7ebd 7e0b 933b d22a 17bc
00000220: 36d9 dfbd 1272 3cbe 0d50 d53d 6ce7 8cbd
00000230: 1d75 9bbc 4bfd 8fbd ce31 173d a798 07be
00000240: f051 433c 300c 44be 470b 06bd b709 b0bd
00000250: 2895 09bd 8adb 0c3e b3fc 58be 39ae 733d
00000260: 3cec 1f3d e31d a5bd 9be4 683d 32b6 4e3b
00000270: d60e e33d ddcd abbc 2291 f7bc 438c a7bd
00000280: 2392 52bc ddf1 babd 0753 58bc 30a9 923d
00000290: b527 e53d 3680 cabd 745a aebc cdb6 f1bd
000002a0: d312 a43c 072b b9bd 31ed 063d 3722 253d
000002b0: 61a1 0dbd 2a70 7d3d 61ac 313d 81d9 20be
000002c0: ac8a 423d 24c0 0d3e 99cd e9bd b0cf 0abe
000002d0: 33cf 88bc 3a60 2cbd d042 febc 6d96 a7bd
000002e0: c2b8 72bb 2cf6 a43d 613c d63c deae cbbc
000002f0: eff7 25bc 5d3b 24be 6cd7 fd3d 3f7d 373c
00000300: a947 883d d340 6cbc f190 113e 9c36 e53a
00000310: 0cb1 763e 1757 91bc 88ce d03d 9a3e 75bd
00000320: 5552 c3bd 2eb7 8eba b255 cd3d a884 0fbc
00000330: 4c00 75bc 45d1 abbd 0dfe aebc f7f5 b03b
00000340: ec36 07be e593 be3d 58a5 19bb 899e 84bc
00000350: 17f0 9cbd 9cc7 0b3e 8a11 4b3e a13f ac3d
00000360: 9bd2 1d3d 05e2 f1bd 4b8c aebd cfa7 3abc
00000370: 9b99 c6bd 0f7f dbbc 515b a63d 6524 febc
00000380: 4ab4 453d fe69 ddbc af50 053e 40da 11be
00000390: 9dcb c13d dcf6 29bc a05c 8a3c 775a b6bc
000003a0: 3d4c 4a3d f80b f33c 294a a73d 15fa 973d
000003b0: 5135 7c3d 7f38 1bbd 8e6b e93b 6729 90bd
000003c0: 5742 ecbd 09ae a6bd 67d8 06be 7707 26be
000003d0: 4c66 d73a 16de 9a3d 286b cfbd 7adb 4f3c
000003e0: c188 d93d 4691 5c3e 0003 603d 1822 acbd
000003f0: 0f44 e43a fbf8 0f3d 3e59 c33b 95d1 c9bc

fc.5.bias f4 [4]
0.107089445 0.10683695 0.10500956 0.10498296
00000000: b651 db3d 55cd da3d 410f d73d 4e01 d73d
