best_model_5.pth (torch, 140113 bytes, 6 tensors)

fc.1.weight f4 [128, 200]
00000000: dadf 273d a457 3cbd 4050 38bc 4ef2 6e3d
00000010: 80eb 1e3a c43d 523d 0e3a 4a3d 20fb 373b
00000020: 440f 53bc 02d1 053d 8cb2 47bc bb74 a93c
00000030: b4e6 6d3d b5cb bfbc 07a1 46bd dc03 62bd
00000040: 04ff 93bd ac69 f7bc d237 1c3d 58a5 8bbc
00000050: 0a57 8fbd 0f82 353d f483 85bc b220 9abd
00000060: a5ec b3bc 83d1 173d debe 5abc 399e b5bd
00000070: 2a14 87bd 8410 a6bc 559a 3cbd de31 e1bc
00000080: d70f a7bd 1c10 0b3b 287f 3c3d b15a 1fbc
00000090: 3ce3 483c dc55 95bd 0f0b 14bc 8a07 223d
000000a0: aee7 37bd 864d 7fbd 0501 13bd f933 7f3d
000000b0: 0dcd 40bd 8dbd 8cbd c939 7bbd 8b83 5c3c
000000c0: 20bc c23c d26c 23bc 31d0 99bc f2c6 82bd
000000d0: 42fc 98bc cdba 0a3d abb5 523b ea0b 883c
000000e0: 77e4 723c adfe 6ebd 8678 603d 41bc 0bbd
000000f0: 15db 783d c359 443d 87ea f93c cfb1 88bd
00000100: bde7 f03b 81eb 80bb 8bec 153d c3ad 423a
00000110: 37f1 23bd 6445 49bd 2e27 b3bc fb0a 3dbd
00000120: a0bc ad3c fade 673c 832e 903c 9286 89bc
00000130: 17d9 633d 621b c83c 74b4 4e3d 05bc 883d
00000140: fd67 4d3d 8973 95bd 4bea 47bd 4d03 88bc
00000150: a4b5 79bc 717b 6d3b 84e0 103d 9a22 ce3c
00000160: 6c91 09bd 6324 973d 9c63 57bd 1f40 433d
00000170: 57ce 58bd 6086 753d cc76 36bd f46e d63c
00000180: ad65 9c3c a583 4e3d 947a 043d 4144 5e3d
00000190: e90d dcbb 0400 6ebd db52 a93b 5e07 fa3a
000001a0: e65c 8dbd fc3e 393d 65b3 fabb 156a 84bb
000001b0: 1030 253c 3a3e 6dbd 5338 423d e463 1f3d
000001c0: 58c4 883c 7a94 90bd 937f b7bb 0d3b 163c
000001d0: f053 9cbd 8c4f 583d 27ab 2c3d 5509 34bc
000001e0: e290 efbc 00f5 18bd ff79 a13c 876e 953d
000001f0: ea49 1fbc dd40 72bc 0d9c 99bc 131f 9ebd
00000200: d145 813d 0bbb 5f3d 7944 3ebd fbf3 0ebd
00000210: 4662 893d de6f 4e3d 3df6 db3c 5220 23bd
00000220: d212 283d 6a0a c93b 643f 77bd 5a86 7d3c
00000230: 66d3 3cbc 19a6 00bd 34ec 723d 2b25 163c
00000240: 2a1c 4bbd 6e9d 0dbd 89c3 993d a26d 1a3c
00000250: 1f46 b93c 8afe 253d 296a 803c 9814 f1bc
00000260: a3cf 9abd 8821 79bd dc4d 8c3d 1b6f 793d
00000270: 25b0 483d c766 6fbd 5b27 003d 0b76 e03c
00000280: 80a1 8fbd 590d 01bd b99d 5ebd f7f7 ec3b
00000290: b158 cd3c 4a04 7bbc f842 d1bb 1c3b deba
000002a0: e1f7 8c3d 6e55 513c 0fc3 22bd ee06 ab3c
000002b0: b381 bcba 6713 15bd d998 593d 3281 653d
000002c0: 785e 12bd 428c 6a3c 27d5 a13c 0c59 113d
000002d0: e701 52ba 7e7b 3cbc 03c7 77bc cf03 ca3c
000002e0: 3a23 573d 40be de3c 18c3 9f3c 1c14 063d
000002f0: a693 203d a031 20bc 059e 39bd 8d09 573d
00000300: 9f84 8e3d 0c59 043d c024 b33c 76ab 513d
00000310: 8a7c ef3c 093a 7c3c 6749 133d 520e e63c
00000320: e605 4d3d 90a6 413c b048 5bbd 95db 18bd
00000330: 3cb2 35bc 069b 89bd acef 943c 32cc 84bc
00000340: 3082 ce3c c6f2 2e3d 828d 413d 8650 633d
00000350: 1aeb 0abd bf3e 6d3d c15e 47bd 1940 2b3d
00000360: 958e 993b 305a 023d 2866 243d 527a 1c3d
00000370: b53f d3bc 6fbb 083d d3e6 51bd 03f1 9cbc
00000380: 44f0 93bd 08b1 d73c af0d 913b 6b69 d4bc
00000390: 9b43 e0bc 7aa6 f13b 885a 4cbc 79e8 2f3c
000003a0: b2c7 ab3b 02c2 c43b b333 21bd 782c a33c
000003b0: 4e71 f9bc 145a 79bd 1bbc 07bd 86c4 313d
000003c0: 4c04 86bd 06d7 883b 33a1 c1bc 9c7b 9d3d
000003d0: 9fd0 14bd 3225 a8bc 3805 853d c4cd 1abd
000003e0: 2585 973b 233c 203d 802a 5a3d 43bf 78bd
000003f0: e615 77ba 7151 4d3d 2059 253c 81c0 293d
0.040984966 -0.045982018 -0.011249602 0.05833655 0.0006062314 0.051328436 0.04937177 0.0028073266
-0.012882058 0.03267003 -0.012188565 0.020685544 0.058081344 -0.023412565 -0.04849341 -0.05517946
-0.07226375 -0.030201755 0.038139172 -0.017046615 -0.06999023 0.044313487 -0.016298272 -0.075257674
-0.021963427 0.03706504 -0.01335117 -0.08868069 -0.06595643 -0.020271547 -0.04604562 -0.027489599
-0.08157318 0.0021219319 0.046019703 -0.009726212 0.012261208 -0.07291767 -0.00903584 0.03955797
-0.04489868 -0.06232979 -0.035889644 0.062305424 -0.04707055 -0.068720914 -0.061334405 0.013459097
0.023771346 -0.009974675 -0.018776031 -0.06385602 -0.018674973 0.033869553 0.003215174 0.016607244
0.014824978 -0.058348347 0.05480244 -0.03411508 0.060755808 0.047937166 0.03050734 -0.06674539
0.007351844 -0.0039343243 0.036602538 0.0007426405 -0.040024962 -0.04913844 -0.021869268 -0.04615305
0.021208107 0.014152283 0.017600304 -0.016787801 0.055626955 0.02442712 0.050465062 0.06676487
0.050148 -0.07297427 -0.048807424 -0.016603136 -0.01524106 0.0036236907 0.035370365 0.025162984
-0.03358595 0.07379987 -0.05258523 0.047668573 -0.052931156 0.059942603 -0.044546887 0.026175953
0.019091452 0.050418515 0.032343462 0.05426431 -0.0067155254 -0.058105484 0.005167348 0.0019075682
-0.069024846 0.045226082 -0.00765078 -0.0040409663 0.01008226 -0.057920672 0.047416996 0.038913622
0.016695186 -0.0705957 -0.005599925 0.009169352 -0.07633197 0.052810237 0.04215541 -0.010988553
-0.02924389 -0.037343025 0.019711493 0.07296472 -0.009722212 -0.014785972 -0.018751169 -0.07720771
0.063121445 0.054621737 -0.04645202 -0.034900647 0.06708197 0.050399654 0.026850814 -0.039825745
0.041033573 0.0061352747 -0.06036319 0.015473926 -0.011525011 -0.031408403 0.059307292 0.009164135
-0.049587406 -0.034573965 0.075079985 0.009425553 0.022616444 0.04052595 0.015675621 -0.029428765
-0.07559135 -0.060822994 0.06850788 0.060896974 0.04899611 -0.058447625 0.031287532 0.027400037
-0.070132256 -0.03150687 -0.054349635 0.007231708 0.025066705 -0.015320847 -0.006386157 -0.0016954872
0.06883217 0.012776716 -0.039736804 0.020877328 -0.0014381915 -0.036395457 0.053124283 0.056031413
-0.035734624 0.014315667 0.01975496 0.035485312 -0.0008011148 -0.011504052 -0.015123132 0.02466002
0.05252383 0.027190328 0.019502208 0.03273402 0.03920331 -0.0097774565 -0.045316715 0.052499343
0.06958889 0.032311484 0.02186811 0.05118891 0.02923419 0.015394696 0.035958674 0.028083
0.050054453 0.011819497 -0.053536117 -0.037318785 -0.011089858 -0.067190215 0.01818069 -0.01621065
0.025208563 0.042711996 0.047254093 0.055496715 -0.033915617 0.057921167 -0.04867435 0.041809175
0.0046861866 0.03182429 0.040136486 0.03820259 -0.025787214 0.033381876 -0.05124552 -0.019157892
-0.072235614 0.026329532 0.00442668 -0.025929173 -0.027375987 0.007374582 -0.012472756 0.010736578
0.0052423114 0.006004573 -0.039355945 0.019918665 -0.030449536 -0.06087692 -0.033138376 0.04340031
-0.06543788 0.0041760234 -0.023636436 0.07689592 -0.03633177 -0.020525549 0.06495136 -0.03779389
0.0046240264 0.03911985 0.053263187 -0.060729276 -0.00094255654 0.050126497 0.01009205 0.04144335

fc.1.bias f4 [128]
00000000: 11ad 513c 902d c7ba 72e5 853c 01b4 60bd
00000010: 5a5a 903d fe31 e53c 7e7f 87bd dea3 b53c
00000020: 5854 c33d e94e 3bbb a59c 40bd 6830 253d
00000030: 3dd1 d13d dce4 39bd 473c 373d 011b cb3d
00000040: 1161 903d 4b3f 2b3d 11c0 173c a91b 2c3d
00000050: c32a 49bd 2224 b03d 5db2 6ebd 8f75 89bd
00000060: 36df 263d d56c 37bd 6193 ca3d 31b7 dbbc
00000070: 4787 2fbd 736c 233d abec 643d f99e a9bb
00000080: be5c 9a3d 5d8e 25bd 693e 543d ae49 47bc
00000090: 075f 4f3d 4cd5 d93d c5db df3d 7677 a63b
000000a0: 6990 b63d 05d8 063d 2087 8e3d caf8 023d
000000b0: 37d4 70bd 0187 ab3d aa87 db3c 8111 97bb
000000c0: df41 80bd de71 86bd 4a97 563d 37a0 983d
000000d0: 00ab 3bbd 6f00 5f3d 60c3 f1bc 181e 5dbd
000000e0: a9b9 743d e20a 433d f1cc 30bd d458 b93d
000000f0: c045 6bbc b9cc 933d 3439 71bc dae5 fbbb
00000100: 514f 3dbb a6f1 38bd 59b1 4dbd 8c5f 923d
00000110: 36d6 83bb 2bef 1dbd c251 843d 91c1 0abd
00000120: 9798 193d f445 9fbd 0829 3e3d fde3 9a3d
00000130: 4efb 473d d539 b6bc 7f25 103d 85c0 11bd
00000140: 8f3d 22bd 80dd 8dbb c9ac 35bd bfdc 333d
00000150: 122a 563c d201 96bd 0bef d2ba 7005 edb8
00000160: bff7 583d a000 be3d c4ad 55bd c868 6dbd
00000170: 6525 23bd 0d92 1a3d c5a1 5e3d 3844 60bd
00000180: 2bbd fdbc cdb2 41bd 6e47 59bd a8f3 893c
00000190: 5776 63bd 9ce8 153c e432 97bd a2c9 61bd
000001a0: 11da 74bc 9f2b 4c3d a6c0 cd3c a574 92bc
000001b0: fce1 243d f33c 413d e6d0 543d 1988 943d
000001c0: 4b3a b53d 9d58 5d3d c0fc 9fbc 9a46 a4bc
000001d0: 3523 86bc 4521 0cbc a218 11bd 8432 adbd
000001e0: 5ee2 b7bc 1c5e 27bd d812 30bd e871 d4bb
000001f0: 14c2 87bd b2e3 bd3d 9edf 153d ecd4 e5bb
0.01279761 -0.0015196074 0.01634476 -0.054859165 0.07048483 0.02797794 -0.06616114 0.022172865
0.09537572 -0.002858097 -0.047024388 0.040329367 0.10244987 -0.045384273 0.04473522 0.0991726
0.07049764 0.041808408 0.009262101 0.042018566 -0.049113046 0.08600642 -0.05827557 -0.06711876
0.040740214 -0.044781525 0.098913915 -0.02682075 -0.04285362 0.039898347 0.055889767 -0.0051764217
0.075372204 -0.04041897 0.05181733 -0.012163563 0.050627735 0.10636386 0.109305896 0.005080159
0.08914263 0.032920856 0.06959367 0.031975545 -0.058796134 0.08375359 0.026798088 -0.004610241
-0.06262564 -0.06564687 0.052390374 0.074524336 -0.045817375 0.054443773 -0.029512107 -0.053983778
0.05974737 0.0476178 -0.043164197 0.09050146 -0.014359891 0.07216782 -0.014723111 -0.0076873126
-0.0028886388 -0.04515233 -0.05021796 0.0714713 -0.0040233387 -0.038558166 0.064609066 -0.033876006
0.037499037 -0.077770144 0.04642585 0.075630166 0.048823647 -0.022244373 0.03519201 -0.03558399
-0.039609488 -0.0043293834 -0.044354234 0.04391169 0.013071554 -0.07324566 -0.0016092969 -0.000113020535
0.052970644 0.09277463 -0.05216767 -0.057961255 -0.039830584 0.03773694 0.054353494 -0.05475256
-0.030973991 -0.04728966 -0.053046636 0.016839817 -0.05553278 0.009149697 -0.073827535 -0.055123933
-0.014944569 0.049846288 0.025116276 -0.017877886 0.040254578 0.047177266 0.051957034 0.07252521
0.08849009 0.054039586 -0.0195297 -0.020053197 -0.01637421 -0.008552854 -0.035423882 -0.08456901
-0.022446807 -0.040861234 -0.04298672 -0.0064833052 -0.06628814 0.09271945 0.03659021 -0.0070139077

fc.3.weight f4 [64, 128]
00000000: 0dbc 95bd e500 a5bd 7271 f63b 39fc 0dbd
00000010: a3ce 64bd 71a4 38bd 9c58 bebd 6d23 8e3d
00000020: 9616 7cbd 13c1 843d 1f71 773d 5a9a 863d
00000030: 4ee0 803d 4a17 933d 594d 453d 524b a6bd
00000040: 5a03 7abb d1c2 893d 64db c0bd 954a 08bd
00000050: 10e1 09bd 4a7d 7bbb 87a5 c43c 71e8 1ebc
00000060: 8565 4b3d d9d9 d7bc 4985 99bd 5fe0 bbbd
00000070: 14a6 09bd beb0 693d 2795 8bbd d53b afbd
00000080: 04f2 bebd 60a3 7cbd 78cb a53d fe5b 9c3d
00000090: e412 21bd 2d22 40bc 6aa5 6b3d 928f 303d
000000a0: 5dba a9bd 7271 c9bc 1f03 a93c b438 19bd
000000b0: a83d 84bc f58b 233d c0fc 523b 8099 813c
000000c0: 1cb4 9ebd 87c0 ad3b cd0d 81bd 5d9f 4b3d
000000d0: 56ce f2bc c98c cabd 743d 833d fcfb 61bd
000000e0: 4d06 043d 6e9c 343d 15c8 a6bd f4d4 dbbc
000000f0: a7a0 9cbd a46d e839 a777 a23d 1625 8d3d
00000100: 9532 cbbd e66c 1c3b b255 9c3c 262a 643c
00000110: 5349 753d 7b50 553c 55e8 36bd ade7 38bd
00000120: e860 7938 3854 a4bd ac64 c3bb c14b 233d
00000130: ba26 dfbc 6cbd 8f3b 0ee0 fa3b e7a9 28bd
00000140: a2c2 92bd 442e 5a3d 5c79 b53b beae 333c
00000150: 52cf 823d 3ccf 86bd 34e5 6b3d 4a35 173d
00000160: 5611 143d d379 10bd 727d ebbb b3a5 1ebd
00000170: 6802 0ebd 418b a2bd 2b0d cf3c 2641 66bd
00000180: 4ad1 9bbd a1d0 acbd 183f a3bc 9226 2a3d
00000190: 68b2 49bd 083f 623d 5e1b a0bc b8cf dc3a
000001a0: 1960 94bc ffac 8b3d 0c6f 1b3d de6b 7c3a
000001b0: b7ac 98bd e450 38bd c065 deba d294 19bd
000001c0: 01c8 813d f6c7 843d d1da 823d db13 87bc
000001d0: 96c1 cbba 0a34 40bd 5901 4b3c fbc0 aebd
000001e0: 37c0 39bb e658 913d 9b0b 8d3d e83c 253d
000001f0: 3524 a63d b215 74bc a124 66bd f161 203d
00000200: 2e58 1a3d 7916 26bc 388e 6f3d 0f8a 94bd
00000210: eb8e 6ebd da84 92bd 600d 483d 3ba1 8fbd
00000220: d9d6 193b d66f dcbc 3678 6abc 5c7a eaba
00000230: 7889 543c 989d 26bd bdaf 513d b4d9 773d
00000240: b706 503d dc05 07bd 074c f53b b9bf 9fbd
00000250: a2fb 223d b24d 563d ee8b 39bc 14cd 3cbc
00000260: d34e 56bd b1db 893d b9ae 9abc 19dc d0bc
00000270: b8b9 3a3d c2c8 aa3d c739 6e3d 87cc 33bc
00000280: b2ee 28bd 6913 723b 10d5 e83c ee5b b3bd
00000290: 2ae7 be3d 95ad 79bd 16ab c23d 59a2 6cbd
000002a0: 96e6 113d 7207 6f3d 00f5 943d d113 acbc
000002b0: 0212 973c 304f aa3d 6457 f4bc fbd2 503d
000002c0: 320b 85bd 3dcd 9e3d 496c 913d 8f6a 8dbd
000002d0: 2614 293c f6a0 243d 2c06 9a3d d681 aebd
000002e0: 64f1 d9bc 19e4 a23c 4775 513d b8ce 613d
000002f0: 081f 933d 6bda 14bd b3fd fa3c ead6 463d
00000300: 0eb5 5a3d 86e6 a33d ea5d a7bc b77d 923d
00000310: 8f0b 213c 908a af3c f523 6c3c 0a51 413d
00000320: 8786 acbd e34d d73c 6180 fc3c 0b86 8abd
00000330: 1817 853d d6d8 823c ead1 793d c75f 7c3d
00000340: 33bb 9d3d 1bd4 903a 35dd d5bd fdbd 7abc
00000350: f369 dfbb 855b b8bc 8e9b ecbc 890d e7bc
00000360: 40af 9bbd c001 c0bb 006b cb3c 64bb bebd
00000370: 5759 c8bc 9c3c ee3c 661f 53bd ff58 103d
00000380: 2858 a5bd f5df c3bc a308 b0bd 23da 44bd
00000390: 5914 113d c35e 483d b41b 58bd 6571 603d
000003a0: 703e 3dbb 98bb 6b3d a941 88bd 0c94 b1bd
000003b0: a494 703b 00b8 b73c da75 78bc edcc 81bd
000003c0: 1d1e aebc c880 1abc 766a f0bb 4dbe abbd
000003d0: 029c 43bd 687d 5bbd f4d8 113d d989 99bd
000003e0: 3887 643d 5d93 a73c 8723 003d dac1 d9bb
000003f0: 80ee a9bd e08c 343d b628 4d3c 7034 0ebd
-0.073112585 -0.08056811 0.007520848 -0.034664366 -0.055861127 -0.0450787 -0.09294245 0.06940351
-0.061544977 0.064821385 0.060410615 0.06572409 0.06292783 0.071821764 0.048169468 -0.08119835
-0.003814897 0.067266114 -0.094168454 -0.033274252 -0.033661902 -0.0038374239 0.02400471 -0.009698973
0.049657363 -0.026348995 -0.07496125 -0.09173655 -0.03360565 0.05705332 -0.06815558 -0.08556334
-0.093235046 -0.061679244 0.08095449 0.076347336 -0.039324656 -0.011726898 0.057530798 0.04310567
-0.08287499 -0.024590228 0.020631371 -0.037407592 -0.016142681 0.039928395 0.0032194108 0.015820265
-0.07749197 0.005302492 -0.063014604 0.049712528 -0.029639404 -0.09890134 0.06408206 -0.05517195
0.03223257 0.044094495 -0.08143631 -0.026834942 -0.076478295 0.00044332177 0.07932978 0.06891839
-0.09921757 0.002386862 0.019083831 0.013926065 0.05988438 0.013019676 -0.044655163 -0.04514282
5.9456477e-05 -0.08023876 -0.0059629288 0.039867166 -0.027240146 0.0043865945 0.007656104 -0.041177657
-0.071660295 0.05326678 0.005538149 0.010966955 0.063871995 -0.065824956 0.057591632 0.036916055
0.036149345 -0.03527243 -0.007186585 -0.03873224 -0.034670264 -0.07936717 0.025274834 -0.056214474
-0.07608278 -0.0843823 -0.019927546 0.04154069 -0.049242407 0.055235893 -0.0195443 0.0016846573
-0.01811223 0.06820106 0.0379477 0.00096291106 -0.07454818 -0.04499902 -0.001696758 -0.03749544
0.06336976 0.06483452 0.06389392 -0.01648896 -0.0015545364 -0.04692463 0.012390458 -0.08532902
-0.0028343329 0.07097034 0.06886979 0.040341288 0.08112375 -0.014897751 -0.056187276 0.039155904
0.03768175 -0.010137194 0.05848524 -0.07252895 -0.058241766 -0.07154246 0.04884088 -0.07013174
0.0023474006 -0.026908796 -0.014310887 -0.0017889249 0.012972228 -0.040677637 0.051192988 0.060510352
0.050787654 -0.032964572 0.00748587 -0.0780024 0.039790757 0.05232019 -0.011324866 -0.011523504
-0.052321266 0.06731356 -0.018882142 -0.025495576 0.04558727 0.08339073 0.05816057 -0.010974056
-0.041243263 0.003693784 0.028421909 -0.087577686 0.09321435 -0.060956556 0.09505288 -0.057772014
0.035620295 0.05835671 0.072732925 -0.021005543 0.018441204 0.08315885 -0.029826827 0.050982457
-0.06496276 0.0775399 0.07100732 -0.0690509 0.010319745 0.040192567 0.075207084 -0.08520858
-0.026604362 0.019884156 0.051137235 0.055128783 0.07183653 -0.036341112 0.030638551 0.0485448
0.053395323 0.08002953 -0.020430524 0.071528845 0.009829416 0.021428376 0.01441287 0.047196425
-0.084240966 0.026282256 0.030822935 -0.06763848 0.064985454 0.015972536 0.060991205 0.061614778
0.07701721 0.001104954 -0.104425825 -0.015304086 -0.00681805 -0.022504577 -0.028882768 -0.028204696
-0.07601786 -0.0058595836 0.024831295 -0.09313086 -0.024456663 0.029081635 -0.051543616 0.035241123
-0.08073455 -0.023910502 -0.08595397 -0.048059594 0.035419796 0.048918497 -0.052760795 0.05479564
-0.0028876327 0.05755195 -0.06653149 -0.08670816 0.003670969 0.022426605 -0.015164817 -0.063379146
-0.021254594 -0.009430118 -0.00733691 -0.08385906 -0.047756203 -0.053586394 0.035607293 -0.074969955
0.055793017 0.02045601 0.03128388 -0.0066454234 -0.082974434 0.04407966 0.012521913 -0.034717977

fc.3.bias f4 [64]
00000000: 0824 6dbc b2aa 68bd f408 1f3d b612 533d
00000010: aca9 b33c 44d4 94bd 43ed 81bc cae8 b0bd
00000020: 98f8 57bd b088 8c3d 41a8 4fbc 05db b63d
00000030: 21c2 55bd 2721 a63c f91e 87bd bc5c c5bd
00000040: 0e02 4a3d 52d2 b9bd a58d 66bd a4a5 9d3d
00000050: 63fc 0b3d b774 63bd 1acd 87bd 4132 d93d
00000060: e34f b13d 144b 88bd c759 7b3d 9069 48bd
00000070: c552 2ebd c0fd d23d 370a 853d 2bd0 8e3d
00000080: e9b0 993d 6319 bb3d c5a0 d13d 3bf9 2d3c
00000090: 0a0a 5ebd 19b0 153d 9593 8c3d fe71 393d
000000a0: ce85 1a3c e03e 6ebd f9b9 de3d 3006 cd3c
000000b0: 8da4 fe3b 51c6 a4bd ceb7 c33c 158e fb3c
000000c0: a461 093d b347 1fbd be2b 56bd 133f 4c3d
000000d0: 6a23 d53d f23e c2bb 39fb 3e3d bd72 77bd
000000e0: c713 a5bd 99e0 a33d df0e afbd f98b 583c
000000f0: d907 9fbc fbe1 913c a0ea 87bc 6521 8b3d
-0.014473923 -0.056803413 0.038826898 0.051531516 0.021931492 -0.07267049 -0.015860206 -0.08638151
-0.05272731 0.068620086 -0.012674392 0.089284934 -0.05218709 0.02027948 -0.065977044 -0.09636828
0.049318366 -0.090733185 -0.056287427 0.07697609 0.03417624 -0.05553123 -0.06630917 0.10605288
0.08657815 -0.06654945 0.061364915 -0.048928797 -0.042559404 0.10302305 0.06496089 0.06973299
0.07504446 0.091357015 0.102357425 0.010618503 -0.054208793 0.036544893 0.068640865 0.045274727
0.009431316 -0.05816543 0.10875315 0.025027364 0.007771081 -0.08045638 0.023891356 0.030707398
0.033540383 -0.038886737 -0.05228781 0.04986484 0.10407145 -0.005927914 0.046626303 -0.060412157
-0.08060413 0.08001823 -0.08547758 0.013216966 -0.019412922 0.017807951 -0.01659137 0.06793479

fc.5.weight f4 [4, 64]
00000000: a1ea 9e3a dbc1 51bd ef00 e33c 23fc d5bd
00000010: 4cec 013e b015 c13d a74e b8bc 1d7f 843d
00000020: 25df ea3c de00 bdbd 0d7d 933c b56e d93d
00000030: 06c3 09bd 288f a73d 0c61 bb3c e692 91bc
00000040: 6aa5 153d adaa 423d 48b0 7a3d a00c a5bd
00000050: 8c64 603a c262 cdbc bcb8 c6bb f5ac 5b3d
00000060: e59b 22bd ffc8 9fbd 0da1 da3d a713 a9bd
00000070: 693d d5bd b482 d23d 55b7 07bd 1ae4 54bd
00000080: faad fb3c b13e b2bd e62b 87bd 60e1 11bd
00000090: 8136 aebd d166 88bd b4de a83b 4413 303c
000000a0: a36e 9bbd 5718 f2bc 16fa 393c ee83 8d3d
000000b0: ef70 56bd d052 e13d 0f3a 713d f451 d53c
000000c0: 2fac a23d a15b a6bb 1f72 dcbd d383 cb3c
000000d0: 88a9 dabd 00f2 9c3d 3fb3 b53d ea4b 813d
000000e0: cd80 c03d 3800 6d3d 3d5b 983d 6efa 7abc
000000f0: 4a3f b2bd 1b31 9cbd 8994 523d eed0 903d
00000100: cd1e 92bc 0997 ccbc 0651 153d 03e7 2f3d
00000110: c24e b03d 9b01 c53d 55fc f53c 34a0 09bd
00000120: 41fa b03d 2dbd 57bd 3b2b d6bc f56a e3bc
00000130: bf1d 17bd bd3f 423d 76e1 48ba 26b9 c23c
00000140: 678c bc3d d401 e63c 4e21 c73b f46d b13d
00000150: 052b acbd ce83 54bd 66ae 273d 8b30 0ebd
00000160: 5934 a0bd 3823 40bd fe46 18bd 0685 b4bc
00000170: 27a5 84bd 47dc 9d3d 2d8e eabd db32 693d
00000180: 0d05 cabd 85eb 343c c4ca 743d 78ce 62bd
00000190: 3213 0d3d 2109 d9bb a897 cebd 23cf 003b
000001a0: a934 30bd 9aa3 efbd 9f28 d23d b8e6 e73c
000001b0: 6a5d e73d c201 d6bd 49e9 9d3d fbe3 ef3d
000001c0: 427a abbc ae07 5ebc ec73 b63d b565 643d
000001d0: 32fe 99bd cd57 3b3d 78b0 813c e282 cabd
000001e0: eb3a f43b 3cd7 093d fe10 85bd 20f1 e33d
000001f0: 3f91 6cbd 4c88 a7bd 5b7d dabd 40e0 5a3d
00000200: c0c1 ae3c ef55 c3bb 5757 9a3d ee78 cb3b
00000210: 5689 29bd 47c0 d43d 256a e2bd ca39 c5bd
00000220: 790b 46bd ab2c d03c 24f2 623b 077e 8d3c
00000230: abe6 20bd 8ce8 773d a868 f2bd 49d1 edbd
00000240: fe90 613b 4031 c3bd 677c a6bd 6a27 043e
00000250: 7f90 00bd 1200 ddbd d328 bcbd 6c09 e23d
00000260: c386 723d b7f9 cb3d 64b7 abbd 3449 ed3d
00000270: 5df2 4dbd 0c66 f53d 6b64 7c3d ffd2 47bd
00000280: 6877 e83c 87cb 0bbd d082 7bbc 3c1f 243d
00000290: e10c e3bc 453e ef3c 5846 f03d 87f8 923d
000002a0: 767f a7bd c135 043d 1d62 3a3c 371c fa3c
000002b0: 2d78 403d 7efa b0bc e83c 013e 4633 bcbd
000002c0: 0182 d33d d937 bdbd f8e6 86bd 0a2b 023e
000002d0: 4721 013e 1daf 863d 9ecd 96bd 7b00 dd3d
000002e0: 99ce e53d 02e6 fd3d 9389 bdbc 6030 aebd
000002f0: 437f 25bd 26b2 903d 669f c63d 37db 653d
00000300: 9024 20bd 89ad f03d 9799 86bd 1f0e f4bc
00000310: 95cc 7d3c f6d9 81bd e84e 21bd 0874 aebd
00000320: 34dc 03be 9dfc 163d 11c8 87bd d842 8b3d
00000330: 641a 2fbd d9f8 873d 2d6a e43d 3adb 6abd
00000340: 8c1f 0f3d dd51 82bd 26ee f8bc 25ee c63c
00000350: b128 043e 506f 00bd 32b0 40bd 7b3e 053e
00000360: a00a cd3d de2c babd f14f 863d 4371 5dbd
00000370: 557b c4bd a31c de3d a991 ccbd 314b 073e
00000380: 1a3b 283d 95c5 643d c894 fe3d c2d2 c83c
00000390: c881 88bd 8c4e 21bc b2ac c53d 1f32 9fbd
000003a0: 007d 75bd 2bc9 3f3d 4a1b a43d 80cc ccbc
000003b0: 99b9 a43d be85 6dbd 577b c23d d69a 603d
000003c0: 8f7f a53b ec90 9ebc fe93 d6bd ada4 c6bd
000003d0: ce44 713d 67de c43d 39a5 04bd 28d6 a63d
000003e0: db8f 0c3d 22c5 e63c 2128 dd3d 722e 47bd
000003f0: 97ff 103d 10f6 54bd 9aec 0d3d e564 b3bd
0.0012124368 -0.051210266 0.027710406 -0.10448482 0.12687796 0.09427965 -0.022498442 0.064695574
0.028670857 -0.09228681 0.018003965 0.10616819 -0.033633254 0.08181602 0.022873424 -0.017770242
0.036534704 0.04752605 0.06120327 -0.08059049 0.00085599045 -0.025071505 -0.0060645025 0.05363174
-0.039699454 -0.07802009 0.10675249 -0.082557015 -0.10412104 0.10278836 -0.033133823 -0.051975347
0.030722607 -0.08703364 -0.0660017 -0.035615325 -0.085064895 -0.06660236 0.0051535014 0.010746781
-0.07589462 -0.029552622 0.011351129 0.06909929 -0.052353796 0.11002123 0.05889326 0.026040055
0.07942998 -0.005076841 -0.10763954 0.024843132 -0.10676867 0.07663345 0.08872079 0.063133076
0.09399567 0.057861537 0.07439277 -0.015318496 -0.08703478 -0.076265536 0.051411185 0.070711
-0.017836953 -0.024974363 0.036454223 0.04294492 0.08608772 0.09619447 0.030027548 -0.033600047
0.08641482 -0.052670646 -0.02614366 -0.027760962 -0.036893602 0.047424067 -0.0007662991 0.023769926
0.09206467 0.028077044 0.0060769683 0.0866355 -0.08406643 -0.05188351 0.040937804 -0.034714263
-0.078224845 -0.046908587 -0.03717708 -0.022036087 -0.06476813 0.0770803 -0.11452899 0.056933265
-0.098642446 0.01104248 0.059763685 -0.055372685 0.034442134 -0.0066234027 -0.1008752 0.0019654713
-0.04301897 -0.117011264 0.10261654 0.028308257 0.11297114 -0.10449554 0.07710511 0.11713406
-0.02093232 -0.013551636 0.08908829 0.055761058 -0.07519187 0.04573803 0.015831217 -0.09888245
0.0074533126 0.03365253 -0.06497382 0.11129975 -0.057755705 -0.081802934 -0.10668441 0.053436518
0.021332622 -0.005961172 0.0753619 0.0062094843 -0.04139074 0.103882365 -0.11055402 -0.09630163
-0.048350785 0.025411924 0.003462919 0.017272009 -0.039282482 0.06052451 -0.11836368 -0.116121836
0.0034418697 -0.09530878 -0.081291966 0.1290566 -0.031387802 -0.10791029 -0.09187474 0.11036953
0.05921055 0.09959739 -0.08384588 0.11586228 -0.050279964 0.119823545 0.061619204 -0.048785206
0.02837725 -0.034129646 -0.015351012 0.04006885 -0.027716102 0.029204497 0.11732167 0.07176309
-0.08178608 0.032277826 0.011375931 0.030531032 0.04698961 -0.021603819 0.1262089 -0.09189467
0.10327531 -0.09239168 -0.065870225 0.1271173 0.1261035 0.06576369 -0.07363437 0.10791107
0.11221046 0.12397386 -0.02313689 -0.085053205 -0.04040457 0.07065229 0.096983716 0.056117263
-0.03909737 0.11751849 -0.06572264 -0.02979189 0.015490671 -0.06340401 -0.03938189 -0.08518225
-0.1287697 0.036862005 -0.066299565 0.06799859 -0.042749777 0.06639261 0.11153064 -0.057337977
0.034942195 -0.063632704 -0.030386996 0.024283478 0.12906148 -0.031356156 -0.047043033 0.13012116
0.10011792 -0.09090589 0.06558216 -0.054063093 -0.09593836 0.10845306 -0.0998872 0.13212277
0.04107199 0.05585249 0.124307215 0.02451456 -0.06665379 -0.009845387 0.0965208 -0.07773232
-0.059933662 0.046822708 0.080130175 -0.024999857 0.080432124 -0.057988875 0.094961815 0.054835163
0.0050506066 -0.019356214 -0.10477446 -0.09699378 0.058903508 0.096127324 -0.03238413 0.08146316
0.03431688 0.028170172 0.107986696 -0.048628278 0.0354 -0.051992476 0.03464947 -0.087594785

fc.5.bias f4 [4]
00000000: 970f 013e 03da f33d 240c 8abc d80a b9bd
0.12603603 0.11906817 -0.016851492 -0.090352714
