best_model.pth (torch, 140089 bytes, 6 tensors)

fc.1.weight f4 [128, 200]
0	0xbce8d89c	-0.0284236
1	0x3cbc98d0	0.023022085
2	0x3d8d6113	0.06903281
3	0x3c6c9a70	0.014441118
4	0xbd4557b4	-0.048179343
5	0xbc903450	-0.01760307
6	0xbb4955e0	-0.0030721352
7	0x3d027524	0.031849995
8	0xbd6c4e79	-0.057692025
9	0xbd5ae44e	-0.053440385
10	0xbd74564e	-0.05965262
11	0xbcff0ebc	-0.031134956
12	0xbd716899	-0.058937643
13	0x3d15eb78	0.036601514
14	0xbd70bc7a	-0.058773495
15	0x3d2a0bd4	0.041515186
16	0xbcd3f20a	-0.02587225
17	0xbd859ac2	-0.06523658
18	0xbd4c4efe	-0.04988002
19	0xbd656002	-0.055999763
20	0xbc7d008c	-0.015442025
21	0xbccc6ebe	-0.02495515
22	0x3d2defbe	0.042464964
23	0xbc6bbf88	-0.014388926
24	0x3ca19ff0	0.019729584
25	0x3d8175ef	0.06321322
26	0x3a7c2480	0.0009618476
27	0xbb172080	-0.0023060143
28	0x3c81ec20	0.015859663
29	0x3d7384ce	0.059452824
30	0x3d7d6d76	0.06187197
31	0xbcd18a14	-0.025578536
32	0xbd48edce	-0.049054913
33	0x3d4b4456	0.049625717
34	0xbd3a95d1	-0.045553032
35	0xbd8221de	-0.06354116
36	0x3d8dd075	0.06924526
37	0xb810c000	-3.451109e-05
38	0xbcbf9a24	-0.02338893
39	0xbd1a2e31	-0.037641708
40	0x3d6bf286	0.057604335
41	0xbca51dfa	-0.020155896
42	0xbd54926b	-0.051897448
43	0xbd810807	-0.06300359
44	0xbbdc1db0	-0.006717406
45	0x3c6b1738	0.0143487975
46	0xbd489f1f	-0.048979875
47	0xbcb97dde	-0.022643026
48	0x3c2bb428	0.010479964
49	0xbd8d7d35	-0.06908647
50	0x3d149ea2	0.036284097
51	0x3cb73364	0.022363372
52	0x3ca0ea04	0.019642837
53	0x3d1ed1fa	0.038774468
54	0xbd6ca5f6	-0.05777546
55	0xbd905b20	-0.07048631
56	0xbd6eb228	-0.05827537
57	0xbd8e5852	-0.069504395
58	0x3cbdea64	0.023183055
59	0xbd87b536	-0.0662636
60	0x3d7a5882	0.061119564
61	0xbc68b5ec	-0.01420353
62	0x3c8fbd44	0.017546304
63	0xbd161ce3	-0.036648642
64	0x3bff5d00	0.007793069
65	0x3bd0e120	0.0063744932
66	0xbd83c19c	-0.064334124
67	0x3c26e0a8	0.010185398
68	0x3d0ffde0	0.035154223
69	0xbd1de1dd	-0.038545478
70	0x3d4af10a	0.04954628
71	0xbcf9915e	-0.030464824
72	0x3c373c18	0.011183761
73	0xbd4d0836	-0.05005666
74	0xbcab2696	-0.020892423
75	0x3d2763ea	0.04086677
76	0x3b36cba0	0.0027892366
77	0xbd280f50	-0.04103023
78	0x3ca5259c	0.020159535
79	0xbd8bd236	-0.06827204
80	0xbce520f4	-0.027969815
81	0x3d8ff645	0.07029394
82	0xbd6fcdd0	-0.058545887
83	0xbc82a75a	-0.01594894
84	0x3c9ea064	0.01936359
85	0xbd53a710	-0.051672995
86	0xbd9c2f03	-0.07626154
87	0xbd786360	-0.060641646
88	0x3d8a4e21	0.06753183
89	0x3cc173a8	0.02361472
90	0xbd37d356	-0.04487928
91	0x3d8e6181	0.06952191
92	0xbc55ddf8	-0.01305341
93	0x3cb56104	0.022140987
94	0xbcbd354e	-0.023096707
95	0xbd78049f	-0.060551282
96	0xbd421cf1	-0.047390882
97	0x3bbcf920	0.0057670027
98	0x3cce07f8	0.025150284
99	0xbd1fa813	-0.038978647
100	0x3d1044ce	0.035221867
101	0xbd358568	-0.04431668
102	0xbd379e8b	-0.044828933
103	0xbd759f5e	-0.059966438
104	0x3d6d09ed	0.057870794
105	0xbda8b8f6	-0.082384035
106	0xbc9bdfdc	-0.019027643
107	0x3c0c86e0	0.008577079
108	0x3ade7040	0.0016970709
109	0x3d396f3c	0.045272097
110	0xbd8bd6a8	-0.06828052
111	0x3d755e86	0.059904598
112	0xbc957ed4	-0.018248953
113	0xbb82a230	-0.0039866194
114	0x3cf0eeba	0.029410709
115	0xbca85ffa	-0.020553578
116	0x3ce702dc	0.028199606
117	0x3d166b92	0.03672368
118	0xbd07d07a	-0.033157803
119	0xbb363b60	-0.0027806386
120	0xbd4c9ec6	-0.049956106
121	0x3d38c670	0.04511112
122	0x3ca954f0	0.020670384
123	0xbd8a29e9	-0.06746275
124	0x3ce7d0b9	0.028297769
125	0x3d19dc4e	0.037563615
126	0x3d620a02	0.055185325
127	0xbd24f2ed	-0.040270735
128	0xbce03fb0	-0.027374119
129	0x3c7c5bb0	0.015402719
130	0x3d36689a	0.04453335
131	0xbcd2304c	-0.025657795
132	0x3b8b60e5	0.004253494
133	0xbd6847e2	-0.056709178
134	0x3c0f7b51	0.008757428
135	0x3a27ea59	0.0006405465
136	0xbb7cb85e	-0.003856204
137	0xbc9bce36	-0.019019227
138	0xbadea17f	-0.0016985385
139	0xbd4dd4ac	-0.050251648
140	0x3c2ff594	0.010739703
141	0xbd88386b	-0.06651386
142	0xbd722d70	-0.059125364
143	0xbc38ebc1	-0.011286677
144	0xbcf976eb	-0.030452212
145	0xbb49be9e	-0.0030783783
146	0xbda54710	-0.08070195
147	0xbdab865d	-0.08375237
148	0xbc4168ab	-0.01180474
149	0xbd037513	-0.032094073
150	0xbd84f4d7	-0.06492012
151	0xbcedeb6a	-0.029042918
152	0xbce7fa70	-0.02831766
153	0xbda3a3b7	-0.079902105
154	0xbd1c5381	-0.038165573
155	0xbd9e9ecf	-0.07745134
156	0xbcf8fef6	-0.030395012
157	0x3abe1b94	0.0014504069
158	0xbd2d233e	-0.042269938
159	0xbc87f1c4	-0.016594775
160	0x3d2f7e22	0.0428449
161	0x3b8458fd	0.0040389285
162	0xbd637baa	-0.055537857
163	0xbdba349c	-0.09092066
164	0xbce8fe76	-0.028441649
165	0xbc1e0ef4	-0.00964712
166	0xbc4b2378	-0.012398593
167	0xbd1e6e3e	-0.038679354
168	0xbd7e780b	-0.0621262
169	0xbcc08025	-0.023498604
170	0xbd9f7726	-0.07786398
171	0xbd114b4c	-0.0354722
172	0xbdbeba3c	-0.09312865
173	0xbd7f0ec2	-0.062269934
174	0x3d432674	0.047644094
175	0xbd2407b2	-0.0400464
176	0x3c906276	0.017625075
177	0x3cb1821e	0.02166849
178	0xbcc838f2	-0.024441216
179	0xbd8d0191	-0.068850644
180	0xbb93dd8f	-0.004512496
181	0xbcede699	-0.029040622
182	0xbd1ceb9e	-0.03831064
183	0xbd5cff6d	-0.05395453
184	0x3b72ffaa	0.0037078657
185	0xbc7547be	-0.014970718
186	0xbd84d870	-0.06486595
187	0xbd0676c5	-0.03282811
188	0xbd58eb24	-0.052958623
189	0xbbfb58e3	-0.007670508
190	0xbd868075	-0.0656747
191	0x3c972b15	0.01845316
192	0xbd9d5f92	-0.07684244
193	0xbcbc5530	-0.02298984
194	0xbd25c5e4	-0.040471926
195	0xbd2f3799	-0.04277763
196	0x3aadc400	0.0013257265
197	0xbc903e2a	-0.017607767
198	0xbd648cd7	-0.055798378
199	0xbd81c4d9	-0.06336374
200	0x3d888bcf	0.066672914
201	0xbd4af0c6	-0.049546026
202	0xbddd1a1e	-0.10795997
203	0xbebb6f83	-0.36608514
204	0xbcc10cd8	-0.023565695
205	0xbc6a8d1c	-0.01431587
206	0x3b9d7380	0.0048050284
207	0xbd8ec1cd	-0.06970558
208	0x3c51bff8	0.012802117
209	0xbd06403a	-0.032776095
210	0xbccc14cc	-0.02491226
211	0xbf16fade	-0.5897654
212	0x3e7a8f4a	0.24468723
213	0xbede259e	-0.43388075
214	0x3ed11634	0.40837252
215	0x3f2a3a29	0.66494995
216	0x3f38451c	0.7198045
217	0x3f819f5d	1.0126759
218	0x3f1bb1d9	0.6081825
219	0xbd8313ae	-0.06400238
220	0xbdca0a39	-0.09865231
221	0xbedc5caf	-0.43039462
222	0x3eb83f5a	0.35985833
223	0xbe489aed	-0.1959035
224	0xbeab52b1	-0.33461526
225	0x3ed3558c	0.41276205
226	0xbea796b5	-0.32732168
227	0x3f3e2476	0.74274385
228	0x3e1896c0	0.14901257
229	0xbed9e70d	-0.4255909
230	0xbe5c20d0	-0.21496892
231	0xbc58e27d	-0.013237593
232	0x3e7c514d	0.24640389
233	0x3f011dda	0.50436175
234	0x3f91608e	1.1357591
235	0xbea561b8	-0.32301116
236	0x3f220374	0.6328652
237	0x3f6a4a8b	0.91519994
238	0x3ecaa982	0.3958245
239	0x3f239ee4	0.6391432
240	0xbd08ebe7	-0.0334281
241	0x3ea72b87	0.32650396
242	0xbea734ab	-0.3265737
243	0x3d58cb25	0.05292811
244	0x3f31cc12	0.6945201
245	0xbfcc1f97	-1.594714
246	0xbec1e4aa	-0.3786977
247	0xbe2a47eb	-0.16628997
248	0x3e5c6410	0.21522546
249	0xbe8cc52e	-0.27494186
250	0x3e93f6fe	0.28899378
251	0xbda7a25f	-0.08185267
252	0xbf3c7c16	-0.7362684
253	0xbe57aaee	-0.21061298
254	0x3c0e7e49	0.008697101
255	0xbf3e4745	-0.743275

fc.1.bias f4 [128]
0	0xbde9191a	-0.11381741
1	0x3f46ea86	0.77701604
2	0xbeb0024a	-0.34376746
3	0xbc7f7e15	-0.015594025
4	0xbd856e37	-0.065151624
5	0xbdf6c8a5	-0.12049989
6	0xbdf496ab	-0.119428
7	0xbf252f2f	-0.6452512
8	0xbd888ca1	-0.06667448
9	0xbda5237d	-0.080634095
10	0xbe095e06	-0.13414773
11	0xbdcb2eaa	-0.0992101
12	0xbdbce35d	-0.092230536
13	0xbf043cbf	-0.5165519
14	0xbe03ae9c	-0.12859577
15	0xbd705e26	-0.058683537
16	0x3fa9beb8	1.3261328
17	0xbe024de7	-0.1272503
18	0xbe604d27	-0.21904431
19	0xbdadc81a	-0.08485432
20	0xbe1ea35f	-0.15492009
21	0xbea5d129	-0.3238614
22	0xbee83890	-0.45355654
23	0xbe2078f1	-0.15671135
24	0xbeb3c7f9	-0.35113505
25	0xbea14fb6	-0.31506127
26	0xbd4cccb5	-0.04999991
27	0xbe54a7e6	-0.20767173
28	0xbee872fc	-0.45400226
29	0xbe61d00e	-0.22052023
30	0xbf5d91f0	-0.8655081
31	0xbfb798db	-1.4343523
32	0xbd97d559	-0.0741374
33	0xbd7763f5	-0.06039806
34	0xbf608698	-0.87705374
35	0x3e88a090	0.26685
36	0xbd2ea522	-0.04263795
37	0xbe496bdd	-0.19670053
38	0xbe1dc421	-0.15406848
39	0xbecf6cc8	-0.4051268
40	0xbe9b0623	-0.3027812
41	0xbdd7f657	-0.105450325
42	0xbdf5726d	-0.119847156
43	0xbd96ee41	-0.07369662
44	0xbf4f6a90	-0.81021976
45	0xbf47f973	-0.78115004
46	0xbf205eda	-0.6264473
47	0xbee1d2a9	-0.44106033
48	0x3eefd2f4	0.46840632
49	0xbdd2a556	-0.102854416
50	0xbd62133d	-0.05519413
51	0xbe33071d	-0.17483182
52	0xbd78483d	-0.060615767
53	0xbe077639	-0.13228692
54	0xbee38e23	-0.4444438
55	0xbe2aedd5	-0.16692288
56	0xbf5136ec	-0.8172443
57	0xbe4168fb	-0.18887703
58	0xbed07633	-0.4071518
59	0x3cbea00d	0.023269678
60	0xbe03c23a	-0.1286706
61	0xbea275e4	-0.31730568
62	0xbf1d71fa	-0.6150204
63	0xbf3637d3	-0.7117893
64	0xbe94c3bd	-0.29055586
65	0xbe048d90	-0.12944627
66	0xbedc3e31	-0.43016198
67	0xbf4b679c	-0.7945497
68	0xbe4fbb0d	-0.20286198
69	0xbdda6acd	-0.10664902
70	0xbf369d3b	-0.71333665
71	0xbdbb8214	-0.0915567
72	0x3f3a84b2	0.72858727
73	0xbf630343	-0.8867685
74	0xbe86b3c8	-0.26309037
75	0x3de26b2b	0.11055597
76	0xbdd63001	-0.10458375
77	0xbf256139	-0.64601475
78	0xbc062f48	-0.008189984
79	0xbef05e84	-0.4694711
80	0xbf29bf64	-0.66307664
81	0xbdbd3521	-0.09238649
82	0xbe454579	-0.19264783
83	0xbf285026	-0.65747297
84	0xbdb6b5c2	-0.08921386
85	0xbe037672	-0.12838152
86	0xbeaae708	-0.33379388
87	0x3ed4dd80	0.4157524
88	0xbdf4fce0	-0.119622946
89	0xbd60b73d	-0.05486225
90	0xbdd47213	-0.103733204
91	0xbeb15655	-0.3463618
92	0xbdd75950	-0.10515082
93	0xbf1b619d	-0.6069582
94	0xbdc0f62e	-0.09421955
95	0xbe3b0cd1	-0.18266608
96	0x3eda6847	0.42657682
97	0xbe8f9b33	-0.28048095
98	0xbdffbc1c	-0.12487051
99	0xbe3438af	-0.17599748
100	0x3ed8c05e	0.42334265
101	0xbe12f9e9	-0.14353146
102	0xbee93295	-0.45546404
103	0xbe026e61	-0.12737419
104	0xbdf0d26d	-0.117588855
105	0xbed429aa	-0.41438037
106	0xbc5c8589	-0.013459572
107	0xbe0f5714	-0.13998061
108	0xbf3a4b19	-0.7277084
109	0xbd0a02ab	-0.03369395
110	0x3e6c7c8d	0.23094387
111	0xbdbf4312	-0.093389645
112	0xbf0f4f86	-0.5598072
113	0xbd690a55	-0.05689462
114	0xbe7d038b	-0.24708383
115	0x3f7fcc9a	0.9992157
116	0xbe1f9b6e	-0.15586635
117	0xbdcc1885	-0.09965614
118	0xbdfb0c30	-0.12258184
119	0xbdc00ef5	-0.09377853
120	0xbf1a004b	-0.601567
121	0x3e781ec0	0.2423048
122	0xbd83faa1	-0.06444288
123	0xbf3483ed	-0.705138
124	0xbede04f1	-0.43363145
125	0xbb64c978	-0.0034910124
126	0xbe270aa7	-0.16312657
127	0xbdb9aaac	-0.09065756

fc.3.weight f4 [64, 128]
0	0x3c773558	0.015088402
1	0xbf080ef1	-0.531478
2	0x3e9e7061	0.30945113
3	0xbd6dedd3	-0.058088135
4	0x3cf175e7	0.029475166
5	0x3a7b8a8d	0.0009595536
6	0xbd1f8d84	-0.03895332
7	0xbd2d3d89	-0.042295013
8	0xbd4f4d46	-0.050610803
9	0x3c8e8aa5	0.017400095
10	0xbd924360	-0.07141757
11	0xbd090fca	-0.033462323
12	0x3dacdd75	0.08440677
13	0xbe3bab07	-0.1832696
14	0xbbe61b6a	-0.007022311
15	0x3de85304	0.11343959
16	0xbefd0f85	-0.49425903
17	0xbcbefa37	-0.023312671
18	0xbe9a13f5	-0.3009335
19	0xbb40c631	-0.0029415006
20	0xbd1cb522	-0.03825868
21	0x3d87095b	0.06593581
22	0xbe0a89a1	-0.13529064
23	0xbda1e638	-0.07905239
24	0x3d12e6a6	0.035864495
25	0x3d56e6aa	0.052466072
26	0x3d534a1a	0.05158434
27	0xbbd7041e	-0.00656177
28	0xbd5aa0f8	-0.053376168
29	0xbe31a2f6	-0.17347321
30	0xbe94ff79	-0.2910116
31	0xbea809ce	-0.3281998
32	0xbd16cc6e	-0.036816053
33	0xbd3060f4	-0.04306121
34	0xbdf3b454	-0.11899629
35	0xbf0023c2	-0.5005456
36	0xbd73baf1	-0.059504453
37	0xba745edf	-0.0009321998
38	0xbf0c153e	-0.54719913
39	0xbe380cd4	-0.17973644
40	0xbeb14e50	-0.3463006
41	0xbdbae9bd	-0.09126613
42	0xbe099b7c	-0.13438219
43	0x3a04d40d	0.00050669984
44	0xbe9ae367	-0.3025162
45	0xbe8c292b	-0.2737516
46	0x3e401258	0.18756998
47	0xbf014c47	-0.50507015
48	0xbeb02449	-0.34402683
49	0x3ba0a918	0.00490297
50	0xbda4acaa	-0.080407456
51	0xbe3d6781	-0.18496515
52	0x3d648ab0	0.055796325
53	0xbd84d7b0	-0.064864516
54	0xbd982ec2	-0.07430793
55	0xbd97f672	-0.074200526
56	0x3d287d7f	0.041135307
57	0xbd8800cf	-0.06640779
58	0xbc859312	-0.01630548
59	0xbe59bafd	-0.21262737
60	0xbc72e8b6	-0.01482599
61	0xbdaf5287	-0.08560663
62	0xbf0852b2	-0.53251183
63	0xbec26b65	-0.3797256
64	0xba5b5185	-0.00083663344
65	0x3cd57007	0.026054395
66	0xba62649e	-0.0008636209
67	0xbe46abe0	-0.19401503
68	0xbd46b5aa	-0.048513092
69	0xbdb89f67	-0.090147786
70	0xbea62377	-0.32448933
71	0xbd98313f	-0.07431268
72	0xbed2f830	-0.41204977
73	0xbeb25e10	-0.3483739
74	0xbdba1e94	-0.090878636
75	0xbe868617	-0.26274177
76	0x3c170438	0.009217314
77	0xbcd4c92b	-0.02597483
78	0x3e292f40	0.1652193
79	0x3d675ad2	0.056483097
80	0xbf72c344	-0.948292
81	0x3cb311d9	0.021859096
82	0x3e8e5bf2	0.27804524
83	0xbe87c1a5	-0.26514927
84	0x3d2a8c4a	0.041637696
85	0x3cf2131a	0.029550124
86	0xbeffae41	-0.49937633
87	0xbecda3be	-0.40163988
88	0xbdb862d9	-0.09003229
89	0xbdaaa274	-0.08331767
90	0x3d59bd5d	0.053159107
91	0xbd863ec2	-0.06554939
92	0x3d0826d4	0.033240154
93	0x3e65ed64	0.22453839
94	0xbdb7848e	-0.0896083
95	0x3db90fa6	0.09036188
96	0x3e273814	0.16329986
97	0xbe435176	-0.19074044
98	0xbdaa4a76	-0.083149835
99	0xbde4dca5	-0.11174897
100	0xbdb25fbd	-0.08709667
101	0x3d0905da	0.033452846
102	0x3d406bb9	0.046977732
103	0xbd8c823b	-0.06860777
104	0xbe56a731	-0.20962216
105	0xbda33f24	-0.079710275
106	0xbd96ab48	-0.07356888
107	0x3d28ccb7	0.041210856
108	0xbe713dae	-0.23558685
109	0xbc653c59	-0.013991439
110	0xbf19277f	-0.5982589
111	0x3d262656	0.040563904
112	0xbea64d38	-0.32480788
113	0xbd70d76b	-0.05879919
114	0xbf07b4aa	-0.53010046
115	0xbe24638d	-0.160536
116	0x3d43c49f	0.047794934
117	0xbdd20aa3	-0.10255935
118	0xbd88cb46	-0.06679396
119	0x3d8b7e58	0.068112075
120	0x3d8fcbfb	0.07021328
121	0xbed24d28	-0.4107449
122	0xbc83a7f1	-0.016071292
123	0xbe74fa16	-0.23923525
124	0x3db8a0d5	0.09015051
125	0x3d0f087d	0.034920204
126	0xbd61f2ca	-0.055163182
127	0x3d5005aa	0.05078665
128	0xbd054af0	-0.03254217
129	0xbd9c478c	-0.07630834
130	0xbeb61fe6	-0.35571212
131	0x3d053747	0.03252342
132	0x3c99a049	0.018753188
133	0xbd87fb9d	-0.06639788
134	0x3d244711	0.040106837
135	0xbd3ec0d4	-0.046570614
136	0x3cd09c42	0.025465135
137	0x3cc1cf36	0.023658376
138	0x3d21a7aa	0.039466538
139	0xbd2c8a68	-0.042124182
140	0xbdabe748	-0.08393723
141	0xbda5efa4	-0.081023484
142	0xbd111089	-0.03541616
143	0xbb96fad4	-0.0046075378
144	0xbe195eaf	-0.14977525
145	0xbb8b36aa	-0.00424846
146	0x3cf47939	0.02984296
147	0x3cecb3d2	0.028894339
148	0xbe3e2c99	-0.185717
149	0x3cf36c2a	0.029714663
150	0xbe2734f4	-0.16328794
151	0xbcdeca33	-0.027196025
152	0x3d0aaf70	0.033858716
153	0xbd01d9a6	-0.031701706
154	0xbd3b582e	-0.04573839
155	0x3db2f6fd	0.087385155
156	0xbd194e18	-0.03742799
157	0xbe0a79a2	-0.13522962
158	0xbda47812	-0.08030714
159	0xbe94945c	-0.2901944
160	0x3d681e82	0.05666972
161	0x3e032c63	0.12809901
162	0xbc18dbed	-0.009329778
163	0xbded6b7e	-0.11592768
164	0x3e288884	0.16458327
165	0xb9f25d45	-0.00046227328
166	0xbdf9fa90	-0.12205994
167	0xbe634cf5	-0.22197326
168	0xbd8a6107	-0.06756788
169	0xbc4c9eb5	-0.012489011
170	0xbccb5af3	-0.024823641
171	0x3c4d91e8	0.012546994
172	0xbef6b0b6	-0.48181695
173	0xbeeed4c9	-0.46646717
174	0xbdc556de	-0.09635709
175	0xbd1b680a	-0.037941016
176	0xbe8e2969	-0.27765968
177	0xbda5b315	-0.08090798
178	0xbd94f188	-0.07272631
179	0xbe71bba4	-0.23606735
180	0x3d44492f	0.047921356
181	0x3d3c6b8f	0.046001013
182	0xbd03793d	-0.032098044
183	0x3d4cfe7f	0.050047394
184	0xbd079101	-0.03309727
185	0xbdc8fe46	-0.09814124
186	0x3c7242b0	0.014786407
187	0xbe6c5337	-0.23078619
188	0x3a888208	0.0010414729
189	0xbea1ada6	-0.31577796
190	0xbece4292	-0.40285164
191	0x3d2c973f	0.042136427
192	0xb859f7b9	-5.196754e-05
193	0x3d97a899	0.07405204
194	0xbebd23df	-0.3694143
195	0xbdebf59f	-0.11521458
196	0x3c41f780	0.011838794
197	0xbbf3f29a	-0.007444692
198	0xbdd85e91	-0.10564912
199	0xbd0d605e	-0.03451573
200	0xbe7587e1	-0.23977615
201	0xbe381e7d	-0.1798038
202	0xbe42b5dc	-0.19014686
203	0xbe40c01e	-0.18823287
204	0xbd93ff6d	-0.07226453
205	0xbf1471c7	-0.5798611
206	0x3dc54e9f	0.096341364
207	0xbd6bebff	-0.05759811
208	0xbd7f38b8	-0.06230995
209	0x3cb3daa5	0.021954844
210	0x3d51001a	0.051025487
211	0xbe260734	-0.16213685
212	0xbcc52d72	-0.024069522
213	0x3dc8d6e4	0.09806612
214	0xbee211eb	-0.44154295
215	0xbd9c64c0	-0.07636404
216	0xbd7b4666	-0.061346434
217	0x3c51f381	0.0128144035
218	0x39bb0c04	0.00035676372
219	0xbd8f2158	-0.06988782
220	0x3b2ece70	0.002667334
221	0xbed8e668	-0.42363286
222	0xbd2108f7	-0.03931519
223	0xbcb8191e	-0.022472914
224	0xbd18e3ad	-0.037326504
225	0x3eaf7285	0.3426706
226	0xbdedd37b	-0.11612602
227	0xbe61ec42	-0.22062781
228	0xbe1c0aef	-0.15238546
229	0xbd53d618	-0.051717848
230	0xbd4deaf1	-0.050272886
231	0xbca44ea7	-0.020057036
232	0xbe125a1c	-0.14292186
233	0x3d09bada	0.03362546
234	0x3d4c7be3	0.049922835
235	0xbd12999e	-0.035791032
236	0xbe80ad4f	-0.25132224
237	0xbc54295b	-0.012949313
238	0x3d1e5537	0.038655486
239	0x3c38d261	0.011280627
240	0xbe8ed579	-0.27897242
241	0x3d8d4dce	0.06899606
242	0xbda3b902	-0.07994272
243	0xbe8ff661	-0.2811766
244	0xbd455538	-0.048176974
245	0x3daa53dc	0.08316776
246	0x3cbbdfce	0.022933867
247	0x3cbcda5e	0.023053344
248	0xbf0d743e	-0.55255497
249	0xbe1ff0dd	-0.15619226
250	0x3da471ee	0.08029543
251	0x3cbad9f5	0.022809008
252	0x3da36eb6	0.07980101
253	0x3d0f1983	0.03493644
254	0xbd0bcf5a	-0.034133293
255	0xbcb04745	-0.021518359

fc.3.bias f4 [64]
0	0xbdf1710f	-0.11789142
1	0xbeb6a2a4	-0.3567096
2	0xbe684a20	-0.22684526
3	0xbe83bf09	-0.25731686
4	0xbd931ad1	-0.07182849
5	0xbe946776	-0.28985184
6	0xbea86806	-0.32891864
7	0xbd5c09ec	-0.0537204
8	0xbf19769c	-0.5994661
9	0xbebd6161	-0.36988357
10	0xbe5e8b4a	-0.21732822
11	0xbea00851	-0.31256345
12	0xbe22bd13	-0.15892439
13	0xbe6da53a	-0.2320756
14	0xbeb52975	-0.35383192
15	0xbe417668	-0.18892825
16	0xbe6af568	-0.22945178
17	0xbdc59045	-0.09646658
18	0x3ebb5358	0.36587024
19	0xbe9fea44	-0.31233418
20	0xbe54c255	-0.20777257
21	0xbe930e3f	-0.28721806
22	0xbef2cbe0	-0.4742117
23	0xbe7dd9ad	-0.24790068
24	0xbe38aa98	-0.18033826
25	0xbe851da0	-0.25999165
26	0xbe58298d	-0.211096
27	0xbd487ce3	-0.048947226
28	0xbe506f0e	-0.20354864
29	0xbe5c9854	-0.21542484
30	0xbe85f7ee	-0.26165718
31	0xbeb3407c	-0.35010135
32	0xbcf9c7e8	-0.03049083
33	0xbe8a8869	-0.27057198
34	0x3e6c06e3	0.23049502
35	0xbe71b1af	-0.23602937
36	0xbe929c57	-0.28634903
37	0xbe9daaa8	-0.30794263
38	0xbe98c5bc	-0.2983836
39	0xbe8e435d	-0.2778577
40	0xbeb629ff	-0.35578915
41	0xbec81a8f	-0.39082763
42	0xbf0c4060	-0.5478573
43	0xbe8d0211	-0.2754064
44	0xbe897326	-0.26845664
45	0xbe55c335	-0.20875247
46	0xbef5d26f	-0.4801211
47	0xbeaface8	-0.34311604
48	0xbe6a04a2	-0.2285333
49	0xbe97ced2	-0.2964998
50	0xbe045f59	-0.12926997
51	0xbe2e0c98	-0.16996992
52	0xbe83a12d	-0.25708905
53	0xbe9148fa	-0.2837599
54	0xbe999d4f	-0.3000283
55	0xbd951f44	-0.07281354
56	0xbf43df11	-0.7651225
57	0xbdf1ef0f	-0.11813175
58	0xbe50f335	-0.20405276
59	0xbef1f47c	-0.4725684
60	0xbe458c77	-0.19291864
61	0xbe383611	-0.17989375
62	0xbe8a8b41	-0.27059367
63	0xbe9c3bca	-0.30514365

fc.5.weight f4 [4, 64]
0	0xbb1b09cc	-0.0023656962
1	0xbc57819b	-0.013153459
2	0xbb2d38d2	-0.0026431573
3	0xbb0b9f2c	-0.002130459
4	0x3d5fb2d1	0.054613892
5	0xbb105161	-0.0022021162
6	0x3d688e67	0.05677643
7	0x3da24501	0.07923318
8	0xbc1142fd	-0.008866069
9	0x3af9881c	0.0019037756
10	0x3d29bbde	0.04143893
11	0x3cd90ec4	0.026496299
12	0xbdb68c0c	-0.089134306
13	0x3e388a8d	0.18021603
14	0x3d06e95e	0.0329374
15	0x3cac65d2	0.021044645
16	0x3d810811	0.06300367
17	0xbe70d545	-0.23518856
18	0xbdb0f680	-0.08640766
19	0x3d9da5ab	0.07697614
20	0xbbb556da	-0.005534035
21	0xbd9e8b4b	-0.07741412
22	0x3d88ec95	0.066857494
23	0xbd088379	-0.033328507
24	0xbe13f5e1	-0.14449264
25	0x3ab2fa0e	0.0013654844
26	0x3d949015	0.07254044
27	0x3d269fa2	0.04067958
28	0x3ce24f8d	0.027625823
29	0x3deae415	0.114692844
30	0xbbddf106	-0.006773117
31	0xbc5d64f9	-0.013512843
32	0xbbb2b4ee	-0.0054536974
33	0x3cdb1746	0.026744496
34	0x3e22f747	0.15914641
35	0xbc884998	-0.016636655
36	0x3c736ccc	0.014857482
37	0xbd329c47	-0.04360607
38	0xbb4a888f	-0.003090415
39	0x3ca04489	0.01956393
40	0xbbb88545	-0.0056311213
41	0x3d4d83a7	0.05017438
42	0x39b72a07	0.00034935793
43	0x3d2bf5ef	0.041982587
44	0xbc92b5d5	-0.01790897
45	0x3bc19458	0.0059075765
46	0x3deb9168	0.115023434
47	0x3d1b5a15	0.037927706
48	0xbcc2b0ba	-0.02376591
49	0x39b2cd99	0.00034103988
50	0x3dbed351	0.09317649
51	0xbc31172c	-0.010808747
52	0xbd1da155	-0.038483936
53	0x3d7163d3	0.05893309
54	0x3ce4d0a5	0.02793152
55	0xbc36b699	-0.011151933
56	0x3d9cfbb2	0.076651946
57	0xbe1e0974	-0.15433294
58	0x3e656fec	0.22405976
59	0xbd62d4cc	-0.05537872
60	0x3c72af7c	0.014812347
61	0x3c9130d1	0.017723473
62	0xbd642bc9	-0.05570582
63	0xbc20f62b	-0.009824316
64	0x3d577e0c	0.052610442
65	0x3cb93f48	0.022613183
66	0x3d163f28	0.036681324
67	0xbd2a8cc0	-0.041638136
68	0xbc1448f3	-0.009050596
69	0x3babb411	0.0052399714
70	0xbbc41fc9	-0.0059852344
71	0x3d9a5f0b	0.07537659
72	0x393e9334	0.0001817465
73	0xbb91acf2	-0.0044456655
74	0xbdffc680	-0.12489033
75	0x3b34bf6d	0.002757992
76	0xbccb2c96	-0.024801534
77	0xbc2aa6e7	-0.010415769
78	0xbd8d688c	-0.06904706
79	0xbd6f18a0	-0.058373094
80	0x3cef3b0f	0.029202966
81	0x3c117a6a	0.008879283
82	0xbdae8b81	-0.08522702
83	0xbc0589c0	-0.008150518
84	0xbccd5360	-0.02506417
85	0xbd8da2cc	-0.06915817
86	0x3c83f764	0.016109176
87	0xbc1d9005	-0.009616856
88	0xbe1712e8	-0.14753306
89	0x3d5b373e	0.05351948
90	0x3d4e3805	0.050346393
91	0xbcf1bd60	-0.029509246
92	0xbd2f1b13	-0.04275043
93	0x3dac8e48	0.084255755
94	0x3c40a630	0.011758372
95	0x3c06b3bf	0.008221566
96	0x3da976b2	0.082745925
97	0xbcb9572c	-0.022624575
98	0x3dcd77b1	0.10032595
99	0xbc2ea93e	-0.010660468
100	0x3c84b095	0.016197482
101	0x3d847811	0.06468213
102	0xbd42ec29	-0.0475885
103	0x3ca0ab34	0.019612886
104	0xbd254277	-0.04034659
105	0x3c6569f7	0.014002315
106	0x3dc04d86	0.093897864
107	0xbd6908b9	-0.056893084
108	0xbd8b5185	-0.06802658
109	0xbdea69bc	-0.114459485
110	0x3e04a877	0.12954889
111	0x3d523a0e	0.051324897
112	0xbc5ddb08	-0.013540991
113	0xbcc76cf7	-0.02434395
114	0xba90beb3	-0.0011043161
115	0xbd5faa25	-0.05460562
116	0x3db183bc	0.086677045
117	0xbce45a0d	-0.02787497
118	0xbca9de89	-0.020735996
119	0x3d13ccbc	0.03608392
120	0xb9826565	-0.00024871077
121	0xbe059a43	-0.13047127
122	0x3b90810b	0.0044099144
123	0xbd5ffaac	-0.05468242
124	0x3d9c086f	0.07618796
125	0xbcb6b0de	-0.022301134
126	0xbc93054b	-0.01794686
127	0xbce5badf	-0.028043209
128	0x3c501cc3	0.01270217
129	0xbd61e1d6	-0.055147015
130	0xbcf8154d	-0.030283595
131	0x3d067320	0.032824636
132	0x3d9d95fa	0.076946214
133	0x3bb6c51d	0.005577697
134	0x3d53f2c7	0.051745202
135	0xbdd2d37f	-0.10294246
136	0x3cad118d	0.021126533
137	0x3b0cc67c	0.002148061
138	0xbcb807b0	-0.022464603
139	0x3d2fa5cb	0.042882722
140	0xbd5c34ff	-0.05376148
141	0x3c4e6c99	0.012599134
142	0xbbf33907	-0.0074225697
143	0xbc147132	-0.009060191
144	0xbdbdecde	-0.092736945
145	0xbd5de60e	-0.054174475
146	0xbdac0673	-0.083996676
147	0xbc26c642	-0.010179104
148	0x3e0456a5	0.12923677
149	0x3cdaeb50	0.026723534
150	0x3d72e0a9	0.059296284
151	0xbc980c8d	-0.018560672
152	0x3cb85f63	0.022506421
153	0x3cf61115	0.030037442
154	0x3de6e0da	0.11273356
155	0x3c54c24e	0.012985779
156	0xbc1c7975	-0.009550442
157	0xbc8f5397	-0.017495913
158	0x3d173708	0.036917716
159	0x3ce9992c	0.02851542
160	0xbec43db7	-0.38328335
161	0xbce07186	-0.027397882
162	0x3df80920	0.121111155
163	0x3a423d29	0.0007409626
164	0xbc6863cb	-0.014183949
165	0xbcd8a197	-0.02644424
166	0x3ceeaf10	0.02913621
167	0xbca71735	-0.020396808
168	0xbc8b736f	-0.017022816
169	0x3c42349a	0.0118533615
170	0x3d89fd62	0.06737782
171	0xbdd67e21	-0.10473276
172	0x3d2a79c5	0.041620035
173	0x3ca3fe98	0.02001886
174	0x3c8536e4	0.016261525
175	0x3c1e7c05	0.009673123
176	0xbc835c6a	-0.016035277
177	0xbc996963	-0.01872701
178	0x3da373f2	0.07981099
179	0xbd86bffd	-0.065795876
180	0x3d9b8542	0.07593776
181	0x3d5bd5a9	0.05367056
182	0xbd8f98de	-0.07011579
183	0x3e0f481f	0.13992356
184	0x3de8273f	0.113356106
185	0xbe3bed3f	-0.18352221
186	0xbd881342	-0.06644298
187	0x3d892161	0.0669582
188	0x3d9ced7d	0.07662485
189	0x3cabc4a8	0.020967796
190	0xbcc021fe	-0.023453709
191	0x3cd524fb	0.02601861
192	0x3dcff9cf	0.10155069
193	0x3cf84b56	0.03030936
194	0x3cab191f	0.020886002
195	0xbc5bece5	-0.013423179
196	0xbd0cb5cd	-0.034353066
197	0xbc7b8730	-0.015352055
198	0x3d4630ca	0.048386373
199	0x3df3b555	0.11899821
200	0x3d07de30	0.03317088
201	0x3c88776b	0.016658505
202	0xbd0adf47	-0.03390434
203	0xbd851665	-0.06498412
204	0xbc8e3160	-0.017357528
205	0xbb1881a5	-0.0023270634
206	0x3d0c252a	0.03421513
207	0x3ca6355b	0.020289114
208	0xb9eedbb9	-0.00045558604
209	0xbd7bf71a	-0.06151495
210	0xbdaa1a9e	-0.08305858
211	0x396154e5	0.00021489298
212	0x3d023090	0.031784594
213	0x3cbb768b	0.022883674
214	0xba219a74	-0.0006164678
215	0xbc9d8ba4	-0.019231625
216	0xbce74d14	-0.028234996
217	0xbcf96d62	-0.030447666
218	0x3e24e47f	0.1610279
219	0x3bcecacc	0.0063107964
220	0x3bdfe82f	0.0068330984
221	0xbd886f1e	-0.06661819
222	0x3c7d7168	0.015468933
223	0x3d0916b3	0.033468913
224	0x3c1b7590	0.009488478
225	0xbbe74854	-0.0070581827
226	0x3d541ce4	0.051785365
227	0x3c07dd93	0.0082925735
228	0x3cbed536	0.023295026
229	0x3d9cd073	0.07656946
230	0xbe2a758e	-0.16646406
231	0x3d4bdd14	0.049771383
232	0x3c58cd60	0.013232559
233	0x3d181694	0.037130907
234	0x3d2f04c1	0.042729143
235	0xbd1c6cc9	-0.038189683
236	0xbd6c36c5	-0.05766942
237	0xbdad9f13	-0.084776066
238	0x3d6aa553	0.05728657
239	0x3c658c43	0.014010492
240	0xbd8ddadd	-0.069265105
241	0xb9b7541f	-0.00034967155
242	0x3c87c782	0.016574625
243	0xbd97abba	-0.07405801
244	0x3e264e1c	0.16240734
245	0x3c313aaf	0.010817214
246	0x3cb8eb11	0.022573026
247	0x3e23e21f	0.16004227
248	0x3ccc40c5	0.024933228
249	0xbdcdce88	-0.10049158
250	0x3d62eb1f	0.05540001
251	0x3d76dac3	0.06026722
252	0x3c444d1d	0.011981276
253	0x3c86c389	0.01645066
254	0xbd814f7b	-0.06313988
255	0x3d3570d9	0.044297073

fc.5.bias f4 [4]
0	0x3dc89c86	0.097954795
1	0x3dc781b8	0.09741539
2	0x3dc67bc4	0.09691575
3	0x3dc1ace5	0.09456805
