best_model.pth (torch, 140089 bytes, 6 tensors)

fc.1.weight f4 [128, 200]
00000000: 9cd8 e8bc d098 bc3c 1361 8d3d 709a 6c3c
00000010: b457 45bd 5034 90bc e055 49bb 2475 023d
00000020: 794e 6cbd 4ee4 5abd 4e56 74bd bc0e ffbc
00000030: 9968 71bd 78eb 153d 7abc 70bd d40b 2a3d
00000040: 0af2 d3bc c29a 85bd fe4e 4cbd 0260 65bd
00000050: 8c00 7dbc be6e ccbc beef 2d3d 88bf 6bbc
00000060: f09f a13c ef75 813d 8024 7c3a 8020 17bb
00000070: 20ec 813c ce84 733d 766d 7d3d 148a d1bc
00000080: ceed 48bd 5644 4b3d d195 3abd de21 82bd
00000090: 75d0 8d3d 00c0 10b8 249a bfbc 312e 1abd
000000a0: 86f2 6b3d fa1d a5bc 6b92 54bd 0708 81bd
000000b0: b01d dcbb 3817 6b3c 1f9f 48bd de7d b9bc
000000c0: 28b4 2b3c 357d 8dbd a29e 143d 6433 b73c
000000d0: 04ea a03c fad1 1e3d f6a5 6cbd 205b 90bd
000000e0: 28b2 6ebd 5258 8ebd 64ea bd3c 36b5 87bd
000000f0: 8258 7a3d ecb5 68bc 44bd 8f3c e31c 16bd
00000100: 005d ff3b 20e1 d03b 9cc1 83bd a8e0 263c
00000110: e0fd 0f3d dde1 1dbd 0af1 4a3d 5e91 f9bc
00000120: 183c 373c 3608 4dbd 9626 abbc ea63 273d
00000130: a0cb 363b 500f 28bd 9c25 a53c 36d2 8bbd
00000140: f420 e5bc 45f6 8f3d d0cd 6fbd 5aa7 82bc
00000150: 64a0 9e3c 10a7 53bd 032f 9cbd 6063 78bd
00000160: 214e 8a3d a873 c13c 56d3 37bd 8161 8e3d
00000170: f8dd 55bc 0461 b53c 4e35 bdbc 9f04 78bd
00000180: f11c 42bd 20f9 bc3b f807 ce3c 13a8 1fbd
00000190: ce44 103d 6885 35bd 8b9e 37bd 5e9f 75bd
000001a0: ed09 6d3d f6b8 a8bd dcdf 9bbc e086 0c3c
000001b0: 4070 de3a 3c6f 393d a8d6 8bbd 865e 753d
000001c0: d47e 95bc 30a2 82bb baee f03c fa5f a8bc
000001d0: dc02 e73c 926b 163d 7ad0 07bd 603b 36bb
000001e0: c69e 4cbd 70c6 383d f054 a93c e929 8abd
000001f0: b9d0 e73c 4edc 193d 020a 623d edf2 24bd
00000200: b03f e0bc b05b 7c3c 9a68 363d 4c30 d2bc
00000210: e560 8b3b e247 68bd 517b 0f3c 59ea 273a
00000220: 5eb8 7cbb 36ce 9bbc 7fa1 deba acd4 4dbd
00000230: 94f5 2f3c 6b38 88bd 702d 72bd c1eb 38bc
00000240: eb76 f9bc 9ebe 49bb 1047 a5bd 5d86 abbd
00000250: ab68 41bc 1375 03bd d7f4 84bd 6aeb edbc
00000260: 70fa e7bc b7a3 a3bd 8153 1cbd cf9e 9ebd
00000270: f6fe f8bc 941b be3a 3e23 2dbd c4f1 87bc
00000280: 227e 2f3d fd58 843b aa7b 63bd 9c34 babd
00000290: 76fe e8bc f40e 1ebc 7823 4bbc 3e6e 1ebd
000002a0: 0b78 7ebd 2580 c0bc 2677 9fbd 4c4b 11bd
000002b0: 3cba bebd c20e 7fbd 7426 433d b207 24bd
000002c0: 7662 903c 1e82 b13c f238 c8bc 9101 8dbd
000002d0: 8fdd 93bb 99e6 edbc 9eeb 1cbd 6dff 5cbd
000002e0: aaff 723b be47 75bc 70d8 84bd c576 06bd
000002f0: 24eb 58bd e358 fbbb 7580 86bd 152b 973c
00000300: 925f 9dbd 3055 bcbc e4c5 25bd 9937 2fbd
00000310: 00c4 ad3a 2a3e 90bc d78c 64bd d9c4 81bd
00000320: cf8b 883d c6f0 4abd 78e6 c9bc d40f 303d
00000330: d80c c1bc 1c8d 6abc 8073 9d3b cdc1 8ebd
00000340: f8bf 513c 3a40 06bd cc14 ccbc f04a ea3b
00000350: ffd4 8dbd 0538 2ebd bc27 e2bc 10d9 a43b
00000360: 5c91 b6bc 9a43 acbc 1833 d23c ae13 83bd
00000370: c4a3 0e3d 1e24 30bd 57f3 17bd c962 e33c
00000380: 038b 15bd a059 c33b c746 853d ffcd a93e
00000390: 2d30 7f3e f519 51bd 27a9 7c3d 923d f5bc
000003a0: c1b6 72bd 7fa6 4cbd 87ea 08bd 4bb5 783b
000003b0: f290 883e d5ed 423e e303 9dbd 8085 573c
000003c0: 6787 6e3d 579e b33c 6ec0 22bd f518 46be
000003d0: eba9 aebd 5c96 61bd bb44 d3bd 0b88 d9bd
000003e0: 7ef1 2f3d 6469 33bd c621 493d 391b b23b
000003f0: 4fe6 c5bb 7b68 03be d393 97bd 6d00 9cbd
-0.0284236 0.023022085 0.06903281 0.014441118 -0.048179343 -0.01760307 -0.0030721352 0.031849995
-0.057692025 -0.053440385 -0.05965262 -0.031134956 -0.058937643 0.036601514 -0.058773495 0.041515186
-0.02587225 -0.06523658 -0.04988002 -0.055999763 -0.015442025 -0.02495515 0.042464964 -0.014388926
0.019729584 0.06321322 0.0009618476 -0.0023060143 0.015859663 0.059452824 0.06187197 -0.025578536
-0.049054913 0.049625717 -0.045553032 -0.06354116 0.06924526 -3.451109e-05 -0.02338893 -0.037641708
0.057604335 -0.020155896 -0.051897448 -0.06300359 -0.006717406 0.0143487975 -0.048979875 -0.022643026
0.010479964 -0.06908647 0.036284097 0.022363372 0.019642837 0.038774468 -0.05777546 -0.07048631
-0.05827537 -0.069504395 0.023183055 -0.0662636 0.061119564 -0.01420353 0.017546304 -0.036648642
0.007793069 0.0063744932 -0.064334124 0.010185398 0.035154223 -0.038545478 0.04954628 -0.030464824
0.011183761 -0.05005666 -0.020892423 0.04086677 0.0027892366 -0.04103023 0.020159535 -0.06827204
-0.027969815 0.07029394 -0.058545887 -0.01594894 0.01936359 -0.051672995 -0.07626154 -0.060641646
0.06753183 0.02361472 -0.04487928 0.06952191 -0.01305341 0.022140987 -0.023096707 -0.060551282
-0.047390882 0.0057670027 0.025150284 -0.038978647 0.035221867 -0.04431668 -0.044828933 -0.059966438
0.057870794 -0.082384035 -0.019027643 0.008577079 0.0016970709 0.045272097 -0.06828052 0.059904598
-0.018248953 -0.0039866194 0.029410709 -0.020553578 0.028199606 0.03672368 -0.033157803 -0.0027806386
-0.049956106 0.04511112 0.020670384 -0.06746275 0.028297769 0.037563615 0.055185325 -0.040270735
-0.027374119 0.015402719 0.04453335 -0.025657795 0.004253494 -0.056709178 0.008757428 0.0006405465
-0.003856204 -0.019019227 -0.0016985385 -0.050251648 0.010739703 -0.06651386 -0.059125364 -0.011286677
-0.030452212 -0.0030783783 -0.08070195 -0.08375237 -0.01180474 -0.032094073 -0.06492012 -0.029042918
-0.02831766 -0.079902105 -0.038165573 -0.07745134 -0.030395012 0.0014504069 -0.042269938 -0.016594775
0.0428449 0.0040389285 -0.055537857 -0.09092066 -0.028441649 -0.00964712 -0.012398593 -0.038679354
-0.0621262 -0.023498604 -0.07786398 -0.0354722 -0.09312865 -0.062269934 0.047644094 -0.0400464
0.017625075 0.02166849 -0.024441216 -0.068850644 -0.004512496 -0.029040622 -0.03831064 -0.05395453
0.0037078657 -0.014970718 -0.06486595 -0.03282811 -0.052958623 -0.007670508 -0.0656747 0.01845316
-0.07684244 -0.02298984 -0.040471926 -0.04277763 0.0013257265 -0.017607767 -0.055798378 -0.06336374
0.066672914 -0.049546026 -0.024646029 0.042983845 -0.023565695 -0.01431587 0.0048050284 -0.06970558
0.012802117 -0.032776095 -0.02491226 0.0071500465 -0.069253914 -0.042533893 -0.027606837 0.0050307587
-0.02228611 -0.021028329 0.025659129 -0.06400238 0.034824148 -0.043003194 -0.0370973 0.027757065
-0.036509525 0.005961612 0.0650764 0.33164975 0.24920721 -0.051050145 0.061684754 -0.029936586
-0.05925632 -0.04996347 -0.033426788 0.0037949856 0.26673084 0.19036038 -0.07666757 0.0131543875
0.0582346 0.021926088 -0.039734297 -0.19345458 -0.08528503 -0.055075034 -0.10315844 -0.10621651
0.042954914 -0.04380168 0.049104474 0.005435374 -0.006039418 -0.12832825 -0.07401242 -0.07617269

fc.1.bias f4 [128]
00000000: 1a19 e9bd 1118 0d3f 8ebc a5be 157e 7fbc
00000010: 376e 85bd a5c8 f6bd ab96 f4bd 3529 0cbf
00000020: ba39 6ebd 7d23 a5bd 065e 09be aa2e cbbd
00000030: 5de3 bcbd 150e d6bd 6d4e e2bd 265e 70bd
00000040: e690 723f e74d 02be 864c eabd 4f07 9abd
00000050: b31d 0ebe d03a 00be 5287 d1be f178 20be
00000060: f05b c9be cd4a 92be b5cc 4cbd c9ff b0bd
00000070: ae1a 9f3e e62b 883e aac7 33bf 35be 52bf
00000080: 651a e0bc f563 77bd 1dc3 debe 0804 58bc
00000090: 22a5 2ebd dd6b 49be 21c4 1dbe 0968 02bf
000000a0: 9b4e 28be 57f6 d7bd 6d72 f5bd 41ee 96bd
000000b0: 718d eebe 86d9 11bf 2a1b 1abf 3a02 88be
000000c0: df11 993e 56a5 d2bd 3d13 62bd 1d07 33be
000000d0: 2ecd dcbd 3976 07be e37b b4bd d5ed 2abe
000000e0: 5a52 18bf fb68 41be 3376 d0be 08d9 823e
000000f0: 3ac2 03be 8797 86be d3a8 bcbe 70e0 2fbf
00000100: 1ebe b0be 908d 04be db4f cabe dc11 ecbe
00000110: ee7d 44be 926b 6abd d824 1dbf 1482 bbbd
00000120: ca4c b73e 528f e9be c8b3 86be 7d4a 88be
00000130: 0130 d6bd 7b0d 13bf 482f 06bc 4e38 adbe
00000140: 5477 02bf 2135 bdbd 7945 45be 93ba ebbe
00000150: c2b5 b6bd 7276 03be c33e 6c3c 61fe eb3e
00000160: e0fc f4bd 3db7 60bd 1372 d4bd 8ac8 abbe
00000170: 5059 d7bd c60d 18bf 2ef6 c0bd 6d56 14be
00000180: 0ebd 9d3e 339b 8fbe 1cbc ffbd 587f e6bd
00000190: 032e 293c e9f9 12be 8c34 08bf 616e 02be
000001a0: df94 4a3d 976b 8dbe 8985 5cbc 1457 0fbe
000001b0: 194b 3abf ab02 0abd ffa2 5a3e 1243 bfbd
000001c0: 9f12 a1be 550a 69bd ea24 07bd 41b3 2a3f
000001d0: 6e9b 1fbe 8518 ccbd 300c fbbd f50e c0bd
000001e0: e66c 6cbe a083 823d a1fa 83bd 2d49 01bf
000001f0: 9b69 8abe 78c9 64bb a70a 27be ea2a b0bd
-0.11381741 0.5511485 -0.32370418 -0.015594025 -0.065151624 -0.12049989 -0.119428 -0.54750377
-0.05816052 -0.080634095 -0.13414773 -0.0992101 -0.092230536 -0.10451905 -0.11050115 -0.058683537
0.9475235 -0.1272503 -0.11440377 -0.07520925 -0.13878517 -0.12522435 -0.40923554 -0.15671135
-0.39327955 -0.28572693 -0.04999991 -0.08642537 0.31075042 0.26595992 -0.7022654 -0.8232148
-0.027356336 -0.06039806 -0.43508235 -0.013184555 -0.04263795 -0.19670053 -0.15406848 -0.50939995
-0.16436236 -0.105450325 -0.119847156 -0.07369662 -0.46592286 -0.5697254 -0.601977 -0.265642
0.29896447 -0.102854416 -0.05519413 -0.17483182 -0.107813224 -0.13228692 -0.08812692 -0.16692288
-0.5950066 -0.18887703 -0.4071518 0.25556207 -0.1286706 -0.2628748 -0.36847553 -0.6870184
-0.34520048 -0.12944627 -0.3951405 -0.46107376 -0.19188663 -0.057231493 -0.61384344 -0.0915567
0.35800773 -0.45617157 -0.26309037 -0.2661933 -0.10458375 -0.57442445 -0.008189984 -0.3383202
-0.5096333 -0.09238649 -0.19264783 -0.46040782 -0.08921386 -0.12838152 0.01441926 0.46092513
-0.119622946 -0.05486225 -0.103733204 -0.33551437 -0.10515082 -0.59396017 -0.09421955 -0.14486094
0.308083 -0.28048095 -0.12487051 -0.11254758 0.010325911 -0.14353146 -0.5320518 -0.12737419
0.04945838 -0.27621147 -0.013459572 -0.13998061 -0.7277084 -0.03369395 0.2135124 -0.093389645
-0.3145952 -0.05689462 -0.03299419 0.6667977 -0.15586635 -0.09965614 -0.12258184 -0.09377853
-0.23088416 0.06372762 -0.06444288 -0.5050228 -0.27033696 -0.0034910124 -0.16312657 -0.08601935

fc.3.weight f4 [64, 128]
00000000: 5835 773c 7fe7 8cbe 6170 9e3e d3ed 6dbd
00000010: e775 f13c 8d8a 7b3a 848d 1fbd 893d 2dbd
00000020: 464d 4fbd a58a 8e3c 6043 92bd ca0f 09bd
00000030: 75dd ac3d 07ab 3bbe 6a1b e6bb 0453 e83d
00000040: 216e 22bf 37fa bebc 919a b6be 31c6 40bb
00000050: 22b5 1cbd 5b09 873d a189 0abe 38e6 a1bd
00000060: a6e6 123d aae6 563d 1a4a 533d 1e04 d7bb
00000070: 05f5 e6bc f6a2 31be 79ff 94be ce09 a8be
00000080: 6ecc 16bd f460 30bd 1a9a c2bd c223 00bf
00000090: f1ba 73bd df5e 74ba 3e15 0cbf d40c 38be
000000a0: 504e b1be bde9 babd 7c9b 09be 0dd4 043a
000000b0: 7f71 aebe 2b29 8cbe 5812 403e 474c 01bf
000000c0: 936c c1be 18a9 a03b aaac a4bd 8167 3dbe
000000d0: b08a 643d b0d7 84bd c22e 98bd 72f6 97bd
000000e0: 7f7d 283d cf00 88bd 1293 85bc fdba 59be
000000f0: b6e8 72bc 8752 afbd b252 08bf 656b c2be
00000100: 8551 5bba 0770 d53c 9e64 62ba e0ab 46be
00000110: aab5 46bd 679f b8bd 7723 a6be 3f31 98bd
00000120: 3673 0fbf cfa4 8dbe 941e babd 1786 86be
00000130: 3804 173c 2bc9 d4bc 402f 293e d25a 673d
00000140: 44c3 72bf d911 b33c f25b 8e3e a5c1 87be
00000150: 4a8c 2a3d 1a13 f23c 9a4c c9be bea3 cdbe
00000160: d962 b8bd 74a2 aabd 5dbd 593d c23e 86bd
00000170: d426 083d 64ed 653e 8e84 b7bd a60f b93d
00000180: 1438 273e 7651 43be 764a aabd a5dc e4bd
00000190: 6fd2 a4be da05 093d b96b 403d 3b82 8cbd
000001a0: 31a7 56be 243f a3bd 48ab 96bd b7cc 283d
000001b0: ae3d 71be 593c 65bc d9f6 e0be 5626 263d
000001c0: 384d a6be 6bd7 70bd aab4 07bf b78a 4ebe
000001d0: 9fc4 433d a30a d2bd 46cb 88bd 587e 8b3d
000001e0: fbcb 8f3d 3c83 bbbe f1a7 83bc 3f59 60be
000001f0: 9f8b 343e 7d08 0f3d caf2 61bd aa05 503d
00000200: f04a 05bd 6fc9 36bd e61f b6be 4737 053d
00000210: 49a0 993c 9dfb 87bd 1147 243d d4c0 3ebd
00000220: 429c d03c 36cf c13c aaa7 213d 688a 2cbd
00000230: 48e7 abbd a4ef a5bd 8910 11bd d4fa 96bb
00000240: af5e 19be aa36 8bbb 3979 f43c d2b3 ec3c
00000250: 992c 3ebe 2a6c f33c f434 27be 33ca debc
00000260: 70af 0a3d a6d9 01bd 2e58 3bbd fdf6 b23d
00000270: 184e 19bd a279 0abe 1278 a4bd 5c94 94be
00000280: 821e 683d 632c 033e eddb 18bc 7e6b edbd
00000290: 8488 283e 455d f2b9 90fa f9bd f54c 63be
000002a0: 0761 8abd b59e 4cbc f35a cbbc e891 4d3c
000002b0: b6b0 f6be c9d4 eebe de56 c5bd 0a68 1bbd
000002c0: 6929 8ebe 15b3 a5bd 88f1 94bd a4bb 71be
000002d0: 2f49 443d 8f6b 3c3d 3d79 03bd 7ffe 4c3d
000002e0: 0191 07bd 46fe c8bd b042 723c 3753 6cbe
000002f0: 0882 883a a6ad a1be 9242 cebe 3f97 2c3d
00000300: b9f7 59b8 99a8 973d df23 bdbe 9ff5 ebbd
00000310: 80f7 413c 9af2 f3bb 915e d8bd 5e60 0dbd
00000320: e187 75be 7d1e 38be dcb5 42be 1ec0 40be
00000330: 6dff 93bd c771 14bf 9f4e c53d ffeb 6bbd
00000340: b838 7fbd a5da b33c 1a00 513d 3407 26be
00000350: 722d c5bc e4d6 c83d 5d05 dfbe c064 9cbd
00000360: 6646 7bbd 81f3 513c 040c bb39 5821 8fbd
00000370: 70ce 2e3b 68e6 d8be f708 21bd 1e19 b8bc
00000380: ade3 18bd 8572 af3e 7bd3 edbd 42ec 61be
00000390: 4041 ddbd 18d6 53bd f1ea 4dbd a74e a4bc
000003a0: 1c5a 12be daba 093d e37b 4c3d 9e99 12bd
000003b0: 4fad 80be 5b29 54bc 3755 1e3d 61d2 383c
000003c0: 79d5 8ebe ce4d 8d3d 02b9 a3bd 10ce 61be
000003d0: 3855 45bd dc53 aa3d cedf bb3c 5eda bc3c
000003e0: 3e74 0dbf ddf0 1fbe ee71 a43d f5d9 ba3c
000003f0: 4a09 203e 8319 0f3d 5acf 0bbd 4547 b0bc
0.015088402 -0.27520368 0.30945113 -0.058088135 0.029475166 0.0009595536 -0.03895332 -0.042295013
-0.050610803 0.017400095 -0.07141757 -0.033462323 0.08440677 -0.1832696 -0.007022311 0.11343959
-0.63449293 -0.023312671 -0.356648 -0.0029415006 -0.03825868 0.06593581 -0.13529064 -0.07905239
0.035864495 0.052466072 0.05158434 -0.00656177 -0.028193006 -0.17347321 -0.2910116 -0.3281998
-0.036816053 -0.04306121 -0.09502049 -0.5005456 -0.059504453 -0.0009321998 -0.54719913 -0.17973644
-0.3463006 -0.09126613 -0.13438219 0.00050669984 -0.34070966 -0.2737516 0.18756998 -0.50507015
-0.37778148 0.00490297 -0.080407456 -0.18496515 0.055796325 -0.064864516 -0.07430793 -0.074200526
0.041135307 -0.06640779 -0.01630548 -0.21262737 -0.01482599 -0.08560663 -0.53251183 -0.3797256
-0.00083663344 0.026054395 -0.0008636209 -0.19401503 -0.048513092 -0.090147786 -0.32448933 -0.07431268
-0.5603517 -0.276648 -0.090878636 -0.26274177 0.009217314 -0.02597483 0.1652193 0.056483097
-0.948292 0.021859096 0.27804524 -0.26514927 0.041637696 0.029550124 -0.39316255 -0.40163988
-0.09003229 -0.08331767 0.053159107 -0.06554939 0.033240154 0.22453839 -0.0896083 0.09036188
0.16329986 -0.19074044 -0.083149835 -0.11174897 -0.32191798 0.033452846 0.046977732 -0.06860777
-0.20962216 -0.079710275 -0.07356888 0.041210856 -0.23558685 -0.013991439 -0.4393833 0.040563904
-0.32480788 -0.05879919 -0.53010046 -0.20170103 0.047794934 -0.10255935 -0.06679396 0.068112075
0.07021328 -0.3662356 -0.016071292 -0.21909045 0.17631386 0.034920204 -0.055163182 0.05078665
-0.03254217 -0.044625696 -0.35571212 0.03252342 0.018753188 -0.06639788 0.040106837 -0.046570614
0.025465135 0.023658376 0.039466538 -0.042124182 -0.08393723 -0.081023484 -0.03541616 -0.0046075378
-0.14977525 -0.00424846 0.02984296 0.028894339 -0.185717 0.029714663 -0.16328794 -0.027196025
0.033858716 -0.031701706 -0.04573839 0.087385155 -0.03742799 -0.13522962 -0.08030714 -0.2901944
0.05666972 0.12809901 -0.009329778 -0.11592768 0.16458327 -0.00046227328 -0.12205994 -0.22197326
-0.06756788 -0.012489011 -0.024823641 0.012546994 -0.48181695 -0.46646717 -0.09635709 -0.037941016
-0.27765968 -0.08090798 -0.07272631 -0.23606735 0.047921356 0.046001013 -0.032098044 0.050047394
-0.03309727 -0.09814124 0.014786407 -0.23078619 0.0010414729 -0.31577796 -0.40285164 0.042136427
-5.196754e-05 0.07405204 -0.3694143 -0.11521458 0.011838794 -0.007444692 -0.10564912 -0.03451573
-0.23977615 -0.1798038 -0.19014686 -0.18823287 -0.07226453 -0.5798611 0.096341364 -0.05759811
-0.06230995 0.021954844 0.051025487 -0.16213685 -0.024069522 0.09806612 -0.4355878 -0.07636404
-0.061346434 0.0128144035 0.00035676372 -0.06988782 0.002667334 -0.42363286 -0.03931519 -0.022472914
-0.037326504 0.3426706 -0.11612602 -0.22062781 -0.10803461 -0.051717848 -0.050272886 -0.020057036
-0.14292186 0.03362546 0.049922835 -0.035791032 -0.25132224 -0.012949313 0.038655486 0.011280627
-0.27897242 0.06899606 -0.07994272 -0.22051263 -0.048176974 0.08316776 0.022933867 0.023053344
-0.55255497 -0.15619226 0.08029543 0.022809008 0.15628543 0.03493644 -0.034133293 -0.021518359

fc.3.bias f4 [64]
00000000: fb33 f23c f284 90be 204a 68be 09bf 83be
00000010: c821 813e 7667 94be 0668 a8be 3bf9 653d
00000020: e463 11bf 6175 b1be 4a8b 5ebe ae67 90be
00000030: a676 cdbd 1014 3bbe d3b3 92be ba73 2dbe
00000040: 5cda 4abe 4590 c5bd 82d1 f63e 44ea 9fbe
00000050: cbe5 1fbe 03d4 78be 2d5d 9fbe add9 7dbe
00000060: 86e5 2abe 29b8 75be 5eef 1bbe 9e68 b6bd
00000070: fca4 33be 28a7 69be 9e85 47be 7c40 b3be
00000080: e8c7 f9bc f635 67be 2c39 833e 9244 55be
00000090: 579c 92be c442 eb3b c778 81be 485a 84be
000000a0: 44d2 abbe d314 60be 6040 0cbf 1102 8dbe
000000b0: 3048 6cbe 7d2a 3cbe 6fd2 f5be ed82 a7be
000000c0: 9d1e 4cbe 7424 8dbe 8784 f6bd d21d 81be
000000d0: 2da1 83be ff0d 7abe b77c 93be 563c 13bd
000000e0: 78b0 30bf 4519 75be cb7b 30be 0671 cebe
000000f0: ec2b 7abe 9ad7 24be 8c21 76be d5f4 82be
0.029565802 -0.2822643 -0.22684526 -0.25731686 0.25221086 -0.28985184 -0.32891864 0.056145888
-0.56793046 -0.34659865 -0.21732822 -0.282041 -0.10032396 -0.18269372 -0.2865282 -0.16938677
-0.1980986 -0.09646658 0.48206717 -0.31233418 -0.15615003 -0.24299626 -0.31125775 -0.24790068
-0.16689119 -0.23996033 -0.1522803 -0.08906673 -0.17543405 -0.22817671 -0.19484565 -0.35010135
-0.03049083 -0.22579178 0.25629556 -0.20826939 -0.28634903 0.00717959 -0.25287458 -0.2585013
-0.33558857 -0.21882944 -0.5478573 -0.2754064 -0.23074412 -0.18375583 -0.4801211 -0.32717076
-0.19933553 -0.27566874 -0.12036996 -0.25218064 -0.25708905 -0.24419402 -0.28806087 -0.035946213
-0.6901927 -0.23935421 -0.17234723 -0.40320605 -0.24430817 -0.1609787 -0.24036235 -0.25577417

fc.5.weight f4 [4, 64]
00000000: 2c16 1d39 627e f9bc d238 2dbb 2c9f 0bbb
00000010: 465b 493d 6151 10bb 678e 683d 24c2 ab3d
00000020: fd42 11bc 1156 873c debb 293d c40e d93c
00000030: 0c8c b6bd 2e67 433e 80df 843d 4d52 a83b
00000040: 7e0c b73d 45d5 70be 7dc3 a2bd aba5 9d3d
00000050: da56 b5bb e6b4 f4bd 9b76 5b3d 7983 08bd
00000060: ca67 34be fb65 f3bc fc81 cb3d b202 7abd
00000070: 8d4f e23c 4c74 863c 1b6a 173d f964 5dbc
00000080: eeb4 b2bb 4617 db3c 8439 44bd 6705 46bd
00000090: cc6c 733c 4424 f9bd 2f46 99bc 8944 a03c
000000a0: 4585 b8bb 4337 0d3e 072a b739 eff5 2b3d
000000b0: 2b6d 993c 2c45 5c3c 6891 eb3d 155a 1b3d
000000c0: bab0 c2bc a62a febc 4b63 c33d 3912 1e3c
000000d0: 55a1 1dbd 4cf4 483c a5d0 e43c 99b6 36bc
000000e0: 7cc8 2a3d 0369 95bd 4aef 823e beac a3bd
000000f0: 1e39 96bc d130 913c c92b 64bd 446e b63b
00000100: be7d 48bc 483f b93c 283f 163d c08c 2abd
00000110: 4401 eebd 11b4 ab3b c91f c4bb b659 7c3d
00000120: c694 00bd be08 e93c 80c6 ffbd 6dbf 343b
00000130: b7f5 8b3b e7a6 2abc 7fd6 1e3b 882c 81bc
00000140: 0f3b ef3c 6a7a 113c 163c 9fbd c089 05bc
00000150: 38f5 e8bc cca2 8dbd d2d8 133d 0590 1dbc
00000160: 7eba 1fbe 3e37 5b3d 0538 4e3d 8bdb 3ebd
00000170: 4e16 63bd 13d8 b4bd ed46 a3bc bfb3 063c
00000180: b276 a93d 2c57 b9bc ba11 8bbd 0ce2 aa3c
00000190: 95b0 843c acfc e8bd 29ec 42bd 34ab a03c
000001a0: 05b1 41bd 1585 8e3d 864d c03d b908 69bd
000001b0: 2b15 89bc bc69 eabd 77a8 043e 0e3a 523d
000001c0: e75a 83bc 09c4 883b cc80 f33b 3c28 b8bd
000001d0: bc83 b13d 1a7b 68bb 89de a9bc bccc 133d
000001e0: 5f42 a03d b0fa 1fbd 0b81 903b 36b5 54bd
000001f0: 8c66 f43c d061 4d3b 4b05 93bc 768f acbc
00000200: 1b78 e43d 6d14 f1bd 4d15 f8bc 2073 063d
00000210: 8b25 48be 1dc5 b63b c7f2 533d 4fe8 283b
00000220: 8d11 ad3c 7cc6 0c3b b007 b8bc f81b cd3d
00000230: ff34 5cbd 1958 4dbd 198d acbc e336 dd3b
00000240: deec bdbd 0ee6 5dbd fdc4 a1bd 42c6 26bc
00000250: a556 043e 43d9 873d 6145 563d 8d0c 98bc
00000260: 635f b83c 3f0d ac3c b6a0 103e a9ff e9bc
00000270: 7579 1cbc f97a 0bbd 325e febc 2c99 e93c
00000280: b73d c4be 8671 e0bc ef20 75bd 5802 e63c
00000290: cb63 68bc 1bba c2bd 687b 6d3d 3517 a7bc
000002a0: 5306 0abd 225e ad3c 62fd 893d 217e d6bd
000002b0: 2337 3c3d 98fe a33c e436 853c 057c 1e3c
000002c0: 6a5c 83bc 6369 99bc 3764 d63d 327b 5e3c
000002d0: 4285 9b3d 4c3f d03c de98 8fbd 58fe 303e
000002e0: bb47 dc3d 697c 0ebd 4213 88bd e5fe 023e
000002f0: 9bed 8c3b a8c4 ab3c 3493 f63b b099 49bc
00000300: d794 543e 564b f83c 1f19 ab3c e5ec 5bbc
00000310: df74 0dbe 3087 7bbc ca30 463d 8a25 7d3c
00000320: 30de 073d 6b77 883c 47df 0abd 1de2 f4bc
00000330: 378e 42bd 5eb0 623d 792f 1e3d 9b58 33bc
00000340: b9db eeb9 1af7 7bbd 4106 a3bd e554 6139
00000350: 0f97 743d 8b76 bb3c 56c3 3e3d a48b 9dbc
00000360: 144d e7bc 626d f9bc dbc9 2f3e fad6 67bd
00000370: 2fe8 df3b 6c2c 38bb f3bd 9abd b316 093d
00000380: 9075 1b3c 909c 113d 884e 92bd 93dd 073c
00000390: 36d5 be3c cbae f4bd 8e75 2abe 5558 ab3d
000003a0: c76e 153d 1802 d93c c104 2f3d c96c 1cbd
000003b0: 6ddf b0bd 139f adbd 53a5 6a3d 11db ee3c
000003c0: ddda 8dbd 1f54 b7b9 577f 24bc 5c92 43bd
000003d0: 1c4e 263e c56a feba 7c57 3d3d 1fe2 233e
000003e0: 8d24 9e3d 95f6 2cbd 1feb 623d cc20 93bc
000003f0: 16f1 993d 89c3 863c 7b4f 81bd 578a c0ba
0.00014980946 -0.030455772 -0.0026431573 -0.002130459 0.04915931 -0.0022021162 0.05677643 0.08386639
-0.008866069 0.016520532 0.04143893 0.026496299 -0.089134306 0.19082329 0.06487942 0.005136764
0.089379296 -0.23518856 -0.07947443 0.07697614 -0.005534035 -0.11948566 0.053579908 -0.033328507
-0.17617717 -0.029711714 0.09936902 -0.061037727 0.027625823 0.016412877 0.036966424 -0.013512843
-0.0054536974 0.026744496 -0.047906414 -0.048344996 0.014857482 -0.1216512 -0.018710224 0.01956393
-0.0056311213 0.13790612 0.00034935793 0.041982587 0.018728813 0.013444226 0.115023434 0.037927706
-0.02376591 -0.031026196 0.09540423 0.009647899 -0.038483936 0.012265276 0.02793152 -0.011151933
0.041695103 -0.0729542 0.25573188 -0.07991932 -0.018337782 0.017723473 -0.05570582 0.005567344
-0.0122370105 0.022613183 0.036681324 -0.041638136 -0.11621335 0.0052399714 -0.0059852344 0.061608993
-0.03139188 0.028446551 -0.12489033 0.002757992 0.004271235 -0.010415769 0.0024236736 -0.015768304
0.029202966 0.008879283 -0.07775132 -0.008150518 -0.028437242 -0.06915817 0.036095448 -0.009616856
-0.15598485 0.05351948 0.050346393 -0.04659609 -0.055441193 -0.088302754 -0.019931281 0.008221566
0.082745925 -0.022624575 -0.067904904 0.02085974 0.016197482 -0.11376318 -0.0475885 0.019612886
-0.04728796 0.06958977 0.093897864 -0.056893084 -0.016733726 -0.114459485 0.12954889 0.051324897
-0.016034557 0.00417376 0.0074311253 -0.08992049 0.086677045 -0.0035473765 -0.020735996 0.03608392
0.07825159 -0.039057434 0.0044099144 -0.05193063 0.029834054 0.0031338818 -0.01794686 -0.021064501
0.11155721 -0.11771474 -0.030283595 0.032824636 -0.19545572 0.005577697 0.051745202 0.0025773232
0.021126533 0.002148061 -0.022464603 0.100151 -0.05376148 -0.050132845 -0.021063374 0.006750928
-0.092736945 -0.054174475 -0.07898901 -0.010179104 0.12923677 0.06633236 0.05231226 -0.018560672
0.022506421 0.02100241 0.14123806 -0.028564291 -0.009550442 -0.034052823 -0.031050775 0.02851542
-0.38328335 -0.027397882 -0.05984586 0.02807729 -0.014183949 -0.09508153 0.057979017 -0.020396808
-0.033697437 0.02116305 0.06737782 -0.10473276 0.04595102 0.02001886 0.016261525 0.009673123
-0.016035277 -0.01872701 0.10468333 0.013579177 0.07593776 0.025420807 -0.07011579 0.17284524
0.10755869 -0.034786616 -0.06644298 0.12792547 0.0043007857 0.020967796 0.007524872 -0.012304708
0.20759903 0.03030936 0.020886002 -0.013423179 -0.13814114 -0.015352055 0.048386373 0.015450845
0.03317088 0.016658505 -0.03390434 -0.029892975 -0.047498908 0.055343978 0.038619492 -0.010946418
-0.00045558604 -0.06151495 -0.07960177 0.00021489298 0.059714373 0.022883674 0.046573006 -0.019231625
-0.028234996 -0.030447666 0.17166846 -0.056601502 0.0068330984 -0.002810265 -0.07555761 0.033468913
0.009488478 0.0355497 -0.07143885 0.0082925735 0.023295026 -0.119474016 -0.16646406 0.083664574
0.0364826 0.026490256 0.042729143 -0.038189683 -0.08636365 -0.084776066 0.05728657 0.029157193
-0.069265105 -0.00034967155 -0.010040126 -0.047747 0.16240734 -0.0019410482 0.04622601 0.16004227
0.07721815 -0.042227346 0.05540001 -0.017959975 0.075166866 0.01645066 -0.06313988 -0.0014689666

fc.5.bias f4 [4]
00000000: aba2 ee3d 96ef ed3d ac90 f13d 63fe ed3d
0.1165212 0.11617963 0.11795172 0.11620786
