best_model_0.pth (torch, 140113 bytes, 6 tensors)

fc.1.weight f4 [128, 200]
0.008724481 -0.031198457 -0.010554716 -0.044065423 0.06014069 -0.0061216354 0.043386176 -0.07014897
0.021998547 0.033929557 -0.038450975 -0.005903291 -0.1453985 -0.06720817 -0.020909349 -0.040787436
-0.10462515 -0.04036993 0.04104752 -0.049379975 -0.02358763 -0.102052815 -0.15337458 -0.20856607
-0.16544595 -0.35296872 -0.2755766 0.25813046 0.27970198 -0.025380567 -0.034062296 0.10169799
0.16414873 0.02168367 -0.07218386 -0.1436243 0.18297912 0.16195592 0.12263806 0.13219678
-0.07501074 0.10771979 -0.13445723 0.06654905 -0.016823884 -0.23611374 0.15768485 0.04032606
0.011407678 0.032811053 -0.058068827 0.15961176 0.12023175 -0.06702049 0.1585406 -0.0012295332
0.049562033 0.13422003 -0.018722963 0.15670034 -0.07175385 -0.15508984 -0.2591576 -0.14104708
0.08066666 0.06732633 -0.25381395 -0.006063153 -0.118387826 -0.03676136 -0.29572994 -0.17656842
-0.11006318 0.044026382 0.13614261 0.09263029 0.18045832 -0.13441803 -0.04415836 -0.13651317
-0.19064084 -0.013718941 -0.04091454 -0.030915443 0.084298976 0.029123124 -0.017037967 -0.06325524
0.025192589 -0.052978132 -0.087479636 -0.13081323 -0.1048627 -0.14944084 -0.19180165 -0.029120004
0.22798286 -0.0861539 -0.026576884 0.04451381 -0.7890351 0.1543676 -0.12703338 -0.31039315
-0.26274142 -0.05214688 -0.10940723 0.011003873 -0.21703023 -0.2942412 0.39833635 0.205583
-0.021537846 -0.3632856 0.04284206 -0.35820982 0.043159768 0.079340994 -0.0075433995 -0.047653455
0.34908304 -0.48846284 -0.031256355 -0.0186322 0.098889306 0.16153291 -0.025836438 0.009738668
-0.037241675 -0.06396659 0.0344038 0.13943769 0.23079732 0.25593865 -0.29628327 -0.04630488
0.114137456 0.111456506 0.023172712 0.13190022 -0.07507401 0.16626531 0.1480551 -0.3001706
0.004454139 0.0034810267 0.048215333 0.06658246 -0.21953939 0.0257603 -0.116412416 0.014509328
0.098427765 0.16463946 -0.023663307 -0.070894055 0.10338336 -0.03176016 -0.08048772 -0.36751866
-0.091789655 -0.15576085 -0.39518175 0.08232099 -0.055689335 -0.007380305 -0.009655455 0.009521952
-0.004185533 -0.15683222 -0.060332675 -0.18853274 -0.09730078 -0.08517034 -0.08791271 -0.11583216
-0.1803001 0.09473068 0.14211126 -0.0012574685 0.005278501 -0.05047513 -0.12316557 -0.040533107
-0.05745764 -0.11131495 -0.06179101 -0.038446173 -0.3442148 -0.20105101 -0.13926066 -0.086035736
-0.17436177 -0.03588023 -0.40275812 -0.31089884 0.036416825 -0.27973798 -0.2014896 -0.37724674
0.011146858 0.044989623 -0.025785856 0.04657291 0.022467308 0.057906903 -0.04282307 -0.010413811
0.04550167 -0.05597417 0.009626754 -0.113592684 -0.28468147 -0.021649167 -0.1237566 -0.030076174
-0.21707915 -0.19360597 -0.06446563 -0.0071467683 0.15547143 -0.44565472 -0.2532175 -0.61923724
-0.37980697 -0.5136962 -0.58589166 -0.4191416 -0.14053139 -0.2189391 -0.18547529 -0.22892837
0.07345959 -0.31245697 -0.40492374 -0.28494224 -0.1736702 -0.26378044 -0.19014499 -0.21114676
-0.11806252 -0.15246427 -0.060858466 -0.49979725 -0.47965512 0.12032266 0.02513269 -0.14109261
-0.1659222 0.12796527 0.10036399 0.08383333 -0.20081057 -0.45195746 -0.032167803 0.21883243
00000000: 20f1 0e3c e893 ffbc b0ed 2cbc f27d 34bd
00000010: 1656 763d 0098 c8bb b4b5 313d 43aa 8fbd
00000020: 4c36 b43c b8f9 0a3d c57e 1dbd 6570 c1bb
00000030: 58e3 14be 70a4 89bd 154a abbc ba10 27bd
00000040: b645 d6bd f15a 25bd 7221 283d a842 4abd
00000050: d83a c1bc 1101 d1bd 3a0e 1dbe 5892 55be
00000060: aa6a 29be 51b8 b4be 6018 8dbe ad29 843e
00000070: 1935 8f3e e8ea cfbc e884 0bbd 0947 d03d
00000080: 9b16 283e f4a1 b13c 22d5 93bd 4012 13be
00000090: e15e 3b3e c6d7 253e aa29 fb3d 985e 073e
000000a0: 3b9f 99bd 319c dc3d 28af 09be de4a 883d
000000b0: 3ed2 89bc cdc7 71be 2378 213e f02c 253d
000000c0: 45e7 3a3c e264 063d 94d9 6dbd 4471 233e
000000d0: 103c f63d 0a42 89bd 7858 223e 4a28 a1ba
000000e0: 8f01 4b3d fa70 093e e660 99bc 0e76 203e
000000f0: aff3 92bd dfcf 1ebe 4eb0 84be a56e 10be
00000100: 9034 a53d 63e2 893d e7f3 81be 6aad c6bb
00000110: 5175 f2bd 1493 16bd ea69 97be 5ace 34be
00000120: ce68 e1bd 0255 343d f868 0b3e f3b4 bd3d
00000130: 11ca 383e e1a4 09be 66df 34bd 1cca 0bbe
00000140: 5a37 43be 69c5 60bc 0196 27bd 6242 fdbc
00000150: f1a4 ac3d 9e93 ee3c 3593 8bbc f78b 81bd
00000160: b060 ce3c 99ff 58bd 8628 b3bd e7f3 05be
00000170: 41c2 d6bd 0507 19be a767 44be 138d eebc
00000180: 5774 693e 7571 b0bd c4b7 d9bc 1d54 363d
00000190: 34fe 49bf 8a12 1e3e 0a15 02be daeb 9ebe
000001a0: 0b86 86be f897 55bd e610 e0bd 9749 343c
000001b0: 2c3d 5ebe c8a6 96be bef2 cb3e 5a84 523e
000001c0: 2370 b0bc 9200 babe 287b 2f3d 4767 b7be
000001d0: 4cc8 303d 887d a23d 9f2e f7bb 4530 43bd
000001e0: 03bb b23e cd17 fabe aa06 00bd 8ea2 98bc
000001f0: 7a86 ca3d e268 253e f0a6 d3bc ef8e 1f3c
00000200: ba8a 18bd ea00 83bd 00eb 0c3d c1c8 0e3e
00000210: 2256 6c3e 640a 833e 71b2 97be 30aa 3dbd
00000220: e6c0 e93d 4f43 e43d b3d4 bd3c da10 073e
00000230: 67c0 99bd 7441 2a3e c29b 173e f6af 99be
00000240: 07f4 913b f021 643b 717d 453d 635c 883d
00000250: efce 60be 4407 d33c a269 eebd 88b8 6d3c
00000260: 7f94 c93d 3f97 283e 8dd9 c1bc e730 91bd
00000270: a8ba d33d f116 02bd bfd6 a4bd 682b bcbe
00000280: 37fc bbbd c67f 1fbe 4355 cabe e897 a83d
00000290: 801a 64bd 7cd6 f1bb ea31 1ebc f601 1c3c
000002a0: cc26 89bb a098 20be 651f 77bd ba0e 41be
000002b0: a245 c7bd ca6d aebd 940b b4bd 6939 edbd
000002c0: 97a0 38be 2902 c23d 9d85 113e a4d1 a4ba
000002d0: 47f7 ac3b 03bf 4ebd 3b3e fcbd 0b06 26bd
000002e0: b458 6bbd 18f9 e3bd 9218 7dbd bc79 1dbd
000002f0: ec3c b0be 51e0 4dbe 599a 0ebe 8133 b0bd
00000300: e48b 32be 26f7 12bd 5036 cebe 222e 9fbe
00000310: cf29 153d d139 8fbe 4a53 4ebe 7c26 c1be
00000320: 50a1 363c 0a47 383d dc3c d3bc 3cc3 3e3d
00000330: 5c0d b83c ca2f 6d3d 3e67 2fbd b09e 2abc
00000340: f65f 3a3d 2c45 65bd 88b9 1d3c 48a3 e8bd
00000350: c5c1 91be 9859 b1bc 1a74 fdbd 4f62 f6bc
00000360: ff49 5ebe a540 46be 8e06 84bd 702f eabb
00000370: e733 1f3e db2c e4be b9a5 81be 5586 1ebf
00000380: 0f76 c2be 9881 03bf fffc 15bf ba99 d6be
00000390: 76e7 0fbe 9231 60be 3ced 3dbe 336c 6abe
000003a0: fb71 963d 5cfa 9fbe 2a52 cfbe f3e3 91be
000003b0: 9ad6 31be 3b0e 87be 5eb5 42be db36 58be
000003c0: c3ca f1bd 981f 1cbe ba46 79bd 6de5 ffbe
000003d0: 5b95 f5be ba6b f63d 12e3 cd3c 957a 10be
000003e0: 82e7 29be 5409 033e a38b cd3d cfb0 ab3d
000003f0: 49a1 4dbe f866 e7be 63c2 03bd 9c15 603e

fc.1.bias f4 [128]
-0.12376815 0.06201563 -0.11199696 0.05360015 -0.06563381 -0.12823582 -0.08922499 -0.07566504
-0.0940173 -0.09831396 -0.010199239 -0.0029539485 -0.072907895 -0.10098487 -0.085703224 -0.116487294
-0.066140145 -0.11034301 -0.044946603 -0.007682144 -0.20700505 -0.080068834 -0.005547391 -0.027433334
-0.0149719445 0.02557413 -0.08079572 -0.17658618 -0.07773417 -0.13641153 -0.13732727 -0.20627035
0.16501209 -0.055718895 -0.08209244 -0.13001035 -0.18839772 -0.10130062 -0.027532775 -0.12521823
-0.11748941 0.104440786 -0.061334297 -0.068257414 -0.13362011 -0.08935324 -0.18228011 -0.0740132
-0.11724019 -0.20907396 -0.007260511 -0.120911956 -0.010624892 -0.14354032 -0.101677045 -0.12781645
-0.12349187 -0.17163455 -0.0989308 -0.094935365 -0.18107735 -0.07962107 0.08449543 -0.081900895
-0.121377766 -0.12795608 -0.16314407 -0.16388106 -0.12528852 -0.011275575 -0.03393083 -0.1140452
-0.10799848 -0.01769353 -0.108046085 -0.16907084 -0.12821461 -0.0750905 -0.24252872 -0.0085630575
-0.1817297 -0.10067592 -0.14303832 -0.069551416 -0.063820735 -0.094749406 -0.08112479 0.1379473
-0.14367744 -0.1331066 0.07647051 -0.117800266 -0.25042272 -0.07616957 -0.1292182 -0.4127137
0.051163916 -0.07164983 -0.023768613 -0.113649674 -0.14801677 -0.09785543 -0.14956276 -0.29662246
-0.06510874 -0.12750281 -0.27552402 -0.158335 -0.030765137 -0.17384811 -0.18848224 -0.16233149
-0.06677556 -0.21884467 -0.11219307 -0.27196458 -0.038229316 -0.09974445 -0.002333622 -0.07555639
-0.021305604 -0.001985045 -0.15353303 -0.106556825 -0.27496496 -0.09847502 -0.08625196 -0.046510465
00000000: 287a fdbd 1a04 7e3d aa5e e5bd d58b 5b3d
00000010: 056b 86bd 4050 03be 97bb b6bd 46f6 9abd
00000020: 248c c0bd d458 c9bd b51a 27bc 0897 41bb
00000030: bc50 95bd 28d1 cebd 2c85 afbd e490 eebd
00000040: 7c74 87bd 84fb e1bd ee19 38bd 7fba fbbb
00000050: 22f9 53be 21fb a3bd e3c6 b5bb dfbb e0bc
00000060: e34c 75bc d680 d13c 3a78 a5bd 02d3 34be
00000070: 1833 9fbd 77af 0bbe 859f 0cbe 8938 53be
00000080: eef8 283e 7f39 64bd 1520 a8bd 6f21 05be
00000090: 55eb 40be b376 cfbd 6a8c e1bc 3539 00be
000000a0: 4a9e f0bd 0de5 d53d ac39 7bbd 8bca 8bbd
000000b0: b6d3 08be d5fe b6bd a3a7 3abe 3c94 97bd
000000c0: a01b f0bd 7c17 56be 95e9 edbb b0a0 f7bd
000000d0: 0714 2ebc 3cfc 12be 0e3c d0bd 51e2 02be
000000e0: 4ee9 fcbd f8c0 2fbe 3b9c cabd 796d c2bd
000000f0: 576c 39be 5f10 a3bd f10b ad3d a8bb a7bd
00000100: e894 f8bd eb06 03be 3d0f 27be 70d0 27be
00000110: a24b 00be 30bd 38bc 0efb 0abd 8890 e9bd
00000120: 4f2e ddbd 06f2 90bc 4447 ddbd e820 2dbe
00000130: b14a 03be 0cc9 99bd 7359 78be 114c 0cbc
00000140: 5a17 3abe 2d2f cebd a378 12be f970 8ebd
00000150: 72b4 82bd fa0b c2bd c124 a6bd 0f42 0d3e
00000160: 2e20 13be 194d 08be 929c 9c3d 4441 f1bd
00000170: 6837 80be cbfe 9bbd c751 04be 364f d3be
00000180: 4191 513d 25bd 92bd 65b6 c2bc 29c1 e8bd
00000190: b591 17be 6d68 c8bd fb26 19be e6de 97be
000001a0: bb57 85bd 1990 02be 7c11 8dbe 9222 22be
000001b0: 2b07 fcbc 3d05 32be 7d01 41be 3a3a 26be
000001c0: a0c1 88bd d118 60be 7bc5 e5bd f13e 8bbe
000001d0: 5896 1cbd d146 ccbd aeef 18bb 4fbd 9abd
000001e0: 1789 aebc 8717 02bb c337 1dbe 773a dabd
000001f0: 35c8 8cbe 45ad c9bd dea4 b0bd c281 3ebd

fc.3.weight f4 [64, 128]
-0.16284479 0.07563183 -0.025534898 0.029867254 0.116787754 -0.033694196 0.020804998 0.16489029
0.010958823 0.02643038 0.025498964 0.024439465 0.031009197 -0.043182112 -0.00011082716 -0.050522484
-0.04593192 0.03836866 0.0010606239 0.049008597 -0.04767731 -0.014048685 -0.04924982 -0.03493356
-0.015466744 -0.079934016 0.06378689 0.0043570497 0.011024046 0.09853531 0.026638167 0.0807841
0.053812493 -0.009829914 -0.019664356 0.0010815413 0.10701981 0.00085979607 0.05948664 0.12402825
0.23317327 0.04753826 0.047012113 0.06759989 -0.053822387 0.06886622 -0.08320008 -0.101741016
0.016286785 -0.06576647 0.033667307 -0.02010129 0.014272307 0.035661735 0.03971623 -0.03057625
0.054635692 0.054591343 0.056088552 -0.0013746717 0.109142184 0.0954434 -0.060827497 0.15418194
0.010720813 -0.021085463 -0.001653085 0.11577962 0.031475578 -0.0065169656 0.012239417 0.06952768
-0.04236764 -0.059984393 0.006409205 0.09201734 -0.052764468 -0.04071982 -0.040761445 -0.04631142
-0.098793834 -0.08154435 0.13948967 0.09372289 -0.07635596 -0.079513244 -0.008538706 0.059890233
-0.08729643 -0.052702285 0.042733267 -0.05959106 -0.060715683 0.1303676 -0.014416584 -0.13303296
0.097169556 0.060197435 0.014121107 0.06763704 0.055872254 0.06243103 -0.11316844 -0.08829798
-0.042273488 0.017800769 -0.042150293 0.01846461 -0.04167227 0.05573572 0.09249654 0.09331004
-0.045425683 -0.11836721 -0.057891265 0.16304335 0.030461956 -0.041723873 0.066716716 0.0030987577
0.03096337 -0.0008138683 -0.046168093 -0.00071308773 0.07782367 -0.0016382532 -0.0029892125 0.010664462
0.045277983 -0.047399484 -0.037727755 -0.037124243 -0.09854672 -0.041208643 -0.14343105 0.0070273215
-0.018097602 -0.10195429 -0.09760766 -0.020853046 0.02961084 -0.0023234112 -0.016615186 0.055528842
-0.08769571 -0.08789997 -0.13450052 -0.08459106 -0.08252033 -0.0044064764 -0.0737202 -0.04077051
0.048750713 -0.09252725 0.14885664 -0.14543504 -0.025246132 -0.02716031 0.14197713 -0.16697654
-0.0059963856 -0.03191657 -0.062683806 0.1504205 0.049784973 -0.007015761 0.05079727 0.056687202
0.12415742 -0.25605634 0.098328054 -0.00067521306 -0.27608252 0.024690306 -0.056575164 0.043167215
-0.04186177 -0.34567627 -0.16683143 -0.03851478 -0.009815491 0.05801119 -0.020595755 0.0046630893
0.007314547 0.0759669 0.04652896 -0.08518022 0.037546456 -0.020073557 0.016329538 0.014332946
-0.06448787 -0.053956527 0.15618573 -0.10419972 -0.073925555 0.0040315306 0.005505958 0.008226718
0.07228786 0.012981442 0.008770782 0.15632004 0.05465695 0.059558097 -0.035190653 -0.0384513
-0.024686202 -0.037086636 0.05196211 0.020436455 0.056743983 0.06258509 0.050612204 -0.085063785
-0.18887405 -0.10836106 -0.114636384 0.12725246 -0.1008266 -0.04243705 0.046546724 -0.07823432
-0.0056834626 -0.034149356 -0.04235218 -0.08000428 -0.028289834 -0.036410913 0.015736705 -0.17305014
-0.2265927 0.105135754 -0.15627864 -0.13854323 -0.024126062 -0.099221624 -0.048850868 0.041863646
0.0115549825 -0.017339062 -0.04793176 -0.035590008 0.12272248 0.04260318 -0.14219595 -0.06390708
-0.20712113 -0.031299636 0.03380565 0.038167603 -0.068801306 -0.08265601 0.011050588 0.03501013
00000000: c9c0 26be dce4 9a3d 902e d1bc 2cac f43c
00000010: 6b2e ef3d ed02 0abd 3e6f aa3c 00d9 283e
00000020: a38c 333c 8684 d83c 34e3 d03c 4635 c83c
00000030: 0007 fe3c badf 30bd e16b e8b8 aaf0 4ebd
00000040: 1c23 3cbd 7528 1d3d a204 8b3a 3dbd 483d
00000050: 4849 43bd 752c 66bc 2eba 49bd 7e16 0fbd
00000060: 3a68 7dbc 72b4 a3bd b3a2 823d 95c5 8e3b
00000070: 339e 343c e1cc c93d 4938 da3c 2272 a53d
00000080: 7d6a 5c3d a60d 21bc 2517 a1bc 81c2 8d3a
00000090: 342d db3d f063 613a 43a8 733d 8602 fe3d
000000a0: f9c4 6e3e 7bb7 423d c68f 403d d071 8a3d
000000b0: dd74 5cbd bc09 8d3d ce64 aabd 985d d0bd
000000c0: dd6b 853c 92b0 86bd bbe6 093d 76ab a4bc
000000d0: 65d6 693c 0a12 123d 7cad 223d 0b7b fabc
000000e0: adc9 5f3d 2c9b 5f3d 1cbd 653d 542e b4ba
000000f0: f085 df3d d477 c33d 4126 79bd dfe1 1d3e
00000100: 59a6 2f3c 6cbb acbc 54ac d8ba de1d ed3d
00000110: 89ec 003d 458c d5bb d687 483c 8764 8e3d
00000120: b189 2dbd 32b2 75bd 4f04 d23b 9673 bc3d
00000130: 8e1f 58bd d3c9 26bd 79f5 26bd 0bb1 3dbd
00000140: 6c54 cabd b900 a7bd 61d6 0e3e c9f1 bf3d
00000150: 8360 9cbd d7d7 a2bd eee5 0bbc 764f 753d
00000160: 78c8 b2bd 5ade 57bd 1409 2f3d c115 74bd
00000170: 02b1 78bd 167f 053e 8933 6cbc cb39 08be
00000180: d500 c73d 9691 763d 375c 673c 4a85 8a3d
00000190: 4eda 643d aeb7 7f3d dbc4 e7bd 92d5 b4bd
000001a0: f726 2dbd ebd2 913c c9a5 2cbd 1843 973c
000001b0: 8bb0 2abd 234b 643d d36e bd3d 5619 bf3d
000001c0: 4810 3abd 826a f2bd 641f 6dbd d6f4 263e
000001d0: 5a8b f93c a7e6 2abd c6a2 883d 8714 4b3b
000001e0: e5a6 fd3c c759 55ba c11a 3dbd 82ee 3aba
000001f0: 0462 9f3d a8ba d6ba aae6 43bb ffb9 2e3c
00000200: 6875 393d f625 42bd 6b88 1abd 970f 18bd
00000210: ddd2 c9bd 65ca 28bd 97df 12be 7245 e63b
00000220: 6c41 94bc 69cd d0bd 86e6 c7bd 02d4 aabc
00000230: 6f92 f23c 5f44 18bb 921c 88bc 3672 633d
00000240: cf99 b3bd e604 b4bd 81ba 09be 143e adbd
00000250: 6b00 a9bd 3464 90bb 9efa 96bd fafe 26bd
00000260: d4ae 473d ed7e bdbd e06d 183e ecec 14be
00000270: fad0 cebc 4c7f debc 7462 113e e6fb 2abe
00000280: 547d c4bb f3ba 02bd 5e60 80bd d507 1a3e
00000290: 54eb 4b3d 78e4 e5bb cc10 503d d730 683d
000002a0: 3f46 fe3d d119 83be 3860 c93d c800 31ba
000002b0: b05a 8dbe 5343 ca3c 5cbb 67bd 1bd0 303d
000002c0: 3f77 2bbd 7bfc b0be dcd5 2abe adc1 1dbd
000002d0: 27d1 20bc 249d 6d3d 6eb8 a8bc d4cc 983b
000002e0: deae ef3b 8994 9b3d 2795 3e3d f872 aebd
000002f0: 50ca 193d 4d71 a4bc 86c5 853c bcd4 6a3c
00000300: 3712 84bd 8501 5dbd 27ef 1f3e aa66 d5bd
00000310: 4866 97bd ee1a 843b 536b b43b 5bc9 063c
00000320: a80b 943d 1db0 543c 53b3 0f3c 5c12 203e
00000330: f7df 5f3d 31f3 733d 1324 10bd 1c7f 1dbd
00000340: b83a cabc 28e8 17bd 39d6 543d 5a6a a73c
00000350: 616c 683d 9d2c 803d be4e 4f3d ec35 aebd
00000360: 3368 41be 67ec ddbd 7bc6 eabd 784e 023e
00000370: 2d7e cebd 79d2 2dbd c7a7 3e3d 5139 a0bd
00000380: 573c babb 32e0 0bbd 7b79 2dbd 49d9 a3bd
00000390: 15c0 e7bc 9c23 15bd 43ea 803c 0e34 31be
000003a0: eb07 68be 6a51 d73d 8207 20be 47de 0dbe
000003b0: 05a4 c5bc b534 cbbd d917 48bd 3779 2b3d
000003c0: 1c51 3d3c a60a 8ebc 1854 44bd d4c6 11bd
000003d0: ec55 fb3d ac80 2e3d d19b 11be b7e1 82bd
000003e0: 9017 54be 0c34 00bd cb77 0a3d a255 1c3d
000003f0: b3e7 8cbd 8e47 a9bd 870d 353c c866 0f3d

fc.3.bias f4 [64]
0.16863856 -0.2016473 -0.24375588 -0.033041425 0.1583847 -0.12552361 0.15016045 -0.16271476
-0.044488315 -0.08970736 0.14534742 -0.11328044 -0.20900126 -0.11603351 -0.09309807 -0.103471234
0.07916172 -0.220611 -0.18344182 -0.08156984 -0.256757 -0.116610475 0.19514124 -0.19205776
-0.031275865 -0.2648118 -0.24639459 -0.10855822 -0.10639063 -0.18137781 -0.16827166 -0.19079931
-0.12031634 -0.10773065 -0.13252349 -0.038305026 -0.18430665 -0.20168936 -0.17012188 -0.009454745
-0.056183137 -0.19751845 -0.31174803 -0.24532701 -0.20871146 -0.0912174 -0.2515008 0.036253683
-0.17917743 -0.0931173 0.27236727 -0.08678319 -0.25339687 -0.08004655 -0.14149576 -0.17464612
-0.15640916 0.032919746 -0.19454364 -0.20597006 -0.054795638 -0.17654417 -0.21202391 -0.14223246
00000000: 96af 2c3e a17c 4ebe 249b 79be 7256 07bd
00000010: 992f 223e 4389 00be a9c3 193e b39e 26be
00000020: 6139 36bd 7eb8 b7bd f4d5 143e 93ff e7bd
00000030: 6d04 56be faa2 edbd 33aa bebd bae8 d3bd
00000040: 8a1f a23d dae7 61be 2cd8 3bbe 170e a7bd
00000050: a775 83be 79d1 eebd 1bd3 473e caaa 44be
00000060: 1f1b 00bd 6a95 87be dd4e 7cbe c653 debd
00000070: 55e3 d9bd 1bbb 39be 684f 2cbe e560 43be
00000080: 6a68 f6bd e3a1 dcbd 3db4 07be bbe5 1cbd
00000090: e2ba 3cbe a887 4ebe 6e34 2ebe 13e8 1abc
000000a0: 4a20 66bd 4742 4abe 709d 9fbe 0137 7bbe
000000b0: 75b8 55be 30d0 babd b6c4 80be be7e 143d
000000c0: 4a7a 37be 48b4 bebd b973 8b3e 63bb b1bd
000000d0: 3cbd 81be 72ef a3bd 44e4 10be 6fd6 32be
000000e0: b929 20be dbd6 063d 7336 47be d1e9 52be
000000f0: 6471 60bd ffc7 34be cc1c 59be 63a5 11be

fc.5.weight f4 [4, 64]
0.08584841 0.019109111 -0.031966988 -0.05086733 -0.18974407 -0.02439958 -0.31632325 -0.0025637345
-0.046235073 -0.029541332 0.06345341 -0.034474004 -0.09396477 -0.003675801 0.13128316 0.043868393
0.041428804 -0.011766114 -0.046814036 -0.1514858 -0.026617784 0.117726296 -0.1536519 0.08883522
0.02573414 -0.13055676 0.08075976 0.0071364553 -0.3297911 0.028067235 0.068832465 -0.07618056
0.027957918 -0.027531805 -0.016616015 0.11097259 -0.07497139 -0.039290052 -0.009978649 -0.030412205
0.0065526688 -0.027288983 0.009448411 0.01258087 0.030448891 0.02207271 0.03945807 -0.09453039
0.0041737463 0.08005656 -0.1451129 -0.21467683 0.010112142 -0.14491609 -0.033858836 0.10780247
0.04822034 0.09520971 0.12007868 0.0014428633 -0.04649312 0.05164537 -0.13336842 0.046937976
0.05443441 0.03311445 0.0358968 0.0016699284 -0.32540423 -0.117132515 -0.15164685 0.031254366
-0.061548203 -0.024162464 0.08493187 0.03951481 -0.015926171 0.015800094 -0.008862815 0.020594167
0.084304005 0.051314816 0.0117283 0.024929838 -0.076162234 0.1390925 -0.19522817 -0.008957371
-0.013359489 -0.045189153 -0.048508376 0.034840297 0.006854048 0.016138732 0.07654383 -0.047523018
-0.03032221 0.060916584 -0.08040084 0.16412152 0.07613792 0.0049363356 -0.05076236 -0.046360794
0.0075889803 0.011572554 -0.008401334 -0.016013926 0.02157174 -0.055766314 0.029034918 0.002102356
-0.034046926 0.070936725 -0.22134463 0.011150126 -0.013904428 -0.13961339 -0.02220467 -0.19059232
0.17285809 0.12659356 0.044696208 -0.042510144 -0.21672341 -0.12714702 -0.09138708 0.009901921
0.010796747 0.086376786 -0.017157072 -0.052012883 0.3360503 -0.06209232 0.08666375 -0.009226518
-0.085717276 -0.07709922 0.107623175 -0.06880078 -0.018976742 -0.022879587 0.04431026 -0.13241826
-0.113676205 -0.03951232 -0.0327256 -0.08254221 -0.033589512 0.101064056 -0.19687809 0.059492324
0.022038186 -0.081227764 -0.02112908 0.0031541702 0.14936931 -0.020972187 -0.030220572 -0.067498915
0.041151904 -0.04999092 -0.013203389 0.15037034 0.11705285 -0.098877355 0.03357669 -0.16135207
0.0427119 -0.0904141 0.032941047 0.040315833 -0.03457773 0.061874546 0.035871707 -0.11557816
0.04749553 -0.057469208 -0.13680138 0.016508386 -0.016700363 -0.02050107 -0.031037718 -0.05875639
0.06409203 0.1005673 -0.025624339 -0.024863657 -0.04061785 -0.076269805 0.12394604 0.011199295
0.060874745 -0.014419752 0.13257171 -0.14193086 0.16601251 -0.017741723 0.02005084 -0.059874155
-0.11839153 -0.030542526 0.07398936 0.0020727408 -0.014953684 -0.0044242884 -0.028204907 0.005400415
-0.20233916 -0.12691979 -0.029114688 0.0026319553 -0.078236766 0.11959717 0.20309262 0.08410574
0.05407888 -0.086758815 -0.028168902 -0.011392548 -0.09697267 -0.026793985 0.08122886 -0.0067535946
0.04826764 -0.013825191 0.1301906 -0.006101439 0.122032724 -0.010373797 0.014796988 -0.015385227
0.042371914 0.029668793 0.08168442 0.07420746 0.061574284 -0.037895676 0.029418854 -0.074453406
-0.13780071 0.0075564543 -0.10339297 -0.12399111 0.0016433685 0.05725504 -0.1012786 -0.012794325
0.0550371 0.24444877 0.1421652 -0.0840494 0.02567181 0.062080342 -0.079089016 -0.02463607
00000000: 4bd1 af3d b68a 9c3c d1ef 02bd 435a 50bd
00000010: 454c 42be a1e1 c7bc 1ff5 a1be 5404 28bb
00000020: fd60 3dbd aa00 f2bc ddf3 813d 9d34 0dbd
00000030: 9a70 c0bd b5e5 70bb 186f 063e 58af 333d
00000040: 40b1 293d a9c6 40bc 13c0 3fbd 181f 1bbe
00000050: 8a0d dabc 7c1a f13d ec56 1dbe 3def b53d
00000060: 67d0 d23c acb0 05be 6065 a53d edd8 e93b
00000070: 61da a8be 42ed e53c 09f8 8c3d 8e04 9cbd
00000080: 0108 e53c 618a e1bc 4f1e 88bc 9945 e33d
00000090: 9a8a 99bd 9bee 20bd 7d7d 23bc 0423 f9bc
000000a0: c5b7 d63b 258d dfbc 82cd 1a3c fe1f 4e3c
000000b0: f46f f93c d4d1 b43c c99e 213d 2699 c1bd
000000c0: ecc3 883b b2f4 a33d 7a98 14be 3ed4 5bbe
000000d0: 66ad 253c e264 14be 90af 0abd 8bc7 dc3d
000000e0: b182 453d 4ffd c23d d0eb f53d 751e bd3a
000000f0: 926f 3ebd 188a 533d bb91 08be 0942 403d
00000100: 9ef6 5e3d 04a3 073d 8608 133d 80e1 da3a
00000110: 629b a6be 2ce3 efbd 5049 1bbe 9404 003d
00000120: f819 7cbd 5cf0 c5bc c3f0 ad3d 48da 213d
00000130: 9a77 82bc 336f 813c 5735 11bc 19b5 a83c
00000140: 94a7 ac3d 7c2f 523d 0e28 403c a939 cc3c
00000150: f2fa 9bbd 446e 0e3e e5e9 47be f0c1 12bc
00000160: c2e1 5abc 4318 39bd b8b0 46bd b3b4 0e3d
00000170: ec97 e03b 6035 843c 03c3 9c3d 7fa7 42bd
00000180: 4966 f8bc ab83 793d 32a9 a4bd 790f 283e
00000190: 33ee 9b3d fcc0 a13b 31ec 4fbd d1e4 3dbd
000001a0: fbac f83b cf9a 3d3c c0a5 09bc a32f 83bc
000001b0: 38b7 b03c 386b 64bd a3da ed3c aec7 093b
000001c0: ca74 0bbd 4647 913d 2ba8 62be 05af 363c
000001d0: 66cf 63bc d0f6 0ebe 91e6 b5bc a22a 43be
000001e0: b601 313e bea1 013e 5f13 373d 1e1f 2ebd
000001f0: beec 5dbe d432 02be 2629 bbbd ab3b 223c
00000200: d7e4 303c 50e6 b03d fd8c 8cbc 760b 55bd
00000210: c90e ac3e 8454 7ebd c47c b13d d22a 17bc
00000220: 8a8c afbd 32e6 9dbd 8a69 dc3d 6ce7 8cbd
00000230: 1d75 9bbc f96d bbbc ad7e 353d a798 07be
00000240: 12cf e8bd acd7 21bd 470b 06bd e40b a9bd
00000250: 2895 09bd acfa ce3d 699a 49be 39ae 733d
00000260: 6d89 b43c be5a a6bd e416 adbc 32b6 4e3b
00000270: 45f4 183e ddcd abbc 2291 f7bc df3c 8abd
00000280: e68e 283d 47c3 4cbd 0753 58bc affa 193e
00000290: 68b9 ef3d 3680 cabd b687 093d 7a39 25be
000002a0: acf2 2e3d 072b b9bd 31ed 063d 3722 253d
000002b0: 61a1 0dbd 2a70 7d3d 36ee 123d 3eb4 ecbd
000002c0: ac8a 423d d564 6bbd a915 0cbe 983c 873c
000002d0: 33cf 88bc dcf1 a7bc d042 febc 8aaa 70bd
000002e0: af42 833d 3bf6 cd3d 22ea d1bc deae cbbc
000002f0: e75e 26bd 5833 9cbd 6cd7 fd3d 3f7d 373c
00000300: cc57 793d d340 6cbc e1c0 073e 5356 11be
00000310: 2fff 293e 1757 91bc a941 a43c 9a3e 75bd
00000320: 4277 f2bd 5234 fabc bc87 973d d2d6 073b
00000330: 4c00 75bc 9ff9 90bb fa0d e7bc f7f5 b03b
00000340: ff31 4fbe 43f7 01be ed81 eebc e27c 2c3b
00000350: 993a a0bd 5cef f43d 83f7 4f3e a13f ac3d
00000360: d181 5d3d 9bae b1bd 78c2 e6bc cfa7 3abc
00000370: 9b99 c6bd 0f7f dbbc 515b a63d 424d ddbb
00000380: 4ab4 453d 0e83 62bc af50 053e 94ee c7bb
00000390: 4bec f93d dcf6 29bc 116f 723c 5212 7cbc
000003a0: 2c8e 2d3d f80b f33c 294a a73d 15fa 973d
000003b0: 5135 7c3d 7f38 1bbd cfff f03c 077b 98bd
000003c0: a11b 0dbe 229c f73b b2bf d3bd 0def fdbd
000003d0: 4c66 d73a 4384 6a3d 286b cfbd 4a9f 51bc
000003e0: 956e 613d c750 7a3e c193 113e 1822 acbd
000003f0: b04d d23c f547 7e3d 6cf9 a1bd 95d1 c9bc

fc.5.bias f4 [4]
0.11116846 0.11709506 0.11729693 0.11674137
00000000: 4aac e33d 89cf ef3d 5f39 f03d 1916 ef3d
